Data/PredictionsData/AB06.pth (torch, 828430 bytes, 10 tensors)

lstm.weight_ih_l0 f4 [512, 13]
000000 43 d2 6b 3d 1d cc 45 bd 98 d2 6b bd b0 ca db bd
       0.057573568 -0.04829036 -0.057573885 -0.10732019
000010 b7 94 03 bd e4 71 b1 bc 8f 72 18 3c 2f 33 61 bd
       -0.032124247 -0.021660753 0.009304657 -0.054980453
000020 0b 22 29 3d 44 12 11 bd 14 3d bb 3b 14 ad b6 3d
       0.04129223 -0.03541781 0.005714068 0.08919731
000030 a0 3e a0 3d 1b 1c e1 3d 74 fc c9 bc 6c d6 aa 3c
       0.07824445 0.10991689 -0.024656512 0.020854197
000040 a7 38 b8 bd cd f1 3e 3d 34 09 af bd 57 00 60 bd
       -0.089951806 0.046617318 -0.08546677 -0.054687824
000050 2c 3c cc 3d d6 06 9c 3c d0 44 b7 3d 45 2b 5a 3c
       0.099724144 0.019046228 0.08948672 0.01331598
000060 5a a1 47 bd c2 ca 92 3c dc bf c1 3c cd 55 42 bc
       -0.04873786 0.017918948 0.023651056 -0.011861277
000070 c4 63 f3 bc ac 09 5f bc e6 ef b6 bc ac 05 ff 3c
       -0.029710658 -0.013613146 -0.02233119 0.031130634
000080 11 33 76 3d d0 9d 86 3d 02 3c da 3d e2 7b 7e bc
       0.060107294 0.06573069 0.10655977 -0.015532466
000090 75 af 95 3d a9 80 ac bc f4 e1 f0 3b 1b a6 c4 3d
       0.073088564 -0.021057444 0.0073511545 0.096019946
0000a0 c1 b6 e4 3a 0e 51 0b 3c 0a 62 51 3d 36 87 8d 3d
       0.0017449484 0.008503212 0.051118888 0.06910555
0000b0 0a 93 6c bc 44 7c d1 3d c7 65 79 3d 8a bd f1 bd
       -0.014439354 0.1022878 0.060888078 -0.1180373
0000c0 32 eb ce 3d d9 7a d2 3b ee 36 9f 3d 86 31 a0 3d
       0.10103454 0.006423336 0.07774149 0.07821946
0000d0 3a 5c c5 bc 51 10 b6 3c 59 e5 5c bd 91 cc 0b bd
       -0.024091829 0.022224577 -0.05392966 -0.034130637
0000e0 65 5b 28 bd 51 e2 bc bc 60 25 b9 3c 53 a5 87 3d
       -0.041102786 -0.023057135 0.02260083 0.0662333
0000f0 78 d9 8d 3d 8e 12 d7 3c 52 b7 d2 3d 6a 0c 16 3c
       0.069262445 0.026253965 0.10288872 0.009158233
000100 d3 7e 02 bd 1d 61 dd 39 3f 92 bc 3c 65 5c 29 bc
       -0.03185923 0.0004222476 0.023018954 -0.01033697
000110 ac c6 03 3d 22 be d8 3c 90 a2 a9 bc 69 42 48 bd
       0.03217189 0.02645785 -0.020707399 -0.04889146
000120 35 9c 85 bd 94 57 ed 3c 03 98 b1 bd 6a 4c 5f 3d
       -0.06523935 0.028972425 -0.08671572 0.054516234
000130 3c 1e ea bd 32 cf a9 3d d2 da 81 3c 69 f1 eb 3c
       -0.11431548 0.082914725 0.015851412 0.028801637
000140 6c ea 9c 3d 3a 21 ce 3c db 32 be bc 1e 30 7a bd
       0.076619 0.025162328 -0.02321761 -0.061081044
000150 52 53 e8 3d 4d e4 34 bd f2 f7 77 bd dd 99 55 3d
       0.11344017 -0.044163037 -0.060539193 0.05214869
000160 38 fb a7 bb 7e d1 e2 bc 79 a4 91 3c fc a4 88 3d
       -0.005126383 -0.027687784 0.017778622 0.06672093
000170 2d ff 55 bc 80 53 bf 3c 5c 21 0d 3e 53 9d 2b bc
       -0.013061327 0.023355246 0.13782257 -0.010474521
000180 0e 99 95 3c b4 c0 a2 3d 39 34 79 3d 0b c8 64 3c
       0.018261459 0.079469115 0.06084082 0.01396371
000190 59 93 49 bd 37 e0 92 3d 7e 53 80 3b cb e4 c2 3d
       -0.049212787 0.07171672 0.003916203 0.09516295
0001a0 a8 3d 8b bc fe 39 8b bd 25 2f 1d bd 99 d5 df bd
       -0.016997173 -0.067981705 -0.03837504 -0.109294124
0001b0 c2 06 0f bd 6a fe bd 3d 1b 73 ef bc 7f 61 d7 bd
       -0.034918554 0.09277041 -0.029229691 -0.10516643
0001c0 85 d0 4b bc 39 cf 8b 3d cf 09 ab 3d 92 c9 06 bd
       -0.012439852 0.06826634 0.0835148 -0.032907076
0001d0 ff 06 95 bc 85 51 0d 3d 98 7c ec ba 36 9d 97 3d
       -0.018191813 0.03450157 -0.0018042503 0.074030325
0001e0 d4 16 a6 3d b6 bc fc 3c cb ef 2f 3d 52 5e 34 bd
       0.08109823 0.030851703 0.042953294 -0.044035263
0001f0 4e 3b 49 3c 53 26 10 bd c3 49 6a 3c 6f 85 8b 3d
       0.012282206 -0.0351928 0.014299813 0.0681256
000200 22 ac bd 3d 6a 7b 45 bd 96 bf 99 3d 05 02 f5 bd
       0.09261347 -0.0482134 0.07507245 -0.11963276
000210 8d 54 28 3d cd 7b e7 bc 52 70 c6 3c d5 49 e2 bd
       0.04109626 -0.028257275 0.02422348 -0.110492386
000220 10 21 c3 bc c4 e9 e4 bd 3c b6 27 3c 98 ae b9 3d
       -0.023819476 -0.111774 0.010236319 0.09066504
000230 6e ed 37 3d 23 7a 13 bd 16 6c 06 bd 6e 23 bc 3d
       0.044904165 -0.03600515 -0.032817923 0.09186445
000240 d8 a8 b7 bd 1d 50 02 3d 90 75 ec 3c c3 dd 83 3d
       -0.08967751 0.031814683 0.028864652 0.06438782
000250 3c 56 33 bd db 6a b5 bd cc 3f 26 3e 9b fc 90 bc
       -0.04378341 -0.08858272 0.16235274 -0.017698577
000260 43 3a 32 bd 8d 2f ae 3c 93 71 00 3c 3f ad e4 b9
       -0.043512594 0.021262908 0.007839578 -0.00043616627
000270 b8 04 3c bc e2 36 ad 3d 6c 2b e0 3d 48 35 38 3c
       -0.011475734 0.08457734 0.10945782 0.011243172
000280 50 04 be 3d 99 12 62 bd 0c b5 98 bd 1a b8 b3 bc
       0.09278166 -0.055193517 -0.07456407 -0.021938372
000290 43 c6 d5 bd 70 c7 8f 3d 66 91 f2 bd 96 04 b3 3d
       -0.10438206 0.070204616 -0.11844139 0.08741109
0002a0 e5 bd 50 bd 16 7c eb bd ed b9 09 be 35 c0 65 3c
       -0.050962348 -0.11498277 -0.13449831 0.0140228765
0002b0 37 fb 2d 3d c0 f9 94 bd 30 32 af 3d 69 6b 1c 3d
       0.042475905 -0.072741985 0.085544944 0.03818837
0002c0 96 0b a9 3d 61 d8 7e 3d 08 44 ef bd 74 4c 5a 3d
       0.08254163 0.062218074 -0.11682898 0.053295568
0002d0 8d 1e 95 bd f1 67 be bb 71 fd 39 bd 8c a6 18 be
       -0.07281218 -0.0058107306 -0.045407716 -0.14907283
0002e0 23 4f 2d 3c bc 25 d1 bd 84 93 0c bc 2b 0b 21 bd
       0.01057795 -0.102122754 -0.008580092 -0.03931729
0002f0 98 5d 5a bc 26 a4 65 3d fb f6 ca bd ea d3 87 3d
       -0.013327979 0.056064747 -0.09910389 0.06632216
000300 38 42 79 bc c7 19 d1 3b e5 74 90 3d 7c e1 9a bd
       -0.015213542 0.0063812467 0.07053546 -0.07562539
000310 03 27 ba bd cb 9a 58 3d bb b7 89 bd ca 98 5c bd
       -0.09089472 0.052881997 -0.06724497 -0.05385665
000320 06 3f 90 3d ab d5 6f bd 8e 3e e8 bd 98 87 a6 3d
       0.07043271 -0.05855338 -0.11340056 0.08131331
000330 9b 9f f3 bc 9d 62 f6 3b 82 b6 c5 3d 74 e8 70 bd
       -0.029739192 0.00751908 0.09653951 -0.058815435
000340 4a a8 c4 3c 36 da 3d 3d be 96 98 bd 9d ac 61 3d
       0.024006028 0.04635068 -0.07450627 0.055096257
000350 c2 c8 c6 3d 3d 13 58 bd ff 6f 8a bd 22 96 5a 3c
       0.0970626 -0.052752722 -0.06759643 0.0133414585
000360 ad cc 16 bc 02 46 86 3d d7 5b 25 bd 34 ee ee 3c
       -0.009204072 0.06556322 -0.04037079 0.029166318
000370 98 ac 48 3d 1a 78 86 bc 20 ef e3 bb 2f b2 2e 3d
       0.048992723 -0.01641469 -0.006955996 0.042650398
000380 55 87 04 bd 80 02 bd bd 25 dc e1 3b 80 ad 15 be
       -0.032355625 -0.092289925 0.0068926984 -0.14616966
000390 6e 1e 3a 3d 0b c2 6b bd 4d e6 d0 3c 19 ee fd 3c
       0.045439176 -0.0575581 0.025500441 0.030997323
0003a0 90 03 ee 3c ec 20 95 bd 4d f5 04 3c 35 60 f3 bc
       0.029054433 -0.0728167 0.008115125 -0.029708961
0003b0 87 15 c8 3d 12 19 cc 3d c0 0a bc bd c0 9e c7 3c
       0.09769731 0.09965719 -0.09181738 0.02436769
0003c0 7f 8f 0b bd 21 31 f4 3b 39 eb cb 3c 0c 60 a9 3c
       -0.034072395 0.0074521457 0.024892436 0.020675682
0003d0 dc 3b ae 3d 78 02 a7 bd bb 30 cb 3d 45 c6 ba bd
       0.08507511 -0.08154768 0.09921404 -0.09119848
0003e0 3a 33 e8 3b 8e 6b b1 3d 83 47 b3 bc 64 8b 26 bd
       0.007086185 0.086630926 -0.021884685 -0.040660277
0003f0 5d b1 9b 3d bf 64 ad 3d 12 f6 d6 bd 14 a5 cd 3d
       0.07602189 0.084664814 -0.10496153 0.10041252

lstm.weight_hh_l0 f4 [512, 128]
000000 e3 17 ba 3c 64 46 e2 3d 2a fb 94 3d e2 39 31 3d
       0.022716468 0.11048582 0.07274468 0.043268092
000010 6b eb b4 3d 87 ad b3 bc 7d 6f 59 3d 34 62 16 bd
       0.08833965 -0.02193333 0.05308484 -0.036714748
000020 3b b6 c9 bc b1 95 da bc 03 09 11 bd a4 bc 69 3d
       -0.024623027 -0.026682707 -0.035408985 0.057064667
000030 a3 c5 b9 3d 3e 95 04 be 27 4f dd 3d 2f da de 3c
       0.09070899 -0.12947556 0.10806113 0.027203647
000040 17 88 84 3c af 21 e9 3b 4e 75 0c 3d 5e e4 55 3d
       0.016178174 0.007114611 0.034291558 0.05221974
000050 32 b4 d3 bd 07 4a 12 bd 9b f3 0b be 56 09 8d 3d
       -0.10337104 -0.03571513 -0.13667147 0.06886546
000060 03 6b 89 3c f7 4f ac bc 59 50 ce 3d f1 24 42 3d
       0.01677466 -0.021034224 0.10073919 0.04739851
000070 f9 4b 89 3b 18 1b 93 bd 19 b4 ec bc fe 75 aa 3d
       0.004189965 -0.07182902 -0.028894471 0.083232865
000080 2a bb 79 bc c7 18 4e 3d c9 29 50 3d dd 1a e2 3c
       -0.015242377 0.0503166 0.0508211 0.0276007
000090 3c 8c 1a 3e a0 d0 ca 3d 23 bc 76 bd aa e7 f2 3d
       0.15092558 0.09903073 -0.060238015 0.11860593
0000a0 ef 98 70 bc 0f 40 98 bc 05 49 4c bd 99 30 e6 3d
       -0.0146849 -0.018585233 -0.049874324 0.11239738
0000b0 ab 40 ac 3d 78 c6 13 bd c2 b1 91 bc 30 e7 c8 3c
       0.08410772 -0.036077946 -0.017784957 0.024524301
0000c0 27 6a d9 bd ab 00 d0 3d 97 d7 c2 3c 60 08 7f bd
       -0.1061595 0.101563774 0.023784442 -0.062263846
0000d0 81 ef c6 bc 25 49 9f 3c 44 44 e9 bd ce 82 13 bc
       -0.024284126 0.019444058 -0.11389974 -0.009003354
0000e0 db 69 bb bd 95 c4 09 bd db 44 d9 3d fb c7 04 bd
       -0.0915105 -0.03363474 0.10608836 -0.03241728
0000f0 29 8c 00 bc 7c 7a 7b bc 5f a1 b2 3d 07 2a 17 3c
       -0.007845917 -0.015349027 0.08722185 0.009226329
000100 a8 b2 15 3d 70 c9 8b 3d 87 df 38 3d 71 73 14 3d
       0.036547333 0.068255305 0.045135047 0.036242906
000110 61 74 14 3d bd 63 00 3c e6 8b 47 3c d8 20 78 bd
       0.0362438 0.007836279 0.0121793505 -0.060578197
000120 9f db 53 3d 14 11 22 3c 6e 3a 71 3c c9 1c 58 bd
       0.05172312 0.009891767 0.014723403 -0.052761827
000130 27 0e 39 bd 77 6d 02 bd 33 41 9f bd 3c 60 0e 3d
       -0.045179512 -0.031842675 -0.07776108 0.034759745
000140 17 ff ee 3b 0c a8 34 ba 7b f3 5e 3d 3d e7 2b bc
       0.0072935927 -0.0006891496 0.05443142 -0.010492143
000150 ca 8b 2f 3d 1a 28 ce 3d 89 16 dc 3d f4 bb 50 3d
       0.042857923 0.100662425 0.10746486 0.050960496
000160 41 ad 34 bc 7f 62 c9 3d 7c 63 af 3d 28 18 0e bd
       -0.011027635 0.0983324 0.08563897 -0.034691006
000170 55 e8 02 bd 6e 96 ca 3d e2 1f 7e 3d 00 76 11 3d
       -0.03195985 0.098919734 0.062042125 0.035512924
000180 2a 1e 60 bd c1 c3 a0 bd eb 4c f2 3c e0 0b 44 3c
       -0.054716267 -0.07849837 0.029577693 0.011965722
000190 47 2a 62 bd 67 be 8d bd 11 3b 2e ba 2d bc 6c 3d
       -0.0552161 -0.06921082 -0.0006646375 0.057796646
0001a0 d7 85 0e 3d d9 32 5d bd fa 92 ca 3a e5 b9 cb 3d
       0.03479561 -0.05400357 0.0015455179 0.09947566
0001b0 c9 0a 1c 3c ec ee e8 bc b6 1d 4b 3c 5c 8c 42 bd
       0.009524056 -0.02843424 0.01239722 -0.04749714
0001c0 bf 4b a5 bd a5 7b 82 bd 09 20 80 3d a1 e8 78 3d
       -0.08071088 -0.063712396 0.0625611 0.060768727
0001d0 82 b8 9a 3d ae c2 f6 3d 23 09 2f 3d 8a 0e 41 3c
       0.07554723 0.12048851 0.042733323 0.011783252
0001e0 05 4b 38 bd 00 10 3a bd 83 82 72 bd 1b 9c 83 bd
       -0.04499342 -0.045425415 -0.059206497 -0.06426259
0001f0 5e 97 20 3d c0 7f 59 bd f3 d2 f2 bd f8 00 6b 39
       0.039206855 -0.053100348 -0.118566416 0.00022411707
000200 af 94 86 bd 3c 22 01 bd 46 7b 8e bd d1 c8 d0 bd
       -0.06571328 -0.03152679 -0.06957106 -0.10194553
000210 ce 37 3e bc 43 ea 85 bc 8e e3 aa 3c f7 7c 4b 3d
       -0.011609985 -0.016347056 0.02086046 0.049679723
000220 78 44 d6 bc 83 7c 29 3d c8 82 f4 3b 55 e0 88 bd
       -0.026155695 0.04137851 0.0074618794 -0.06683413
000230 8e f5 99 bd 99 c5 e6 bb 60 69 1f bd 48 97 b5 3c
       -0.07517539 -0.0070425984 -0.038918853 0.022166863
000240 4a 84 88 3b 2e e4 6e 3d 07 a1 ce bd e0 a7 82 3d
       0.0041661607 0.058323078 -0.10089307 0.06379676
000250 89 c8 0b bd bf 9f 85 3d ef 4e c6 3c 76 8d be bd
       -0.034126792 0.0652461 0.02420756 -0.09304325
000260 08 2f ba bc c2 1d 7b bb 0e bd 43 3d 1d 39 88 3d
       -0.022727504 -0.0038317298 0.04778772 0.066515185
000270 23 c0 9e bd bb 3e 80 bd 67 76 70 bd 08 13 51 bd
       -0.07751491 -0.06261965 -0.058706667 -0.05104354
000280 a3 0d 79 bd 3a 06 58 bc c8 42 89 3c 6f dc 0f 3d
       -0.06080402 -0.013185078 0.016755477 0.03512233
000290 08 b6 9d bd 77 dd 53 bd 08 86 50 3d ff 14 56 bc
       -0.07700735 -0.051724877 0.050909072 -0.013066529
0002a0 c2 9d ab bd 37 ac 2c 3d e8 c7 94 bd 8d 44 83 3d
       -0.08379699 0.042156424 -0.072646916 0.064095594
0002b0 62 b9 06 bc fa 55 05 be 68 1a 89 3d 95 6d ca 3d
       -0.00822291 -0.13021079 0.0669449 0.09884182
0002c0 1a 46 8c bd c2 64 11 be 46 fe 9b bd 71 de 32 bc
       -0.06849308 -0.14198592 -0.07616858 -0.010917292
0002d0 91 f3 fa bc ca 86 31 3c da f2 54 3d c3 0e a4 3d
       -0.03063372 0.010835359 0.051989414 0.08010628
0002e0 a4 8b b3 bb 5a c2 6d bc df 6d 4f bd dd 78 13 3d
       -0.005479293 -0.014511669 -0.05064189 0.036003936
0002f0 1f d6 dc bd f3 9b d1 3d 67 a0 1b bd 0e f9 ad bc
       -0.10783028 0.10234823 -0.03799477 -0.021236923
000300 bf 62 18 bd cd 8b 85 bd 65 82 92 bd f1 97 9d 3d
       -0.037203547 -0.065208055 -0.07153777 0.07694996
000310 7e 64 b9 3d bb 2d b8 3d 20 36 20 3d ee eb 21 bd
       0.090523705 0.089930974 0.039114118 -0.03953164
000320 10 e9 06 3d cb a9 02 3e 6b 40 53 3c 80 f8 b4 ba
       0.03293711 0.12760083 0.012893776 -0.0013806969
000330 ab 71 c3 bc 71 10 b7 bd 49 4a db 3d 75 60 1d 3d
       -0.023857912 -0.08938683 0.10707528 0.038422067
000340 7f 38 29 bd 42 4c 17 bd ee 96 83 3d 5f 8a d7 3c
       -0.041313644 -0.03693796 0.06425272 0.026311098
000350 43 4b d7 3d 2c a3 40 bd 6e 0e ad bd 0f 00 2f bd
       0.10512402 -0.047030613 -0.08450018 -0.042724665
000360 9d 6f 8f 3c bd 53 97 3b 5c e5 08 3d f3 48 a1 3d
       0.017509276 0.0046181367 0.03342186 0.07875242
000370 8c b4 02 3d 6b bd 54 3c 71 ab 78 3d b4 c1 2f bb
       0.031910464 0.012984614 0.060710374 -0.0026818337
000380 98 61 84 bc 8b d8 98 3d f5 6a 1e bd a6 5f 7a bd
       -0.016159818 0.07463177 -0.03867622 -0.061126374
000390 99 c9 31 bd 55 30 0f bd 1f d7 a4 bc 4b 5e 67 bd
       -0.04340515 -0.034958202 -0.020122109 -0.05648641
0003a0 73 7d 90 bc 61 87 bc 3c 75 10 ee bc f8 95 e1 bd
       -0.017637944 0.023013772 -0.029060582 -0.110149324
0003b0 41 a0 80 3b 98 8e 52 bd c7 32 ae 3d eb 34 a3 3d
       0.0039253538 -0.05140552 0.08505779 0.07969078
0003c0 6c e8 d5 bd 5c e3 2a 3d 42 1b bd 3c b4 81 0f bb
       -0.104447216 0.041720733 0.023084287 -0.0021897377
0003d0 e5 92 cf 3d 18 11 a7 3d 65 ca a9 3d ba 07 a0 3d
       0.1013544 0.08157557 0.08290557 0.07813974
0003e0 15 82 3f bd 54 20 73 3d 1b 69 fe 3c 56 2b 80 3d
       -0.046754915 0.059357002 0.031055978 0.06258266
0003f0 5c d4 52 bb bf 75 e0 bc 0f 7d 78 3d f1 e3 a2 3c
       -0.0032170033 -0.027399896 0.06066614 0.019884082

lstm.bias_ih_l0 f4 [512]
000000 47 1c bf 3d 96 9d b7 bc 0b 57 c2 3d 6b 9a 0e ba
       0.09331565 -0.02241401 0.094892584 -0.000543988
000010 b4 77 5f bd 89 35 8e bc f6 63 79 bd 48 aa 80 bc
       -0.054557517 -0.017359512 -0.060886346 -0.015706196
000020 0a 79 4f 3d 0a ea 05 3c 5a ff a2 3d 66 d8 bd 3d
       0.05065254 0.008173475 0.07958861 0.0926979
000030 22 f6 a4 3d 39 07 f7 3d 9a 73 f2 3d c2 ed c2 3d
       0.080547586 0.120619245 0.118384555 0.09518005
000040 6c dd a7 3c 1f e3 cb 3d 5b df 0f 3e cc 62 e0 3a
       0.020491324 0.09955429 0.14050047 0.0017119288
000050 09 44 68 3d ec 08 a5 3d 03 bd b8 3d 98 ae af 3d
       0.05670551 0.08058342 0.09020426 0.08578223
000060 66 8e 8b 3d 4c bd 62 bd 7d 83 46 bc 37 e6 14 bd
       0.0681427 -0.05535631 -0.01211631 -0.036352362
000070 59 5f 3a 3d a2 ec f1 3c e2 0a de 3b 8b 12 a6 3d
       0.045501087 0.02953178 0.0067761997 0.081090055
000080 dc 87 6e bc 29 2c d2 3c 33 67 c1 3d be 82 9f 3d
       -0.014558759 0.025655823 0.09443512 0.07788609
000090 04 8e f0 3c 14 87 05 bc f0 7b 7c 3d 7e ae 7f 3c
       0.029364593 -0.008149881 0.061641634 0.015605567
0000a0 1d 47 3e bd fe 6f b0 3a a9 84 4f ba b2 f3 cc 3d
       -0.046454538 0.0013461111 -0.0007916191 0.10007419
0000b0 a8 36 7f bd 74 f0 5d bd 02 85 a5 3d a8 9a 00 3e
       -0.062307984 -0.054184392 0.0808201 0.12558997
0000c0 5f e5 97 3d b8 2f 11 3c 35 61 cb 3d 61 3b a6 3d
       0.07416796 0.008861475 0.0993065 0.081167944
0000d0 a1 28 bc 3d 67 1f d7 3d 38 bc 8d bb 1d b7 b4 ba
       0.09187437 0.105040364 -0.004325416 -0.0013787482
0000e0 38 08 92 3c 53 d7 18 b9 e1 8c 49 bd cb 68 c2 3d
       0.017826185 -0.00014576064 -0.04920662 0.09492644
0000f0 ab 75 b8 3d 5a 0d f1 3d 5c 49 b7 3d 66 a5 b4 3d
       0.090068184 0.11770125 0.08949539 0.0882061
000100 6e 0f 0c 3d 07 ba 86 3c 18 f8 51 3c a4 f2 df 3d
       0.034194402 0.016446127 0.012815498 0.10934952
000110 2a de 86 3d f7 8a 3b bd 76 36 55 bd 1c 78 3e bc
       0.06585343 -0.045786824 -0.05205389 -0.011625316
000120 d8 58 ad 3d ff d5 f9 bc 83 ae b4 3d dd 86 5b 3d
       0.08464211 -0.03049755 0.08822348 0.053595413
000130 03 23 d4 3d e3 1d df bc b5 4f ed bc bf 9c 98 bc
       0.103582405 -0.02723593 -0.028968671 -0.01862943
000140 52 ff ca 3d 8f 41 2b 3d d0 c9 8d ba 19 e3 b2 3b
       0.0991198 0.04181057 -0.0010817591 0.005459201
000150 df 3d 3d 3d 34 7a d1 3d 38 b0 00 bd 8e bf a0 bc
       0.046201583 0.102283865 -0.031418055 -0.01962259
000160 23 37 5f 3d 8c 1c ff 3d bb aa c3 3d bb 69 07 3e
       0.05449594 0.12456617 0.09554049 0.13223927
000170 26 4e a9 3d 5d 3f 0d bc 51 b2 82 bd fa 35 4b 3d
       0.08266859 -0.008621064 -0.063816674 0.049612023
000180 59 a3 20 3b fd ff 1f 3d d7 63 ce 3d 53 aa 4c bd
       0.0024511425 0.03906249 0.10077637 -0.04996712
000190 3f b6 d4 3d 07 0e 98 bc 93 bf 42 3d 90 f9 6b 3c
       0.10386323 -0.018561376 0.04754598 0.014402762
0001a0 31 34 91 bb a6 37 bd 3c be 50 3f bc 2b bc e5 3c
       -0.0044312705 0.023097824 -0.011676965 0.028043827
0001b0 6f be d8 bc 26 58 ac 3c 71 87 d4 3c 5f 01 cb 3d
       -0.026457993 0.021038126 0.02594349 0.09912371
0001c0 88 0f d3 3d 2f ab a8 3d 97 9d 97 bd d0 77 de 3d
       0.10305697 0.08235776 -0.07403105 0.10862696
0001d0 d7 ec ff bc 35 47 87 3c e1 c7 6b ba a2 b3 9e 3d
       -0.031240864 0.016513446 -0.0008994323 0.07749106
0001e0 ac 15 cb 3d 39 5d 1f bd d2 43 3c 3c 6b 0b 10 bd
       0.09916243 -0.038907263 0.011490779 -0.03516714
0001f0 3c 3e 2e bd 4b 15 2b bd c1 a3 d9 3c fd 99 ac 3c
       -0.04253982 -0.041768353 0.026567342 0.021069521
000200 f9 c7 e5 bc d0 26 f8 3d 2e 93 9c 3c c0 55 9d 3d
       -0.028049456 0.12116778 0.01911315 0.07682371
000210 a9 8f 6b 3d f2 db 0d 3d e5 c3 1e bd e3 3f b8 3d
       0.057510052 0.034633584 -0.03876104 0.089965604
000220 59 24 aa 3d 1d cd 0c 3d c1 51 72 bc b0 f0 81 3d
       0.08307714 0.0343753 -0.014789999 0.063447356
000230 af 25 c5 3d 27 9d 87 bc 2e 79 04 bb e9 3d 91 bd
       0.09626328 -0.016554428 -0.002021383 -0.070918866
000240 b0 73 43 bd 24 08 a5 3d 3b 6b 85 3c 79 9f da bc
       -0.04771775 0.08058193 0.016286483 -0.02668737
000250 62 e0 51 bc bd 3d c9 3d c2 05 8b bc 51 f4 23 bb
       -0.012809845 0.09826229 -0.016970519 -0.002501745
000260 fa c6 9c 3d ae 8e 06 3c 28 de 8c 3d ed 73 cf 3d
       0.07655139 0.008212728 0.068783104 0.10129533
000270 9b 12 11 bd 4d d2 cb 3d 6b 82 5b 3d 73 3c aa 3d
       -0.035418134 0.09952221 0.053591173 0.08312311
000280 78 ab c1 3d ad 29 5f 3d 1b e6 91 3d e1 3b 14 bc
       0.09456533 0.054483104 0.07123967 -0.009047479
000290 88 b4 fc ba fe ca 8e bc 71 8c 7b 3d 33 e0 68 3c
       -0.0019279877 -0.017430779 0.061413232 0.0142136095
0002a0 1a 2b bf bc 49 6c 2d bd c2 74 f8 3d 4b b1 23 3d
       -0.023335982 -0.042339597 0.12131645 0.039964
0002b0 15 17 a7 3d b1 de ae bb cf 08 cf 3d 0d 09 84 3d
       0.081586994 -0.0053366055 0.10109102 0.06447039
0002c0 cd c3 09 bd bf a9 d7 3d a8 d0 74 3d 52 4b 21 bc
       -0.033633996 0.105304234 0.059769303 -0.009844618
0002d0 39 a3 0d 3d 0e 06 04 bd c2 7c ae 3d 20 25 6e 3c
       0.03457949 -0.032232337 0.085198894 0.0145352185
0002e0 ca ec 0b 3b ef 17 dc 3c 9d 29 e1 3d 89 7b 50 3b
       0.0021350854 0.026866881 0.10994265 0.0031811914
0002f0 71 9f 1c bd 11 2d 54 3d 69 ce 22 bc f2 be 8c 3d
       -0.038237993 0.05180079 -0.009936907 0.068723574
000300 03 1a dc 3d d8 b5 68 bd f0 b0 a9 3d c9 ee 73 3d
       0.10747149 -0.056814045 0.08285701 0.059553895
000310 75 66 b2 bc 1f e7 2b 3d 50 04 72 3d b6 f1 69 3d
       -0.021777371 0.04196846 0.059086144 0.05711528
000320 65 4d 2a 3d 80 94 a8 3d e8 2f 66 bd 7b a2 37 3c
       0.041577715 0.08231449 -0.05619803 0.011208172
000330 6b 53 be 3d 9a c8 92 bd 71 e6 8e bc e4 ca 88 bd
       0.092932545 -0.07167168 -0.017443867 -0.06679323
000340 9f d8 22 bd e9 bb c6 3c ef b0 a6 3d 19 82 5c bd
       -0.039757367 0.024259524 0.08139216 -0.05383501
000350 e7 c0 1d bd 26 fc 17 3d 57 31 da 3d da 4a 93 3c
       -0.038514044 0.037105702 0.10653942 0.017980028
000360 8f c0 32 bd b6 8d 10 3d 63 a2 b1 3c a4 04 1a 3e
       -0.04364067 0.035291396 0.021683877 0.15040833
000370 76 a0 c8 3d 68 7e 66 3d 5d 4a bc 3d 6d a7 81 3d
       0.097962305 0.056272894 0.09193871 0.06330762
000380 ed a0 88 bd 32 95 b9 3d 4c a2 23 3b c7 ca 44 3d
       -0.06671319 0.0906166 0.0024968563 0.048044946
000390 16 07 9d 3c 57 c6 ef 3d cf 4d 07 3d 32 3f 19 bd
       0.019168418 0.11707752 0.03303319 -0.037413783
0003a0 36 8e 56 3d 0b 00 3b bd e2 99 af bc cb ca c1 bc
       0.052381717 -0.045654338 -0.021435682 -0.02365627
0003b0 21 70 33 bd 59 f6 c7 3d 4f fb f5 3c 8a b7 84 3d
       -0.043808106 0.09763784 0.03002706 0.0648032
0003c0 e9 48 3a bd 4f 16 de 3c 6b c9 ab bc ec e4 5b 3d
       -0.04547969 0.027110247 -0.020970067 0.053685114
0003d0 ee cf d2 3d 99 a4 2c 3c 6d 6f 28 3d a2 df 9a 3d
       0.10293566 0.01053729 0.04112189 0.07562186
0003e0 1a ba 3b 3d bd 0b 21 3d 1f 71 70 3c 5a 91 b2 3d
       0.045831777 0.039317835 0.014675408 0.0871913
0003f0 b0 af ea bc a9 14 50 bd d3 25 51 bd 64 9a 9b bc
       -0.028648227 -0.050800953 -0.051061463 -0.018994518

lstm.bias_hh_l0 f4 [512]
000000 2f b4 08 bd 24 7e 7b 3d 52 6d aa 3d 80 ea af 3b
       -0.03337496 0.061399594 0.083216324 0.0053685308
000010 1c 25 41 3d 71 a2 a8 bc 4c be da bb 8c 1e b4 3d
       0.04715453 -0.02058527 -0.006675517 0.08794889
000020 2e 7d b3 3d dc 64 3e bd 8e 77 6d 3c f6 ac 84 bb
       0.087641105 -0.046482906 0.014493836 -0.004048939
000030 42 c1 2d 3d de b1 d7 bc 46 e3 52 3d 35 9c db 3c
       0.042420633 -0.02632993 0.051486276 0.026807884
000040 0b bc a0 3d 1d a4 63 3d 62 cf 3e 3d 09 a1 c6 3d
       0.07848366 0.055576432 0.046584494 0.09698684
000050 aa 2c 5d bd 47 9f 43 bd ec ee a7 3c 95 e5 ac 3d
       -0.053997673 -0.04775932 0.020499669 0.08442227
000060 50 64 88 bc 23 b7 4d 3d 3b 75 4c 3d 7d 56 89 3d
       -0.016649395 0.05022348 0.049916487 0.067059495
000070 0a 99 ef 3c 21 7c 02 bd 90 58 a3 3d 73 9e c2 3d
       0.02924778 -0.03185666 0.07975876 0.09502878
000080 7f 7d dd 3d 49 93 a4 bc 3a e0 db bb 4c c0 05 bd
       0.10814952 -0.020089762 -0.0067100795 -0.03265409
000090 8e 9e 72 bd d8 9c c4 3b ef 9f 2f 3d 88 b8 0d bd
       -0.05923324 0.0060001425 0.042877134 -0.03459981
0000a0 37 91 17 bc 88 a1 87 3d b7 f5 7e 3d 65 51 46 bc
       -0.0092509305 0.066226065 0.06224605 -0.012104367
0000b0 6f 0f 84 bc c1 60 1c 3d c3 f1 bc 3c 67 b3 ef 3d
       -0.01612064 0.03817821 0.0230645 0.1170414
0000c0 cb 6f 7a 3d 81 06 cf 3d 9f fb e9 3d 96 de 7d 3d
       0.06114177 0.101086624 0.11424946 0.061979853
0000d0 15 f6 07 3d e6 9b d4 3d 60 1e d8 3d 03 de 67 bd
       0.033193666 0.10381298 0.105526686 -0.05660821
0000e0 b5 01 ab bb 88 1e c5 3d a4 aa 1f 3d 8b 41 95 bd
       -0.0052187094 0.09624964 0.038981095 -0.07287892
0000f0 45 21 a6 3d b5 9c 88 3d 9c 59 e6 bb ff 9f 03 bd
       0.081118144 0.066705145 -0.0070297252 -0.032135006
000100 f7 22 36 3d 7c 0c c9 3d b2 f1 9f 3b f2 92 1a bd
       0.04446694 0.09816834 0.0048811072 -0.037737794
000110 12 3f bf 3d 64 d0 56 bd 0d 57 be 3c e3 8f e3 3c
       0.093382016 -0.05244483 0.023234868 0.027778571
000120 c0 80 85 3d ab ac ea 3d 8d ef 01 bd 1b 50 b2 3d
       0.06518698 0.11458715 -0.031722594 0.08706685
000130 17 cd 94 3d 80 4a 87 bc 5c 03 83 3d f5 63 8e 3c
       0.0726568 -0.016515017 0.06397125 0.017381648
000140 88 a7 8e 3d 24 20 8e 3a fc 81 2e 3d 4d 2d e9 bb
       0.06965548 0.0010843319 0.04260443 -0.007115996
000150 81 fa d4 bc c9 09 12 3c 6c 49 a2 3c 43 f3 d0 3d
       -0.025998356 0.008913466 0.0198104 0.102026485
000160 35 cf c2 bb 38 ca bd 3d 58 69 f7 bc 1e 20 db 3d
       -0.005945111 0.09267086 -0.030201599 0.10699485
000170 d4 0b 92 bd e8 0c d6 3d b0 62 bb 3d 34 95 6d 3d
       -0.07131162 0.104516804 0.091496825 0.05800362
000180 2e c9 dc bc 88 be 3b bc b1 ae ab bc fe 5f 82 3d
       -0.026951399 -0.011459 -0.020957323 0.06365965
000190 86 e8 23 bd 35 36 af bb 6d 8b 06 3d 8f 1c d1 3d
       -0.040016674 -0.005347038 0.03284781 0.10210525
0001a0 07 a6 cd 3d 4c 11 80 bb d9 4e c9 3d 39 c2 c0 3c
       0.10041433 -0.003908312 0.09829492 0.023530113
0001b0 fd 13 a7 3d 50 52 95 3c f5 dd bb 3d 6c 10 ec 3d
       0.08158109 0.018227726 0.09173194 0.1152657
0001c0 ef de 46 3c f1 06 b8 3d 3e e2 bb 3d 16 39 93 bb
       0.012138112 0.08985699 0.09174012 -0.004492889
0001d0 3c 4c 8e bc f3 f0 82 3c 95 2d d2 3c 9b 49 00 3e
       -0.017370336 0.015984034 0.0256565 0.12528078
0001e0 42 d0 1f bc 3d 12 06 3c 55 d0 b8 3d da 4c be bb
       -0.009754242 0.008183059 0.09024111 -0.0058075013
0001f0 39 94 55 3d 08 e2 e5 3d 7d 0f 04 bd ca 64 1d 3d
       0.05214331 0.11224753 -0.032241333 0.038426198
000200 6d 1f 47 3c fd da 91 3c b3 02 15 3d ce 94 80 3d
       0.012153489 0.017804617 0.036379527 0.06278382
000210 c5 38 d9 3d f3 51 d3 bc a3 f5 60 3d c9 a9 9f bc
       0.10606531 -0.025795912 0.054921757 -0.01949014
000220 6f 2a a0 3d 20 79 c3 3d c6 11 33 bd 8d 8e ca 3d
       0.078205936 0.09544587 -0.043718122 0.09890471
000230 a7 e7 eb 3c ee 9c c5 3c 01 99 ae 3d 81 4e 91 3d
       0.028796984 0.024122681 0.08525277 0.070950516
000240 42 11 7b bd db 50 37 bb 2a a0 a7 bc b5 6f fd 3c
       -0.061295755 -0.0027971778 -0.020462114 0.030937055
000250 36 f1 4f 3d 2e ed 44 3d dc 1c 80 3d b2 0f 5f 3c
       0.050767146 0.048077755 0.062555045 0.013614582
000260 df 63 75 3d bf 72 6c 3d e7 20 f4 3b a5 0a 85 3d
       0.059909698 0.057726618 0.0074502113 0.06496171
000270 8e 31 b2 bc 5b db 0b 3e ac be f4 bb dd 30 19 3c
       -0.021752145 0.13657896 -0.007469019 0.009350029
000280 a5 c0 1b 3d df af 9a bc 6f 26 5a 3d 5f b3 8f 3d
       0.038025517 -0.01888269 0.05325931 0.07016634
000290 d2 34 b7 3d 86 4f c3 3c 77 40 c0 3d a8 60 ee 3d
       0.089456216 0.02384163 0.09387296 0.116395295
0002a0 36 ac b0 3c ea 3a e0 3c c1 06 94 3d 36 c9 5e 3d
       0.021566492 0.027371842 0.07227851 0.05439111
0002b0 ba 65 90 3d 06 d4 c1 3d 5d ac 8d 3d de dd be 3d
       0.07050653 0.094642684 0.06917641 0.093196616
0002c0 cf 36 3c bd 40 9e 3d ba 29 88 eb 3c ae 33 a3 bc
       -0.045950707 -0.0007233359 0.02875145 -0.019922104
0002d0 fe 93 87 bd 50 9d 8c 3c 94 7e fb 3d 6e dc 53 bd
       -0.06620024 0.017164856 0.12280002 -0.05172389
0002e0 e9 5a 9b 3d e9 23 53 bd ca ac de 3d e9 b7 8c bc
       0.07585699 -0.05154792 0.10872801 -0.017177539
0002f0 c3 37 87 3d 77 bb 8c 3b f5 83 96 3d 52 ee db bc
       0.066024326 0.0042948085 0.073493876 -0.026847038
000300 db 23 0a bb 9c cb 8f bc 36 ca 4c 3d 08 d2 6a 3d
       -0.00210785 -0.017553143 0.04999753 0.057329208
000310 9b 73 bd 3d 2d 8b ef 3d 08 8f 4b bd ef 71 1d bd
       0.092505656 0.116964675 -0.049696952 -0.038438734
000320 14 c6 36 bd 77 69 61 bc 71 cc 38 3b 97 e1 d4 3c
       -0.044622496 -0.013758055 0.0028198028 0.025986476
000330 ba cd c9 3c dd 34 06 bd 47 b2 46 3d 67 26 46 3c
       0.02463423 -0.032765258 0.048509862 0.012094117
000340 09 fd ab 3c 35 a6 97 bc 07 0e 4a bd d4 3e aa 3d
       0.02099468 -0.01851187 -0.049329784 0.08312765
000350 35 b5 00 bd bc c8 a2 3d 51 91 63 bc 4f ca da 3b
       -0.031422812 0.07948443 -0.013889627 0.006676949
000360 ef 8f 92 3d 6c 9b 29 3d 14 03 12 bd bf be 63 3d
       0.071563594 0.041407987 -0.035647467 0.05560183
000370 7b 7e 90 3d 34 d0 ce 3d e0 52 17 bc 01 f9 2b bd
       0.07055374 0.10098305 -0.0092360675 -0.041985516
000380 87 e4 fb bc 57 09 85 3d 67 27 41 bd f2 70 0a bd
       -0.030748619 0.06495922 -0.047156718 -0.03379912
000390 a6 17 b1 3d 83 4f 27 3d 07 a5 86 3c 15 af c3 3d
       0.08647089 0.040847313 0.016436113 0.095548786
0003a0 82 63 69 bd 7c 57 f4 bc f5 a5 6f bc 24 f6 b8 bb
       -0.056979664 -0.029826872 -0.01462697 -0.0056445766
0003b0 89 43 c4 3d b6 4d b0 3d 61 61 d9 3d 94 d7 be 3d
       0.09583194 0.08608572 0.10614277 0.09318462
0003c0 e3 a4 1f bd 54 6c 82 3d 54 22 1e 3d f3 87 89 3c
       -0.038975608 0.06368318 0.038606957 0.016788458
0003d0 de 0a 7a 3d 97 64 65 bd bb 84 0a 3d 6e 8e b4 3d
       0.06104552 -0.056004133 0.033817988 0.08816229
0003e0 f9 9c e4 3d af 5f 69 bd aa 5e 10 3e d9 98 50 3d
       0.11162753 -0.056976017 0.14098611 0.050927017
0003f0 c9 1a 97 3d c9 ec 16 bc 20 55 11 bd 9f 01 94 bc
       0.07378156 -0.009211727 -0.035481572 -0.01806718

lstm.weight_ih_l1 f4 [512, 128]
000000 1d 88 e9 3c 30 95 43 3d 9b 16 ab bd 2b 0a 54 bd
       0.028507287 0.0477497 -0.08353921 -0.05176751
000010 e0 b1 01 bc ab a3 95 3d dd fe 40 bd 64 d8 6d bd
       -0.007915944 0.07306608 -0.047118057 -0.058067694
000020 0c 8d 77 3c 6f f6 83 bc eb 31 81 bd a9 7c 40 bd
       0.015109312 -0.01610872 -0.06308349 -0.046993885
000030 75 f9 8c 3d 54 f9 e5 bc 09 63 df 3c b5 b9 b3 bd
       0.06883518 -0.02807299 0.027268903 -0.08775655
000040 95 59 07 3d b5 48 af 3d 13 e5 8f bd a4 1e a6 3c
       0.033044416 0.0855879 -0.07026114 0.020278282
000050 e6 43 4d 3b 48 d1 70 bd 66 8c 1d bd c2 01 b8 bb
       0.0031320988 -0.058793336 -0.038463973 -0.005615444
000060 dc fa b3 bd 09 84 c3 bd 5b 81 df 3d 50 57 98 bc
       -0.08788082 -0.09546668 0.109133445 -0.018596321
000070 3b d7 3a 3d 3d ba 70 3d 53 44 71 3d 59 97 3d bd
       0.045615416 0.05877136 0.05890305 -0.046286914
000080 11 5d 08 bc ea 67 12 3d 43 87 31 bd b8 1e fb 3c
       -0.00832297 0.03574363 -0.043341886 0.030654296
000090 d8 4b e5 3c 50 85 93 bd 50 ac af 3d d6 5c 3d bd
       0.027990267 -0.07203162 0.08577788 -0.046231113
0000a0 37 55 85 bd 3c 70 e2 bc 7a 21 2f 3d b6 8f ac 3c
       -0.06510394 -0.027641408 0.042756535 0.02106462
0000b0 21 fd 4f bd cf 00 cf bd b9 29 2c bd 60 ba 03 bd
       -0.050778512 -0.10107576 -0.042031977 -0.032160163
0000c0 d2 6d 55 bb 03 46 5e bd a5 33 de bc 60 f8 e0 3c
       -0.0032566679 -0.054265987 -0.027124235 0.027462184
0000d0 4b 8b 78 bc 7c 24 88 bc 50 2a 54 3d 1b 92 43 3d
       -0.015169929 -0.01661896 0.051798165 0.04774676
0000e0 58 ad 68 bd b4 28 b0 3c b0 66 ac 3d d2 b9 4c 3d
       -0.05680594 0.021503784 0.084180236 0.0499819
0000f0 50 b1 2e bd e7 b1 97 3c e2 f9 2e bd 3f e9 98 bd
       -0.042649567 0.018517448 -0.042718776 -0.07466363
000100 93 2e a9 3d d4 e0 8c 3d b0 24 98 3d 33 e0 7f bd
       0.082608365 0.0687882 0.074288726 -0.062469672
000110 e2 f1 82 bd 05 3c 2f bd a8 5d e0 3c 37 7b a3 3c
       -0.06393792 -0.04278185 0.027388409 0.019956214
000120 51 d6 2f bd d0 ff 70 bd 68 2f 5b 3d 05 4f 99 bd
       -0.042928997 -0.05883771 0.053512007 -0.07485775
000130 04 b6 a3 bb 2e 09 f1 3c 9c e5 85 bb 39 6b a5 bd
       -0.004996063 0.029423323 -0.0040862095 -0.08077092
000140 db 70 16 3d bb 8c f2 bc 06 08 0e bc a8 a4 6f 3d
       0.03672872 -0.029608121 -0.008668905 0.058506638
000150 2a ad 60 3d 73 28 ab bd 16 33 6e bd 23 93 af 3d
       0.054852642 -0.083573245 -0.058154188 0.08572986
000160 91 6f 8b 3c cc b2 92 bc 1d eb 82 3d fc fa 47 3d
       0.017020972 -0.017907523 0.063925005 0.04882334
000170 74 47 aa 3d 86 8c a2 3c b5 05 d8 3d a8 d7 24 3c
       0.0831441 0.019842397 0.105479635 0.010061182
000180 87 8a af 3d 2e 07 c6 bc 9e b8 89 3d ad 01 4f 3d
       0.08571344 -0.024173345 0.06724666 0.050538708
000190 ab f1 91 3c bd aa 6a 3d 31 ee 63 bb 0c d5 e6 3c
       0.017815432 0.057291735 -0.0034779424 0.02817776
0001a0 76 72 9d bd 74 45 65 3d 1d 8b 4e bd d2 0b 6b bd
       -0.07687847 0.05597444 -0.050425638 -0.05738432
0001b0 2f bf 82 bd 19 d7 2b 3d 61 11 81 3d 02 73 01 bd
       -0.063841216 0.04195318 0.06302143 -0.03160382
0001c0 da dc 21 3d fb a9 fd bc eb 87 8d bb 8c 45 91 3d
       0.03951726 -0.030964842 -0.004319181 0.07093343
0001d0 de 84 c6 3d fb 5f 96 bb c4 6c 8f 3d 5d 9b c5 3c
       0.09693311 -0.0045890785 0.07003167 0.024121935
0001e0 80 6d 24 3d bd ea 30 3d 15 d5 9b bd bd 08 4f bd
       0.04014349 0.043192614 -0.076090015 -0.050545443
0001f0 0b bf 4d bd a4 b7 8c bd d5 3f 32 ba e8 4b 18 3d
       -0.05023102 -0.06870964 -0.0006799673 0.037181765
000200 99 17 29 3d ae 60 98 bc f2 df 8f bd 3a a8 cf 3c
       0.04128227 -0.018600788 -0.07025136 0.025348771
000210 38 4f 37 bd 90 03 ea bb 1e 17 47 bd b3 c0 cd bd
       -0.044753283 -0.007141538 -0.04860603 -0.1004652
000220 cc f1 d0 3d ea 77 54 bd 4b e0 00 bd 55 2c 78 bc
       0.10202369 -0.05187217 -0.031463902 -0.015147288
000230 36 40 a3 bd 8a 7a 8c bd 7e f7 bb bc ca 32 64 bc
       -0.07971232 -0.0685931 -0.022945162 -0.013928125
000240 f5 0f da bd ee 61 05 3c e4 5e b2 3d 95 d1 e0 bd
       -0.10647575 0.008141024 0.08709505 -0.109774746
000250 f9 2f 42 bd 16 4c 83 bd 42 16 9a bd d0 9c 69 bb
       -0.04740903 -0.064109966 -0.075237766 -0.0035646446
000260 33 e8 9b bd 6b b7 6e bd 59 7a e7 3d 18 c5 26 3d
       -0.07612648 -0.05828039 0.11302633 0.040715307
000270 cc 9d b8 bd dc 49 32 bd 2c ca 48 3d ea 50 a3 3d
       -0.09014472 -0.04352747 0.04902093 0.079744175
000280 e9 a8 a8 bc ad b5 ab 3d 28 40 57 3c a5 c6 0a 3d
       -0.020588355 0.08384261 0.013137855 0.03388085
000290 65 65 27 bd 6e dc 34 3d 76 c7 91 3d 7b 03 cf bd
       -0.04086818 0.04415553 0.07118122 -0.10108086
0002a0 c6 9b 24 be 40 5f b3 bd 6c 32 d2 bd e5 0c d6 bd
       -0.16075048 -0.08758402 -0.102635235 -0.10451678
0002b0 a6 43 d3 bb 4b 65 cb 3b e2 65 da 3c cf 1b d7 bd
       -0.0064472733 0.0062071434 0.02665991 -0.10503351
0002c0 05 b4 90 bd 72 5e 31 bc cf 28 1e bd 71 ae 57 bd
       -0.07065586 -0.01082574 -0.038613137 -0.052656595
0002d0 a9 c3 1a bd 3a e0 21 bd 9a f1 0d bd 66 a5 e9 3c
       -0.037784252 -0.03952048 -0.034654237 0.028521251
0002e0 5a 17 83 3c 5a cb b4 3d cb fa ca 3d 4a c5 93 3d
       0.016002346 0.08827849 0.09911116 0.07215364
0002f0 91 78 a8 bc 5e 10 16 3d 96 27 76 3d 5a 8e 7a 3c
       -0.020565303 0.036636703 0.060096346 0.015292728
000300 5a 95 55 bd 09 bd 55 3d d3 d6 17 bd b8 a5 86 3d
       -0.052144386 0.05218223 -0.037070107 0.06574577
000310 8b a1 3e 3d e2 44 67 bd 3c 7c 49 bb 52 d6 bc bd
       0.046540778 -0.056462176 -0.0030744215 -0.09220566
000320 41 50 44 bd 37 45 03 bd 1b 8e 23 bc 3a ca c6 bd
       -0.0479281 -0.03204843 -0.009982611 -0.097065404
000330 f3 e5 a0 bd 7e 0e a6 3d bd ad c7 3d f8 78 98 3d
       -0.07856359 0.08108233 0.09749935 0.07444948
000340 cb 16 18 bd 54 12 51 3a 01 dd 01 3e ad 69 e0 3d
       -0.037131112 0.00079754484 0.12681963 0.10957656
000350 70 b5 ba bd fe e3 b5 3d 5b 7d 8a bd 12 08 21 bd
       -0.09116638 0.08881377 -0.06762191 -0.039314337
000360 f3 3a 93 bd 93 23 48 3d 86 32 c9 bd ab 13 6a 3d
       -0.07188978 0.04886205 -0.0982409 0.057147663
000370 51 a1 d1 3d b4 1e e7 bc da 09 2e 3d 86 b3 48 bd
       0.10235847 -0.028212883 0.042489864 -0.048999332
000380 76 4a 0d 3d 90 40 24 3e 97 15 46 bd 4d 69 5d 3d
       0.03449484 0.16040254 -0.048360433 0.0540555
000390 42 2d ee bc 49 e7 30 3c fc 6e 87 3d 1f e4 22 3d
       -0.029074315 0.01079733 0.066129655 0.039768334
0003a0 a0 1d e3 3b 8b 92 1c 3d 4e 56 18 3d e4 b3 af bd
       0.006931022 0.03822569 0.03719168 -0.08579233
0003b0 32 da 65 ba f8 41 a0 3d 44 55 10 3d 13 97 16 3d
       -0.00087681704 0.078250825 0.035237566 0.03676517
0003c0 d0 1d 0d bd e5 7a c2 3b c2 97 23 bd b5 ba 35 bd
       -0.03445226 0.0059350603 -0.03993965 -0.04436751
0003d0 13 cb c3 bc 3c c6 7d bb 37 de ab 3d 96 3d 1a bd
       -0.023900544 -0.0038722893 0.083919935 -0.03765639
0003e0 5a c3 3a bd a1 f5 51 3d 3f 7b 80 bc f1 9f af 3d
       -0.045596458 0.05125964 -0.015683768 0.08575428
0003f0 8f 47 43 bd a1 2f 92 bc 8f 9f b1 bc fa 4c 13 3d
       -0.047675665 -0.017844977 -0.021682529 0.035962082

lstm.weight_hh_l1 f4 [512, 128]
000000 21 01 64 bd 00 dd 1c 3d fd 59 46 3d b4 c8 c6 3c
       -0.05566514 0.0382967 0.048425663 0.024265625
000010 6a 2e 5c bd d2 5e 71 3c 0e 50 9c 3b b1 6b 73 3c
       -0.0537552 0.01473208 0.0047702854 0.014857219
000020 f0 1e d8 3d e0 ac b6 3c b2 23 92 bd c7 0d c1 bd
       0.10552776 0.02229923 -0.071357146 -0.09426456
000030 9e b3 ea 3d 8b 9e 8c 3c d6 1c 45 3d 79 f3 a7 3d
       0.114600405 0.017165443 0.048123203 0.082007356
000040 96 e4 83 3d 73 fb 29 3d 83 dc fc bc 75 7a 32 bc
       0.06440084 0.041499566 -0.030866867 -0.010893454
000050 12 89 63 3c 5f 18 07 3d 51 76 36 3d 2d 8d 58 bd
       0.013887661 0.032982226 0.04454643 -0.05286901
000060 b6 48 0c 3d 9c 24 9f 3c 55 98 40 3d 1a ee b1 3d
       0.03424903 0.019426636 0.047020275 0.086879924
000070 33 43 52 3d f1 3a 87 bd ac c3 10 bd ed 05 0d bd
       0.051333617 -0.06603039 -0.035342857 -0.03442948
000080 d2 0a 09 bd 0d cf cf bc 22 6e 42 bd 20 81 97 3d
       -0.033457585 -0.025367284 -0.047468312 0.073976755
000090 ab 34 11 3d 0b 67 b3 bd 42 2b 9d 3d 71 39 c6 bc
       0.03545062 -0.08759888 0.076742664 -0.024197312
0000a0 6b ac f4 bb 49 7f 8e 3c 86 42 90 bd 40 fd 61 bc
       -0.007466843 0.017394679 -0.07043938 -0.01379329
0000b0 7c 4a 19 bd a8 a5 13 bb e1 0f 65 3d 05 52 fd bc
       -0.03742455 -0.0022529159 0.055923346 -0.030922899
0000c0 94 e7 ae bd 29 fd 4c bd bf f6 ce bc 52 37 40 bd
       -0.08540264 -0.05004612 -0.025264142 -0.046927758
0000d0 fe 54 22 3c d1 8c 1e 3d a3 09 41 3d 2b d8 93 bd
       0.009907959 0.03870851 0.04712833 -0.07218965
0000e0 a7 7f 8a bc c2 a2 c3 3b 5a c5 84 bc c8 4a 9e 3c
       -0.016906573 0.00597033 -0.016207386 0.019322768
0000f0 70 5e cf bd c7 87 74 3c 9d e3 5d 3c 38 86 ac 3c
       -0.101254344 0.01492495 0.013543037 0.021060094
000100 af 4a a3 bd 0a 5f 9c 3c d4 0b 7a 3d 13 63 aa bd
       -0.07973229 0.019088287 0.061046436 -0.08319678
000110 85 5f c2 bc f5 2a d7 3d 8c 77 db bc e5 5d d7 bb
       -0.023727188 0.1050624 -0.026790403 -0.0065724724
000120 2b ab 07 bd ae 60 30 3c 55 57 ab 3d a5 18 38 3d
       -0.033122223 0.010765238 0.08366267 0.044945378
000130 af 29 8c bd 99 b4 37 bc 2d 70 18 3d 86 37 06 3d
       -0.06843888 -0.011212491 0.037216354 0.032767795
000140 13 07 e4 bb 0e bb b2 3d 74 2f 18 bc 09 d8 91 bc
       -0.006958851 0.08727084 -0.009288657 -0.017803209
000150 31 f4 1c bd fc 1f 90 bd 0c 4e 66 3d 9e 04 c9 3d
       -0.038318817 -0.070373505 0.056226775 0.09815334
000160 61 3c cf bc 43 43 7d 3d 5a 8c 9a bd 96 28 88 3d
       -0.025297346 0.061831724 -0.07546301 0.06648366
000170 f9 ff 30 3c eb c8 e4 3c 4f 6f 38 bd bc c2 43 bd
       0.010803216 0.027927836 -0.045028027 -0.047793135
000180 a0 b7 8f 3b 57 ce 44 3d c0 e1 0e bc 49 44 3a 3d
       0.0043859035 0.048048344 -0.008720815 0.045475278
000190 7c 39 98 3d 8e 19 b1 3d 44 6b b7 3d 39 d8 83 bd
       0.07432839 0.08647452 0.08956006 -0.064377256
0001a0 87 da 5f bd 4f d8 dd bb 9d 11 97 3c 2a ad 3e 3c
       -0.054651763 -0.0067701708 0.018441016 0.011637965
0001b0 36 ca 2f 3c 24 79 11 3d f5 93 53 bd f2 f8 0b bd
       0.010729363 0.03551592 -0.051654775 -0.03417296
0001c0 b8 bb 9f 3d 51 dd 10 3d 5c 4e 5e 3d f6 b4 74 bd
       0.077994764 0.035367314 0.054273948 -0.05974289
0001d0 cb c5 ba bc fd ca 7d bd 2d dd 45 3b e0 12 2d bd
       -0.022799393 -0.061961163 0.0030191645 -0.04225433
0001e0 e8 3b eb bd f5 a0 00 bd 55 5e 88 bd 68 de b6 3c
       -0.114860356 -0.0314035 -0.066586174 0.022322848
0001f0 c6 01 93 3d 1b 61 10 3d 92 96 45 bc 80 e0 a4 bd
       0.07178073 0.035248857 -0.012059825 -0.080506325
000200 ec 28 32 bd 7c 32 30 bd d1 be 54 bd e2 bd e5 bc
       -0.043496057 -0.043016896 -0.05193979 -0.028044645
000210 3a a5 82 bd 7c ef a3 3d 8d f3 84 3d 97 13 6a bd
       -0.06379171 0.080046624 0.06491766 -0.05714759
000220 7a d7 89 bc 0a 3f 2a 3d 86 27 02 3b a3 8a 69 bd
       -0.01682638 0.041564025 0.0019859984 -0.05701698
000230 65 4c ea 3c 79 e5 e6 3b a7 94 b1 3d 7e aa 19 3d
       0.02860088 0.0070463982 0.08670931 0.03751611
000240 d6 b0 5a bd d6 4b 19 3d 8e e4 03 3d 78 73 a4 3d
       -0.0533913 0.03742584 0.03220039 0.080298364
000250 2c 98 00 bc 7f 6e 91 bd fa da 39 bd 34 77 26 3c
       -0.007848781 -0.071011536 -0.045374848 0.010160256
000260 7d e6 4a bd 43 81 cf bd 57 e6 f0 bb f7 19 df 3d
       -0.049536217 -0.101320766 -0.0073516774 0.10893624
000270 28 80 f3 3c 1a fc 13 3d c1 e8 52 3c 21 3b 8f bd
       0.029724196 0.036129095 0.012872876 -0.069937
000280 5b fa ab bd 7c 12 61 bc 62 fe c9 3c 7c e6 6d 3d
       -0.08397361 -0.013737317 0.024657432 0.058081135
000290 39 1b ab bd 51 9e 8b 3d 78 d9 aa 3d 22 60 a1 bc
       -0.08354802 0.06817306 0.0834226 -0.01969916
0002a0 61 6e 14 3d c3 9c 2b bd df ce b1 bd 30 66 d2 3d
       0.036238078 -0.041897546 -0.08682036 0.10273397
0002b0 e2 0f 77 3b f8 30 2f 3d f5 20 aa bd d5 47 3b bd
       0.0037698676 0.04277131 -0.08307067 -0.0457228
0002c0 55 e6 44 3d 24 51 88 3d 10 0a a2 bd 5f 54 78 3c
       0.048071224 0.06656101 -0.079120755 0.015156834
0002d0 bc b1 2d 3d 1d 08 1f bd 78 b6 89 3d 5e 21 71 3c
       0.04240583 -0.038826097 0.06724256 0.014717428
0002e0 e9 ac 14 bd bf a6 af bc b2 69 61 bd 13 aa a4 3c
       -0.036297712 -0.021441815 -0.05503244 0.020100629
0002f0 9a d1 62 bd cc b3 e2 3b 60 10 46 3c ea 1a a1 3b
       -0.055375673 0.006918406 0.012088865 0.0049165385
000300 6b 1c 0b bd d4 b8 49 bc f5 63 1a 3d c1 5f 21 3c
       -0.03396265 -0.012312133 0.037692983 0.00984949
000310 84 ae 2b bd 8a 57 3d bd 6f 78 80 bc 83 4a 14 bc
       -0.041914478 -0.046226062 -0.015682427 -0.009050968
000320 82 8d 7c bc 33 1c ac 3d 9e 8e 8b bd 08 27 f3 3c
       -0.0154145975 0.08403816 -0.068143114 0.029681697
000330 db 48 58 3d d7 0d 5d bc 4f b6 9f 3d 9e fe 3f 3c
       0.052803855 -0.013492069 0.077984445 0.01171842
000340 f1 5a a4 3c e4 ff df bc a9 64 97 3d c9 0e ee bc
       0.020062895 -0.027343698 0.07392246 -0.029059784
000350 3b 04 05 be c3 8b 6e bd fe 63 df bc 2d c9 0d bd
       -0.12989895 -0.058238756 -0.02726936 -0.034615684
000360 e3 a3 4c bd e2 0c b1 3d 0c 87 ab bd d6 f8 04 3d
       -0.049960982 0.08645035 -0.083753675 0.03246387
000370 0b c1 ef 3c 27 30 b6 3d aa 1c b1 3c 30 85 3d bd
       0.029266855 0.08895903 0.021620113 -0.046269596
000380 33 91 06 3d d3 e6 52 3c fe bb ca 3c 07 17 d8 bd
       0.032853317 0.012872416 0.024747845 -0.10551267
000390 72 f1 c2 3d 4b c4 0d bd 77 d0 8f 3c 5d 10 de 3d
       0.09518708 -0.034611028 0.017555458 0.10842965
0003a0 70 b1 ce bd 56 23 50 3b 14 77 8d bd 75 49 7e 3d
       -0.10092437 0.0031759343 -0.06907478 0.062081773
0003b0 4b e6 4f 3d 69 15 73 3d e7 d2 9a 3b 91 c0 1d bd
       0.050756734 0.05934659 0.0047248485 -0.038513724
0003c0 1d 1b 93 bd f8 89 7e bc 6c 90 db 3c a3 04 cb 3c
       -0.07182906 -0.015535824 0.026802264 0.024782484
0003d0 44 31 45 bd 3b 54 b9 bc 59 c4 bf bd c5 a8 2f bd
       -0.048142686 -0.022623172 -0.09363622 -0.04288556
0003e0 b1 ba 85 3d d2 7a 24 bd 3f 03 51 3d 4f 40 74 3d
       0.06529749 -0.040156193 0.051028486 0.059631642
0003f0 00 c8 9a 3c 7c 15 80 3d 05 24 78 bd a3 bc 95 3b
       0.018894196 0.06254098 -0.060581226 0.0045696064

lstm.bias_ih_l1 f4 [512]
000000 9b 43 5e 3c 0e 6a 3e 3c 8c 27 b4 bc 79 20 b4 3c
       0.013565923 0.011621965 -0.021991514 0.02198814
000010 fe c2 2e 3c 93 3b 86 3d 02 7a 78 3d be c4 39 3c
       0.010666607 0.06554332 0.06066323 0.011338411
000020 62 26 5f 3c c6 84 e6 bb 23 fa dc 3c dd 30 33 3d
       0.013619991 -0.007034871 0.026974743 0.04374777
000030 a5 b1 83 3d 39 98 a0 bc 00 65 85 bd 8b 8a 55 3d
       0.064303674 -0.019603835 -0.06513405 0.052134078
000040 82 5d 6f bd e2 1c 6a 3d 47 c5 d8 3b 96 5e 9c 3d
       -0.058438785 0.05715645 0.006615314 0.07635228
000050 ba 71 be 3d 56 4c 27 3d 8b 64 f3 3c f4 c5 26 3d
       0.09299035 0.040844284 0.029711029 0.040716127
000060 42 3d 6f 3d cd d9 d6 3d 1c fa 22 bd ba e3 bc 3c
       0.05840803 0.10490761 -0.039789304 0.023057807
000070 8a c9 06 3d f6 b1 2c 3d 8e e3 4a 3d f2 0f 20 3d
       0.032907046 0.042161904 0.04953342 0.039077707
000080 18 08 03 3d 80 41 9c bc cc 0e 1c 3d d1 8d 25 3d
       0.03199014 -0.019074202 0.03810005 0.04041845
000090 6e 4c b4 3c b8 77 22 bb 87 01 ef bc 67 87 a1 3d
       0.0220091 -0.0024790596 -0.029175533 0.07887154
0000a0 b8 2f 9b bd 81 23 02 3d 8d bc 1e 3d 68 89 08 3d
       -0.07577461 0.03177214 0.038754035 0.033334166
0000b0 6a 0a e6 bc 01 fc 0d bd 7e bf 68 bb 16 2b c8 3d
       -0.028081138 -0.034664158 -0.003551453 0.09773843
0000c0 d8 13 a6 bd f0 c6 e5 3c 18 63 63 3d 5b 48 aa 3d
       -0.08109254 0.028048962 0.055514425 0.08314582
0000d0 17 87 9b 3d 1b 76 66 3c 6a 79 4d 3b 87 e6 96 bd
       0.07594126 0.0140662445 0.0031352886 -0.07368188
0000e0 d0 ba 0c 3b f3 b3 f9 bb 9d 8a 1b bd 8e 07 af 3c
       0.0021473654 -0.0076203286 -0.03797399 0.021365907
0000f0 85 f0 65 3d 14 88 20 3c 09 c2 ad 3d a6 b9 fc 3c
       0.05613758 0.009798069 0.08484275 0.030850243
000100 11 17 3e bd 44 42 2b 3d e7 0d 6f bb 95 45 85 3c
       -0.046408717 0.041811243 -0.0036476792 0.01626853
000110 12 da c9 3c 11 ba 73 3d eb 64 ba 3d 8f fc 9e 3d
       0.024640117 0.05950362 0.0910128 0.077630155
000120 e8 6a 41 b9 9f 92 5b bc 32 2c 9e bc 40 e4 b2 3c
       -0.0001844574 -0.013401656 -0.019308183 0.021837354
000130 e9 c2 1a bd 31 c3 b0 3d 7f 78 c6 bc 7d a9 a4 3b
       -0.037783537 0.0863098 -0.024227379 0.0050250874
000140 c2 73 8e bd ff db bd bc 68 53 99 3d b8 6d 82 bd
       -0.06955673 -0.023176191 0.074866116 -0.063685834
000150 98 aa 18 3d 8e 5a 9d bd 23 1d 57 3d 36 d8 75 bd
       0.037272066 -0.076832876 0.05251802 -0.060020648
000160 a3 c6 9b bd 93 03 36 bd da cd 7a bd 62 d9 fd 3c
       -0.07606246 -0.044437002 -0.06123147 0.030987445
000170 62 a7 ad bd 68 c9 86 3d 2d a2 4f bd ac 0b 8a bd
       -0.08479191 0.06581384 -0.050691772 -0.067405075
000180 9b fa d1 3d af b3 8f 3c ec de a2 3d 84 77 6f bd
       0.10252877 0.017541735 0.07952675 -0.05846359
000190 f0 0e 0a bc 32 6f 1a bd 47 42 a2 3d c5 ee 3c bd
       -0.008426413 -0.0377037 0.07922798 -0.046126146
0001a0 d3 38 b9 3c 0c 57 8b 3d fd 2f f1 3c 6d 05 6c bd
       0.022610104 0.06803712 0.029441828 -0.057622362
0001b0 9b 8e 90 3a 78 54 69 bc 00 5f 3d bd 76 5b 36 bd
       0.0011028828 -0.01424133 -0.046233177 -0.044520818
0001c0 f9 e3 a2 3d b7 1c 8a bd ec 98 e9 3c 6c 43 2a 3d
       0.079536386 -0.06743758 0.028515302 0.041568205
0001d0 1f be 78 bd e4 b3 a0 3d 1d e5 27 bd 9b 40 a3 3d
       -0.06072819 0.078468114 -0.040989984 0.07971307
0001e0 9f 86 33 3d 0d b2 37 bd 5b d2 3b 3d 71 1e f2 3c
       0.043829557 -0.044847537 0.045854907 0.029555531
0001f0 a9 c4 cc 3c 03 1c 59 3d 86 b6 8f bc a8 9b 97 3d
       0.024996119 0.05300523 -0.017543089 0.07402736
000200 4a 29 e5 bc cd 43 61 3d f0 ca f8 3c e1 5d 58 bc
       -0.02797379 0.0549963 0.030370206 -0.013205976
000210 f0 70 2b 3d 76 a4 82 3d 75 22 26 bd ac 52 51 3d
       0.041855752 0.06379025 -0.040560205 0.051104233
000220 62 be 9c bd b4 1a 2d 3c 14 21 65 3c fd 2b 19 3d
       -0.076535 0.010565449 0.013984937 0.037395466
000230 fc 3f bb 3d c9 23 82 bd 88 b8 0e bd b9 e5 3c 3d
       0.091430634 -0.06354482 -0.03484395 0.046117518
000240 3d 3e c2 3d 00 f3 73 bd 61 f8 a7 3d d1 81 72 3d
       0.09484527 -0.059557915 0.082016714 0.059205834
000250 61 02 b1 bc f6 80 5f bd c3 db b6 bd e1 b7 98 bc
       -0.02160758 -0.054566346 -0.08928635 -0.018642368
000260 78 9b 49 3d 1f 6b 5d 3d ca 79 1d bd 83 f3 5b bc
       0.049220532 0.054057237 -0.038446225 -0.013424757
000270 47 bd 7e bd 98 b0 14 bd ea 0b f0 bb aa d0 a7 3d
       -0.062192228 -0.036301225 -0.007325639 0.081940964
000280 ae 7e 93 3d fe 5d 9b 3d 89 e1 96 3d c4 83 ca bc
       0.072018966 0.07586287 0.07367236 -0.024721034
000290 da 52 8e 3b fd aa 87 3d 70 f2 47 bd b8 73 ac bc
       0.004343373 0.0662441 -0.04881519 -0.021051273
0002a0 0d 93 68 3b 34 81 71 3c d6 0a 8d 3d 9a b6 b8 bc
       0.003548804 0.014740277 0.068868324 -0.022548009
0002b0 62 65 83 3c 3b 86 64 3c 91 93 5a 3c 37 33 fb bc
       0.016039554 0.013948019 0.013340847 -0.03066407
0002c0 e5 b0 5f bc 05 c5 5e bd fa 1b 03 3c b4 a6 73 bd
       -0.013653015 -0.05438711 0.008002276 -0.059485152
0002d0 e4 59 a1 3b 9c b1 51 3d 7f 0b 24 bd 91 21 cb bc
       0.004924046 0.051194772 -0.040050026 -0.02479628
0002e0 9d 9b 6f 3d fa 16 3c bd ec 14 59 bd f7 52 9c 3d
       0.058498014 -0.04592035 -0.05299847 0.07633012
0002f0 44 05 1e bd 8b 2d a1 3c 5b da c1 3d de cc 84 3d
       -0.03857924 0.019675037 0.09465476 0.06484388
000300 f5 05 88 bd a5 34 a2 bc 5b 2e fd 3c 2a 1f ff bc
       -0.06641761 -0.019800493 0.030905893 -0.03114279
000310 1e bf b4 3d 3d fe 3c bc 6c a4 38 bd dd 54 9f 3d
       0.08825515 -0.0115352245 -0.04507868 0.07779858
000320 6a 8e 85 3c 72 67 a7 3d 77 b3 ab bc b6 48 7d 3d
       0.01630326 0.081740275 -0.020959599 0.06183692
000330 e4 a9 9f 3d 1e e4 be bb 16 e3 0f bd a7 af e5 3c
       0.07796076 -0.0058255335 -0.035128675 0.02803786
000340 f9 b4 cd 3d 30 a5 87 3d 25 c0 a9 3c 9d 8e f3 3c
       0.100442834 0.06623304 0.020721504 0.02973109
000350 7d 70 54 bc a9 24 39 bc 7f 3d a9 3d df 45 99 3d
       -0.012966272 -0.011300244 0.082636826 0.0748403
000360 b6 8a 06 3c e0 9d 3d 3c 59 62 82 3b ed 28 3c bd
       0.008211782 0.011573285 0.003979009 -0.045937467
000370 57 17 9f 3a dc 21 33 3d bb 8c 8e 3d 0e 88 9e 3d
       0.0012137693 0.043733463 0.06960436 0.07740794
000380 0b 48 7d 3c ae 60 43 3d 3f 78 57 3d 89 57 ec 3b
       0.015459071 0.047699623 0.05260491 0.0072125834
000390 d5 ec 0a 3d 27 d3 eb 3c 9b a6 50 bc 5f 72 fe 3d
       0.033917267 0.028787209 -0.012735034 0.12424158
0003a0 87 9b ac 3d 5a 77 4f bd d0 48 02 3e e9 90 aa 3d
       0.08428102 -0.050650932 0.12723088 0.08328421
0003b0 78 65 89 bd 75 5f 42 3d b8 88 b9 bb 02 20 90 3c
       -0.06708807 0.047454316 -0.00566205 0.017593388
0003c0 1d cb a4 3d 7b 58 b5 3c 67 fa 0a bd 7d 09 78 bd
       0.08046553 0.022136917 -0.03393021 -0.060555924
0003d0 33 82 34 bd 17 6e b6 3d 8f 59 56 bd a4 7e ec 3c
       -0.04406948 0.08907717 -0.052331503 0.02886898
0003e0 75 f0 4d 3d 67 e3 b0 3d 77 da f9 bb a5 74 dd 3c
       0.050278146 0.086371236 -0.00762492 0.02703316
0003f0 b0 63 a1 3d 26 af 98 3b d9 2c 90 bc 03 ad 51 3c
       0.07880342 0.004659551 -0.01759951 0.012797597
