Data/PredictionsData/AB07.pth (torch, 828430 bytes, 10 tensors)

lstm.weight_ih_l0 f4 [512, 13]
000000 55 1e da 3c b4 dc 76 bd f3 5f bb bd b1 43 65 3d
       0.026625792 -0.060269073 -0.0914916 0.05597276
000010 a2 e0 b5 bd 74 4a a4 bd 33 62 5f bd 28 77 8f 3c
       -0.08880736 -0.08022013 -0.05453701 0.017512873
000020 a2 33 91 3d 76 c5 e5 bd 9e 02 47 bc 67 89 c8 3d
       0.07089926 -0.11219303 -0.01214662 0.097918324
000030 f1 b7 cb 3d ba 04 d2 3d 6d 79 db 3d a5 ec 1b bd
       0.099471934 0.10254808 0.107165195 -0.03806748
000040 40 c4 ce 3c ed d3 7a bd f8 66 c0 3d eb 40 98 bd
       0.025240064 -0.061237264 0.0939464 -0.07434257
000050 a9 08 9e 3d 45 1d 5e bb 4b 19 94 bc 37 23 c6 bc
       0.077164955 -0.0033891958 -0.018078467 -0.024186714
000060 76 52 dd bd 71 8e da 3d ff 61 cb 3b 55 e0 de 3b
       -0.10806744 0.106717 0.0062067504 0.006801645
000070 f2 73 09 bd ab a4 4d bc 46 cb d9 bc e3 ab b4 3c
       -0.03355784 -0.012551467 -0.026586186 0.022054618
000080 28 36 d4 bc 9a 59 9d 3c fc 92 e4 3c e0 a7 91 3d
       -0.02590473 0.019207764 0.027902119 0.07112098
000090 7e ed a3 3d f1 d4 d6 3c e4 00 c4 3d 0a 03 df bd
       0.080042824 0.026224585 0.095704824 -0.108892515
0000a0 0f 29 02 be f7 42 7f 3a 57 06 04 bd 6c 0f 0e bd
       -0.12710975 0.00097374566 -0.03223261 -0.034682676
0000b0 a2 d7 d7 bd 89 e1 22 3e 4b 8a b2 3d b7 02 0b be
       -0.105391756 0.15906347 0.087177835 -0.13575254
0000c0 d6 16 98 bd 71 ed f2 3d c3 a1 23 3d 47 0f 26 bd
       -0.074262306 0.118616946 0.03994919 -0.040541913
0000d0 41 dd a9 bd 75 69 f7 bc bf 35 be bd be c0 c5 bd
       -0.08294154 -0.030201653 -0.09287595 -0.09655903
0000e0 49 64 90 bd 6c 5b 99 3c 75 c2 b1 3d 38 ea 72 3c
       -0.07050378 0.018720351 0.08679668 0.01482635
0000f0 2b 70 a8 bb 00 e1 a0 bd 51 d8 1d 3d 7b 02 6f bd
       -0.0051403246 -0.07855415 0.038536374 -0.058351975
000100 d4 9e 64 bc a3 78 e4 3c 74 51 9d 3d a7 d4 b1 bd
       -0.013953883 0.027889555 0.076815516 -0.08683138
000110 60 04 81 3d 7f 37 85 3c fc cc 58 bd 94 61 ca bd
       0.062996626 0.016261814 -0.052929863 -0.09881893
000120 a3 0b ea bc 3e 12 7c bd 32 f8 c9 bd 72 77 80 bd
       -0.028570002 -0.061540835 -0.098617926 -0.062727824
000130 18 58 49 bd cb bf 93 bd 1e 03 9e bc 45 65 27 3d
       -0.04915628 -0.07214316 -0.019288596 0.040868063
000140 71 ec f5 bc 7b ee a9 3d 9a 2b 66 3c ee 3b 0b be
       -0.03001997 0.0829744 0.014048481 -0.1359708
000150 7f 16 4c 3d be 32 1a 3e 38 b7 94 bd b4 9a e7 bc
       0.04982614 0.15058419 -0.07261509 -0.02827201
000160 b1 5f dd bd 1e ff be bc f7 62 b7 3d 3d 71 56 3d
       -0.10809267 -0.023315009 0.08954423 0.052354086
000170 68 6f 96 3d a9 f6 e4 ba 95 e9 50 bd 97 a8 0e 3c
       0.07345468 -0.001746853 -0.05100401 0.008707187
000180 cb 23 c1 bd 25 61 94 3d 92 c5 2a bd bd 2d dc 3c
       -0.09430655 0.07245091 -0.041692324 0.026877278
000190 52 71 67 bc 34 c5 cf bc d8 7b 95 bd 50 e0 c5 3d
       -0.014126139 -0.025362588 -0.07299012 0.09661925
0001a0 2f d8 1b 3d 3d b2 43 3d 15 58 44 3d 5a 45 b5 3d
       0.038047966 0.047777403 0.047935564 0.088511184
0001b0 91 74 5e bd 62 65 19 bd d8 dc 0f 3e 9e a5 4e bd
       -0.054310385 -0.0374502 0.14049089 -0.050450914
0001c0 3f 03 70 bc b2 fa 85 3d 5e 66 10 3e 2d 95 3a bc
       -0.014649211 0.06541957 0.1410155 -0.011388105
0001d0 08 bd c7 bc 8e 52 5c 3d 76 1a fb 3d 69 ae f4 bb
       -0.02438213 0.053789668 0.122609064 -0.0074670804
0001e0 d8 6e 3f bd f4 ea 41 3d 7b f8 18 3d c0 e8 fb bd
       -0.04673657 0.04734321 0.037346344 -0.12300253
0001f0 93 c6 6e bd 75 b3 68 bd 8d 71 33 bd ce 77 6b 3d
       -0.058294844 -0.05681177 -0.043809462 0.0574873
000200 96 4f 41 3d 4b 49 e2 3b 7b bf f2 3c a0 18 5a bd
       0.04719504 0.00690571 0.02963232 -0.05324614
000210 46 ae 10 bc 96 5b 44 3d dc b9 01 3b f9 48 98 bb
       -0.0088306125 0.047938906 0.0019794619 -0.004647371
000220 2f c8 2d bc 0c 83 dc bd 20 0c 24 be 7f 40 b2 bd
       -0.0106068095 -0.10767183 -0.1602025 -0.08703708
000230 69 d1 96 bc ae 9d c4 3d 2a 58 41 bc df 94 05 3e
       -0.018410401 0.096003875 -0.011800805 0.13045071
000240 99 2e 06 3b 74 27 fb 3d f8 35 88 3d d3 6c da 3c
       0.0020474552 0.122633845 0.06650919 0.02666322
000250 51 60 2e bc 8c b0 19 bd b5 a1 96 3d b3 49 62 bd
       -0.010643081 -0.037521884 0.07355062 -0.055246066
000260 90 bb a2 3d 9b 5c 84 bd 85 e0 37 3d 7e 9c 9f bd
       0.07945931 -0.064629756 0.044891853 -0.077935204
000270 7f 28 95 3d 46 cb 37 3d 34 0c cf 3d 13 82 5d 3d
       0.07283115 0.04487159 0.101097494 0.054079127
000280 7a dd 9a 3a c1 e4 96 3d ed 96 92 bd e4 0c ce ba
       0.0011815273 0.0736785 -0.07157693 -0.0015720394
000290 bd 55 66 bd ab 62 f0 3c 44 25 07 3d 92 76 03 bd
       -0.05623411 0.029343924 0.032994524 -0.0320955
0002a0 6d ae 65 3c 5d 28 c7 3d 07 ad c0 3c f8 b3 36 bd
       0.014018637 0.097244956 0.023520006 -0.044605225
0002b0 08 59 f7 3d f8 0e 6c 3d 7e 7c b1 3d b9 5f ca bd
       0.12077528 0.057631463 0.08666323 -0.09881539
0002c0 1f 17 46 3a 80 51 bd bc da 4d 81 3d 0b 6a 2a bd
       0.0007556546 -0.023110151 0.06313677 -0.041605037
0002d0 9c 7d 07 3e 9a 11 e0 bd fd 87 7e 3d 25 cd 01 3d
       0.1323151 -0.10940857 0.062141407 0.03168978
0002e0 1f 31 4d bd f9 84 38 3d 00 c3 bc 3c 7e d8 9d bd
       -0.050095674 0.045048688 0.023042202 -0.07707308
0002f0 e5 2c d1 3d 7d 6b 21 3c 4f 65 aa 3c fd 11 a4 bc
       0.10213641 0.009852287 0.02080026 -0.020028109
000300 a7 e5 6e 3d ad 57 df bc c3 6e 62 bd 6c 5f 3d bd
       0.058324482 -0.027263487 -0.05528141 -0.04623358
000310 80 58 db 3a 67 ce 53 bd c9 33 a8 3d 52 cd c4 3d
       0.0016734749 -0.051710512 0.08213002 0.09609474
000320 0e fc cb 3c 0f 3e 0b 3e 49 b1 0a 3c b9 8d ef bc
       0.024900462 0.13597892 0.00846512 -0.029242383
000330 42 86 4e 3d a4 ef db bd 81 16 b9 bd c1 fd 58 bd
       0.050421007 -0.10739067 -0.090374954 -0.052976374
000340 98 a0 a1 3c 13 95 8c 3d 1f 63 85 3c fd 1b 14 bc
       0.019729897 0.06864371 0.016282616 -0.009039876
000350 c1 be b3 3c 57 cb af 3d 9e cd df bd 1e fd 4f bd
       0.021941544 0.08583706 -0.1092789 -0.0507785
000360 ae 65 9b 3c dc 35 15 bd f9 29 79 bd 83 78 3d 3c
       0.018969383 -0.036428317 -0.060831044 0.011564377
000370 f2 d1 0f 3d 72 29 8a 3c 39 90 12 3d c4 25 43 3c
       0.03511233 0.016865466 0.035782073 0.0119108595
000380 94 fb 75 bd 33 4c 1f 3d 11 48 4b bb 61 31 93 bc
       -0.060054377 0.03889103 -0.0031018297 -0.017967882
000390 34 d2 9c 3d f5 25 27 3c 04 b0 bc 3d e1 65 c4 bd
       0.076572806 0.010201921 0.0921326 -0.09589744
0003a0 6f 80 94 3d 98 1f 36 bc b8 d4 4c 3c a1 e4 1a 3d
       0.07251059 -0.011115931 0.012501888 0.037815694
0003b0 25 df 82 3c ca 05 bf 3d 56 be 7f bd 19 de 75 3d
       0.015975544 0.09327276 -0.062437378 0.060026262
0003c0 b8 80 0d be 93 fb a5 3a ca b0 48 bd a0 3c f8 bc
       -0.13818634 0.0012663476 -0.048996724 -0.030302346
0003d0 87 49 d0 3d 0b 85 9b 3d c8 b7 98 3d 03 82 a5 bd
       0.10170274 0.07593735 0.074569285 -0.080814384
0003e0 14 61 e7 bc 61 b9 be 3d a6 2f 01 3d a8 6f 3a bd
       -0.028244533 0.09312702 0.03153958 -0.04551664
0003f0 9f c4 c9 bd 67 c9 19 3d 7a a5 7c 3b 00 5e 8d 3b
       -0.098519556 0.037545588 0.003855078 0.004314184

lstm.weight_hh_l0 f4 [512, 128]
000000 e4 01 5c 3d 03 37 b1 bc 55 a4 e8 3d b1 99 c1 bd
       0.05371274 -0.021632677 0.11359469 -0.094531424
000010 7c 83 87 bd ee 02 1c 3d 33 96 67 3d 68 9d 0f bd
       -0.066168755 0.03808873 0.056539726 -0.035062224
000020 4f 4e 1b bd 91 88 a7 3d 3f 56 b0 bd 37 6e 8b bd
       -0.037916478 0.08180345 -0.086102 -0.06808131
000030 4a 03 2c bb c7 7d c5 bc 3a 76 41 bc 16 3c 5e bc
       -0.0026247078 -0.024107827 -0.011807973 -0.01356413
000040 23 69 6a 3d 2e 02 aa bb fe 01 49 bd e9 f7 9a 3d
       0.057229172 -0.005188248 -0.049074166 0.07566816
000050 46 28 8f bb fd 4f fa 3c 6f 62 0a bb 22 71 be 3d
       -0.0043688146 0.03055572 -0.00211158 0.09298922
000060 5c ba 74 3b 2e 29 6a 3a d8 7f 4a 3c 74 5c 91 bd
       0.0037342524 0.0008932528 0.012359582 -0.07097712
000070 b3 f6 ff 3c c1 6f a6 bd 5a 6d 49 bd e2 9a e7 bc
       0.031245565 -0.08126784 -0.04917655 -0.028272096
000080 48 32 9f bd 7f 89 3e bd bc a1 1a 3d 16 ef b6 bd
       -0.07773262 -0.046517845 0.0377519 -0.08932321
000090 3a cf f1 bc 06 19 9a 3d 04 32 49 bd 90 de 8c bc
       -0.029517759 0.07524304 -0.049119964 -0.01719597
0000a0 3a 54 cd 3c cb 02 4a bd a8 58 7c 3d 92 9b d2 3c
       0.025064576 -0.04931907 0.061607987 0.025708947
0000b0 df 8d 2f bd bd 79 6d 3c 18 cb 94 3c ac c8 58 b9
       -0.04285991 0.014494357 0.018163249 -0.00020674121
0000c0 b7 dd af 3a ec 88 31 bd ed 7f 44 bd 28 d6 53 bd
       0.0013417517 -0.04334347 -0.047973562 -0.051717907
0000d0 0b b5 b7 3d 0d a7 68 bb 45 86 61 3d 4f e2 f1 3c
       0.08970078 -0.003549996 0.05505969 0.029526858
0000e0 cf c5 5c 3d 81 76 82 3d 0e 4a 04 bc 00 f2 e5 3c
       0.053899582 0.06370259 -0.008074297 0.028069496
0000f0 ba 5a 1d bd e4 6a 14 bc 93 3d a2 3c fb 32 3e bd
       -0.0384166 -0.009058688 0.019804752 -0.046435338
000100 d9 3a 0f bd f9 fe b2 bd 9d 69 41 3d af c5 80 bd
       -0.03496823 -0.087400384 0.04721986 -0.06287705
000110 9d 0c 94 bd 65 1f b7 bc 96 42 4f 3d 37 75 2b bd
       -0.07228968 -0.022353837 0.05060061 -0.04185983
000120 b3 ef 57 3d d7 38 e2 3d 8c 3c ab 3d 4e 6b c2 bc
       0.05271883 0.110459976 0.08361158 -0.023732807
000130 fa 14 02 3d 5a bb ba bd c7 1c 92 bd 2d cc ec ba
       0.031758286 -0.09117766 -0.07134395 -0.001806622
000140 19 b0 82 3d d3 d0 80 bc b7 09 10 bd f8 7f 1b bd
       0.06381244 -0.015724575 -0.035165515 -0.037963837
000150 d6 9f ac bd 2d bd 10 3d a0 e6 33 3d 9d fb 81 3d
       -0.08428924 0.035336662 0.043921113 0.063468195
000160 96 da a4 3d 2b 64 89 3d b6 19 44 3d a0 9f 48 bd
       0.080495045 0.06708559 0.047876082 -0.048980355
000170 db 90 2d bb 11 0a 36 3d 17 ef de bc 1b fd 63 bd
       -0.0026484046 0.044443194 -0.027213616 -0.055661302
000180 dd 17 09 bd c2 57 ab 3d 34 d6 9b 3b 63 13 92 3d
       -0.033470023 0.08366348 0.0047557596 0.07132604
000190 ab 49 f5 bd 36 46 17 bd f8 16 cb 3d f0 cc 66 3a
       -0.11976942 -0.036932193 0.0991649 0.0008804342
0001a0 1f 06 39 bd e2 a2 1f bd b3 5f 81 bd 40 ed ba bd
       -0.045171853 -0.038973697 -0.06317081 -0.09127283
0001b0 0a 9c a0 3b 46 ea eb bd 48 15 b6 3d f9 76 86 3b
       0.004901414 -0.115192935 0.08890778 0.004103538
0001c0 fa ca ba 3b 3e cb 83 bd 60 c9 33 bc 48 b7 f6 3c
       0.005700466 -0.0643525 -0.0109733045 0.030116692
0001d0 39 95 8f ba be 95 ad 3c cd ee 96 bd 7c 6a 09 bd
       -0.0010954506 0.021189567 -0.073697664 -0.033548817
0001e0 a8 88 d7 ba a0 61 18 bd bf de 37 3d b6 c6 cb bd
       -0.0016443925 -0.037202477 0.04489016 -0.099500105
0001f0 3c a6 91 3d 11 43 1c bd 19 e3 1c 3d f1 a9 54 bc
       0.07111785 -0.038149897 0.038302515 -0.01297997
000200 35 70 ba bc 57 98 9d bb f3 bf 11 3c 6b d2 99 3d
       -0.022758583 -0.00480942 0.008895862 0.07510837
000210 4e 88 e8 bb 5f fe c1 bd 04 bf 62 3c 5b ff 60 3d
       -0.007096327 -0.094723456 0.013839487 0.054931026
000220 7b 45 ad 3d 71 6e 53 bd 6d 17 fb 3d 1b c1 63 bd
       0.08460518 -0.051618997 0.122603275 -0.05560408
000230 65 08 b4 3d 80 32 82 bd 7e 7f 0a bc b1 6d 00 bd
       0.08790664 -0.06357288 -0.008453248 -0.03135461
000240 85 d1 8d 3d 0a 1e 5c bd 9a f8 a1 3c 1d 55 a0 39
       0.06924728 -0.053739585 0.019771863 0.00030580992
000250 c3 65 71 3b 24 52 a6 3c 76 e0 98 bd 3f 19 26 bd
       0.0036834336 0.02030284 -0.074646875 -0.04055142
000260 47 6a 35 bd 77 df fb bc 80 20 90 bd bb 0d 9e 3b
       -0.044290807 -0.030746205 -0.07037449 0.004823414
000270 b5 cf c1 bd 51 3d ad bd 02 ad 88 bd e6 3a 0f 3d
       -0.09463445 -0.08458961 -0.066736236 0.03496828
000280 82 0a 8a bc b6 37 25 bd fc 49 9d 3d 55 df ad 3d
       -0.016850714 -0.040336333 0.07680127 0.08489863
000290 50 ce 4f bc f6 8b 39 bd 39 06 ac 3d 98 16 89 3d
       -0.012683466 -0.045299493 0.083996244 0.066937625
0002a0 39 cf 23 bd b2 b4 19 3c eb 86 d0 bc 7b a4 ea bd
       -0.039992545 0.00938146 -0.025454959 -0.114571534
0002b0 cb 9a e7 bc ef b2 9e 3d ff c7 1c bc 41 7b cd bc
       -0.028272053 0.077489726 -0.009569167 -0.025083186
0002c0 cd 31 3f 3d b9 64 8e 3b db 72 59 3d 90 7c d7 3c
       0.046678353 0.004345503 0.05308805 0.026304513
0002d0 bc 7d 53 3c f5 8e 5b bd 56 37 94 3c c3 40 89 bd
       0.012908395 -0.05360313 0.018092792 -0.067018054
0002e0 31 1e 8f bd a8 0d 84 bd 4b 66 84 3d ef d4 89 bd
       -0.069881804 -0.06447917 0.06464823 -0.06730067
0002f0 4e 0a 8a 3b ae 4c 38 3c 6b f6 bd 3d 7c f1 2e 3b
       0.004212654 0.011248751 0.09275516 0.002669423
000300 60 d6 18 3d a0 5a e6 bb cf d6 f8 3c 30 b6 56 3d
       0.03731382 -0.0070298463 0.030375866 0.05241984
000310 87 90 16 bd 8e 64 5e bd 58 00 79 bd 7d 4c a6 3c
       -0.036758926 -0.054295115 -0.060791343 0.020300144
000320 0a 4e eb 3b 98 76 6c 3a 97 fe 20 bd 3a d5 38 bc
       0.007180934 0.00090203574 -0.039305296 -0.011281306
000330 07 cc 42 bd ec b7 c8 bc 4f c6 aa 3d f9 b9 81 bc
       -0.047557857 -0.024501763 0.083386056 -0.015835749
000340 7a 4d 8c 3d d5 d6 13 bd 66 d4 77 bb 0f 05 65 bd
       0.06850715 -0.03609355 -0.0037815808 -0.055913027
000350 16 5d 52 bd b4 d1 6c bd f8 94 2d be b6 0b 30 3d
       -0.051358305 -0.057817176 -0.16951358 0.04297992
000360 e5 9e 5a bd 71 92 04 3d 29 a3 21 bd 43 9d 5c 3c
       -0.05337419 0.03236622 -0.039462242 0.0134652285
000370 3b fe b3 3d 6e f9 a5 bd e0 09 6e 3d 53 86 9f bd
       0.08788725 -0.081042156 0.058114886 -0.07789292
000380 86 6c 20 3c 9d 97 7b 3c f3 27 a4 bc fd b5 33 bc
       0.009791499 0.015355972 -0.02003858 -0.010968682
000390 d4 9c a6 bc 11 cd 40 3d 18 2d 13 3b 76 55 b2 3d
       -0.020338453 0.047070567 0.0022457298 0.08707707
0003a0 d7 f6 7c 3d 9c 6e 71 3d 85 33 39 3c 5f 15 92 bd
       0.061758842 0.058943376 0.011303787 -0.071329825
0003b0 82 a7 43 bd 74 7d f5 bd 62 8d be bd 3c 4a 55 3d
       -0.04776717 -0.11986819 -0.093043104 0.05207275
0003c0 c7 c2 16 bd a2 32 c6 bc e6 40 0a 3d e5 41 cf 3c
       -0.036806848 -0.024194065 0.0337533 0.025299976
0003d0 a5 b0 b6 bc 4d b2 dc bc 9c 8b 49 bc 7e 31 1d 3d
       -0.022301028 -0.02694049 -0.012301352 0.038377278
0003e0 60 9f 32 3c 77 1e 6d 3d 85 00 ef bb 6b ec d3 bd
       0.010902256 0.05789038 -0.007293763 -0.103478275
0003f0 df b2 08 3d 51 ad 69 bd 2c 6a d4 bd 04 a2 c1 bd
       0.03337371 -0.057050053 -0.10371813 -0.0945473

lstm.bias_ih_l0 f4 [512]
000000 4d 8a db 3d fb 98 24 bd 44 29 cd 3c 17 cb 7b 3d
       0.10719738 -0.040184956 0.025044091 0.06147298
000010 28 31 a0 bc 26 4e c3 3d cc f2 af bc 5c 65 49 bd
       -0.01955469 0.0953639 -0.02147808 -0.04916893
000020 91 d9 89 3d a4 a6 d2 3d db 64 23 bd 46 ff 46 3c
       0.067309506 0.102856904 -0.039891105 0.012145823
000030 03 83 91 3d 5e 21 c8 3d 25 d3 aa 3d e6 10 0d 3d
       0.071050666 0.09771989 0.08341054 0.034439944
000040 cb 97 1b ba 47 3c 7f 3b 3d b7 7d 3d 18 9e 10 bd
       -0.00059353997 0.003894584 0.061942328 -0.03530702
000050 89 7f 41 3d 28 85 13 3d 1b ba 89 3d 06 b7 25 3d
       0.047240768 0.03601566 0.0672495 0.040457748
000060 88 b2 0a bd c9 bd 17 3e 1c ae 00 3e 2c 76 74 3d
       -0.033861667 0.14818491 0.12566417 0.05968301
000070 cd 52 36 3d f1 35 ce 3c 57 d3 19 3c 82 61 95 3d
       0.04451256 0.025172206 0.009388766 0.07293989
000080 22 2b c7 3b ab 0d c4 3d ea d5 61 bc 2c ce 04 bb
       0.00607814 0.095729195 -0.013783911 -0.002026449
000090 e3 bb 5b 3d 82 ab c7 3c 4a 76 f6 3c 2d 48 74 bc
       0.05364598 0.024373773 0.030085701 -0.014909786
0000a0 94 b4 60 3d 45 a3 7a bd 5e cb db bc c0 95 a5 3d
       0.054859713 -0.061190862 -0.026830371 0.08085203
0000b0 e2 c9 a5 3d 30 91 9a bc 6c 68 d2 bc bb f5 09 3e
       0.08095147 -0.018868059 -0.025684558 0.13472645
0000c0 d9 11 40 3d 94 a1 22 3d dc b7 b5 3d 8d 4d 12 3d
       0.04689202 0.039704874 0.08872959 0.03571849
0000d0 6d a7 81 3d a1 4c 45 bd e5 a7 7d 3d 26 7c 97 3d
       0.06330762 -0.048168782 0.061927695 0.07396726
0000e0 02 2b ce bc f5 fe 0f bc b7 80 f5 3c 71 d8 3b bd
       -0.025166992 -0.008788814 0.029968603 -0.04586071
0000f0 2f 66 ba 3b cf d1 56 bc d9 6d aa 3d 90 34 93 3d
       0.0056884508 -0.013111546 0.08321733 0.0718776
000100 4f 91 25 3a 31 fe d6 3d 50 00 b7 3d 0c 75 64 3d
       0.0006315903 0.10497702 0.089356065 0.055775687
000110 a1 e1 71 3d 58 87 e0 3d 98 7b 65 3c 55 86 87 3d
       0.059053067 0.10963315 0.014006518 0.06617419
000120 00 44 b0 3d 6c df 0b bd 92 67 c7 3d c6 0b 4e bd
       0.0860672 -0.03414862 0.09736551 -0.050304197
000130 7c 7a cd 3b e7 91 d1 bc 97 fb ee bc 21 88 1d 3d
       0.006270705 -0.025582267 -0.029172702 0.0384599
000140 ca 98 66 3d 88 64 43 bd fb fa 89 3d b5 ff 95 3d
       0.056298055 -0.047703296 0.06737324 0.07324163
000150 70 06 c0 3d e7 46 4f 3d 81 41 be bc e2 db 1a bc
       0.09376228 0.050604727 -0.023224594 -0.009451838
000160 16 71 37 3c df ec 31 3d 73 e7 69 3d b0 04 34 bd
       0.011196395 0.04343879 0.057105493 -0.043949783
000170 40 27 2d bd a2 d1 45 3d 59 1f 3f 3d 8a 94 c3 3d
       -0.04227376 0.048295625 0.046660755 0.09549816
000180 65 a0 f6 3d 48 28 75 bc 0e 14 76 bc 93 1f a4 bc
       0.120423116 -0.014963217 -0.01501943 -0.020034587
000190 9d cc cd 3d d5 09 0c 3d 33 ba 29 bc c0 3f ba 3c
       0.100487925 0.034189064 -0.010359335 0.022735476
0001a0 af ac 7b 3d ea 52 38 3d f2 a5 c6 3b 6f 48 f9 3d
       0.06144398 0.045000948 0.0060622627 0.12172019
0001b0 4a 00 f8 3c 18 6d 95 3c 3f 60 91 bc be 1a 1b bd
       0.030273575 0.018240497 -0.017746089 -0.0378673
0001c0 8d 7b a2 3c 9e d3 b2 3d ad 42 12 bc b9 d6 e9 3d
       0.019834304 0.08731769 -0.00892703 0.11417908
0001d0 20 30 a9 3b 33 23 38 bd 86 b7 c9 3c 83 f0 e2 3d
       0.0051632077 -0.044955444 0.024623644 0.1108103
0001e0 6c 7d 07 3d 6f e3 49 bd 26 b3 65 bc 4e 8f 87 bd
       0.033078596 -0.049289163 -0.014019763 -0.0661913
0001f0 ae e3 bb 3c 24 e9 c4 3d 56 d8 27 bd c9 ae 30 bd
       0.022935715 0.096147805 -0.0409778 -0.043135438
000200 ac 8c 08 bd 72 40 af 3d a0 cb 74 3d f9 a2 60 bd
       -0.03333728 0.08557214 0.059764504 -0.054842923
000210 70 3c bc bc 57 c7 c3 3d 70 88 1d bd b2 b7 1b bd
       -0.022978038 0.095595054 -0.038460195 -0.038016982
000220 81 05 ea 3c c4 7b 3b bc f9 59 2c bd cf 52 60 3d
       0.028567078 -0.011443082 -0.042077992 0.054766472
000230 47 5b 90 3a 5f 95 02 bd 07 71 ab 3d 66 2a cf 3d
       0.0011013531 -0.031880733 0.08371168 0.10115509
000240 64 27 52 3d 57 9e d6 3d d1 33 1b bd 3c 86 b7 3b
       0.051307097 0.1047942 -0.037891213 0.005600719
000250 9d 73 14 3d 41 ce 2c 3c bd 30 63 bb 97 30 c9 3d
       0.03624307 0.010547222 -0.0034666501 0.09823721
000260 f9 f5 45 3d 03 25 ed 3b 52 b9 f9 3d 12 b9 aa 3d
       0.04833028 0.007237078 0.1219355 0.083360806
000270 8c 18 6b bc da 80 a0 3c 28 75 3b 3d 62 dc 88 bc
       -0.014349114 0.019592691 0.045766026 -0.01670665
000280 a9 12 10 3d a8 67 87 3d d6 78 bb 3d 7d ee 57 bd
       0.035174046 0.06611568 0.09153907 -0.052717675
000290 89 b0 35 3d 76 3c ba 3c aa 00 1f bc 52 29 64 3b
       0.04435781 0.022733908 -0.009704748 0.0034814668
0002a0 45 1f 3d bc 59 2b 19 bd 09 c4 e3 3c 62 f2 cc 3d
       -0.0115431 -0.037394855 0.027803438 0.10007168
0002b0 40 a1 1b bc 02 65 72 bb 69 53 b0 3d 9d c5 c3 3d
       -0.009498894 -0.0036986475 0.08609659 0.09559176
0002c0 35 dc d3 3d bf 9e 38 3c 01 23 77 3d 9a 1f 0c 3d
       0.103447355 0.011268317 0.060336117 0.034209825
0002d0 51 23 56 3d 68 31 5c 3d e6 49 fa 3a 9f b3 2b 3d
       0.052279774 0.053758055 0.001909551 0.041919347
0002e0 22 a8 bf 3d 0c 60 01 bd 2c cf eb bc 5a db 89 bd
       0.09358241 -0.031585738 -0.02878531 -0.06731291
0002f0 10 bf d2 ba 7c ff 5a bc 3b 82 27 bc 09 f3 2b 3c
       -0.001607867 -0.013366576 -0.01022392 0.010494956
000300 56 27 d4 3d f9 e9 1d 3d 47 b7 49 3d 90 6a c8 bc
       0.10359065 0.03855321 0.049247053 -0.024464875
000310 bf 25 5f 3d f0 c7 ad 3d 23 b5 64 3c 09 1b bd 3d
       0.054479357 0.08485401 0.013959202 0.09233672
000320 9d f8 41 bd bd 55 7f 3d f8 ee 33 3d 95 07 8c bc
       -0.047356237 0.062337626 0.04392907 -0.01709346
000330 99 8f 0c bd bc 31 54 bd 7d 2a ab bb 46 05 96 bc
       -0.034316633 -0.051805243 -0.005223571 -0.018313061
000340 f6 65 08 bd 01 5d 3a bd e9 91 60 bd 1f 87 ed 3d
       -0.033300363 -0.04549885 -0.05482665 0.11598038
000350 df 2f b8 3d ff 95 7c bc ba 4e 83 3d 0c 29 d4 3d
       0.08993506 -0.015416621 0.064115 0.103593916
000360 35 ed 92 3d 02 fe ab 3d 37 cc fd bc 06 ae ae 3c
       0.0717415 0.083980575 -0.030981166 0.021323215
000370 25 71 ca 3d 45 78 14 3e a1 3c b3 bc 43 03 1e 3d
       0.09884862 0.14499004 -0.021879496 0.03857733
000380 c2 fa f0 3d b9 00 f9 bb 5f 47 89 bc 84 bf b9 3d
       0.11766578 -0.007598963 -0.016757665 0.09069732
000390 01 a9 f1 3d e9 78 19 bd cd b0 99 3c 83 2f 9d 3b
       0.11799813 -0.037468825 0.018761063 0.0047969236
0003a0 e1 51 68 3d 43 d6 0f bd 90 4b d6 3b 7b 32 c5 bc
       0.05671871 -0.035116445 0.0065397695 -0.024071923
0003b0 b9 d8 0f bd 47 7d a5 3d 38 bc 22 3c 3a 16 0f 3d
       -0.035118792 0.080805354 0.00993257 0.034933306
0003c0 84 0e b7 3d a6 48 2c bd 10 30 3e 3c fe e4 f2 3c
       0.089383155 -0.04206147 0.011608139 0.029650208
0003d0 37 f0 1a 3d 06 0c 46 bd 0f b6 a4 bc 18 aa db bc
       0.037826743 -0.04835131 -0.020106344 -0.026814505
0003e0 4a c1 90 bd 63 f8 e3 3d 60 40 1c 3d 75 d8 93 bd
       -0.07068117 0.111313604 0.03814733 -0.0721902
0003f0 91 06 b5 bc dc 38 c3 3d bd 31 c7 3d 88 67 2f bd
       -0.022097858 0.095323294 0.09726284 -0.042823344

lstm.bias_hh_l0 f4 [512]
000000 a9 ae 46 bd 51 9c 7f bb cb 30 c9 3c e1 3e df 3d
       -0.048506413 -0.0039003084 0.0245594 0.10900665
000010 1b 10 0b bd c5 02 9e 3d 9d 7b e2 3d e5 b0 05 3d
       -0.033950906 0.07715372 0.110587336 0.032639403
000020 44 ba 56 3d c5 6b b2 3d e5 95 cb 3b bb b1 1e bd
       0.05242373 0.08711962 0.006212937 -0.038743716
000030 60 b4 f0 bc 85 04 89 bc 88 c2 91 3d 8c 2f 9f 3d
       -0.029382885 -0.016725788 0.07117182 0.07772741
000040 7e 60 9c 3a f8 71 ee bc ae ec cf 3d a8 cf 04 bd
       0.0011930612 -0.029107079 0.10152565 -0.0324246
000050 33 a3 ca 3c c9 01 b8 3d 3f 63 06 3e 29 cb 82 bd
       0.024736023 0.089847155 0.13123797 -0.06386406
000060 d1 ee 05 bd f6 71 04 3d 54 36 bb bc 85 db 68 ba
       -0.032698456 0.032335244 -0.022853054 -0.00088828086
000070 98 4d 93 3d 71 a6 ae bc 16 b0 34 bc 59 be e7 3d
       0.07192534 -0.0213196 -0.01102831 0.11315603
000080 ab a3 ec bb 6a 82 56 3d fa ed 14 bd 95 3d 5e bd
       -0.007221659 0.052370466 -0.036359765 -0.054257948
000090 6b 35 13 3d be df 9b 3d fc e3 99 3d 56 c5 e9 bc
       0.035939615 0.07611035 0.07514188 -0.02853648
0000a0 6d 91 1d bd e0 7c 02 3d 9e 47 a6 bc 1f fa bd bc
       -0.038468767 0.03185737 -0.020297822 -0.023190556
0000b0 a4 9f 27 3d 78 6e 2d 3d ad 54 11 3d 2a 65 ac bc
       0.04092373 0.04234168 0.035481144 -0.021044333
0000c0 39 2c 3c 3d 19 25 71 3d 5c 87 37 bd 60 a4 ad 3d
       0.04594061 0.05887327 -0.044806823 0.08478618
0000d0 b8 fd 5e bd ee 3c 1c 3c 97 3a 71 3d 18 61 0c bd
       -0.054441184 0.009536011 0.058893766 -0.034272283
0000e0 e7 50 ac 3d cd 27 1a 3d 69 ac db 3d 06 c2 01 bd
       0.084138684 0.037635613 0.10726244 -0.031679176
0000f0 85 38 24 bd 8e 26 42 3c 03 d4 8c 3d 68 78 20 3c
       -0.040092964 0.0118500125 0.068763755 0.009794332
000100 90 b9 17 3c 47 00 a1 3d 8e f1 cf bc 22 88 31 3d
       0.00926055 0.07861381 -0.025383737 0.043342717
000110 c9 c3 b4 3c da 73 5e bd 99 75 9e 3c 21 fe a6 3d
       0.022066014 -0.054309703 0.019343184 0.0815394
000120 4a 9d 27 bc 7f 59 02 bd 3e d0 7a 3d 32 27 03 3d
       -0.010230372 -0.03182363 0.06123375 0.0320198
000130 b1 6e 30 bd 44 a5 2e 3c 08 41 ff 3d 7a aa 05 3c
       -0.043074314 0.01065952 0.124635756 0.008158321
000140 20 d8 75 bb c6 31 b8 bb 87 fc e1 3d 41 56 a3 3d
       -0.0037512854 -0.005621168 0.11034494 0.07975436
000150 bd 2d a8 bc 9c 78 12 3c 85 19 c7 3d a4 2d e0 3d
       -0.020529622 0.008939888 0.09721664 0.10946205
000160 df b2 51 3c 79 08 41 3d 17 2f a0 bc d0 39 c8 3d
       0.012798994 0.04712722 -0.019553704 0.09776652
000170 bc 83 f3 3c 3a 4f a5 3d 23 b2 70 bd 7b c0 da 3c
       0.029725902 0.08071752 -0.058763634 0.02670311
000180 3e 7b 01 3e 2d 00 a5 3c 98 83 95 3d 00 18 36 bc
       0.1264467 0.020141685 0.0730049 -0.0111141205
000190 13 ee c4 3d 41 34 0b 3d ca be 54 3d 24 26 b5 3d
       0.096157216 0.03398538 0.051939763 0.08845165
0001a0 c9 17 0f bd f9 56 91 3d 37 29 8c 3d be 63 e6 3d
       -0.034934793 0.07096667 0.068437986 0.11249493
0001b0 27 c2 82 bd 5f 4c 0d 3d 49 33 ab bb 8b 0a 19 3d
       -0.06384688 0.03449666 -0.0052246195 0.03736357
0001c0 2d 15 4f 3c 1c 8d 87 3d dc 15 a1 3c e3 a4 da bc
       0.012639326 0.06618711 0.019663744 -0.026689952
0001d0 dd 5d 8d 3d f4 6c 7a bd 62 f7 bc 3c 0a 60 9e 3c
       0.069026686 -0.061139062 0.02306718 0.019332904
0001e0 09 10 25 3d fa cd 35 bd 0f a3 c3 3d db 25 8e 3d
       0.040298495 -0.044385888 0.09552585 0.06940814
0001f0 fc d6 cc 3c 0e 13 ca 3c 96 ac da bc 2a 24 42 3c
       0.025004856 0.02466729 -0.026693624 0.0118494425
000200 3b 1a cc 3d e7 a1 a4 bd 3c b9 4e 3d 40 5a 00 bd
       0.099659406 -0.08038693 0.050469622 -0.03133607
000210 d5 17 a7 3d 02 64 fb 3a d9 24 c3 b8 50 20 26 3b
       0.081588425 0.0019179585 -9.305188e-05 0.002534885
000220 94 de 6e bc bd 66 cc 3d 41 14 59 3d eb 8f dd 3d
       -0.014579434 0.09980533 0.05299783 0.10818466
000230 31 04 8d bd 00 1f ad 3c 92 90 1f ba 06 13 9f 3d
       -0.06885565 0.021132946 -0.00060869113 0.077673
000240 5c fd eb 3c cf 93 c9 3c e2 36 40 3d fc 2e 0a 3c
       0.028807335 0.024606613 0.04692734 0.0084340535
000250 30 7d 7f 3c e9 db d9 3d 1f d3 4d 3d 63 0a 58 3d
       0.015593812 0.10637648 0.05025017 0.05274428
000260 b8 2d ad bc 4c f6 af 3d b2 67 53 3c 28 e2 70 3d
       -0.021139964 0.08591899 0.012903141 0.05880943
000270 b1 81 83 3c 03 01 84 bd c6 6e b4 3d 1a ce b2 bc
       0.016053053 -0.064455055 0.08810191 -0.021826793
000280 fc 66 0e bc be 1d 5f 3d 94 03 0e 3d 23 31 9a 3d
       -0.008691546 0.054471724 0.03467138 0.07528903
000290 7f ec fe 3d 55 60 18 bd ce 65 3f 3d 8b 2c 81 3d
       0.12447452 -0.037201244 0.046727948 0.06307324
0002a0 dc 55 37 3d 4a 8c cc 3d 57 82 87 3d 71 ee c1 3d
       0.044759616 0.099876955 0.06616657 0.09469307
0002b0 8a fa f0 3d 4f 2b 5b 3d d5 a0 9c 3d 49 0a 06 3d
       0.117665365 0.0535081 0.07647864 0.032724652
0002c0 08 8e 6a 3c 15 85 bc 3d 72 4f 19 bd 6f ce 2d 3d
       0.014316089 0.09205071 -0.03742928 0.0424332
0002d0 7b f4 a3 3b fc 93 ae 3d 3e 56 34 bd e1 fa 73 bd
       0.0050035096 0.085243195 -0.04402756 -0.05956543
0002e0 2f 26 d0 3d 2b 87 d2 3b 72 67 f9 3b 32 f0 42 bd
       0.10163533 0.0064248047 0.0076112086 -0.04759235
0002f0 70 d7 5d 3d a2 47 db bc be 58 12 3d 85 00 e8 3c
       0.054160535 -0.026767556 0.035729162 0.02832056
000300 5d 4e 1e 3c b7 42 a0 bd 10 63 13 3d 8b 10 02 bd
       0.009662238 -0.07825225 0.035983145 -0.031754058
000310 69 d4 2e 3d 46 fe 02 3c 28 26 fb 3b 15 de 72 bd
       0.04268304 0.007995194 0.0076644607 -0.059293825
000320 ea f9 1c bc 82 00 44 bd 53 d5 e6 ba 31 fc 36 3d
       -0.0095810685 -0.047852047 -0.0017611183 0.044674102
000330 7b a6 8d 3c 1a 64 b0 3c 27 50 cc bc 42 22 cd 3d
       0.017291298 0.021532107 -0.024940563 0.100163
000340 05 94 33 bd b9 6b da 3d 99 48 a4 3d e8 74 e5 bc
       -0.043842334 0.10665078 0.080216594 -0.028009847
000350 03 4e 8c 3d e8 4e 6b bd a3 0c 10 3e b6 3e 5f 3d
       0.06850817 -0.057448298 0.1406732 0.054503165
000360 cf 43 a0 bd b5 b0 43 bd ab d3 09 3c 96 98 43 3d
       -0.078254335 -0.047775943 0.008412282 0.04775294
000370 0d 3a 37 3c e4 d2 d7 3d ba 3d 28 bd 44 52 80 3d
       0.011183274 0.10538271 -0.041074492 0.06265691
000380 38 78 0a bd f2 de 42 bd 4e bf 6b bd 69 d5 0d 3d
       -0.033806056 -0.0475759 -0.05755549 0.034627352
000390 f2 6d 9a 3d 84 81 b8 3d 7a 46 65 bd 30 b8 29 3b
       0.07540502 0.09009078 -0.055975415 0.0025897138
0003a0 70 f1 80 bd 4c 7c a3 3d 87 1f 92 3d 97 a1 84 3d
       -0.062960505 0.07982692 0.071349196 0.06476133
0003b0 27 dc ad 3d ca d7 a5 3c d4 2f 21 3b 9c e8 64 3d
       0.08489256 0.020244498 0.0024595158 0.055885896
0003c0 8f c3 e9 3c 0a a7 43 bd 4c bc c9 3d 80 0f 55 bd
       0.028535632 -0.047766723 0.09850368 -0.052016735
0003d0 78 e5 23 bd 3d 88 67 3d bb a9 38 bd aa c8 14 3d
       -0.04001376 0.05652641 -0.045083743 0.03632418
0003e0 bd 7b 37 bd 0e 85 0f 3d 62 41 5a bd 3d 39 3b 3d
       -0.04479574 0.035039 -0.05328501 0.045708884
0003f0 4f 58 33 bc e0 95 dd 3b 97 85 04 3d 10 a4 28 3d
       -0.010946347 0.0067622513 0.032353964 0.041172087

lstm.weight_ih_l1 f4 [512, 128]
000000 84 84 30 bd f8 3f b0 bd ab d5 c4 3c 1c 52 a3 bd
       -0.043095127 -0.08605951 0.024027666 -0.079746455
000010 d2 52 84 3c 15 4d db 3c 99 e8 fa bc 6a c2 58 3d
       0.016152773 0.026770154 -0.03062849 0.052919783
000020 1b 85 4e bc 8e 39 62 3d b5 94 d8 3d 06 62 46 bc
       -0.012604977 0.05523067 0.105752386 -0.012108332
000030 9b ea 35 3c 60 a2 e2 3c 7f 54 d5 3b 59 f6 fc bd
       0.011103298 0.027665317 0.006510317 -0.123516746
000040 b2 59 91 3d 92 0b 48 bd 0a df fb 3d a7 39 8e bc
       0.07097186 -0.04883916 0.12298401 -0.017361475
000050 1e 23 fe bc 01 0c 1b be 0f 6c 98 bb 0d 87 79 bd
       -0.031022605 -0.15141298 -0.0046515535 -0.06091981
000060 c5 9a d8 3d 54 1a 99 3c 1c a5 11 3c be 37 af 3d
       0.10576395 0.018689312 0.008889463 0.08555554
000070 58 f3 b9 3d 7b 64 05 3d 30 a3 7a bd b1 a8 b1 3d
       0.09079617 0.03256653 -0.061190784 0.086747535
000080 9f ab 61 bd fa ff 8e bc 54 0e e1 bd 4f db 01 3d
       -0.05509531 -0.017456044 -0.10989061 0.03170329
000090 98 33 35 3d ee e8 8a 3d 78 bf 81 b9 16 f7 93 bc
       0.044238657 0.06782709 -0.00024747453 -0.018062156
0000a0 5a 78 8c bc ea 05 6a 3c b2 3d 7e 3d a3 0e d1 3d
       -0.017147232 0.014283637 0.062070556 0.1020787
0000b0 dd b9 9d ba 5e 73 f0 3b f4 88 9f bd fa 25 50 3d
       -0.0012033541 0.0073379716 -0.077897936 0.050817467
0000c0 eb 8d 1f bd f3 b4 00 bd a7 ed 04 3d 42 f6 83 3d
       -0.038953703 -0.031422567 0.032453205 0.06443454
0000d0 37 49 1b bd 21 1e 49 bb d7 f5 19 bd ff 91 68 bd
       -0.03791162 -0.0030688124 -0.037587967 -0.056779858
0000e0 e1 95 85 bd 5d 8a 9e bc 1d 62 98 bc 65 f3 8b 3d
       -0.06522728 -0.019353086 -0.018601472 0.06833533
0000f0 ed 8e 09 be cb 0c 9f 3d f1 eb c3 3d 0a 56 97 3d
       -0.13433428 0.07766112 0.095664866 0.073894575
000100 c1 0d da 3c 39 31 b9 3d 93 16 4e 3d 63 7d dd 3d
       0.026617886 0.090425916 0.050314497 0.10814931
000110 52 fa c7 bd 6c a6 11 bc 13 bf ef bd b1 60 a2 3d
       -0.09764542 -0.008889776 -0.117063664 0.07928599
000120 3a 5e 33 3d 10 f6 a0 bd a0 20 07 3e 56 50 5e bd
       0.043791033 -0.07859433 0.13196039 -0.054275833
000130 4b 6c a5 bd a0 a0 29 be 0d 83 15 bd 17 8d 16 3c
       -0.08077296 -0.1656518 -0.036501933 0.009188912
000140 1e 1c 18 bd 72 1d be 3d 53 98 a0 3b 44 9f 63 3c
       -0.03713619 0.0928296 0.004900971 0.013892952
000150 43 cc 02 3d a1 7c 9c 3d 3d 38 9d bd 25 d1 d2 3d
       0.03193308 0.076409586 -0.07676742 0.102937974
000160 86 cd de bd d4 91 b4 bd f2 90 55 3c 49 84 b6 39
       -0.10879044 -0.08816877 0.013035046 0.00034812305
000170 34 4a d2 3a 94 6a 13 3e 16 d1 a7 bc 15 f7 0d 3d
       0.0016043843 0.14396125 -0.020485442 0.034659464
000180 87 75 08 bd 8b c8 c1 bc 5a 40 3b 3d ad 3e 86 bb
       -0.033315208 -0.023655197 0.045715667 -0.004096827
000190 64 5b cc 3c 97 2f d0 bb ec 04 fa bd 06 f4 88 3d
       0.024945922 -0.0063533294 -0.1220797 0.06687169
0001a0 22 54 30 3e bc d3 c5 bd ad a5 73 bd 57 67 43 bd
       0.17219594 -0.09659526 -0.059484173 -0.047705974
0001b0 58 9c ae bd 61 4a 41 bd 2a 85 a4 3c 95 bb 90 3c
       -0.08525914 -0.047190074 0.020083029 0.017667571
0001c0 dc 48 04 bb d9 ce 64 3d 82 ce 30 3d 68 24 6a bd
       -0.002018503 0.055861328 0.04316569 -0.057163626
0001d0 1f ea 9d 3b 51 cb 4f bd ec 17 df 3a 96 71 92 3d
       0.004819169 -0.050731007 0.0017020679 0.07150571
0001e0 ef b8 36 ba 07 a8 93 bd b4 13 66 bd e8 b4 cf 3d
       -0.0006970306 -0.07209783 -0.056171134 0.10141927
0001f0 2d ee fd bd 57 2f 57 3b c5 21 eb 3c cc b5 59 3d
       -0.12398944 0.0032834613 0.028702626 0.05315189
000200 6e 87 89 3d 84 53 51 bd 1e 7e 85 3d 85 21 51 3c
       0.06715284 -0.051105037 0.065181956 0.012764339
000210 44 33 cb bc a1 a4 8f bd 16 89 40 3d 6c af 8a 3d
       -0.024804719 -0.07013822 0.047005735 0.0677174
000220 f2 87 82 bd 26 12 60 bd 24 12 04 3d 1b c1 ae bb
       -0.06373586 -0.054704808 0.032243863 -0.0053330786
000230 84 b2 98 bd af a3 b1 3c 28 72 96 bd 12 55 a6 3b
       -0.07455924 0.021684496 -0.07345992 0.005076059
000240 ce cf b4 3d 46 01 1b 3d cc de fc bc 02 c8 c7 3a
       0.08828698 0.03784301 -0.030867957 0.0015242102
000250 28 db 0f 3d b4 d0 ca 3d 91 5b 39 bd e1 5a a9 3d
       0.035121113 0.09903088 -0.04525334 0.08269287
000260 88 04 88 bc 26 d3 d8 3d 04 26 63 bb 6a e5 67 bd
       -0.016603723 0.10587148 -0.003466011 -0.05661527
000270 1d ce 3f bd 84 44 3b bc 70 bc 68 bd 34 c1 99 bd
       -0.046827424 -0.01142991 -0.056820333 -0.07507554
000280 00 d5 a3 bc cb 0f e2 39 62 e9 b0 3d 3b bd 00 3d
       -0.019999027 0.00043117846 0.08638264 0.031430464
000290 f2 2d 0a 3d ef c9 00 ba f0 b8 e9 3c de 37 9d 3d
       0.033735223 -0.0004912903 0.028530568 0.076766714
0002a0 cd 8c b0 bd ac 14 ab 3d 57 0f ce bd 8a 9d 40 3d
       -0.086206056 0.08353552 -0.100615196 0.04702524
0002b0 d1 79 8c bd 03 76 06 3d 3f 7b 00 be cc 14 0a bd
       -0.06859172 0.03282739 -0.12547015 -0.03371124
0002c0 19 d5 33 3d d9 e1 5c bd 19 d9 bf 3d 91 53 5b bd
       0.043904398 -0.053926323 0.0936758 -0.053546492
0002d0 e1 27 42 bd 37 90 bc bd 13 18 42 3d 65 dc 14 bd
       -0.047401313 -0.09207194 0.04738624 -0.036342997
0002e0 61 aa 31 3d fd 5a 9e 3c 56 e5 81 3c c8 23 b6 bc
       0.043375377 0.019330496 0.015856426 -0.022233859
0002f0 cc 87 59 3d 02 6e 35 3d 21 20 cb 3c ef a1 a9 3d
       0.05310802 0.044294365 0.024795594 0.082828395
000300 09 bf 34 bc 06 ec 2b bd d2 cc 2d bd 0c 2c 90 3d
       -0.011031874 -0.041973136 -0.04243166 0.07039651
000310 a5 b2 9f bd ff d8 60 bd 27 17 9a 3d 0e bd bd 3d
       -0.077977456 -0.054894444 0.07523947 0.09264575
000320 56 9c 21 bd 07 14 e7 bc f9 5a 1b 3d d8 de 15 3d
       -0.039455734 -0.028207792 0.037928555 0.036589473
000330 e0 5b 7a bd f9 e1 39 bd ae 78 03 3d bf fa ab bc
       -0.061122775 -0.04538152 0.03209751 -0.020993588
000340 ad 43 a7 3d cf 39 66 3d b2 5b 8b bc 59 a5 a9 bd
       0.08167205 0.056207474 -0.017011497 -0.08283491
000350 9e fd 89 3d b2 95 83 3d ec 05 46 3c 2b a4 bb bc
       0.06737827 0.064250365 0.012086373 -0.02290543
000360 d9 db 56 bd 16 72 f8 3d 56 bb ea 3b 6c 7d 4e bd
       -0.052455757 0.12131135 0.0071634455 -0.05041258
000370 fd 90 af 3d 7a 5c 93 3d bf 82 ab 3c 91 50 88 3d
       0.08572576 0.07195373 0.020936368 0.06655992
000380 2b 09 80 bb ed 35 c6 3d a3 79 7a bd b0 c5 ac 3c
       -0.003907343 0.09678254 -0.061151158 0.021090358
000390 53 9a b9 bd 6e 02 3d bd 6f fd 92 3d b2 03 97 bc
       -0.09062638 -0.046144895 0.07177245 -0.01843438
0003a0 d5 6a a7 3d 86 7f 0c bd 8e 28 e6 bb d7 81 a4 bc
       0.081746735 -0.034301303 -0.0070238775 -0.020081444
0003b0 5f 0a 99 3d ba 19 07 3d 3e 2f 5b 3d 10 6d 77 3d
       0.07472681 0.03298352 0.05351185 0.060406744
0003c0 d6 6e 4a 3b d4 57 a9 bd 76 ef a5 bd 43 7a 2e 3d
       0.0030888817 -0.08268705 -0.08102314 0.042597067
0003d0 a0 0c 56 bc 64 d4 d6 3c 21 f5 ae bd aa 2d a8 3d
       -0.0130645335 0.026224323 -0.085428484 0.08211835
0003e0 72 97 23 3c 17 ac 63 3d 02 77 62 3d ee 1a a5 3d
       0.009984838 0.05558404 0.055289276 0.08061777
0003f0 2c 11 73 bd b6 dc 79 bd e9 ba 0c 3d 17 dc 2c 3c
       -0.05934255 -0.061001502 0.03435794 0.01055052

lstm.weight_hh_l1 f4 [512, 128]
000000 f8 e6 42 3d 3e 77 1b 3d e9 f4 c3 3d 2d 90 a4 bc
       0.04758355 0.037955515 0.09568197 -0.02008828
000010 00 08 7e 3c 1c 48 f8 3b e8 e8 4c bd 5a f6 b0 bd
       0.015504837 0.0075769555 -0.050026804 -0.08640738
000020 6e 98 5c bd ff 84 94 3d 2a 77 ea 3c 76 9e 10 bd
       -0.053856306 0.072519295 0.028621275 -0.03530737
000030 3d 5a 7d bd 56 0d aa 3d 12 74 45 3c 8d 25 9c bd
       -0.061853636 0.08303325 0.012051599 -0.0762435
000040 69 39 31 bd 21 0a 96 bb c2 d2 8a bc 72 d2 44 3d
       -0.04326764 -0.004578844 -0.0169462 0.04805226
000050 42 44 bd 3d 6f f9 ad 3b 31 aa 85 3d 53 73 f7 bc
       0.09241535 0.005309276 0.06526602 -0.030206358
000060 bb db 59 3d 43 83 6f 3d b0 90 6e 3b f9 9e 90 3d
       0.053188067 0.05847479 0.0036402158 0.07061572
000070 9b e5 94 bc e5 30 cd bd 47 fe 3a 3d ac 05 90 bd
       -0.01817589 -0.100190915 0.045652654 -0.07032332
000080 ca e9 ea 3c 99 64 fa bc 00 04 63 3d 7b 7d f0 3c
       0.028675932 -0.030565547 0.055423737 0.029356709
000090 8c ec 4d bc 34 64 7b 3d 41 c4 5f 3d 6c e0 fe b9
       -0.012568604 0.061374858 0.05463052 -0.00048613863
0000a0 2c 62 ca 3c 90 56 87 bd c5 da b5 3d 27 97 8f b9
       0.024705015 -0.06608307 0.088796176 -0.00027387703
0000b0 d1 db 89 bd 9d d0 b2 3d 41 98 d4 bc ba d0 9f bd
       -0.0673138 0.08731196 -0.025951507 -0.07803483
0000c0 fa 11 52 3d 7e b3 d0 3c a3 ff 87 bd 87 d2 a1 3c
       0.051286675 0.025476214 -0.06640556 0.019753708
0000d0 4a d8 45 bd e1 07 9a bd 55 d0 af 3b 22 d2 07 3d
       -0.048301972 -0.07521034 0.0053654113 0.033159383
0000e0 fb 35 d1 bc 8f c4 63 bd 66 e2 cf bb f5 e6 f4 bc
       -0.025538435 -0.055607375 -0.0063441275 -0.029895285
0000f0 b5 2d 8c bd 23 c4 80 3d 9f 42 77 3d ec 88 28 bc
       -0.068446554 0.0628741 0.06036627 -0.010286551
000100 2f 73 a6 3c 32 11 cb bd 6f 92 a7 3d 45 27 61 3c
       0.020318596 -0.09915389 0.08182227 0.013742273
000110 11 92 ac 3c 89 bd c0 bc 82 15 46 bc 89 7a 6b 3d
       0.021065744 -0.023527877 -0.012090089 0.057489906
000120 65 5a 1f bd 0b 3b 85 bb 14 33 95 bc a3 ab 50 3c
       -0.038904566 -0.0040658764 -0.018212833 0.012736234
000130 ac d8 a7 3a 50 5f 75 bd b9 e3 ad bd cf c4 da bc
       0.0012805662 -0.05990535 -0.084907 -0.026705174
000140 e5 d0 68 bd 91 ac a1 3c 93 0f 80 bc 44 48 80 3d
       -0.056839842 0.019735606 -0.015632426 0.062637836
000150 2c 3c 1e 3d 0a f6 17 3d 39 b6 8f 3d ff d8 63 3c
       0.038631603 0.037099876 0.07017178 0.013906716
000160 24 e2 ce 3d 0b e8 c9 3a ca 04 c8 3c 6e 74 37 3d
       0.10101727 0.0015404237 0.024416346 0.04478877
000170 08 96 a8 bc 18 be a4 bb cf d8 44 3d 20 ae 53 3d
       -0.020579353 -0.0050275438 0.048058327 0.05167973
000180 ce 6f 30 bd 33 0d c1 bd e8 b7 8d bc 1c b0 67 3c
       -0.043075375 -0.09426346 -0.017299607 0.014141109
000190 4f 12 18 bc 8a 9e 93 bd 6a 3a 41 bd 13 4c 5a bc
       -0.009281709 -0.07207973 -0.04717485 -0.013323802
0001a0 72 17 9f bd a1 4a ac bc 94 1f 33 bd f8 98 c7 3d
       -0.07768144 -0.02103168 -0.043731287 0.09745973
0001b0 2e 54 28 3c 0d 39 86 3d 92 44 6e bd c1 bc 9e bd
       0.010273976 0.0655385 -0.058170862 -0.07750846
0001c0 13 da 9d 3c f7 48 6c bd 96 4b f3 bd fd 1e 79 bd
       0.019269025 -0.057686772 -0.11879651 -0.06082057
0001d0 9b 33 a8 bc 43 f2 0d 3d ea af 84 bd 75 31 11 bd
       -0.02053242 0.034654867 -0.064788654 -0.035447557
0001e0 0a f0 e5 bc 6e 2d ff bd 58 9f 88 3d 10 36 b6 bb
       -0.028068561 -0.12459837 0.066710174 -0.005560644
0001f0 36 85 69 bc dd 21 45 3d 3f 7a 86 bd 18 b5 b0 bd
       -0.014252951 0.048127998 -0.06566285 -0.08628291
000200 a4 91 4c 3c 2a 87 de bc a4 9b 8b bd f3 a6 bf 3d
       0.012485895 -0.02716406 -0.068167955 0.09358015
000210 bb 8e d0 bd 9b 3a d7 3d 01 d0 8a bd c5 25 6f bd
       -0.10183474 0.10509225 -0.06777955 -0.05838563
000220 bb b7 b0 bd c1 93 80 3d 7b 73 43 3d 95 9a f4 bc
       -0.08628794 0.06278182 0.047717553 -0.029858867
000230 6f e5 6b 3d 5c 90 c2 bd 02 be 91 3d 55 cf d6 3b
       0.05759185 -0.095001906 0.07116319 0.0065554776
000240 56 0f a4 bd e2 5c 6e 3d 7e d6 97 3d 52 3e c2 bd
       -0.080107376 0.05819405 0.07413958 -0.09484543
000250 c3 3d 6f bd 27 08 22 bd 21 d9 b6 bb f0 9a 60 bd
       -0.05840851 -0.039558556 -0.005580083 -0.05483526
000260 fb 8d 6e 3d 5b 4e 1e 3a ce 07 01 bd 49 92 9b 3c
       0.058240872 0.00060388976 -0.031501584 0.018990653
000270 de db 88 bd a8 2c a4 bd 32 ca 29 bd 95 97 39 3d
       -0.06682561 -0.0801633 -0.041452594 0.045310576
000280 09 f0 b4 3d 3f 0c 80 bc 87 70 c7 bd b8 08 92 3d
       0.088348456 -0.01563084 -0.0973826 0.07130569
000290 a8 c6 0c 3d 3b 23 d3 3d 0a 4d b8 bd 58 7e 62 bd
       0.03436914 0.10309454 -0.08999069 -0.055296272
0002a0 19 60 03 bd ec 22 92 3c 51 63 1f 3d 3c fa a1 3c
       -0.032074068 0.017838918 0.038913075 0.019772641
0002b0 f7 33 a2 3a 95 2c 3e bd a7 d1 a0 bd a4 35 d4 bb
       0.0012375106 -0.046429235 -0.07852488 -0.006476121
0002c0 6a 38 8c 3d 89 2e 90 3c 03 60 b5 bd f5 cf 0e 3d
       0.06846698 0.017600315 -0.088562034 0.034866292
0002d0 0c 62 bb bd cf 81 c0 3c 8a 58 09 bb 6c 2b cb bd
       -0.0914956 0.023499398 -0.0020957314 -0.099203914
0002e0 b5 35 74 3d a0 ac c1 3d 4d 93 21 3d fc 7e 8b 3d
       0.05962153 0.09456754 0.039447118 0.0681133
0002f0 be dc 10 3d 4c b7 07 3c 56 09 64 3c 88 1c 98 bc
       0.035366766 0.0082834475 0.0139182415 -0.018568292
000300 3b 34 95 3d 0c 01 0b bc 33 ca 48 3c 66 24 37 3d
       0.07285353 -0.008484136 0.012255239 0.044712447
000310 97 20 cb bd d6 06 fb 3c a0 0a c4 3d f4 ff 06 bb
       -0.099183254 0.030642908 0.09572339 -0.0020599337
000320 36 d2 a3 3c 93 f4 e1 bb c1 40 c5 3d 78 da bb bc
       0.019997697 -0.0068956106 0.096314915 -0.022931322
000330 f9 09 2c bd 16 98 68 bb 60 66 51 3c 71 9c d9 bc
       -0.0420017 -0.003549104 0.012780756 -0.026563855
000340 de b9 19 3d 42 22 8a 3d 15 f5 81 3d 3d cd fd bc
       0.037530772 0.067448154 0.06345574 -0.030981654
000350 98 4a 54 3d ad da ae bd 44 c7 85 bc 54 f1 82 3d
       0.05182895 -0.08537803 -0.016330369 0.06393686
000360 3e e7 4d 37 fe b9 f9 3b d3 52 7b bd c0 6e 97 3d
       1.2272792e-05 0.007621049 -0.061358284 0.07394171
000370 e3 b4 db 3d 02 93 8b bc 00 88 8c bd cb 4f c9 3c
       0.10727861 -0.017037872 -0.068618774 0.024574181
000380 b5 0a 36 bd 1f 7a d8 3d 07 09 63 bd 58 46 ab 3d
       -0.044443805 0.10570168 -0.05542853 0.083630264
000390 4b 83 c4 3d 43 fe e0 3d 20 0d c5 3c 78 71 f2 3d
       0.09595355 0.109859966 0.02405411 0.11838049
0003a0 47 eb b2 3d 91 ba 95 3d c4 0d 5b bd fa 94 2f 3d
       0.08736282 0.07310975 -0.053479925 0.042866684
0003b0 e6 50 37 3b 28 1b c5 ba 26 ac dd 3d b6 18 a5 bd
       0.0027971803 -0.0015038 0.1082385 -0.08061354
0003c0 f2 3d c1 bd 69 6c 12 bd 46 ca 17 bc e6 06 0f bd
       -0.09435643 -0.03574792 -0.009264534 -0.03491869
0003d0 80 7b 11 bd 3c e1 b7 3c bb 84 6a bd 0a 60 0d bd
       -0.03551817 0.022446267 -0.057255488 -0.034515418
0003e0 5c 0b a8 3d b5 fc f0 3d 6e 57 88 3d 3f 8d 4f 3c
       0.08205292 0.1176695 0.06657301 0.012667953
0003f0 d6 52 9a bd 32 5b cd 3d 20 6e 52 3d b5 0e 14 bd
       -0.07535331 0.1002716 0.051374555 -0.03614684

lstm.bias_ih_l1 f4 [512]
000000 84 f5 e3 bc a6 ef ba 3d de fa 61 bd a2 50 db 3d
       -0.027827032 0.091277406 -0.055170886 0.10708739
000010 b3 dd 8c bd b6 10 76 bc d9 d6 3c 3c 96 a1 c8 3d
       -0.06878223 -0.015018633 0.011525833 0.09796445
000020 c0 09 c5 3d 5c 47 8a bc d3 09 8b 3d 6e a6 4e 3d
       0.09621 -0.01687973 0.06788983 0.05045169
000030 c9 4c 90 3d 12 e5 b4 3d 6a ca 2a bd 2d e7 a7 3c
       0.070458956 0.08832754 -0.041696943 0.020495975
000040 f2 27 8c 3c ec 49 88 bc db 91 cf 3c ce be c6 3c
       0.017108891 -0.016636811 0.025338104 0.024260905
000050 67 34 a5 ba 60 fc 38 3d ee 5e b8 bc f1 8f 52 3d
       -0.0012604118 0.04516256 -0.022506204 0.051406804
000060 26 13 00 bd db b6 7a 3d fe 79 94 bd dd ff 7e bd
       -0.03126826 0.06120954 -0.07249831 -0.06225573
000070 38 59 63 bd 35 f3 ab 3d cd 21 25 3d 79 48 12 3d
       -0.055505008 0.083959974 0.040315438 0.035713647
000080 d3 b5 25 3d 05 08 8f bd 95 0b 22 bc 3b da 35 bc
       0.040456604 -0.069839515 -0.009890457 -0.0110993935
000090 1c 13 1d bd 63 bb 8d 3d 06 58 81 bb b6 75 61 bd
       -0.038348302 0.06920507 -0.003947261 -0.0550439
0000a0 ae bd a4 bd a7 bf 0b bd e7 7e 9b 3d 3f e3 de bb
       -0.08043991 -0.03411832 0.07592564 -0.006801992
0000b0 f6 6a 93 3d 71 2f 68 3c aa d6 3e bc e1 56 15 bd
       0.071981356 0.014171467 -0.01164786 -0.036459807
0000c0 a1 7e c0 3d 1e 15 a1 3d 29 8b d7 3d 75 f1 8b bd
       0.093991525 0.07865356 0.105245896 -0.06833164
0000d0 b3 95 b9 3d 7a fb 2e 3d 93 e2 2b bc 64 52 3e 3d
       0.09061756 0.042720295 -0.010491031 0.046465293
0000e0 25 c6 7b 3c 55 98 e9 3d 63 99 13 bd dc 0d 8d 3d
       0.015367066 0.11406008 -0.036034953 0.06887409
0000f0 9d 64 72 bd 98 14 26 3d dc 32 d2 3c ec 07 27 3c
       -0.059177984 0.040546983 0.025659017 0.01019476
000100 3a 3e 64 3d 84 9e ba 3d f5 ee 3c 3d 48 5f 61 bc
       0.055723406 0.09112266 0.046126325 -0.013755627
000110 7c 5e 84 bd e0 a0 c8 bc 51 76 bb 3d fd 63 86 3d
       -0.06463334 -0.024490774 0.091534264 0.0656204
000120 ea 0d 72 bd e9 69 81 bd 5d 74 19 bd d2 bd 48 3c
       -0.0590953 -0.06319029 -0.03746449 0.012252288
000130 7f 4e fa bc a5 05 50 3d 13 20 82 bc 69 3b 9a bc
       -0.030555008 0.050786633 -0.015884435 -0.018827157
000140 f6 ff 48 3c d4 85 9e bc 11 7d 69 3d ae 7d a7 3c
       0.012268057 -0.019350924 0.05700404 0.020445671
000150 59 0c 11 3d 6c 54 cb 3c 20 1c 81 3d ef ed 4a bc
       0.035412166 0.024820529 0.063041925 -0.012385829
000160 24 88 5b bd d5 df 9d 3d aa 4a 62 bc a5 57 32 bd
       -0.05359663 0.07708708 -0.013811747 -0.043540616
000170 61 3a 3a 3d b5 92 e1 3d 95 19 52 3d 95 e6 08 bd
       0.04546583 0.1101431 0.05129393 -0.033423025
000180 86 b1 4f bd a5 4c 3c bd 1c a9 5a bd d5 26 c2 3d
       -0.05070641 -0.04597153 -0.05338393 0.09480063
000190 a5 ef 81 3d 74 d4 88 3d e5 59 56 3d ea 85 ae 3d
       0.06344537 0.06681147 0.052331824 0.08521636
0001a0 01 83 92 bd 1e 42 d1 3c f4 95 9b 3d 2a c9 90 3d
       -0.07153893 0.025544222 0.07596961 0.07069619
0001b0 a9 2c 7e 3d d9 69 28 3d 10 11 73 3c 89 3b 9f 3d
       0.06205431 0.04111657 0.014835611 0.07775027
0001c0 06 9d 8d bc 93 2f 46 3b 8b 3d b5 3d 15 b0 24 3d
       -0.017286789 0.0030240759 0.08849629 0.040206987
0001d0 c8 4a f3 3c 78 e6 41 3b 11 05 24 3d 53 c4 9c 3d
       0.029698744 0.0029586833 0.040043894 0.076546334
0001e0 29 c8 d5 3d 78 fd 21 bd 7b 55 df 3d 96 f2 63 3d
       0.10438568 -0.039548367 0.10904976 0.05565127
0001f0 35 2c 0b bc 72 e4 97 3d 8f 51 c8 3d d8 58 5f 3d
       -0.0084944265 0.07416619 0.09781181 0.054528087
000200 bf c7 fe 3d 45 3a 8e bd a5 7d 04 bd 34 4e 42 bd
       0.12440442 -0.06944708 -0.032346386 -0.04743786
000210 26 8e ad bc eb 0d f6 bc 8e 79 9e 3d 52 4a 30 bd
       -0.021185946 -0.030035933 0.077380285 -0.043039627
000220 1b 33 c8 3d 56 53 d2 3b b3 06 a2 3c 4d 8c 73 3d
       0.097753726 0.006418626 0.019778585 0.059459973
000230 3c 45 81 3d 63 41 e4 3c 65 f6 e1 3c 34 a9 8f bd
       0.063120335 0.02786321 0.02758331 -0.07014695
000240 d0 e0 c8 3a b5 22 6f 3d ea 69 9b 3d 6b 7d 85 3d
       0.0015325788 0.05838271 0.07588561 0.06518062
000250 39 05 5d bc aa f9 1c bc a7 9c 9c 3d da d4 92 bd
       -0.013490015 -0.009581009 0.076470666 -0.071695045
000260 46 53 ea bc ab ab a0 bc 99 62 a5 bd d7 d3 23 bd
       -0.028604161 -0.019613108 -0.08075447 -0.039996948
000270 92 8e 31 bd ba 8f 86 bd e1 c3 bb bc 4d 7e de 3d
       -0.043348856 -0.065703824 -0.02292055 0.10863934
000280 82 2e 8a bc 1e b4 48 3d 77 f1 68 3c 3e 46 7c 3d
       -0.01686788 0.048999898 0.014217726 0.061590426
000290 e1 1d d7 bc 6a d4 b8 3d ef 62 3e b9 96 a6 7a bd
       -0.026259365 0.0902489 -0.00018156668 -0.061194025
0002a0 f4 7f a6 bd 37 9c 0c bc 3c d8 87 bd ca 73 98 3d
       -0.08129874 -0.008582166 -0.0663304 0.0744396
0002b0 27 66 17 bd 79 a1 30 bd e0 50 d9 3d 75 e0 6c 3d
       -0.036962654 -0.043122742 0.10611129 0.057831246
0002c0 b1 9b 83 3a 21 21 a4 bc 92 39 60 bc 06 41 36 bd
       0.0010040906 -0.020035328 -0.013685601 -0.044495605
0002d0 88 7c 8a bd 4a b2 0a bc 47 84 15 bb 34 f3 84 bd
       -0.06762034 -0.008465359 -0.002281444 -0.064917
0002e0 15 df 42 3c c9 35 ca bc f1 da 39 3d 7a 1f 4d 3c
       0.011894007 -0.02468385 0.045374814 0.012519712
0002f0 fe d6 7c 3d df f2 22 bd 3d 70 45 bd 78 8e 8c 3d
       0.06172847 -0.0397824 -0.048202742 0.06863111
000300 f9 86 50 3c 84 2b 82 3d 55 d3 7c 3d 05 d2 be 3d
       0.0127274925 0.06355956 0.06172498 0.09317402
000310 0f 8a 31 bd 24 18 34 3d 67 36 87 bd 2e 55 ee bc
       -0.043344554 0.043968335 -0.06602173 -0.029093351
000320 59 aa 85 3c d8 99 39 bc ea dd af bc 43 04 11 bd
       0.01631658 -0.011328183 -0.021468122 -0.035404455
000330 6b 0a ba 3d bc ed 46 bd 95 16 be 3c 85 c0 33 bd
       0.09084018 -0.048566565 0.023204127 -0.043884773
000340 c4 74 35 ba a8 a6 84 3d cf 5b b5 bc b4 1f 78 bc
       -0.00069220015 0.064771 -0.022138504 -0.015144277
000350 2e 69 d4 3d f5 0a 9d 3d 48 ab 49 3d f4 67 4f 3c
       0.10371624 0.076681055 0.049235612 0.012659062
000360 f9 a7 b7 3d 07 a7 94 3d 8d ae b8 bd f6 9b 0c 3d
       0.08967585 0.072584204 -0.09017668 0.034328423
000370 83 18 9d bb 88 40 19 3d 40 01 bc 3d 1c d0 4c bd
       -0.004794182 0.037415057 0.09179926 -0.050003156
000380 9a 4c 81 3d ae c3 86 bc 2c 3c 78 bd 08 71 1e 3c
       0.06313439 -0.01645073 -0.06060426 0.009670503
000390 4d d5 17 3c 73 36 0f bc 0d 24 98 3c 2d 88 bc 3d
       0.009267163 -0.008741009 0.018571878 0.09205661
0003a0 1a 38 fe bc b6 91 98 bd 62 8f 10 bd e1 b7 3c bd
       -0.03103261 -0.07449667 -0.03529299 -0.046073798
0003b0 2b 0f 50 3d 0a f9 5f bd 33 a8 63 3c 00 97 cc 3c
       0.050795715 -0.05468086 0.013895082 0.024974346
0003c0 d9 10 86 3d 64 ae 3b 3d 9e de d9 3d 29 93 62 bd
       0.06546182 0.04582061 0.10638164 -0.055316124
0003d0 36 ff 95 3d 76 fd 81 bd 86 d4 d0 bc 1a 71 92 bd
       0.07324068 -0.06347172 -0.025491964 -0.07150479
0003e0 31 51 a5 3b b6 a1 24 bd df 90 cd bc 53 fe 14 3d
       0.005045079 -0.040193282 -0.025093494 0.036375355
0003f0 fc 92 53 bd ea 27 ff 3c 2c ca 40 bd 22 c4 5b 3d
       -0.051653847 0.031146962 -0.047067806 0.053653844
