Data/PredictionsData/AB08.pth (torch, 828430 bytes, 10 tensors)

lstm.weight_ih_l0 f4 [512, 13]
000000 32 c5 7c 3c 2b 3c f9 bd 92 01 9f bd 2b 1e 0f bd
       0.015427874 -0.12169679 -0.077639714 -0.03494088
000010 8c 4b a1 bd e4 03 d8 3c 19 3b 1a be d2 48 6f 3c
       -0.078757375 0.026369043 -0.15061606 0.014604764
000020 cf 59 b5 3d 66 d3 0e be 31 a8 a8 3d d6 36 58 bd
       0.0885502 -0.1394783 0.08235205 -0.05278667
000030 62 aa b8 3b 9d e2 40 bc 9f 89 15 bd 59 1b 80 3d
       0.0056355456 -0.011772779 -0.0365082 0.06255216
000040 b6 dc de 3b 24 15 32 3d 90 f3 83 3d 24 c9 93 bd
       0.006801213 0.043477193 0.0644294 -0.07216099
000050 31 1e 9a bc 03 21 8d bd cd 0e 55 3d 8b 27 8d 3d
       -0.018813225 -0.06891062 0.05201607 0.06892308
000060 15 e9 0f 3c 9b f6 fc ba 28 10 30 bd e1 c2 42 bd
       0.008783598 -0.0019299568 -0.042984158 -0.047549132
000070 7a ba 26 3c 9a 1e 67 bd 06 b9 c4 bd e7 2b 3f bd
       0.010176295 -0.05642567 -0.09605603 -0.046672728
000080 4e fc f5 bd b7 eb 9c 3c ca b8 e5 bb 06 02 f4 3c
       -0.12011014 0.019155366 -0.007010554 0.029786121
000090 29 fa ad 3d 40 b4 08 3e ff 05 ca bd 84 a6 aa 3d
       0.0849498 0.1335001 -0.09864425 0.083325416
0000a0 d5 44 0a 3d 20 56 b7 bd dc ee 0f bc c8 b3 23 3d
       0.03375705 -0.08951974 -0.008784976 0.039966375
0000b0 b9 d9 ac 3d c5 ed a0 bd 89 08 39 3d de 4b e0 3d
       0.08439965 -0.07857851 0.045174155 0.109519705
0000c0 ec 28 05 be cb c0 aa 3d 8d 70 9b 3a bd 57 ec ba
       -0.13003892 0.083375536 0.0011859104 -0.0018031519
0000d0 4b 3b b2 bd 34 99 28 3d 5a 32 67 3c 36 c5 83 bd
       -0.087027155 0.04116173 0.014111126 -0.064340994
0000e0 ad 13 8e 3d fa 1c 9a 3c 5e 72 f3 bd 64 fd b4 bc
       0.069373466 0.018812645 -0.11887048 -0.022093482
0000f0 29 89 c4 3d 64 61 c0 bd 81 23 a3 3d af 07 4b 3d
       0.09596474 -0.09393576 0.07965756 0.049567875
000100 9f 57 dd 3c e7 44 0d bd 1a 9f 4e 3c c7 bf 1e 3e
       0.02701932 -0.03448954 0.012611175 0.15502845
000110 5a ee 5c bb e5 a6 b7 3c 0b ef be 3b e1 a0 19 bd
       -0.0033711405 0.022418449 0.005826836 -0.03750694
000120 c7 04 54 bc 7e c5 b0 3b 83 97 f0 3b 2f 15 b1 3d
       -0.012940592 0.0053946367 0.0073422804 0.086466186
000130 e9 d0 c8 bd 6b 91 d6 bd a7 7d a9 3c 23 eb 4e 3d
       -0.098054715 -0.10476955 0.020689799 0.050517213
000140 2b ee d0 bd 71 02 2f bc 3b 54 00 be fb dd e3 bd
       -0.10201677 -0.010681734 -0.12532131 -0.11126324
000150 94 7f 04 be 9c 7e ce 3d f5 f1 75 bd 25 1c e0 bd
       -0.12939292 0.100827426 -0.0600452 -0.10942868
000160 89 05 b1 3c 87 c0 83 3b 5f 0c a0 3d 6b a3 4c 3d
       0.021609085 0.004020754 0.078148596 0.049960535
000170 58 97 e8 bc d1 38 b3 bc 29 e7 ac 3c c1 e3 ff bc
       -0.028392479 -0.021877678 0.02110632 -0.031236531
000180 15 c2 55 3d 3c 83 6e bd f3 de 9d 3c a3 c0 22 3d
       0.052187044 -0.058230624 0.01927135 0.039734494
000190 86 71 b7 bc 37 18 02 3e 3f cb 0f bd cb 62 8b bd
       -0.022393 0.1270455 -0.03510594 -0.06805953
0001a0 ee 06 83 bd 67 0d 84 bd 92 78 90 bd 2c 25 b9 3d
       -0.06397806 -0.06447869 -0.07054247 0.09040293
0001b0 be 92 d3 3c d6 b0 d3 bd 01 14 a8 bd 96 f2 f1 bb
       0.025826808 -0.10336463 -0.082069404 -0.007383655
0001c0 a9 fc a7 3c a9 63 f4 3c 46 72 06 3d 2f e6 b4 bd
       0.02050622 0.029832678 0.032823823 -0.088329665
0001d0 30 ea 20 bd eb 26 4f 3c a6 e8 dc bc 38 a8 d1 3d
       -0.03928584 0.012643556 -0.026966404 0.10237163
0001e0 77 04 a4 3d d4 8c 8e 3d 67 de 7d bc 4e 6b 2a be
       0.08008664 0.069604546 -0.015494919 -0.16642496
0001f0 8b d6 bb 3d 63 7f 80 bd 48 c1 4a bc 7f 30 01 3e
       0.0917178 -0.06274297 -0.012375183 0.12616156
000200 44 bf 61 bd 9b eb ae 3d 3d 49 6a 3d b8 ee 04 3b
       -0.055114046 0.08541032 0.05719875 0.002028389
000210 a5 c5 a2 bd f1 cd 3c 3a 37 aa 06 bd 97 58 d9 bd
       -0.07947854 0.00072023185 -0.032877173 -0.106126
000220 ca 07 3d bd c3 6c fe 3c 52 8a ba bc 13 03 46 bd
       -0.046150006 0.031057721 -0.022771034 -0.048342776
000230 9c 70 d3 3c b9 01 83 bc 56 d0 1a bd d7 c0 08 bd
       0.025810532 -0.015992032 -0.03779634 -0.03338703
000240 74 18 11 3d b2 56 e6 3c 00 d0 9d ba 32 22 c6 3c
       0.03542371 0.028117511 -0.0012040138 0.024186227
000250 27 63 2d 3d b5 3b 49 bd 24 3e 99 bd f5 ee 2d 3d
       0.042330887 -0.049129207 -0.074825555 0.042464215
000260 97 da 06 3c e6 0d 0a 3d 4a 13 a6 3d 3a 2a 26 3d
       0.008230827 0.03370466 0.08109148 0.040567614
000270 be 28 c9 bc 03 ca c8 bc 5c 32 92 bd 96 7e f0 bd
       -0.02455556 -0.02451039 -0.071385115 -0.11742894
000280 c2 9b bb bc 1a 31 29 3e 48 c4 ad bb 87 8e a5 3d
       -0.02290142 0.16522637 -0.0053029396 0.080838256
000290 c0 82 90 bc 73 f8 42 bd 9c 7f 6a bc cb 91 64 bc
       -0.017640471 -0.04760022 -0.014312651 -0.013950775
0002a0 08 fb 02 3d 2c 33 a5 bd d2 a4 08 3c 8c 65 f4 bd
       0.031977683 -0.08066401 0.0083400775 -0.11933431
0002b0 8c 48 76 3d 93 24 11 3e 50 66 a8 bd 04 51 06 be
       0.06012778 0.14174108 -0.082226396 -0.13116843
0002c0 72 33 71 bd b2 c1 c0 3c c6 40 7c bd 95 1d dc 3b
       -0.058886953 0.023529861 -0.06158521 0.0067173936
0002d0 e2 89 73 3d 6c ef 8e 3d 8f 5f 80 bd ec 40 57 3d
       0.059457667 0.0697926 -0.06268226 0.05255215
0002e0 ff 4f 3d bd 28 c0 c0 3d bc dd ec 3c ce a9 c4 bd
       -0.04621887 0.09411651 0.028914325 -0.096027
0002f0 84 f0 80 bd f6 54 17 3d 70 36 f3 3c d2 82 9d bd
       -0.06295875 0.03694626 0.029689044 -0.076909676
000300 25 a2 a4 3d 41 71 5e bd fa 58 ea 3c c8 77 ae bc
       0.08038739 -0.054307226 0.02860688 -0.02129735
000310 ac d3 20 bd 8c d6 92 bd b3 e4 66 ba a5 dd 16 bd
       -0.039264366 -0.07169828 -0.00088078826 -0.03683247
000320 1b 19 5d bd 08 79 73 bd 96 0c 23 bd 24 6b 3f 3d
       -0.05397902 -0.059441596 -0.039806925 0.046733037
000330 65 c9 1f be 31 27 10 3e d7 4f f1 bc 20 20 30 3c
       -0.1560417 0.1407745 -0.029457016 0.010749847
000340 e2 d9 31 be 8f ad c2 bd fa b0 89 bd f8 9c d1 3b
       -0.17368272 -0.0950576 -0.06723209 0.006396886
000350 25 a6 37 bd 51 d4 68 3d 03 21 8e 3c 1e c1 c5 bd
       -0.044836182 0.056843106 0.017349726 -0.09655975
000360 67 9d 09 3d eb 88 6e bd e4 bb b0 bd d2 83 22 3d
       0.033597376 -0.058236044 -0.08629587 0.039676495
000370 bc df 0f 3c 75 15 92 bc 08 71 38 bd 9d 2b 8d 3d
       0.00878137 -0.017832497 -0.04502967 0.06893084
000380 95 26 f7 bc 45 95 69 3d 39 de a4 bd 0c ab 8d 3d
       -0.030169765 0.05702712 -0.08050198 0.0691739
000390 09 78 58 bd 17 5b 13 3d b0 7f 5c 3d f0 b8 00 bd
       -0.05284885 0.035975542 0.05383271 -0.03142637
0003a0 c1 8d 87 3d 47 7f 0a bd cb 4d d0 bc 63 cf 61 bc
       0.06618834 -0.033812787 -0.02542772 -0.013782355
0003b0 1e 4a ae bd 92 f5 1b 3c 5d 5d a0 bd 22 ec b0 3d
       -0.085102305 0.009518998 -0.07830308 0.08638789
0003c0 0c 34 55 3d bc e7 3c 3d ce fb c1 3d ca f7 55 bd
       0.05205159 0.046119437 0.09471856 -0.052238263
0003d0 74 c0 23 bc 47 52 09 3e a4 07 03 be cc 2c c4 bc
       -0.009994615 0.13410293 -0.12795883 -0.023947142
0003e0 b3 20 a7 bd 21 25 d5 3d e8 18 33 3d 3a a3 43 3d
       -0.08160534 0.104074724 0.043724924 0.047763087
0003f0 f4 cb c7 3c 10 a3 13 3e 78 d7 ac bd e9 08 61 ba
       0.024389245 0.14417672 -0.08439535 -0.00085843966

lstm.weight_hh_l0 f4 [512, 128]
000000 b3 3a 8a bd 38 00 8a 3c 00 1d 8c bd c0 0f 6b 3b
       -0.06749477 0.016845807 -0.06841469 0.0035867542
000010 c0 9d 63 3d 1b 85 c7 bc c2 b4 ee 3c f7 8e a3 3d
       0.055570364 -0.024355462 0.029138926 0.07986253
000020 36 5d 62 3d 7d 19 e1 bb 0b 45 9f 3c 63 85 c1 bc
       0.055264674 -0.0068694935 0.019442102 -0.023623174
000030 d8 b7 ab bd 9d a5 4d 3d 30 08 8f bd c5 15 38 3d
       -0.08384675 0.05020677 -0.069839835 0.044942636
000040 ca 5e 7a 3d 58 43 3d 3d db 77 b8 3c 3c e8 aa 3d
       0.061125554 0.046206802 0.022518089 0.083450764
000050 b9 51 7e 3d cf 58 ba 3d 7a 1b f6 3c d9 dd b4 bd
       0.062089656 0.0909897 0.030042399 -0.088313766
000060 4c 38 b2 3c 13 22 19 3c 91 74 62 3d 79 0c 96 bd
       0.02175536 0.009346503 0.055286948 -0.07326598
000070 7c 04 49 3d 5e 05 7c 3d f4 b4 72 3d 28 62 7b bd
       0.049076542 0.061528556 0.0592546 -0.061372906
000080 bf 9f 82 3d a0 8b 96 3d ef d1 eb 3d 25 b6 8d 3c
       0.063781254 0.0735085 0.11514651 0.017298767
000090 48 ec 3c bc 33 72 c8 bd d9 56 20 3e e1 c4 3b bd
       -0.011530943 -0.09787407 0.1565813 -0.045842055
0000a0 d1 56 98 3d 40 d3 e9 3c 9c 27 39 3d 74 d0 63 bd
       0.07438434 0.028543115 0.04520379 -0.05561872
0000b0 21 9b 4b 3d 49 32 bd bd eb d8 4c bd 2f 6e b1 bc
       0.04970849 -0.09238107 -0.050011557 -0.021658985
0000c0 5a b2 b4 3d f9 1b 5a bd 4b a0 66 3d 59 f7 c2 3d
       0.0882308 -0.053249333 0.05630521 0.09519834
0000d0 ca 62 5e 3d 5c 7e 96 bd 71 f9 04 3d 83 de c1 3d
       0.05429343 -0.0734832 0.03246445 0.09466269
0000e0 24 f3 9a bd f8 af 8e 3c 79 4e 0e 3d c9 f9 1a bd
       -0.07565907 0.017417893 0.034742806 -0.03783587
0000f0 3d 27 f9 bc 2d fd a3 3d b0 18 84 3c 09 0d 16 bd
       -0.030414218 0.08007274 0.016125053 -0.036633525
000100 55 43 09 bd 68 97 c5 3d 7a 6e 0f 3e 36 2c 5c bd
       -0.03351148 0.09648019 0.14006987 -0.0537531
000110 c6 87 22 3d 75 59 42 bd 19 8f 0e 3b 68 23 78 bd
       0.039680265 -0.047448594 0.0021752773 -0.06058064
000120 12 a1 6b bd 7d 38 b1 3c a0 13 6e bc 8d b4 7e 3d
       -0.057526655 0.021633381 -0.014531046 0.062183905
000130 0b 9c c4 3d 05 b4 fb 3c 88 56 9e bc 4b ae 99 3d
       0.09600075 0.030725488 -0.01932837 0.07503947
000140 d0 54 47 bd 46 16 43 3d e3 a7 83 bd 39 b2 71 bd
       -0.048664868 0.047628663 -0.06428506 -0.059007857
000150 65 42 9a bd f0 a0 b8 bc 97 9c a2 39 1d 9e 8c 39
       -0.07532195 -0.022537678 0.00031015716 0.00026820684
000160 43 60 3f bc b8 3a 90 bd d2 75 77 bd 5e 24 a2 3c
       -0.011680665 -0.0704245 -0.060415097 0.019792732
000170 51 3e ec 3c 96 20 98 bc bb fd 5f bd 3b f9 9a bd
       0.028838309 -0.018570226 -0.054685336 -0.07567068
000180 25 21 e3 3b 68 e2 85 3d 51 4f d0 3d 17 70 d8 bc
       0.0069314414 0.06537324 0.101713784 -0.026420636
000190 dd 82 06 3b 67 dc 8c 3d 79 a3 40 bc 2c 99 a8 bd
       0.0020524778 0.06877976 -0.011757725 -0.0823234
0001a0 c6 32 90 3c a3 7f 19 3d 94 e8 ee 3c d3 29 56 bd
       0.017602336 0.03747524 0.029163636 -0.05228598
0001b0 59 94 9d bd e0 45 0b be 54 a5 37 bd b8 7f e9 3d
       -0.07694311 -0.13600874 -0.044835404 0.114013135
0001c0 d1 49 41 3d 28 61 10 3d c5 76 76 3d ed 88 91 3c
       0.047189537 0.035248905 0.06017186 0.017765487
0001d0 35 4d 05 be be a3 77 3d c3 0d d3 3b bc 58 91 bd
       -0.13017733 0.06045889 0.0064408495 -0.07097003
0001e0 6f 6e ab 3d ee 4c 91 3c 85 4b 14 bd b7 b3 31 bd
       0.08370673 0.017736878 -0.036204834 -0.04338428
0001f0 91 3a 5a bd a6 60 87 bd 73 41 e3 3d c2 81 9d 3b
       -0.05327851 -0.06610231 0.11096468 0.004806728
000200 74 9a b1 3d 18 75 01 bd 15 61 42 bc 06 f5 13 3c
       0.08672038 -0.03160581 -0.0118639665 0.009030586
000210 ad 03 3d 3d e6 1f 64 bd c9 c2 bc 3d 37 08 98 3c
       0.046146084 -0.055694483 0.0921684 0.018558605
000220 10 b5 d5 bc 19 af 8a bd 7f 42 e9 bc ac e0 ea bd
       -0.026087314 -0.067716785 -0.02847409 -0.11468634
000230 5e 27 fc 3c 43 ca 59 bd 41 ce 44 bd 18 45 05 bd
       0.03078049 -0.053171407 -0.04804826 -0.032536596
000240 a8 ce dc 3c c3 68 2d bd 23 4e 9e bd ad bb 6d 3d
       0.02695401 -0.042336237 -0.07729747 0.05804031
000250 04 5f f7 bc 12 3b ab 3b e9 bb f6 3c 95 47 bb 3c
       -0.030196674 0.0052255476 0.0301189 0.022861281
000260 f5 29 84 3d 1c 03 e3 3c a7 3e 5e bd a4 e7 77 bc
       0.06453315 0.027711444 -0.05425897 -0.015130911
000270 0a 36 c3 bb 32 60 ba 3c ba 17 06 3d 68 74 90 bb
       -0.0059573697 0.022750948 0.03273747 -0.004408408
000280 09 a9 8e bd 99 f2 61 3d dd 68 07 3e 70 08 bc bd
       -0.06965835 0.055163 0.13223596 -0.09181297
000290 4b 2e 98 bd 92 eb 90 bd 7d b0 fc 3c d9 b8 7b 3d
       -0.07430705 -0.070761815 0.030845875 0.06145558
0002a0 d4 7e a4 bd 94 86 e4 bd d3 1b f4 bd 56 fe 01 be
       -0.08032003 -0.11158481 -0.119193695 -0.12694678
0002b0 69 91 8a 3b 85 b5 0c 3c 08 9c 8f 3d a9 63 4e bd
       0.00422876 0.0085881995 0.070121825 -0.050388012
0002c0 86 53 b7 3d b7 29 86 3d c4 8f 90 3b 96 bb cc 3d
       0.08951478 0.06550925 0.0044116694 0.09996717
0002d0 6c b7 b6 bd 4b cd 8d 3c 17 1e 4a bd 75 7e 8c 3c
       -0.08921704 0.017309805 -0.049345102 0.017150143
0002e0 32 70 f2 bd 33 af dc 3d 1d b4 b4 bd f2 21 c9 bd
       -0.11837806 0.10775604 -0.088234164 -0.09820928
0002f0 e8 c3 8a bb 33 08 b5 3d b4 37 f3 bc 96 9c b0 bd
       -0.0042347796 0.088394545 -0.029689647 -0.086236164
000300 75 b4 01 bd 7e 03 18 3d f6 0d 84 bd 88 5e 01 bd
       -0.031666238 0.037112705 -0.06447975 -0.031584293
000310 32 71 f9 3c 8d f7 22 bd cf fe 63 3d c4 a8 56 3d
       0.030449484 -0.039786864 0.055662926 0.05240704
000320 d0 a5 dd bd f1 65 1f bb d1 83 5d 3d 97 2d 81 3d
       -0.10822642 -0.0024322236 0.054080788 0.06307524
000330 2b d8 8b bc d1 a9 18 bd b7 98 52 bd 4e 44 90 3d
       -0.01707085 -0.037271325 -0.05141517 0.07044278
000340 ad 0d bf bb 4c 15 08 be a0 3a a8 bd 4d e7 bf 3b
       -0.0058304877 -0.13289374 -0.08214307 0.0058564306
000350 26 82 15 ba c6 cd 75 3c fa 38 ad 3d 04 44 e2 bd
       -0.00057032926 0.0150026735 0.08458133 -0.11048129
000360 62 d8 04 be ac 68 2f bc 7e 36 05 be 86 0c a6 3c
       -0.12973168 -0.010706108 -0.13009068 0.020269644
000370 f9 01 a2 bc 40 1f 8f bd d8 f2 87 3d e2 c8 e6 3c
       -0.019776331 -0.06988382 0.06638116 0.02817196
000380 52 08 ac bd 2e 65 29 bd 78 2e 79 3d 8a 15 3e 3d
       -0.084000245 -0.041356258 0.06083533 0.04640726
000390 2a ec 49 3d 8d b2 0d 3e 8c 48 6f bd f7 e2 6e bd
       0.04929749 0.13837643 -0.058418795 -0.05832192
0003a0 24 2d 78 bd 8b d5 ae bc 7f 30 c5 bd a2 3f 52 3d
       -0.060589924 -0.02134206 -0.096283905 0.051330216
0003b0 03 3d e6 bd 78 48 79 bd 86 94 42 3d 24 dd 88 3d
       -0.11242106 -0.060860127 0.047504924 0.06682804
0003c0 27 e5 20 bc 05 c4 45 3c 39 bc 84 bd 4d 0f e2 3b
       -0.009820259 0.0120706605 -0.06481213 0.0068987967
0003d0 d9 13 8c bc e5 91 ab bc a2 22 5d 3d 25 7e 84 39
       -0.017099308 -0.020943591 0.053988107 0.00025270987
0003e0 14 49 14 bd 4b 69 c8 3d a6 cf d8 bd 68 1b a7 bc
       -0.036202505 0.09785708 -0.10586481 -0.02039881
0003f0 ba 48 d6 bd eb 29 00 bd db 39 fd 3d b1 c2 58 bd
       -0.1046309 -0.031289976 0.12364551 -0.052920047

lstm.bias_ih_l0 f4 [512]
000000 e7 0b ea bc 05 99 ce 3d 81 71 57 bd 57 3b 42 bd
       -0.028570129 0.1008778 -0.05259848 -0.047419872
000010 fc 67 9a 3d 25 f8 6f bb 54 a6 8c 3d 2c 1a 75 bd
       0.07539365 -0.0036616412 0.06867662 -0.059839413
000020 b4 01 78 bd 4e 22 ba 3c 4f f2 2c bd 72 0d e2 3c
       -0.0605485 0.022721436 -0.04222327 0.027594302
000030 1c 79 e3 bc c7 2c 46 3c 2b 9e 09 3d c4 44 80 3d
       -0.02776771 0.012095637 0.033598106 0.06263116
000040 40 39 9c 3d 85 e9 84 3d 61 f5 b6 bb 9d 41 a9 bc
       0.07628107 0.06489853 -0.0055834507 -0.02066117
000050 43 db 21 bd c1 de 3f 3c c8 18 a6 bc 1d ab 72 3c
       -0.039515745 0.0117108235 -0.020275488 0.014811304
000060 d8 70 cb bc 95 74 1c bd 73 ec e5 bc 60 4e 63 3d
       -0.024834082 -0.03819712 -0.02806685 0.055494666
000070 d8 63 59 3d 6c f0 3f 3d ec 63 4c 3d cb 93 cf bc
       0.053073734 0.046860144 0.04989998 -0.025339028
000080 97 21 28 3c 5e 0b 3e 3d c4 74 c0 3d ba af 87 3c
       0.010261915 0.04639756 0.09397271 0.016563285
000090 50 fd a6 3d d7 c7 ac bb 7e 83 05 3d d1 bd 00 bd
       0.08153784 -0.005272846 0.032596104 -0.031431023
0000a0 8f 56 80 3d 4c 77 a0 3d 4d 84 d1 3c b9 68 7a 3d
       0.0626651 0.07835254 0.025575781 0.061135028
0000b0 bf 54 7b bd 59 cc e0 3d 2f a1 01 bc 42 23 98 3d
       -0.061360117 0.10976476 -0.007911964 0.074286
0000c0 25 80 6d 3d c5 d1 a1 3d a7 a7 69 3d 5e 32 e6 3b
       0.057983536 0.079013385 0.05704465 0.007025047
0000d0 da 6d ba 3d 36 a2 f3 3d 34 13 be 3d b5 99 84 bb
       0.09102984 0.11896174 0.092810065 -0.0040466436
0000e0 ab e4 e0 3d 1f eb d5 3c a7 f1 be bb a2 b0 d6 3b
       0.10981115 0.026113091 -0.005827147 0.006551818
0000f0 95 74 47 3d 49 0b 97 3c 60 2d d6 bb 64 01 a3 bc
       0.048695166 0.018437998 -0.006536171 -0.019898124
000100 66 26 d0 3c 41 22 59 3c 08 8f cc bc b4 50 ac bb
       0.025408935 0.013252796 -0.024970546 -0.005258644
000110 0c 09 22 3c a6 1d 22 3c 3a c7 a3 bc 97 8e a4 3a
       0.009889852 0.009894764 -0.01999246 0.0012554702
000120 b6 c9 98 3d 96 65 98 3d 37 36 ab 3d 20 16 37 bd
       0.07460348 0.07441251 0.0835995 -0.044698834
000130 af 1a 30 3d c5 17 5f 3d e7 04 c4 bc e2 38 c3 3c
       0.042994197 0.054466028 -0.023928119 0.023830835
000140 9e 6c 30 3d f8 86 2e bd 8e 9e 14 3e 15 b6 00 3e
       0.043072335 -0.042609185 0.14513609 0.12569459
000150 ca ba 2e 3d b8 25 54 3d a7 85 a7 3d bb be bf 3d
       0.042658605 0.051793784 0.08179789 0.09362551
000160 7e 66 be bc ed 3e 6f 3d 62 46 25 3d 88 fb 75 3d
       -0.023242231 0.05840962 0.040350325 0.060054332
000170 b2 84 1f 3d 55 c3 e6 3b 31 4d 9d 3c 0e be f7 3d
       0.038944907 0.0070423284 0.019201847 0.12096797
000180 df 8f f3 3d 75 9c 84 bc 3e b0 f9 3d bc a5 0a bd
       0.118926756 -0.016187886 0.12191819 -0.033849463
000190 67 f0 11 3c 58 d8 26 3c 1a 06 de 3d 93 d0 6b bd
       0.008907414 0.010183416 0.108410075 -0.05757196
0001a0 af a2 ba 3c 4e af 0b 3d 73 86 c0 3d 7a 78 ec bc
       0.022782652 0.03410273 0.09400644 -0.028866041
0001b0 81 99 59 bc 3b 78 0b 3d 84 71 4f bd 94 37 00 bc
       -0.013281227 0.034050208 -0.050645366 -0.007825751
0001c0 c5 29 8e 3d b2 cc e8 bc 3f 94 d2 3d 48 bd 46 3d
       0.06941561 -0.028417919 0.10282182 0.048520356
0001d0 65 31 42 3b a6 a6 8f bd bb d6 34 3d 5f 29 2d 3d
       0.0029631492 -0.070142075 0.044150095 0.042275783
0001e0 0f 90 ea 3d 3a 38 13 bd 36 46 9f 3d f6 db 1f 3e
       0.11453258 -0.035942294 0.077770635 0.15611252
0001f0 b7 94 7f bd 7a d4 f7 3c d9 c1 9e 3d 1e 6d ed 3d
       -0.062397685 0.030252684 0.07751817 0.11593078
000200 c7 d7 72 3d 6d 7d d0 3d ea de 99 3d e5 24 92 3c
       0.059287813 0.10180173 0.075132206 0.017839858
000210 b9 c2 65 3d d6 6a a2 bb 93 cb e8 3c 98 b5 48 bd
       0.056093905 -0.0049565835 0.028417384 -0.049001306
000220 b1 6f bc 3c 4d e3 b7 bb ef 10 8f 3d 95 71 5c bd
       0.023002477 -0.005611813 0.06985652 -0.053819258
000230 fc dc 81 3d 2b 6f d4 3c c2 89 76 3c 66 0b ce 3d
       0.063409775 0.025931915 0.015047492 0.10060768
000240 a5 4b c9 3d 01 a3 ee bc 67 38 e1 3b 7e a0 8a bd
       0.09828881 -0.02913046 0.0068731788 -0.06768893
000250 b1 36 08 3d 27 a6 5e bd 6a a4 c2 bb 26 bd 23 bc
       0.033255283 -0.054357674 -0.00594001 -0.009993827
000260 ab 39 60 3d 62 2a ea bc 5c 54 cd bc 99 8e ba 3d
       0.054742496 -0.028584663 -0.02506464 0.091092296
000270 9f 03 0d bb 75 58 03 3e 72 6a 0d bc 02 b2 fd 3d
       -0.002151705 0.12826712 -0.008631336 0.12387468
000280 59 e6 e0 3d dd bc 83 bd d2 06 9c bc 7a 51 65 3d
       0.10981435 -0.06432507 -0.01904622 0.055985905
000290 de 6d cf 3d b9 5e 69 3c 2e 68 86 3d cc 25 3a bd
       0.101283774 0.014243775 0.065628394 -0.045446202
0002a0 cd 54 f0 bc 76 86 de 3d 8c c2 5a bd 80 ea a4 3b
       -0.029337311 0.1086549 -0.05340819 0.0050328374
0002b0 0b 82 44 bb 76 1f 90 3d 28 0e c5 3d c2 dd 4a bc
       -0.0029984738 0.07037251 0.09621841 -0.012381973
0002c0 01 a0 10 3d ed e1 4f 3d 0b 31 27 3e 21 1f 5e 3d
       0.03530884 0.05075257 0.16327302 0.054228906
0002d0 54 6e a3 bc ba 80 40 3d 04 1e 92 3d 5e 36 9f 3d
       -0.01995007 0.046997763 0.07134631 0.077740416
0002e0 4f 17 43 ba 1f 60 2e bd 06 11 17 bd 98 16 61 3d
       -0.0007442133 -0.042572137 -0.03688147 0.054953188
0002f0 ba 67 8e 3a 69 ec ae 3d 34 ec 92 3d c2 c5 14 bd
       0.0010864653 0.085411854 0.071739584 -0.03632141
000300 32 d5 6a bd 5a d0 cf bb 6c 4c 88 bb 29 1e 64 3d
       -0.057332225 -0.006341976 -0.004159501 0.055692825
000310 78 22 25 3c 9f 63 85 3d d6 a2 c8 bc 3a 6a 39 3d
       0.010079019 0.06513142 -0.024491709 0.04526732
000320 18 dc 7e bc 48 69 6a 3b 5f 4a 0a 3d 5b d3 cc 3d
       -0.015555404 0.003576832 0.033762332 0.1000125
000330 66 97 02 3e c1 47 82 3d 30 33 72 3d 6a d0 9a 3d
       0.12753066 0.06361342 0.059130847 0.07559283
000340 ec bf d8 3d ee 13 cd 3d ad 78 b4 3d 57 62 07 3e
       0.10583481 0.10013567 0.088120796 0.13221107
000350 d0 d3 c9 3d 82 7f 36 3d ba a1 b3 3d b7 d9 c5 3d
       0.09854853 0.044555195 0.08771081 0.096606664
000360 33 4f ce 3c 94 d8 72 3d fc 3a 62 bd 28 2f 09 bb
       0.02518425 0.059288576 -0.055232033 -0.0020932648
000370 1a ac 3f bd ad dc a7 3d 80 86 bb 3d f2 78 96 3d
       -0.04679499 0.081963874 0.09156513 0.07347287
000380 73 d6 74 3d e0 3a 16 3d 83 01 bc 3d d3 2b cf bc
       0.059774827 0.03667724 0.09179976 -0.025289452
000390 62 5c b0 3d 93 03 83 bd 57 b0 11 3d 0d ca f1 3d
       0.086113706 -0.06397166 0.03556856 0.11806116
0003a0 c5 5a 0f 3d f8 f0 3c bd c2 be b9 3d e4 a4 4c 3d
       0.034998674 -0.046128243 0.09069587 0.04996194
0003b0 3a 59 ce 3d a9 06 a6 bc bf a2 ae ba 5b 6d ab 3b
       0.10075612 -0.020266848 -0.0013323649 0.005231542
0003c0 ce a4 75 3d ae 4e 15 3d 68 4d bc 3d 19 83 24 3b
       0.059971623 0.036451988 0.091944516 0.0025102554
0003d0 cb 11 fb 3c 9b 74 44 3d 16 98 0e 3d 39 30 21 bc
       0.030648133 0.047962766 0.03481301 -0.009838157
0003e0 06 90 68 bb a1 16 d4 3d 42 bf 0d 3d 19 39 68 3d
       -0.0035486235 0.103558786 0.034606226 0.056695078
0003f0 27 28 a3 3d 2b d0 7b bc 46 ef 8b bd e7 1a ea 3d
       0.07966643 -0.015369455 -0.06832747 0.114309125

lstm.bias_hh_l0 f4 [512]
000000 be 00 f5 3d a7 6a 5c bd 9a dd 7c bc 72 60 94 3d
       0.11963032 -0.05381265 -0.015433693 0.07244958
000010 56 ab 47 bd 93 91 67 3d 9d a7 31 bd 3d 36 9d 3d
       -0.048747383 0.056535315 -0.04337274 0.07676361
000020 6d ea da 3d c3 5c 3c bd b6 dc 11 3d fb ce b3 bc
       0.106892444 -0.045986902 0.035610877 -0.021949282
000030 99 e1 4f 3d 0c bd 08 bd 09 fd 10 3d c9 e1 21 3d
       0.050752256 -0.033383414 0.035397563 0.039521966
000040 f4 b0 89 3d 3b 2b 46 3d 51 6a 4e 3d 5a 71 ff 3c
       0.06723204 0.04838107 0.05039436 0.03118198
000050 c6 e1 26 bd 6b 6d 91 3d 40 f0 c2 3d 4c 46 92 3c
       -0.040742658 0.07100948 0.0951848 0.017855786
000060 ee c2 9b bb a3 8c 05 3c 21 70 85 3d 09 a8 db ba
       -0.004753462 0.008151206 0.065155275 -0.0016758452
000070 26 32 4a 3c 74 65 ba 3d 86 e6 99 bb 2d 3b 24 3c
       0.012341058 0.09101382 -0.00469667 0.010023874
000080 85 71 49 3d 87 7f 5f 3c 5a 55 80 bd 14 2b 83 3c
       0.049180526 0.013641245 -0.062662795 0.016011752
000090 7c 4c ab 3d 11 bf 6d 3d f7 f4 60 bd e4 0c 9c 3d
       0.083641976 0.058043543 -0.054921117 0.07619646
0000a0 78 f3 ae 3d 64 28 fb bc 69 2b 5d bd a8 e3 d5 3d
       0.08542532 -0.030658908 -0.053996477 0.104438126
0000b0 17 21 8a bd 90 2a 3b bd f7 ac 42 3d 14 ff 06 bd
       -0.06744593 -0.045694888 0.047528233 -0.032958105
0000c0 ca f4 79 3d c6 7d 47 bd 8e 7e 3b 3d 56 07 f5 3b
       0.061024465 -0.04870393 0.04577499 0.007477681
0000d0 c1 7b b3 bc 15 ea a0 3d 19 74 83 3d e1 f8 9f bc
       -0.021909596 0.078571476 0.06418628 -0.019527854
0000e0 35 b8 ec ba 32 06 48 bd 25 38 7d bd 51 6e 14 bd
       -0.0018060269 -0.048834033 -0.06182112 -0.03623802
0000f0 55 c5 b3 3c ea d0 1b 3c 9e 53 dc 3d 97 5f 03 bd
       0.021944681 0.009510258 0.10758136 -0.032073583
000100 d2 54 c9 3d 97 62 15 bd 7a 77 88 3c 29 f8 4e 3c
       0.09830631 -0.036470976 0.016658533 0.012632408
000110 9c 16 2c 3e 2c b1 28 bc ff bc 25 3b 8b e7 49 3d
       0.168055 -0.010296147 0.0025289652 0.049293082
000120 cc cb d6 ba 95 08 43 3d 5a 48 bd bc 4c c1 e8 3d
       -0.001638764 0.047615606 -0.023105789 0.113649935
000130 c6 63 22 3d a2 b8 8d bc 21 c2 39 3d 09 68 7c bd
       0.039645933 -0.017299954 0.04535115 -0.061622653
000140 b2 13 3a 3d bd 19 27 3d ae da 96 3d f3 8f f9 3d
       0.04542894 0.04079603 0.073659286 0.12185659
000150 84 c7 93 3d f1 41 7f bd 51 57 98 3d 7c 2a 5f 3c
       0.07215789 -0.062318746 0.07438529 0.013620969
000160 76 21 eb 3d 17 60 93 bc c1 34 42 bd ec 40 2c 3d
       0.114809915 -0.017990155 -0.04741359 0.0420541
000170 bf 6c 8b bc fe e9 37 bd f8 42 fe 3c 3f f2 86 bb
       -0.017019628 -0.044900887 0.031037793 -0.0041182335
000180 a4 90 51 3d 75 99 cd 3d 7d 75 1d 3e 6e c4 34 bd
       0.05116333 0.10039035 0.1537685 -0.044132642
000190 e1 81 69 3d 40 11 d6 3d 4c e5 f0 3d dd 4f 59 bd
       0.057008628 0.10452509 0.11762485 -0.05305468
0001a0 74 1d bb 3d ae ab f0 3c 8b f9 bd 3d 35 76 39 3d
       0.09136477 0.029378738 0.09276112 0.045278747
0001b0 a5 60 10 bd a6 ae 10 3d d4 dc e8 3d 35 95 5e bb
       -0.035248417 0.035322808 0.113702446 -0.0033963446
0001c0 72 89 26 3d af f0 32 bd 6c b5 0f bd 89 e2 54 bc
       0.04065842 -0.043686565 -0.035085127 -0.012993463
0001d0 13 02 d2 3d cf e5 a5 3d 63 e3 cd 3d 95 b6 64 bd
       0.10254302 0.08100473 0.10053136 -0.055838186
0001e0 2a 77 aa bc 33 5c 97 3d 6b 31 7a bd 7b c0 a0 3d
       -0.020808775 0.073906325 -0.061082285 0.07849213
0001f0 bb 1c 1d bc 16 63 bb 3b e9 8f 40 bd c8 fc 80 3d
       -0.009589369 0.005718599 -0.047012243 0.06298214
000200 12 a3 66 3d 75 55 a5 3d 83 56 96 3d 43 1f 15 bc
       0.05630786 0.0807294 0.073407196 -0.009101692
000210 2e 4b 5c bc 6e 0f ee 3d eb 2f 82 3c 7e cf 4d bd
       -0.013445659 0.11624037 0.01589199 -0.050246708
000220 7b aa 12 bc 5b 00 9e 3c f2 96 9d 3c ba be 91 3d
       -0.0089517785 0.019287279 0.019237015 0.07116456
000230 6a c9 cf 3d 33 56 1d 3d 0e 57 85 bd 71 c2 31 3d
       0.101458386 0.038412284 -0.06510745 0.043398324
000240 8c 13 83 3d 1d f1 6b bd af de 3a 3d db 60 87 bd
       0.06400213 -0.05760299 0.045622524 -0.066102706
000250 2c 13 20 bc b9 1f a1 3d 6c 32 14 bd 2b a4 98 3c
       -0.009770196 0.07867379 -0.0361809 0.018632969
000260 cf f2 ee 3c 1f 9d 18 3d 88 dc 32 3b 63 ec 81 3a
       0.029168515 0.037259217 0.0027292091 0.0009912368
000270 e8 38 81 3c 7e 06 27 bc 4f 48 3c 3d a8 8e d9 3d
       0.015774205 -0.010194419 0.045967396 0.10622913
000280 f7 b2 3e bd c1 d8 84 3d 14 5f af 3c 66 73 d5 3d
       -0.046557393 0.06486655 0.021407641 0.10422401
000290 b8 8a a0 3d d1 59 3b bd 6f f0 fe 3c 39 83 1c bd
       0.078389585 -0.045739952 0.031120507 -0.03821108
0002a0 bd 46 e5 3d 02 8a 36 3d 68 50 50 bd e1 c4 4d 3d
       0.11195133 0.04456521 -0.05085793 0.050236586
0002b0 68 55 9b 3d 4c e1 65 3d e9 50 f6 3a 6f 0d 56 bd
       0.07584649 0.056123063 0.0018792424 -0.052258905
0002c0 4c 95 b8 3d 43 4d 48 bc 9f af 1f 3e ce 8d ae 3d
       0.09012851 -0.012225452 0.15594338 0.08523141
0002d0 45 ee 81 3d bd 56 37 3d 82 3a 93 3b dc 4a 47 bc
       0.063442744 0.044760454 0.0044930587 -0.012163844
0002e0 fe 9c d9 3d 43 05 23 bd c7 25 8d 3d 1b 30 27 3d
       0.10625647 -0.03979994 0.06891971 0.04081736
0002f0 48 2b ae 3c e6 65 ae 3d d3 56 09 bd 1a f1 af 3d
       0.021260872 0.08515529 -0.033530068 0.08590908
000300 19 53 73 bc a8 f8 b8 3d 4d 6e 14 bc a2 39 69 3b
       -0.014851355 0.090318024 -0.009059501 0.003558733
000310 0b 55 0c 3e 3a af ab 3d cf 06 15 bd 40 4a 0f bd
       0.13704316 0.08383031 -0.036383446 -0.03498292
000320 5d 90 10 3d 2f e4 17 3a aa 51 f7 3b 8b be bd bb
       0.035293926 0.0005794195 0.007547577 -0.0057905368
000330 88 c1 bb 3d cb 66 45 bc d6 65 bf 3d 70 66 62 bd
       0.091677725 -0.012048434 0.093455955 -0.055273473
000340 39 cb 3b 3d 6b 8f cc 3d ec de 03 3e 5c d0 6b 3d
       0.045848105 0.09988292 0.12878007 0.057571754
000350 d1 d7 9e 3d 69 c1 9b 3c 4c 0d cb 3d 01 36 c3 3d
       0.077560075 0.019013124 0.099146456 0.09531785
000360 d5 ce a9 3d 24 e7 84 3d 98 85 60 bc a8 40 c8 3d
       0.08291403 0.06489399 -0.013703726 0.09777957
000370 b7 a6 b5 3d ad 23 73 3d 85 cb b1 3d 6c f4 ff 3d
       0.08869689 0.059360195 0.086813964 0.12497792
000380 a5 82 2a 3d 0c 39 0f 3e 66 4f 29 3e 05 56 87 3d
       0.0416285 0.13986605 0.16534194 0.06608204
000390 23 07 ca 3d 41 bb 31 3c df b3 ab bc c3 7d ce 3c
       0.098646425 0.0108478675 -0.020959793 0.025206452
0003a0 c0 70 4e bb 22 cf 46 bd 3c 36 fa 3d 34 11 88 3d
       -0.003150031 -0.04853738 0.12217376 0.06643906
0003b0 0a 60 60 3d 66 58 82 bb 17 65 5e 3c c3 25 44 3d
       0.05477909 -0.003977823 0.013573906 0.047887575
0003c0 54 b6 cb 3d 47 d3 39 3d 31 c2 39 bc d7 ae ae 3d
       0.09946886 0.045367505 -0.011337803 0.08529442
0003d0 3e 33 a4 3a 32 9d 7a bd be 7c 7d bd 85 4a 47 3d
       0.0012527478 -0.06118507 -0.06188654 0.04865505
0003e0 8f 8b 32 bc 4c a0 3e 3d 61 ac 83 3d 40 cf fe 3d
       -0.010897531 0.04653959 0.06429363 0.124418736
0003f0 76 46 37 3d 72 72 b9 3d 56 7b 67 bd e6 9e 36 bd
       0.04474493 0.09055032 -0.056514107 -0.04458513

lstm.weight_ih_l1 f4 [512, 128]
000000 10 2b ba 3c fa 5b 92 bd 4f f3 8f bc 94 e4 4f bd
       0.022725612 -0.071464494 -0.017572073 -0.0507551
000010 f0 8c 82 bb 7a 0a 9c 3c a6 0d 0f 3d ac 12 a4 3d
       -0.003984086 0.019047964 0.034925126 0.08011374
000020 f3 19 5c 3d 83 60 b7 bd 41 64 9f 3d 98 44 84 3d
       0.053735685 -0.08953955 0.07782794 0.06458396
000030 44 df 20 3d 1b 2d 00 be b4 8f e9 bc c9 24 f9 3d
       0.039275423 -0.12517206 -0.028510906 0.12165219
000040 45 bf 7c bd d5 53 ac bd a4 a8 9b bc a2 17 4c bd
       -0.061705846 -0.08414427 -0.019001313 -0.049827226
000050 c2 60 ff 3c da 83 3b bc 74 50 bd 3d 07 fb 03 bd
       0.031174067 -0.01144501 0.09243861 -0.03222182
000060 99 9d 16 3d 44 03 90 bd 4e 44 9c 3c 60 b5 b4 bd
       0.03677139 -0.07031873 0.019075539 -0.08823657
000070 16 a5 0f bd 89 e3 97 3d a4 f8 ec 3c 20 16 fc bd
       -0.035069548 0.07416446 0.028927155 -0.123089075
000080 43 b7 a6 bd cf 4f 43 bd 17 cb 91 3d c2 4f db bd
       -0.08140423 -0.047683533 0.071188144 -0.10708572
000090 22 3c ac 3c b5 82 43 bd 6f bf 30 bd 8c 4c 9e bc
       0.021024767 -0.047732074 -0.043151315 -0.01932361
0000a0 fc 4d ba 3c f6 56 10 bd 0f 11 c8 bd c8 a6 24 bb
       0.022742264 -0.035239182 -0.09768879 -0.0025123823
0000b0 c7 25 97 3d 6d bb 28 bd 68 6f 91 3d 65 ce 2b 3c
       0.07380252 -0.04119437 0.07101327 0.01048622
0000c0 61 58 69 bd bb 4d ac bd 1d 10 a3 3c c9 06 1e bd
       -0.05696905 -0.084132634 0.019905144 -0.03858069
0000d0 9e 5c 9a bd ef 96 a7 bd 11 dd 8b bd 69 04 00 3e
       -0.075371966 -0.08183085 -0.068292744 0.12501682
0000e0 e3 19 51 3d c5 38 38 bd 72 04 df 3c d2 1b 75 3d
       0.051050078 -0.044976015 0.0272238 0.059840985
0000f0 31 4d 7c bd b6 97 8d bb 89 c1 2b 3b 0a a2 b3 bc
       -0.061597053 -0.004321064 0.0026207885 -0.021927852
000100 f8 41 7b 3d 9c e4 d4 3d e6 da 09 bd f4 ff 49 3d
       0.06134221 0.10395166 -0.033656023 0.04931636
000110 69 55 c0 bd 3f f5 08 3d 4d 0d 1c 3c e6 03 b8 bb
       -0.09391291 0.03343701 0.0095246555 -0.005615699
000120 18 d9 54 bd 86 1f 8e bd 59 3c ad 3d a7 81 e5 3d
       -0.05196485 -0.06939606 0.08458776 0.1120637
000130 64 4d 36 3d d9 3b d4 3d 2a d4 8b bd 98 a5 e1 bb
       0.0445074 0.103629775 -0.068275765 -0.0068861954
000140 70 99 47 bc 0c cd 09 3d 84 04 07 bd e4 8a 94 bd
       -0.012182578 0.033642814 -0.03296329 -0.07253054
000150 86 5a 76 bd f3 21 69 3d 66 5f d0 3c 67 d4 97 bd
       -0.060144924 0.056917142 0.025436115 -0.074135594
000160 a6 a9 83 bd 38 ea 9c b9 28 a7 37 bd 70 71 21 3c
       -0.06428842 -0.00029929145 -0.044837147 0.009853706
000170 07 94 57 bd 54 e3 43 3d 2c 1a fc 3d 29 6a 35 bd
       -0.052631404 0.04782422 0.123096794 -0.044290695
000180 8d 88 1b be 5e 79 3c 3d 7b 9a 86 bd 50 9c ac ba
       -0.15188809 0.046014182 -0.065724336 -0.0013169143
000190 86 63 6a bd 18 4d ad 3d 86 31 a8 3c 0e 51 38 3d
       -0.05722382 0.0846197 0.020531427 0.044999175
0001a0 d8 ef 9d bd 43 f9 a4 bd 52 dd 18 3c 80 a4 c4 3c
       -0.07711762 -0.080553554 0.009330111 0.024004221
0001b0 9f f8 ea bc a1 02 85 3d 6f 93 c4 3d a7 9f 86 3d
       -0.028683005 0.06494642 0.09598433 0.0657342
0001c0 a9 69 51 bb 12 54 ac 3c c6 b5 85 3d 1e fa 99 bd
       -0.0031953848 0.021036182 0.06528811 -0.07518409
0001d0 1a 02 86 3d a2 19 99 bc d0 a8 5a 3d 5d 4b 9a bd
       0.065433696 -0.01868898 0.05338365 -0.07533906
0001e0 a4 dd 5c 3d cd 2d fe 3c 94 17 d2 3b 65 22 cc bb
       0.05392231 0.031027699 0.006411502 -0.006229686
0001f0 bd 72 e6 3d fe aa 57 bd 1c ba c6 3c d5 9c e9 bd
       0.11252353 -0.052653305 0.024258666 -0.114068665
000200 71 4f 92 bd 53 3f b6 3c a1 ff e1 bc f5 d9 74 bd
       -0.071440585 0.022246992 -0.027587714 -0.059778173
000210 88 12 6f 3d dc 82 0e be 4f e4 a6 3d f3 50 cc bd
       0.058367282 -0.13917106 0.08149015 -0.09976377
000220 71 2b 42 bd a2 ee ad bd 12 1d 16 bb 5b ea b2 bc
       -0.04740471 -0.08492781 -0.002290551 -0.021840265
000230 77 d6 33 3d e0 5a 25 bc 3f 38 a6 bd 3a d5 9f 3d
       0.0439057 -0.010092467 -0.08116197 0.078043416
000240 ed 8e 89 3a 7f 96 8e 3d 46 57 b9 bd 63 47 e7 3c
       0.0010494866 0.069622986 -0.09049849 0.028232282
000250 66 d9 ff 3c cb 80 e2 3d 12 a9 9f 3d 14 9e ce bd
       0.031231593 0.110597216 0.077959195 -0.10088745
000260 e0 48 73 bc 78 cd 78 3b ee 06 b7 bd a0 db 47 bd
       -0.014848918 0.0037964266 -0.089368686 -0.048793435
000270 71 cf f9 bc 40 31 05 bd 77 a1 46 3d bb 58 18 be
       -0.030494424 -0.03251767 0.04849383 -0.14877598
000280 85 d4 f4 bc c0 af 70 bc 81 f4 e5 bc df 0e da bc
       -0.029886493 -0.01469034 -0.02807069 -0.02661842
000290 68 d0 8d 3d 59 26 b6 bd 7c 09 a1 3d f0 b3 03 bb
       0.06924516 -0.08894033 0.07863137 -0.0020096265
0002a0 57 22 df bc cb b5 0f bd 50 f5 16 bd ad 7f 82 bc
       -0.027238054 -0.03508548 -0.036855042 -0.015930021
0002b0 14 5e 2a 3d 2e 4f 4b bd 76 36 a8 bd 10 a5 0f be
       0.041593626 -0.04963606 -0.082135126 -0.1402781
0002c0 0d e2 96 3c 1c f4 70 3c 85 46 2b bb 1c c5 93 bc
       0.018418336 0.014706638 -0.0026134562 -0.018038325
0002d0 8f 79 96 3a 9d b6 69 bb eb ef 15 3c 59 aa 8f 3d
       0.0011480319 -0.0035661825 0.009151439 0.07014913
0002e0 0b 09 b7 3b 62 07 9e bc 0a 16 c9 3c b1 07 a5 bd
       0.005585795 -0.01929063 0.024546642 -0.08058108
0002f0 10 0d 70 bd ec 22 83 bd e7 5f d7 bd 57 70 42 bd
       -0.058606207 -0.06403145 -0.10516339 -0.047470417
000300 96 4c bc bd 19 f6 57 3d 0c d8 e7 bd 51 e9 11 3d
       -0.09194295 0.05272493 -0.113205045 0.0356229
000310 64 c8 8f 3d db 0b cb bd 61 7b a4 3d 83 9a 81 bc
       0.07020643 -0.099143706 0.08031345 -0.015820747
000320 ff 65 6d bd ed 3f 8c 3d 79 5b b4 3d aa 86 04 3d
       -0.0579586 0.068481304 0.088065095 0.03235499
000330 0f 32 03 be f2 ad 96 bd ab db fd bb 45 ac 85 bb
       -0.12812065 -0.07357396 -0.0077471337 -0.004079374
000340 e6 57 0f bc 23 07 de bd db 55 8e 3d 67 c2 42 bc
       -0.008748984 -0.10841205 0.069499694 -0.011887169
000350 0a c4 60 bd 13 d9 a0 3d d1 c9 03 3d 16 c8 78 bd
       -0.054874457 0.078539036 0.03217489 -0.06073769
000360 ad 51 fb bc 63 10 58 bd 7a c8 29 3d a2 60 a7 bc
       -0.030678594 -0.052750003 0.041450955 -0.02043182
000370 ef b3 49 bd f1 63 c5 3c 21 00 cf 3c 4d df 3f 3d
       -0.049243864 0.024095507 0.025268616 0.046843816
000380 49 c6 50 3c 05 66 fe 3c 42 53 af bd cb 9d 85 3a
       0.012742587 0.031054506 -0.08560802 0.0010194121
000390 b5 ed e2 bc 5e 94 c6 3d b1 32 dc bc 60 66 0f 3d
       -0.027701238 0.096962675 -0.02687964 0.03500974
0003a0 fa fd 4b bd a0 d9 55 3c c3 cf dd bd 1c 88 8a 39
       -0.049802758 0.013052374 -0.10830643 0.0002642282
0003b0 fa fa 2e bd 61 cd 16 be d5 de ff 3c 29 09 b9 bc
       -0.04271982 -0.14726783 0.031234184 -0.022587376
0003c0 97 b0 c6 3d ad 16 f6 bc 9c 6c a2 3b 49 98 c2 3c
       0.097016506 -0.03004011 0.004956795 0.023754256
0003d0 36 23 0b 3d 22 0b a7 3d e8 e6 62 3d 1c bc ed b9
       0.033969127 0.0815642 0.05539599 -0.00045344315
0003e0 fc 29 b4 3b 82 bd 03 3c b6 56 c2 3c b6 9b c6 bd
       0.005498169 0.008040788 0.023722988 -0.09697668
0003f0 e1 c1 bd bd 4b 69 86 bd 7f d8 96 3d 70 02 19 bc
       -0.09265495 -0.06563052 0.07365512 -0.00933896

lstm.weight_hh_l1 f4 [512, 128]
000000 ec 36 89 3d 7f df 4c 3d 0b 6b 01 3e b9 b6 f9 3c
       0.06699929 0.05001783 0.1263849 0.030482637
000010 f4 b0 b6 3d 71 ec df 39 7d b7 3c 3d 7f 94 82 3c
       0.0892047 0.00042710037 0.046073426 0.01593995
000020 a1 fb 1a bc 46 78 d7 3c b4 1e fd bc 75 21 88 bd
       -0.009459407 0.026302468 -0.03089843 -0.066470064
000030 df 48 05 3d 81 6c 80 3d 8c 81 90 bd 2b 82 0b 3d
       0.0325402 0.062706955 -0.07055959 0.034059685
000040 a3 e8 c3 3c 9f 32 40 3d 0f 63 1a bd 17 dd 90 bd
       0.02391464 0.046923276 -0.037692126 -0.070734195
000050 33 8f 68 3c bb 97 ab 3d 25 d9 81 bd d3 ec 05 ba
       0.014194298 0.0837855 -0.06340245 -0.0005108837
000060 a8 ae fe 3c 0c 04 17 bd 44 c8 47 bd 3d 01 66 3d
       0.031089142 -0.036869094 -0.048774973 0.056153525
000070 f8 45 ea 3c d8 a4 c1 39 ef d2 2e 3d 96 eb fc 3c
       0.028597817 0.00036934647 0.04268163 0.030874055
000080 c2 70 b4 bc 89 36 86 3d 1c 62 03 bd da 74 ba 3d
       -0.022026423 0.065533705 -0.032075986 0.09104319
000090 fe 75 ba 39 b6 62 56 3d 5e e3 c9 bd c4 e7 69 bd
       0.00035564596 0.05234023 -0.0985782 -0.057105795
0000a0 7d 7c 16 bd b4 fd 44 bd 53 de 63 3d f7 87 8c 3c
       -0.036739815 -0.048093513 0.055631947 0.017154677
0000b0 2b 17 dd bc f6 84 b3 3d 4a 7a 50 bc a2 81 c2 3d
       -0.026988586 0.08765595 -0.0127244685 0.09497382
0000c0 04 67 65 bd 2d 29 23 bc 91 7d 85 bc fd 6b af bd
       -0.056006446 -0.009958548 -0.016295226 -0.08565519
0000d0 b9 9f 08 3c b3 89 8a bd 67 5e be 3c 44 b0 a5 3c
       0.008338862 -0.06764545 0.023238374 0.020225652
0000e0 80 80 6b bc 4b 37 44 bb 11 32 15 3d 3d 0d c0 bc
       -0.0143738985 -0.0029940184 0.0364247 -0.023443813
0000f0 b8 88 b9 3d 35 c9 c1 3d 94 c2 9c 3d f1 91 66 bb
       0.0905928 0.09462205 0.076543 -0.0035182203
000100 5c d1 f7 3c 0d 47 4c bd fb 74 32 bc 54 08 83 bd
       0.030251198 -0.049872447 -0.010892148 -0.06398073
000110 12 a7 8e bd 19 89 c4 3c e2 45 63 3d c2 92 90 3c
       -0.0696546 0.023991155 0.055486567 0.017648105
000120 c1 65 09 3d c6 e5 9e 3d 92 4f 37 3d c4 22 81 3c
       0.033544306 0.077586696 0.04475362 0.015763648
000130 07 f3 26 3d 81 4b c9 3b cc fc a7 bd 5f 5c 88 bd
       0.040759113 0.006143034 -0.08202514 -0.066582434
000140 a3 aa 74 3d 3e b3 fa bd 8e 54 b5 3c b9 6c e7 3a
       0.059733044 -0.12241219 0.022135045 0.0017656303
000150 ed de 22 3d c9 14 22 bc 65 f2 9e 3c 0e 0f 82 3c
       0.03976338 -0.009892651 0.019402692 0.01587632
000160 d9 b3 64 bd 65 15 f0 bd f4 9f dc bc 46 be a5 3d
       -0.05583558 -0.11722831 -0.02693174 0.080929324
000170 09 de 22 bd ed 0c 99 3d 3e 29 7f bd 0a 75 cb 3c
       -0.03976253 0.074731685 -0.06229519 0.024836082
000180 e2 a3 cb 3b 41 c3 73 bd 04 11 85 3d 6e 4d 1f bc
       0.0062146047 -0.05951238 0.06497386 -0.0097230505
000190 58 5d 2e bb 4f c3 f8 bb b6 ca a6 3c 8b 9a 8b bc
       -0.002660593 -0.007591642 0.020360332 -0.017041465
0001a0 53 52 8b 3b 4b 24 ab bd ab ac 8b bd c7 31 4e bd
       0.004251757 -0.08356532 -0.06820043 -0.05034044
0001b0 56 bc d2 3b eb 8f 7d bd 2c fa 39 bc 7d 0d c7 bc
       0.006431143 -0.06190483 -0.0113511495 -0.024298424
0001c0 fd 22 d9 bc 17 d1 3a bd b6 d6 4d bd 17 d6 96 bc
       -0.026505942 -0.04560956 -0.050253592 -0.018412633
0001d0 2f a0 0c bd 4a ff 87 3d 72 8c 27 bd e7 89 ff bc
       -0.03433245 0.066404894 -0.040905423 -0.031193687
0001e0 0b 98 27 bd 34 db 10 bd 2e f4 84 bc 52 4f 96 bd
       -0.040916484 -0.0353653 -0.016229715 -0.07339348
0001f0 18 ae 0e bd 19 f4 ab bd be c1 30 3d 21 7e 82 3d
       -0.034833997 -0.08396167 0.043153517 0.063717134
000200 61 6a 8d 3d af 4a 0f bd 17 13 86 bc 31 65 7f bd
       0.06905056 -0.034983333 -0.016366525 -0.062352363
000210 a9 e4 54 bc a9 be 6e 3d d3 67 04 3c 87 dc de bc
       -0.01299397 0.058287296 0.008081394 -0.027204765
000220 89 ec 72 bd 36 79 0e bd ff 87 85 bc c4 b5 80 3d
       -0.05930761 -0.034783565 -0.0163002 0.06284669
000230 42 03 53 bc 38 91 97 bd 31 9f 11 bb 2e dd cb 3c
       -0.012879195 -0.07400745 -0.002222013 0.02488574
000240 7b d1 82 3d c0 d4 80 bc 21 22 74 3d 6b 30 ff bc
       0.063876115 -0.015726447 0.05960286 -0.031151017
000250 22 22 7e bd 11 d4 13 bc dc d2 b8 3b 35 22 86 3c
       -0.06204427 -0.009022729 0.005640371 0.016373733
000260 af 5f 38 bc 83 e0 a1 bd 56 e8 99 3b cd dd 29 3d
       -0.0112532815 -0.0790415 0.004696886 0.04147129
000270 f8 ee 9a 3d 3b 56 c7 bd ab ed 7c bd 17 0b 91 3d
       0.07565111 -0.09733244 -0.061750095 0.07082193
000280 23 6d 0f 3c 40 cd 91 bc f5 e6 77 bd 95 e3 50 bd
       0.008754048 -0.017798066 -0.060522992 -0.05099829
000290 5d 93 1f bd 18 a1 38 bd e1 a1 ff bc ec ef 50 3b
       -0.038958896 -0.045075506 -0.03120512 0.0031881286
0002a0 6d e2 8a 3d 3f 98 6a 3c c4 a5 49 3d fa 19 2d bc
       0.067814685 0.014318525 0.049230352 -0.010565275
0002b0 3d dc 29 3d dc ba 4c 3d d3 60 62 3d 7c ec fc 3d
       0.0414698 0.04998289 0.05526812 0.12349793
0002c0 7a d4 80 bd 0a b0 91 bb 30 4a 9f bc b4 74 9e bd
       -0.06290527 -0.0044460343 -0.019444555 -0.07737103
0002d0 cf c5 68 3d d9 0d 34 3c 16 8b 55 bd 61 d2 8c bd
       0.05682927 0.01098963 -0.052134596 -0.06876064
0002e0 12 3f 1c 3d 3b df 54 bd 7b bc eb 3c 75 0d 31 3c
       0.038146086 -0.0519707 0.028776398 0.010806431
0002f0 27 9f dc 3d 05 8b 35 3d de 5b 42 3d bc 7b 18 bd
       0.107725434 0.044322032 0.047450893 -0.037227377
000300 c1 a4 e3 bb ea e2 63 b9 88 6e 71 bd 73 e7 50 bd
       -0.0069471304 -0.00021732939 -0.0589433 -0.051001977
000310 a2 da 18 bd 94 b6 f5 bc b1 7e 57 3d 98 f0 8d 3d
       -0.03731788 -0.029994287 0.052611057 0.06930655
000320 a5 3b 15 bd bb a5 7c bd ba 96 ef bc 33 e4 a4 bd
       -0.036433835 -0.06168149 -0.029246677 -0.08051338
000330 95 38 34 3c a7 08 89 3d 82 25 03 3e 22 84 20 3c
       0.010999818 0.066911034 0.12807277 0.009797128
000340 0b 70 6d bc 73 50 ec 3c c4 ba 94 3c 3e fe b6 3d
       -0.014492045 0.028846955 0.018155463 0.089352116
000350 fb 3f 8b 3d a1 31 f9 bc 4f c5 d4 bc b4 cd 0e 3d
       0.06799313 -0.030419173 -0.02597299 0.034864143
000360 e3 4b b0 3d fc c8 28 bd a2 5f 57 3d 6f ef 7c 3d
       0.08608224 -0.0412073 0.052581437 0.06175178
000370 88 19 8e bc 69 59 5b 3d f7 44 8e 3d ae d0 12 bd
       -0.017346159 0.053552065 0.06946748 -0.035843544
000380 91 fd d6 3d bb 95 43 bd 7b 0f 7c 3c b2 af f1 3d
       0.10497583 -0.047750216 0.01538455 0.11801089
000390 a7 97 03 bc 0b 0a 53 bc 36 d2 8c bd 6a 28 be bc
       -0.008031762 -0.012880812 -0.06876032 -0.02321263
0003a0 9e 2e 5d bd 35 c8 ae bd b5 cd 67 bd b2 ee 4b 3d
       -0.053999536 -0.0853428 -0.056592662 0.049788184
0003b0 e9 87 1b bd 95 33 9c bb 9b 23 03 3d a4 a2 67 bc
       -0.03797141 -0.0047668912 0.032016378 -0.014137898
0003c0 fc 3c 30 3d 73 4f e5 bd 81 91 83 bc ce d0 99 3d
       0.04302691 -0.11196794 -0.016060593 0.075105295
0003d0 58 ed 3f 3d 9a 95 93 bc 37 59 14 3d d8 49 10 3c
       0.046857208 -0.018015672 0.036217894 0.008806668
0003e0 9a 22 88 bd b0 82 73 3d 17 76 93 bd 6a 09 c0 bd
       -0.06647225 0.059450805 -0.07200258 -0.093767956
0003f0 07 8b 81 bd af db 95 3c 19 bd 3a 3d d1 85 15 3d
       -0.063253455 0.01829323 0.045590494 0.03650457

lstm.bias_ih_l1 f4 [512]
000000 ee 29 56 bc a0 7e fe ba 6f 13 8c bb ca 9d a8 3c
       -0.01307152 -0.0019416399 -0.0042747776 0.020583052
000010 06 15 5a bd 1f 4d 91 bd d6 60 fc 39 3b a8 99 3d
       -0.053242706 -0.07094788 0.00048137334 0.075027905
000020 45 cd 58 3d 58 95 6d 3d c2 2c 99 ba c6 ad bb 3c
       0.052930135 0.058003753 -0.0011686313 0.02291001
000030 16 67 44 bd 65 6c d5 3d f6 fb 84 3d 33 f9 2d 3d
       -0.047949873 0.10421065 0.0649337 0.042473983
000040 33 9e 30 bc 0e 77 08 3e ca 2a 78 3c af 63 49 3d
       -0.010779905 0.13326666 0.01514692 0.04916733
000050 4b 70 7b 3d 45 60 d5 3d ef 88 83 3d 60 f4 47 3d
       0.061386388 0.104187526 0.064226024 0.04881704
000060 4b e9 1d bd fb 65 c1 3d 9f 82 28 bd 2f 8f 22 bd
       -0.038552564 0.09443279 -0.041140195 -0.03968733
000070 51 16 e4 3d ae e2 26 3c 3a 86 89 3d 92 06 a9 bc
       0.11137069 0.010185881 0.06715055 -0.020633016
000080 fc 26 9e 3d 2c b6 ac bd 78 75 55 bd 00 43 ad 3d
       0.077222794 -0.08433184 -0.05211398 0.08460045
000090 17 78 00 bc ab c6 a7 3d 38 60 40 3d 1d 7d 57 3d
       -0.007841132 0.0819219 0.04696676 0.05260955
0000a0 88 a4 e2 3c 37 eb a1 3d e7 af 29 bd f7 dd e7 3c
       0.027666345 0.07906192 -0.04142752 0.028304083
0000b0 3f 82 b6 3c 30 93 52 3d 5c ad 9f 3c 4a 1c 75 3c
       0.022278903 0.0514099 0.019491844 0.014960358
0000c0 0f c8 4d bc 15 40 e4 3c 7a a1 25 bc 21 22 60 3c
       -0.012559905 0.027862588 -0.0101093 0.013680012
0000d0 1b 7b b1 3d 1d 85 5e bd bb c4 39 3b fc 16 e0 ba
       0.08666059 -0.054326165 0.002834602 -0.0017096694
0000e0 44 55 95 bd b4 12 63 bd b3 e3 3a 3d 50 05 c7 3d
       -0.07291654 -0.05543776 0.045627307 0.0971781
0000f0 4a ef 99 3d f4 8a 7c bd d5 d0 1d 3d 83 5d 1c 3c
       0.07516344 -0.061655954 0.038529236 0.009543779
000100 af f9 b0 bd ed 34 ab 3d 76 91 78 3d 56 d1 9b bc
       -0.08641373 0.08359704 0.060685597 -0.019020718
000110 be ba 3b 3d 65 c4 a9 bc b5 31 47 3d e4 71 c2 bd
       0.045832388 -0.020723531 0.04863139 -0.09494379
000120 b3 e6 12 bd 1e fd 86 3d 98 fb 19 bd b0 68 a3 3d
       -0.035864543 0.06591247 -0.037593454 0.07978952
000130 66 c7 25 3d aa 15 5e bc 61 36 ba 3d 8d 54 55 3d
       0.040473364 -0.01355497 0.09092403 0.052082587
000140 f6 4a 8e bd e1 a8 ea 3d 50 4b 1c bd 9e e6 4e bd
       -0.069478914 0.11457992 -0.03815776 -0.050512902
000150 bc 77 1c bb 1a 1e e4 bb e1 73 a0 3d c3 da de bc
       -0.0023875078 -0.006961596 0.07834602 -0.027203923
000160 d2 e5 bb 3d e4 69 56 bc 72 6f a0 3b 22 91 ed 3b
       0.09174694 -0.01308677 0.004896098 0.007249967
000170 f2 f9 98 3c 84 31 3e 3c fd 32 2b bd b3 3a 40 3c
       0.01867387 0.011608485 -0.041796673 0.011732745
000180 1f 5d 19 3d e9 59 5b 3d c4 3a 74 bd 1e 3f 12 bd
       0.037442323 0.053552542 -0.059626356 -0.035704724
000190 1b d5 c2 bb 2a 59 09 bd 3f 88 a8 3d af d3 b3 3c
       -0.0059458143 -0.0335323 0.08229112 0.021951525
0001a0 5e 37 c6 bc 25 84 09 3d 88 bb 8a 3d 4b af b4 3d
       -0.024196323 0.03357329 0.0677405 0.08822497
0001b0 1a 84 20 bd a4 aa 9b 3d e3 16 de bb 55 80 f5 3d
       -0.039188482 0.076009065 -0.0067776307 0.11987368
0001c0 90 20 43 3d 32 e0 7d 3c d1 b6 17 3d 8d b2 7a bd
       0.047638476 0.015495347 0.03703958 -0.061205436
0001d0 0a 08 26 bd 84 ae 9c bd b4 46 1d bd ff 39 73 3d
       -0.04053501 -0.07650474 -0.038397506 0.05938148
0001e0 bf 82 c2 bb 46 98 9f 3d 26 cd a0 bc 9a a9 d7 3c
       -0.0059359963 0.07792716 -0.019629072 0.02632599
0001f0 c5 dc 88 ba 42 bd 64 3d 20 6a 82 3d 1a 6f c7 3b
       -0.0010441771 0.055844553 0.06367898 0.0060862424
000200 72 35 55 bc db 38 84 3d 04 07 06 3e 5b 78 57 bb
       -0.013013231 0.06456157 0.13088614 -0.0032878134
000210 2f 25 46 bd 60 a2 0f 3d cd 73 20 bd b2 44 0d 3d
       -0.048375305 0.035066962 -0.039172936 0.03448934
000220 ba 8e b8 3c d1 c4 66 bc 75 17 27 3d 9b 07 12 bc
       0.022528995 -0.014085011 0.040793855 -0.008912946
000230 2f 8c 04 bd 40 52 b7 3b 4e c3 75 3d 33 47 84 bd
       -0.032360252 0.0055945218 0.06000071 -0.06458893
000240 29 e7 af 3c 49 36 ab 3d c0 9a b1 3d 51 57 72 bc
       0.02147253 0.083599634 0.08672094 -0.014791326
000250 4d 52 91 3b 1f 4d 6f bd b6 61 f0 3d 45 fa 9e 3c
       0.00443486 -0.058423158 0.11737387 0.019406447
000260 f5 d6 0b 3d 20 58 1c bc fa f5 90 3d 0e 90 89 3d
       0.034140546 -0.009542495 0.07078166 0.067169294
000270 49 1e d7 bb b9 54 8e 3d b8 54 96 3c cc b9 32 3b
       -0.0065648896 0.06949753 0.018350944 0.0027271388
000280 2c f5 d8 3d c0 8c a7 3c 48 45 33 bd a0 97 67 bd
       0.10593638 0.020452857 -0.043767244 -0.056541085
000290 22 37 56 3d f7 60 8b 3d c1 5f 7a bd ee 09 b1 bc
       0.052298672 0.06805604 -0.061126474 -0.02161118
0002a0 66 3e d7 3d 4f 65 f4 3c f3 a8 9c 39 6f dc ff ba
       0.105099484 0.029833464 0.00029880516 -0.001952065
0002b0 db 20 ac 3d 4d 87 87 bd d7 28 49 bd 47 de 3f bd
       0.08404704 -0.066176035 -0.049111214 -0.04684284
0002c0 57 02 21 bb 74 8f d4 bc 9b 5e 33 bd f7 c3 85 bd
       -0.0024568045 -0.02594731 -0.043791395 -0.06531518
0002d0 67 3d ab 3d c2 67 0c bd aa 83 d7 3c d2 85 b3 3d
       0.08361321 -0.03427864 0.0263079 0.087657586
0002e0 df d8 c6 3c 81 f4 cb 3d f8 a5 96 3d 04 f2 d0 3d
       0.024273334 0.09958745 0.07355875 0.10202411
0002f0 07 af 21 bd a5 0d 98 3c 3d 26 6d bc 9c e5 44 3d
       -0.03947356 0.018561194 -0.014474449 0.048070535
000300 52 fa 35 3d 63 25 41 bd f1 b2 0a 3d 27 de ac 3d
       0.044428177 -0.047154795 0.033862058 0.0844081
000310 59 07 c3 3d 34 bd 99 bd d5 e8 d6 3d 02 a3 c5 3c
       0.09522886 -0.07506791 0.10493628 0.02412558
000320 d3 92 34 3d c7 0d be 3d e1 03 a9 3c 50 2f 09 3d
       0.044085335 0.092799716 0.020631732 0.033492386
000330 e4 5b 87 bc c2 30 b3 bc 2b f9 66 bd a8 00 b7 3d
       -0.016523309 -0.021873835 -0.05638997 0.08935672
000340 00 af 15 bc cb 4a 13 bd 67 eb bd 3d 72 4f 39 3b
       -0.0091359615 -0.03596 0.09273415 0.0028276113
000350 a8 20 0e 3c e4 80 42 bd 54 8e 27 3d 57 fe 96 3d
       0.008674778 -0.0474862 0.04090722 0.0737273
000360 5e 76 9c 3d a7 5c 90 bd 2a be f5 bc 12 72 a9 3d
       0.07639764 -0.07048922 -0.029997904 0.0827371
000370 6b 82 b5 3d 3d 1d 7d 3d 57 91 9e 3c 15 59 07 3e
       0.08862766 0.061795462 0.019356413 0.13217576
000380 bc 0c 6e bd af 8f ee bc 01 ca 61 3c 47 33 1a bd
       -0.058117613 -0.029121248 0.013781072 -0.037646558
000390 f4 65 11 3d c9 5e be 3c e4 fa 69 3d 50 69 77 3d
       0.03549762 0.023238556 0.057124034 0.06040317
0003a0 68 95 a4 bd dd a5 7e 3d 66 92 16 bd 44 eb 58 bd
       -0.080363095 0.0621699 -0.03676071 -0.05295874
0003b0 97 d0 65 bd d2 ce 9a bd c1 87 8c bd a5 b7 fa 3d
       -0.05610713 -0.07558979 -0.068618305 0.12242059
0003c0 2f 45 87 3c ac 3a 29 3d 4a 26 09 3e 3f 68 03 bd
       0.016512481 0.04131572 0.13393512 -0.03208184
0003d0 47 07 88 3d a1 ad 7f 3d a5 cf 85 3d e5 71 5f 3d
       0.06642013 0.062421445 0.06533746 0.054551978
0003e0 e2 e1 6b 3d 87 66 51 3d ed 83 30 bd b5 29 a3 3d
       0.057588466 0.05112317 -0.043094564 0.07966939
0003f0 cb e2 3c bd a7 af e1 3d d9 0c 5b bc 74 2c a5 3d
       -0.046114724 0.11019831 -0.013369762 0.080651194
