Data/PredictionsData/AB09.pth (torch, 828430 bytes, 10 tensors)

lstm.weight_ih_l0 f4 [512, 13]
0	0xbdcc25d4	-0.09968153
1	0xbd018cc1	-0.031628374
2	0xbc93fe73	-0.018065667
3	0xbca54c60	-0.02017802
4	0x3bd19704	0.0063961763
5	0xbdd73a95	-0.105092205
6	0xbdbb6a18	-0.09151095
7	0xbd476cf7	-0.0486879
8	0xbcc05bf4	-0.023481347
9	0xbd9be1cc	-0.07611427
10	0xbdc90e55	-0.09817187
11	0x3c719415	0.014744778
12	0x3d4b319f	0.04960787
13	0xbdf9be04	-0.12194446
14	0xbdd52b33	-0.1040863
15	0x3d05c37d	0.032657135
16	0xbc6846da	-0.014177049
17	0xbdabd9b9	-0.08391137
18	0xbd86511f	-0.06558441
19	0xbbbfa06d	-0.0058479817
20	0xbda27ebe	-0.079343304
21	0x3b841331	0.004030608
22	0xbd063290	-0.032763064
23	0x3ce918cb	0.028454205
24	0x3ba240d6	0.0049515767
25	0xbcf73959	-0.030178713
26	0xbccfb2c1	-0.025353791
27	0x3d5b254d	0.05350237
28	0xbd9f7041	-0.077850826
29	0xbc821462	-0.01587886
30	0xbd121205	-0.035661716
31	0xbcfc50da	-0.030800272
32	0xbe10a42c	-0.14125127
33	0x3cc7b4af	0.024378149
34	0xbdaaf94a	-0.08348329
35	0xbca11b2f	-0.019666282
36	0x3db7a3b7	0.08966773
37	0xbcf24e9b	-0.029578498
38	0xbd39a573	-0.0453238
39	0xbcd51e8f	-0.026015548
40	0x3d3a9b74	0.045558408
41	0xbcf88bce	-0.030340102
42	0x3d4c621a	0.049898244
43	0xbd1cec62	-0.03831137
44	0xbd229c65	-0.03969993
45	0x3c21d91a	0.009878421
46	0xbdafe260	-0.085880995
47	0xbd2f064a	-0.042730607
48	0xbd113f9b	-0.03546105
49	0x3d90688a	0.07051189
50	0xbd09a676	-0.033606015
51	0xbb8512ac	-0.0040610638
52	0x3d092b17	0.03348836
53	0x3bff2cbc	0.007787315
54	0x3be377bc	0.0069417637
55	0x3d95c13f	0.073122494
56	0x3dbd2e83	0.09237387
57	0x3d577bff	0.052608486
58	0xbd1a6785	-0.03769638
59	0x3def5181	0.116854675
60	0xbe09228a	-0.13392082
61	0xbdaec179	-0.08532996
62	0xbd5cf264	-0.0539421
63	0x3d29df53	0.041472744
64	0xbd195c7e	-0.037441723
65	0x3bac07e2	0.005249963
66	0xbcbd5b96	-0.02311496
67	0x3d8172c7	0.0632072
68	0xbcbc8987	-0.023014797
69	0xbcb54fc0	-0.022132754
70	0xbd7ec550	-0.06219989
71	0x3d6078ce	0.05480271
72	0x3e3fbb69	0.18723835
73	0xbdd22a4c	-0.10261974
74	0x3d28a2fe	0.041171066
75	0xbd1514fe	-0.036396973
76	0x3af4b7a5	0.0018670453
77	0xbd0bd8ac	-0.03414218
78	0xbd8b91ba	-0.068149045
79	0x3ceecf3d	0.029151553
80	0xbcb0971b	-0.021556428
81	0x3ca29868	0.019848064
82	0x3da8e7b4	0.08247319
83	0x3be76584	0.007061662
84	0xbd56e60b	-0.05246548
85	0x3d9ebd87	0.07750993
86	0xbda797cf	-0.08183252
87	0x3d833757	0.064070396
88	0x3e0c14a7	0.13679753
89	0xbd5cd8c1	-0.05391765
90	0xbdb44732	-0.08802642
91	0xbd4246f4	-0.047430947
92	0xbdc11149	-0.09427125
93	0x3cd51bdc	0.026014261
94	0xbbc557f8	-0.0060224496
95	0xbc605dae	-0.01369421
96	0xbdf8f90f	-0.12156879
97	0xbd76febd	-0.06030153
98	0x3dcca9e4	0.099933416
99	0xbc796c7b	-0.015223618
100	0x3e0203ac	0.12696713
101	0x3e05048f	0.1299002
102	0x3e062352	0.13099411
103	0xbc8fd2de	-0.017556604
104	0xbdf3c9ad	-0.11903701
105	0xbc9ed8d1	-0.019390495
106	0xbe36f2f3	-0.17866115
107	0xbe36883f	-0.17825411
108	0x3d113ddc	0.035459384
109	0x3cd64b99	0.026159095
110	0x3d385afe	0.045008652
111	0xbd59de7c	-0.053190693
112	0x3d5ac694	0.053412035
113	0xbd91d999	-0.071215816
114	0xbc00c5ee	-0.00785969
115	0x3cb402ef	0.021974055
116	0xbdafd056	-0.08584659
117	0xbd7747a4	-0.060371056
118	0xbd6154d1	-0.055012528
119	0x3c2e0b9e	0.010622887
120	0x3aaab614	0.0013024234
121	0x3ca85b93	0.020551478
122	0x3d78c782	0.06073714
123	0x3e29ff4d	0.16601296
124	0x3c8cc839	0.017185317
125	0x3db246b3	0.08704891
126	0xbd36ca6f	-0.04462665
127	0x3c9029ab	0.017597994
128	0x3d88cb38	0.06679386
129	0x3c90179c	0.017589383
130	0x3dd440db	0.10363933
131	0xbba77cfc	-0.005111335
132	0xbd6087bc	-0.054816946
133	0x3ab974ac	0.0014149151
134	0x3de285a8	0.11060649
135	0xbcbb0713	-0.022830522
136	0xbc96fb6c	-0.018430434
137	0x3d9b37e4	0.0757902
138	0xbdee50d1	-0.11636508
139	0x3bb35f8b	0.005474036
140	0xbdb95209	-0.0904885
141	0x3d79f86b	0.061027925
142	0xbd531bd1	-0.0515402
143	0x3ce81488	0.028330103
144	0x3de509d3	0.111835144
145	0x3c25632f	0.010094448
146	0xbd8af036	-0.06784098
147	0x3c7f6f55	0.0155905085
148	0x3a28abe6	0.0006434306
149	0x3d8736ec	0.066022724
150	0x3d759d7c	0.059964642
151	0xbd833f71	-0.06408585
152	0xbceba539	-0.028765308
153	0x3ca35b45	0.019940982
154	0x3e0a9b62	0.13535836
155	0xbba58794	-0.0050515626
156	0x3da6c43c	0.081428975
157	0x3d9d5c1d	0.07683585
158	0x3d0101d3	0.03149588
159	0xbd832988	-0.06404406
160	0xbd6d8353	-0.05798657
161	0x3c4a9bfe	0.012366293
162	0x3daf4e39	0.08559842
163	0x3c1d405a	0.009597862
164	0xbd80078c	-0.062514395
165	0x3d838631	0.06422079
166	0x3caea509	0.02131893
167	0xbd9cda60	-0.07658839
168	0xbc1e42b1	-0.009659455
169	0x3e0ba9cf	0.13638996
170	0xbd237382	-0.03990508
171	0xbd2ab91e	-0.041680448
172	0x3d357903	0.04430486
173	0x3d424c43	0.04743601
174	0x3dc3bd2e	0.095575675
175	0xbd0a4524	-0.033757344
176	0xbd099e5c	-0.03359829
177	0x3d85194c	0.064989656
178	0x3e132569	0.1436974
179	0x3b0ef41d	0.0021812983
180	0x3d8c468c	0.06849393
181	0x3c176c6b	0.009242157
182	0x3d258388	0.04040864
183	0xbe1a996b	-0.15097587
184	0xbd582803	-0.052772533
185	0x3e1d0630	0.15334392
186	0x3d12d3a0	0.035846353
187	0x3d784dec	0.060621187
188	0xbdb8c361	-0.090216406
189	0x3e2705eb	0.16310851
190	0x3d4cacc1	0.04996944
191	0x3d3a84ee	0.045536928
192	0x3d593c5f	0.05303609
193	0x3d8792ac	0.06619772
194	0xbd1ae7c5	-0.03781869
195	0x3d8cdd93	0.068781994
196	0xbd1b7a9b	-0.037958723
197	0x3d07873d	0.033087958
198	0x3d2c55d7	0.04207405
199	0xbd782b69	-0.060588274
200	0xbd230aeb	-0.039805334
201	0x3d1ca2cc	0.038241193
202	0xbd2c53d6	-0.04207214
203	0xbd5aa62b	-0.053381126
204	0x3d04e337	0.03244325
205	0xbcbfb7e3	-0.023403114
206	0xbc2dd097	-0.010608814
207	0x3d8b8030	0.06811559
208	0xbcce04ad	-0.025148714
209	0xbba0ed8f	-0.0049111317
210	0xbd5249f3	-0.051340055
211	0xbd9f6cf9	-0.07784457
212	0x3d99a64a	0.0750242
213	0x3d3f97f2	0.046775766
214	0x3e22a001	0.15881349
215	0xbda4f464	-0.08054426
216	0xbcf1c891	-0.029514583
217	0x3b8c475c	0.0042809676
218	0xbc19971e	-0.009374408
219	0x3d591441	0.05299783
220	0x3d43f386	0.047839664
221	0x3d09d225	0.033647675
222	0xbbfaabd9	-0.0076498804
223	0x3cfe34ab	0.031030973
224	0x3d4e4eba	0.05036805
225	0x3d77ad74	0.060468152
226	0x3ac328ed	0.0014889516
227	0x3da5d663	0.08097532
228	0x3d5d0392	0.053958483
229	0x3d5a0c8d	0.053234626
230	0x3cb0c1db	0.021576812
231	0x3daf0a9b	0.08546945
232	0xbd83d82a	-0.064377144
233	0x3d7acc7e	0.061230175
234	0x3d0484e2	0.03235329
235	0xbd57decc	-0.05270271
236	0x3d13518a	0.035966434
237	0x3d9b4d1c	0.07583067
238	0xbbf23524	-0.0073915888
239	0xbd0b69fe	-0.03403663
240	0xbde37fab	-0.11108335
241	0x3d405be7	0.046962645
242	0xbd1ddf20	-0.038542867
243	0xbdd55210	-0.10416043
244	0x3c422f24	0.0118520595
245	0x3cffc5f2	0.031222317
246	0xbca83578	-0.020533308
247	0x3c936c36	0.017995935
248	0xbc18c5e9	-0.009324529
249	0xbd5acb7f	-0.053416725
250	0xbd62d0fd	-0.055375088
251	0xbd07a416	-0.03311547
252	0xbd112275	-0.03543325
253	0x3d8568d9	0.06514139
254	0xbd3733f2	-0.044727273
255	0x3d8c1ee5	0.0684183

lstm.weight_hh_l0 f4 [512, 128]
0	0xbd4024ba	-0.046910025
1	0xbce6f7e4	-0.028194375
2	0x3dec283a	0.1153111
3	0x3d68b134	0.05680962
4	0x3d12897f	0.035775658
5	0x3d9ed95e	0.07756303
6	0x3c4d3217	0.012524149
7	0xbd2aab1b	-0.041667085
8	0x3d51b80d	0.051200915
9	0x3dd6c603	0.104869865
10	0xbcb2c707	-0.02182342
11	0xbdb8cd5d	-0.09023545
12	0x3d9f7744	0.0778642
13	0xbcc7a5fb	-0.024371138
14	0x3c98a8a3	0.0186351
15	0x3d8b6a6f	0.0680741
16	0xbd5bfa0e	-0.053705268
17	0xbc8f95ac	-0.017527424
18	0xbda84c0c	-0.0821763
19	0x3dec25a7	0.11530619
20	0xbdb24ae7	-0.08705693
21	0xbd06e591	-0.032933775
22	0xbda3e745	-0.080030955
23	0xbdbfd552	-0.093668595
24	0x3d62d517	0.055379
25	0xbcfeb3a2	-0.031091515
26	0x3d8d62d0	0.069036126
27	0xbd3dddb5	-0.046354014
28	0x3c89cd1d	0.016821438
29	0xbd6a02f5	-0.057131726
30	0x3dbf42b2	0.09338893
31	0x3ce586a8	0.02801831
32	0x3bc5252b	0.0060163937
33	0xbdc90d96	-0.098170444
34	0x3d065b8c	0.03280215
35	0x3a895adc	0.0010479349
36	0xbcadb445	-0.021204123
37	0xbd7d503c	-0.061844096
38	0xbd733e6b	-0.0593857
39	0x3d99021d	0.07471106
40	0xbd1b31df	-0.037889358
41	0xbda3c448	-0.07996422
42	0xbc3d5f9a	-0.011558438
43	0xbd5d1cc8	-0.053982526
44	0xbdbe26a7	-0.09284716
45	0x3ca1c990	0.019749433
46	0xbe0427f2	-0.12905863
47	0xbd142297	-0.0361658
48	0x3da6179a	0.081099704
49	0xbd4ebced	-0.050473142
50	0xbdfa2557	-0.12214153
51	0x3cc6c510	0.024263889
52	0x3d91734a	0.07102068
53	0xbdb2b2c5	-0.08725504
54	0x3dc4103c	0.09573409
55	0x3cbb4b4e	0.022863057
56	0x3c9c98ea	0.019115884
57	0xbd2ca61b	-0.042150598
58	0x3d1b2b32	0.03788299
59	0x3d658125	0.056031365
60	0x3d0fd523	0.035115372
61	0xbd03a488	-0.03213933
62	0x3d4d59de	0.050134532
63	0xbd39c7e3	-0.045356642
64	0xbd396b97	-0.04526862
65	0xbdc5d171	-0.096590884
66	0x3d934635	0.07191125
67	0x3c5cc017	0.013473532
68	0x3c6f47bf	0.014604508
69	0xbbd94926	-0.0066310344
70	0xbd72cfff	-0.05928039
71	0xbc915508	-0.017740741
72	0xbd68cbff	-0.05683517
73	0x3d61d115	0.055131037
74	0xbc7de5df	-0.0154967
75	0x3d4b8406	0.049686454
76	0x3cc540fe	0.024078842
77	0x3da6ba92	0.08141054
78	0xbde3ceaf	-0.11123406
79	0xbd7ae182	-0.061250217
80	0x3de0abf1	0.10970295
81	0x3d8d3474	0.0689477
82	0x3daf4767	0.08558541
83	0xbc2d7ffa	-0.010589594
84	0xbd904a49	-0.07045419
85	0x3df4d634	0.119549185
86	0x3d94d3bc	0.072669476
87	0xbd1d3282	-0.038378246
88	0xbd699a96	-0.05703219
89	0x3dcfd5c6	0.10148196
90	0x3dcaacf2	0.09896268
91	0x3d63be0d	0.05560117
92	0xbd0a5da8	-0.033780724
93	0xba5b7311	-0.0008371333
94	0xbd40951c	-0.0470172
95	0x3d3e7653	0.04649956
96	0x3de86f04	0.113492996
97	0xbdca840d	-0.09888468
98	0x3c741d64	0.014899585
99	0xbcaefcb7	-0.021360738
100	0xbd254c72	-0.040356107
101	0x3d93e49f	0.072213404
102	0xbc8fd36a	-0.017556865
103	0xbdb22c4a	-0.08699854
104	0x3c08383a	0.008314187
105	0x3c6837e1	0.014173479
106	0xbca8dae1	-0.020612182
107	0x3d4713bc	0.048602805
108	0xbdad9de1	-0.08477379
109	0xbd3c0794	-0.045905665
110	0x39007a2d	0.00012252545
111	0xbd67536b	-0.056476038
112	0xbd9fbeeb	-0.078000866
113	0xb9874530	-0.00025800755
114	0xbd96df98	-0.07366866
115	0xbd25f9c6	-0.040521406
116	0xbd8e2dd1	-0.069423325
117	0xbd934709	-0.07191283
118	0x3ddc9b47	0.10771804
119	0x3d90a6d7	0.07063072
120	0x3c6f1c4b	0.014594148
121	0xbdc32cae	-0.09530006
122	0xbc4719f2	-0.012152182
123	0x3cc5f83b	0.024166217
124	0xbd04851f	-0.032353517
125	0xbd69e9ff	-0.05710792
126	0xbd795ed9	-0.06088147
127	0xbd89daac	-0.067311615
128	0xbd11763c	-0.035513148
129	0x3d3f58f1	0.04671568
130	0x3c6b5faf	0.014366074
131	0xbd2e6fbd	-0.04258703
132	0xbce1fa12	-0.027585063
133	0xbd3d65a1	-0.0462395
134	0x3cf7b142	0.03023589
135	0xbd44c6f5	-0.048041303
136	0xbda03b38	-0.07823795
137	0x3df9782a	0.121811226
138	0xbb45413c	-0.0030098697
139	0xba8a0e40	-0.0010532811
140	0x3d330446	0.043705247
141	0x3c63f515	0.013913413
142	0xba89110f	-0.0010457354
143	0xbc9e50b1	-0.019325586
144	0xbd8bd709	-0.06828124
145	0xbca02103	-0.019546991
146	0x3d406ac6	0.046976827
147	0xbd89de3c	-0.06731841
148	0xbcdc4d15	-0.026892224
149	0xbc67ce88	-0.014148362
150	0x3d3e5459	0.04646716
151	0x3b468b9d	0.0030295618
152	0xbd91d695	-0.071210064
153	0xbd55f80a	-0.0522385
154	0x3db73f6c	0.08947644
155	0xbdddcf08	-0.10830504
156	0x3d83c111	0.06433309
157	0x3c5bdf7e	0.013419984
158	0x3d8bed93	0.06832423
159	0xbcf3e673	-0.029772973
160	0x3d596c65	0.05308189
161	0xbda108ea	-0.07863028
162	0xbd8896b1	-0.06669367
163	0x3cf89c15	0.030347863
164	0x3d8ba42b	0.06818422
165	0xbd876d97	-0.066126995
166	0xbcd50c3d	-0.026006812
167	0xb9892ebf	-0.00026165505
168	0xbd0bf1e5	-0.034166235
169	0xbd504beb	-0.05085365
170	0x3d976b31	0.07393492
171	0xbbbb8583	-0.005722703
172	0x3d1fea91	0.03904206
173	0x3c4b426d	0.012405974
174	0x3d54dfc5	0.051971216
175	0x3caa5428	0.020792082
176	0xbd5d720b	-0.054063838
177	0xbd4317d1	-0.047630135
178	0xbda6a62d	-0.08137164
179	0x3c33002a	0.010925332
180	0xbda62c8b	-0.08113965
181	0xbdcc8f8b	-0.09988316
182	0xbcd017a9	-0.025401907
183	0xbda114b0	-0.07865274
184	0xbd00995f	-0.031396266
185	0x3c00ddbe	0.007865367
186	0x3dbc1d08	0.09185225
187	0x3c9b8151	0.018982561
188	0x3d87976b	0.066206776
189	0x3c03555c	0.008015957
190	0x3d333452	0.04375107
191	0x3cd443b2	0.025911186
192	0x3dfa1440	0.12210894
193	0xbbb49563	-0.0055109723
194	0xbd8c704a	-0.06857355
195	0xbd71a752	-0.05899746
196	0xbd62660f	-0.055273112
197	0xbd0c3599	-0.034230802
198	0xbd8752ed	-0.06607614
199	0xbd67d5c0	-0.056600332
200	0xbd98a893	-0.07454028
201	0x3cad529e	0.021157559
202	0x3d49fa03	0.049310695
203	0xbd04935c	-0.032367095
204	0x3d8d76da	0.06907435
205	0x3d8e3eb1	0.06945551
206	0x3c4e5e4c	0.012595724
207	0x3ceea82f	0.02913293
208	0x3cac7cdd	0.021055633
209	0x3dd16f38	0.102262914
210	0x3d8e2e98	0.06942481
211	0xbd889ed5	-0.0667092
212	0xbdd933d3	-0.10605588
213	0xbd013fac	-0.031554863
214	0x3d17c858	0.037056297
215	0x3cc23cdf	0.023710666
216	0xbda60fec	-0.081085056
217	0x3d41056e	0.04712432
218	0x3a1c28a0	0.00059569813
219	0x3ca7606e	0.020431723
220	0x3cf0bd99	0.029387282
221	0x3dbe27f3	0.092849635
222	0x3c724d10	0.014788881
223	0xbcbe7aa8	-0.023251846
224	0xbcc59295	-0.024117747
225	0x3c0f8697	0.008760116
226	0x3c878825	0.016544411
227	0xbc5aef4d	-0.013362718
228	0xbbb5d4a5	-0.005549031
229	0x3d84140a	0.06449135
230	0xbcfce770	-0.030872077
231	0x3d01af60	0.03166139
232	0xbcbdb337	-0.023156745
233	0xbc0ff60d	-0.00878669
234	0x3c8b90ed	0.01703688
235	0x3de3df7d	0.111266114
236	0x3c047c54	0.008086283
237	0x3d315253	0.0432914
238	0x3e02a751	0.12759139
239	0xbbb5ea9d	-0.0055516497
240	0x3d91e728	0.07124168
241	0xbde8cee5	-0.11367587
242	0xbc7a4fdf	-0.015277832
243	0x3d4dfce2	0.050289996
244	0xbd9f8006	-0.077880904
245	0xbd75deb7	-0.06002685
246	0x3c79e040	0.015251219
247	0x3d7e006a	0.062012114
248	0x3d74fc1f	0.059810754
249	0xbe01be24	-0.12670189
250	0x3c119936	0.008886626
251	0x3d8d8b8c	0.06911382
252	0xbb5f60bb	-0.0034084755
253	0xbd5df7a5	-0.05419125
254	0x3ca2b936	0.019863706
255	0xbda86fca	-0.08224447

lstm.bias_ih_l0 f4 [512]
0	0xbcf07284	-0.02935148
1	0xbbfe0ff0	-0.0077533647
2	0xb9213725	-0.000153747
3	0x3dfc5d11	0.123224385
4	0x3d0b8b4c	0.03406839
5	0xbc6bdcb3	-0.0143958805
6	0x3dbfcf2f	0.09365689
7	0x3d87643f	0.06610917
8	0x3bd1284f	0.006382979
9	0x3d09c510	0.0336352
10	0x3d36e434	0.044651225
11	0xbcd8aeb4	-0.026450492
12	0x3d8dbe34	0.06921044
13	0xbd565798	-0.05232963
14	0x3d70eb62	0.05881823
15	0x3dd86b49	0.10567338
16	0x3d27fd0e	0.041012816
17	0x3d91918c	0.07107839
18	0x3db2e6ef	0.08735453
19	0xbd5da61c	-0.054113492
20	0x3d128ece	0.03578072
21	0x3c32b2d7	0.010906897
22	0xbc3cdf12	-0.0115277935
23	0x3d8fef33	0.070280455
24	0x3cf2b44c	0.029626988
25	0xbcf9f3fa	-0.030511845
26	0xbd430c0e	-0.047618918
27	0x3df6a5c5	0.12043337
28	0x3e0aea22	0.13565877
29	0x3de43767	0.1114338
30	0xbc64b8fa	-0.0139601175
31	0xbd108105	-0.035279293
32	0x3ddc59b0	0.10759294
33	0x3c72bbdd	0.014815298
34	0xbd276a1f	-0.04087269
35	0x3c01d320	0.007923871
36	0x3cecba3b	0.028897395
37	0x3d455be2	0.04818333
38	0xbce7aa8f	-0.02827957
39	0xbd42e3a1	-0.047580365
40	0x3dde95e3	0.108684324
41	0xbcc1631a	-0.023606826
42	0x3de7273b	0.112867795
43	0x3c33dc6c	0.010977846
44	0x3d8a9a55	0.06767718
45	0x3d3a4d8f	0.045484122
46	0x3d9e5c70	0.07732475
47	0x3d023eac	0.03179805
48	0x3d8a9c16	0.06768052
49	0x3bb32a60	0.005467698
50	0x3dd47f17	0.10375803
51	0xbcc17fbe	-0.023620483
52	0x3d498d74	0.049207166
53	0x3d29a55f	0.041417476
54	0x3dd48a1b	0.10377904
55	0x3db98309	0.09058196
56	0x3cd828a2	0.026386563
57	0x3d17203a	0.036895968
58	0x3e0827ad	0.13296385
59	0x3b444684	0.0029949257
60	0xbd6d1450	-0.0578807
61	0x3daa2f6c	0.08309826
62	0xbc7dd6c6	-0.0154931005
63	0xbc4bafd1	-0.012432055
64	0x3d6456f6	0.055746995
65	0x3b71f3ff	0.0036919115
66	0x3cbe0c8c	0.023199342
67	0xbd6dc1b5	-0.05804606
68	0x3da98e06	0.08279042
69	0x3ddc93cd	0.10770378
70	0x3daabaa0	0.08336377
71	0x3db8c73d	0.09022377
72	0xbce403ee	-0.027833905
73	0x3db3a4e2	0.08771683
74	0xbd3ed08d	-0.04658561
75	0x3db2694f	0.08711492
76	0x3d202f54	0.039107636
77	0x3ceba31c	0.0287643
78	0xbd413e41	-0.04717851
79	0x3d3d1056	0.046158157
80	0x3d190d6e	0.037366323
81	0xbcc0ec03	-0.02355004
82	0xbba453a4	-0.0050148536
83	0xbab9ddde	-0.0014180501
84	0x3d0825f7	0.03323933
85	0x3dc04853	0.09388795
86	0x3d3f3312	0.046679564
87	0x3cc71ca1	0.024305644
88	0xbc937af3	-0.018002963
89	0x3dd607d4	0.10450712
90	0xbc83d7c1	-0.01609409
91	0xbb8d9011	-0.0043201526
92	0x3d8554f8	0.06510347
93	0xbc37bef0	-0.011214957
94	0x3e0bb217	0.13642155
95	0xbd81b47f	-0.06333255
96	0x3d8c1aca	0.06841047
97	0x3c90922e	0.017647829
98	0x3d69eff1	0.05711359
99	0x3cf4ca91	0.029881747
100	0x3dd1027d	0.10205553
101	0x3d3db2eb	0.046313208
102	0x3cf95fa8	0.03044112
103	0x3d98007a	0.07421966
104	0xbd4f6650	-0.050634682
105	0xbd5ebb5b	-0.054377895
106	0x3d678961	0.0565275
107	0x3d7bc5b1	0.06146783
108	0x3dc4b83b	0.09605452
109	0xbcabdbaa	-0.020978767
110	0xbc9580f9	-0.018249976
111	0x3cce7c99	0.025205897
112	0x3d8fd82e	0.07023655
113	0x3d9c2800	0.07624817
114	0xbcb87808	-0.022518173
115	0x3d857697	0.0651676
116	0x3d574df1	0.052564565
117	0xbcf3baf3	-0.02975223
118	0xbd33ed00	-0.043927193
119	0xbd216aa9	-0.03940836
120	0xbceb0938	-0.02869092
121	0x3db53047	0.08847099
122	0xbcff1b96	-0.031141084
123	0x3c55b7de	0.013044326
124	0xbd52704c	-0.051376626
125	0xbd8196e6	-0.0632761
126	0xbcb0c7d3	-0.021579659
127	0xbcd2a543	-0.025713569
128	0x3deb0ed5	0.11477438
129	0x3d524a13	0.051340174
130	0x3dbd80c7	0.09253078
131	0x3dafb0f2	0.085786715
132	0xbcf00d4a	-0.029303212
133	0x3d88bf6f	0.06677138
134	0x3c8a4029	0.016876297
135	0x3d90d2cc	0.07071456
136	0x3d1ef267	0.03880539
137	0xbd4257db	-0.047447067
138	0xbaabb3a0	-0.0013099797
139	0x3dc23c18	0.09484118
140	0x3cf05e2d	0.029341782
141	0x3dbf111d	0.09329436
142	0x3d91ca9e	0.07118724
143	0x3d1374f1	0.036000196
144	0x3d96836b	0.07349285
145	0x3dafa63d	0.08576629
146	0xbce25cc6	-0.027632128
147	0x3d846871	0.06465233
148	0x3d2f41a1	0.042787198
149	0x3d45a6b0	0.04825467
150	0xbd790091	-0.060791556
151	0x3d871a38	0.06596798
152	0x3d2dffc6	0.042480253
153	0xbd206a33	-0.03916378
154	0x3cbca944	0.02302993
155	0x3e199746	0.14999112
156	0x3dec0b82	0.115256324
157	0xbd3d4ab6	-0.046213828
158	0x3dadd12e	0.084871635
159	0xbcf0f50f	-0.029413728
160	0x3db43673	0.08799448
161	0xbcfe245f	-0.031023202
162	0x3c83ca98	0.016087815
163	0x3b71ca46	0.0036894246
164	0xbd287d10	-0.041134894
165	0xbd1a8519	-0.037724588
166	0xbcb1082c	-0.021610342
167	0x3d31c639	0.04340193
168	0x3d5caeb8	0.053877562
169	0xbd834ade	-0.06410764
170	0x3e05cb55	0.13065846
171	0xbd48c215	-0.049013216
172	0x3e0b8f1a	0.13628808
173	0x3d75e599	0.060033415
174	0xbd29bf71	-0.04144234
175	0x3de42960	0.11140704
176	0xbcb78fb4	-0.02240739
177	0x3c4d3a6c	0.012526136
178	0xbd05cb76	-0.03266474
179	0xbd2e96f4	-0.04262443
180	0xbc8cea4f	-0.01720157
181	0x3d7649f0	0.060129106
182	0xbd5b0604	-0.053472534
183	0xbc733f8d	-0.014846695
184	0x3cc803f0	0.02441594
185	0x3bd1ef87	0.0064067277
186	0xbcc54472	-0.024080489
187	0x3d7e9523	0.062153947
188	0x3da028c9	0.07820279
189	0x3d796658	0.06088862
190	0x3d91446f	0.07093131
191	0x3bbd917d	0.005785166
192	0x3d82fcd5	0.0639588
193	0xbd38d6b9	-0.04512665
194	0x3ddccc55	0.10781161
195	0x3c5b5c5a	0.013388718
196	0x3cadfd5e	0.021238979
197	0x3d3667cc	0.044532582
198	0x3d7af816	0.06127175
199	0xbcc7b55d	-0.024378473
200	0x3dc3241c	0.09528372
201	0x3ce3d7ba	0.027812827
202	0x3c67314d	0.014110875
203	0x3ceb601e	0.028732356
204	0x3c02f615	0.007993241
205	0x3bf94da5	0.007608133
206	0xbcb6cd77	-0.02231477
207	0x3b9aa971	0.004719906
208	0x3d623c5c	0.055233344
209	0x3d832946	0.06404357
210	0x3be4ab29	0.0069784117
211	0x3de686d6	0.11256187
212	0x3d311493	0.04323251
213	0xbbceabdf	-0.0063071097
214	0xbc46fb6b	-0.012144904
215	0x3df1c7e8	0.11805707
216	0xbd2c8ab3	-0.04212446
217	0xbc4406b7	-0.011964492
218	0x3ad26b31	0.0016053674
219	0xbd3c7dbc	-0.046018347
220	0x3c717a80	0.014738679
221	0xbba0593e	-0.004893451
222	0x3dde9418	0.108680904
223	0x3db5e382	0.08881284
224	0x3daa1969	0.08305628
225	0x3d5f9ea6	0.05459466
226	0x3d5611f2	0.052263208
227	0x3d91fd0a	0.071283415
228	0x3c962d0f	0.018332032
229	0xbcd8e5d1	-0.026476773
230	0x3df50166	0.11963157
231	0x3d72894a	0.05921296
232	0xbd65e6ec	-0.056128427
233	0x3d487d15	0.048947413
234	0xbd605043	-0.054764044
235	0x3dcd3930	0.10020673
236	0x3d9b72c4	0.07590249
237	0x3db17677	0.086651735
238	0xbcc250e7	-0.023720218
239	0xbc3cf27d	-0.011532423
240	0x3a0902d0	0.00052265543
241	0x3d27fc63	0.04101218
242	0x3dfa9275	0.12234966
243	0x3d1ec2ec	0.03876011
244	0xbd797710	-0.060904562
245	0x3d73512e	0.05940359
246	0x3d875140	0.06607294
247	0xbb61ffe2	-0.0034484793
248	0x3c417845	0.01180846
249	0xba6b3466	-0.00089723465
250	0x3c7f6d29	0.015589991
251	0x3d51a24b	0.051180165
252	0x3d2d48ec	0.04230587
253	0x3d50eca9	0.051006947
254	0xbc9e2942	-0.019306783
255	0x3d35765b	0.044302326

lstm.bias_hh_l0 f4 [512]
0	0x3c47efdd	0.012203184
1	0x3df34a63	0.118794225
2	0x3cb7a640	0.022418141
3	0x3d57068d	0.05249648
4	0x3da83dd2	0.08214916
5	0xbc0ee818	-0.008722328
6	0xbbebf461	-0.007200763
7	0x3c94bb35	0.018155674
8	0x3d0db204	0.034593597
9	0x3d4a6d73	0.049420785
10	0x3d3fd00d	0.046829272
11	0x3df19b16	0.117971584
12	0x3da6ed59	0.08150739
13	0x3dc4ad24	0.096033365
14	0x3d0b5365	0.034015078
15	0x3da5b7ca	0.080916956
16	0x3dc3f9ec	0.09569153
17	0x3d38d948	0.04512909
18	0x3d3d3611	0.04619414
19	0xbd4ee7cb	-0.050514024
20	0xbd11a4f1	-0.03555769
21	0x3d86dc50	0.0658499
22	0xbcf59d45	-0.029982219
23	0x3c62e640	0.013848841
24	0x3da01a32	0.07817496
25	0x3d63457f	0.0554862
26	0xbd035367	-0.03206196
27	0x3da0125d	0.078160025
28	0x3d695a79	0.056971047
29	0xbc56fda4	-0.013121996
30	0x3d851127	0.06497412
31	0x3d18c145	0.03729369
32	0x3e08f36e	0.13374111
33	0x3d9012a5	0.07034806
34	0x3ceac40c	0.028657936
35	0x3c511c77	0.012763134
36	0xbc90b851	-0.017666014
37	0x3dcc9430	0.09989202
38	0xbd77a212	-0.060457297
39	0x3a8a8da7	0.001057078
40	0x3dc6a6a1	0.09699751
41	0xbd58bfca	-0.05291728
42	0x3dc6c6cc	0.09705886
43	0xbd1db31a	-0.038500883
44	0x397fae5e	0.00024383652
45	0x3d902f93	0.07040324
46	0x3d199db0	0.0375039
47	0x3d64906d	0.055801798
48	0x3d12d4c5	0.035847444
49	0x3da523d9	0.08063478
50	0xbc18b907	-0.009321458
51	0xbd0c5adf	-0.03426635
52	0x3d16e7d6	0.03684219
53	0xbc01645f	-0.0078974655
54	0x3d4a7066	0.049423598
55	0x3d92c90f	0.07167255
56	0x3d1dc340	0.038516283
57	0x3bf99447	0.007616553
58	0x3ce5a1cd	0.028031254
59	0x3bc05d21	0.005870477
60	0xbd2f81c7	-0.042848375
61	0xbd26b55c	-0.0407003
62	0x3dbbf818	0.091781795
63	0x3d9604dc	0.073251456
64	0x3ded6156	0.11590831
65	0x3da62d5e	0.08114122
66	0x3c42dfc0	0.0118941665
67	0x3cf8d50e	0.03037503
68	0x3da6763f	0.081280224
69	0x3dd04249	0.10168893
70	0x3d922f34	0.071379095
71	0xbd28884b	-0.041145604
72	0x3d7899d6	0.060693584
73	0xbcfa1715	-0.030528584
74	0x3d32a8c2	0.04361797
75	0x3c4d3c4f	0.012526586
76	0x3d0c6f25	0.034285683
77	0x3d3b082b	0.045662086
78	0x3d802edb	0.06258937
79	0xbd388ba0	-0.04505503
80	0xbb47c700	-0.0030483603
81	0x3b9c55e5	0.0047709816
82	0x3dfca704	0.12336543
83	0x3c2211d6	0.009891948
84	0x3de66dd7	0.11251419
85	0xb9a9a81f	-0.00032359452
86	0x3da89caf	0.0823301
87	0x3d8f19f6	0.069873735
88	0x3c9dc4f4	0.019258954
89	0x3d9af7fd	0.07566831
90	0x3da89ea8	0.08233386
91	0x3d857aeb	0.06517585
92	0x3cb41974	0.021984793
93	0x3d5711a3	0.052507054
94	0xbcd63da7	-0.026152445
95	0x3dcecf9e	0.100981936
96	0x3de86846	0.113480136
97	0xbc83fcf3	-0.016111827
98	0x3ca23ab7	0.019803388
99	0x3d947138	0.07248157
100	0xbcd1c3a2	-0.02560598
101	0xbbd49cff	-0.006488442
102	0x3dcb4900	0.09926033
103	0xbd391c50	-0.045193017
104	0xbc0a92fd	-0.008457896
105	0x3cf056de	0.029338297
106	0x3dbf9e98	0.09356421
107	0xbcd73b41	-0.026273372
108	0xbd1d348b	-0.038380187
109	0xbcaeee16	-0.021353763
110	0x3ce64e99	0.02811365
111	0xbd84b1c7	-0.06479221
112	0x3d1cfaf4	0.038325265
113	0x3d940ecd	0.072293855
114	0x3dd6aaf5	0.10481826
115	0x3da98bf8	0.0827865
116	0xb9f52d46	-0.00046763773
117	0xbd2543ab	-0.040347736
118	0x3cde88c0	0.027164817
119	0x3c0ba368	0.008522846
120	0x3dbaea6a	0.09126742
121	0xbd08aabd	-0.033365954
122	0x3dc9acf1	0.09847439
123	0xbbc83102	-0.006109358
124	0x3cd609b4	0.026127674
125	0xbd8ec948	-0.06971985
126	0xbd3bd9eb	-0.04586212
127	0x3d5ee96e	0.054421835
128	0x3e20dd78	0.15709484
129	0xbd00a0fa	-0.03140352
130	0xbcace06d	-0.021103108
131	0x3da8875a	0.08228941
132	0x3ddee663	0.108837865
133	0x3d69ba38	0.057062358
134	0xbbf5dfb6	-0.007503475
135	0xbc0eac82	-0.008708121
136	0x3da5be1b	0.080929
137	0x3d01573d	0.031577338
138	0x3c135a0b	0.008993636
139	0x3bff92dc	0.0077994894
140	0xbd6d5a8a	-0.057947673
141	0x3d860383	0.065436386
142	0xbd2c31d8	-0.042039722
143	0x3ce20412	0.027589832
144	0xbcab1fd5	-0.020889202
145	0x3d8d418a	0.06897266
146	0xbc37e1de	-0.0112232845
147	0x3d44da2c	0.048059627
148	0xbd09337a	-0.033496358
149	0x3d99d40b	0.07511147
150	0x3c21af19	0.009868407
151	0x3d57411f	0.05255234
152	0xbcd1c486	-0.025606405
153	0xbd1beed9	-0.03806958
154	0xbcf53e71	-0.029937001
155	0x3e2dec74	0.16984731
156	0x3cbcd888	0.023052469
157	0xbd10d4d5	-0.035359222
158	0x3d6bd18c	0.057572886
159	0x3de1526b	0.11002048
160	0xbc4a89e9	-0.012361982
161	0x3d9c91c8	0.07644993
162	0xbc35b9a3	-0.0110916225
163	0x3d6685b5	0.056279857
164	0x3c4f7691	0.012662546
165	0x3de73bfc	0.11290738
166	0x3d3774cd	0.044789124
167	0x3db5ab1f	0.088705294
168	0xbbfc1e18	-0.007694017
169	0xbd47fc29	-0.048824463
170	0x3da5031e	0.08057235
171	0x3dd9657b	0.10615059
172	0x3de87e5d	0.11352227
173	0x3dd85c7f	0.10564517
174	0x3d1ed262	0.038774855
175	0x3d5252eb	0.051348608
176	0x3d11d40c	0.035602614
177	0x3d8d0034	0.06884804
178	0xbc02e89a	-0.007990027
179	0xbd0741a0	-0.03302157
180	0xbc5bc687	-0.013414032
181	0x3bbb6974	0.005719358
182	0xba3b6467	-0.0007148445
183	0x3e0864f7	0.13319765
184	0x3d6daa2b	0.058023613
185	0x3d4ca75c	0.049964294
186	0x3dec6ac1	0.11543799
187	0xbd1c82a5	-0.03821053
188	0x3daed798	0.08537215
189	0x3da0e0d4	0.078553826
190	0xbc8d4d09	-0.017248647
191	0x3de22c8e	0.110436544
192	0xbcbdefb9	-0.023185598
193	0x3d67aeed	0.056563307
194	0x3c8ee8fa	0.017445076
195	0x3c331bb0	0.010931894
196	0x3c21a0e6	0.009865021
197	0x3c3df46b	0.011593918
198	0x3c8c49be	0.017125007
199	0x3d9e7e25	0.07738904
200	0x3d305846	0.043052934
201	0x3da2bed0	0.07946551
202	0xbcb484e6	-0.022036027
203	0x3b5e580a	0.0033926987
204	0x3e032eb7	0.12810789
205	0x3cff910d	0.031197095
206	0x3c06acfd	0.008219955
207	0x3daac5ca	0.083385065
208	0x3d81e96e	0.06343351
209	0x3c151156	0.0090983715
210	0x3d92973a	0.071577504
211	0x3cf81aee	0.030286279
212	0xbc34f03b	-0.0110436035
213	0x3d0489bf	0.032357927
214	0x3d57cb78	0.052684277
215	0xbd3cec35	-0.046123702
216	0xbd7662c2	-0.060152777
217	0x3d700cfb	0.05860613
218	0x3cfc620a	0.030808467
219	0x3c54a4f5	0.012978782
220	0x3d308e3f	0.043104406
221	0x3c3d2c5b	0.01154622
222	0x3d1bcbb7	0.038036074
223	0xbd825006	-0.063629195
224	0xb94afc09	-0.00019358112
225	0xbd3118d2	-0.04323656
226	0x3ce5bb03	0.028043276
227	0x3c20c18d	0.009811771
228	0xbd12dc38	-0.03585455
229	0x3d310d66	0.04322567
230	0xbb079ac0	-0.0020691603
231	0x3dc44565	0.095835485
232	0x3d51404d	0.051086713
233	0xbd968f08	-0.073515
234	0x3d032daa	0.03202597
235	0x3c16a0b6	0.00919359
236	0x3dcb53c1	0.09928084
237	0xbc387bda	-0.011259997
238	0xbba16d58	-0.004926365
239	0x3da04197	0.0782501
240	0x3dc1d61c	0.09464666
241	0xbbaabdf4	-0.0052106325
242	0xbcfadc79	-0.030622708
243	0x3d4215c7	0.04738405
244	0x3d4d4365	0.0501131
245	0xbd132b67	-0.035930064
246	0x3db3dfe1	0.08782936
247	0x3d23a1ae	0.03994911
248	0x3d486999	0.04892883
249	0x3da1a2e5	0.07892398
250	0x3d0f27ba	0.034949996
251	0x3dac545d	0.084145285
252	0x3d0217da	0.031761028
253	0xbd235bcc	-0.039882466
254	0x3dc79c2d	0.09746585
255	0x3d89d6f4	0.06730452

lstm.weight_ih_l1 f4 [512, 128]
0	0x3d676a63	0.056497943
1	0x3c89fe30	0.016844839
2	0xbd9b82b8	-0.07593292
3	0xbd86a9da	-0.06575365
4	0xbd95dd03	-0.07317545
5	0xbd5a5dc5	-0.05331208
6	0xbd18722f	-0.03721827
7	0xbbbb5a15	-0.0057175257
8	0x3b2c692a	0.00263078
9	0xbc0896ae	-0.008336706
10	0xba6d47ec	-0.000905155
11	0xbdb09e02	-0.086238876
12	0x3dbc4fc4	0.091949016
13	0xbd402b8a	-0.046916522
14	0xbd2f062d	-0.0427305
15	0xbdbeb917	-0.09312647
16	0x3d035e7b	0.032072525
17	0x3d5a3857	0.053276386
18	0xbc6599da	-0.014013732
19	0xbd96a212	-0.07355131
20	0x3dc248f6	0.094865724
21	0xbd896f94	-0.06710735
22	0xbd0bb90f	-0.034112033
23	0x3b0c8f24	0.0021447623
24	0x3d39ebcf	0.0453909
25	0x3c7d1714	0.015447397
26	0x3c99e92a	0.01878794
27	0xbd8653b6	-0.06558935
28	0xbc8d1fef	-0.017227141
29	0x3dcf37a6	0.10118036
30	0xbda5bb29	-0.080923386
31	0x3cc634cc	0.024195097
32	0xbc20d9bc	-0.009817537
33	0x3dcd5c2a	0.100273445
34	0xbcbbab71	-0.022908898
35	0xbb985e7e	-0.004649936
36	0x3d83d6cc	0.06437454
37	0xbd7d4640	-0.061834574
38	0xbc792c24	-0.015208278
39	0x3d9cdbfc	0.07659146
40	0x3d11b050	0.035568535
41	0xbd4dbeff	-0.050230976
42	0xbdae3c77	-0.085076265
43	0xbd450dbd	-0.048108805
44	0xbc20802a	-0.009796182
45	0x3d8aebdc	0.06783268
46	0x3d37971f	0.044821855
47	0xbd950428	-0.07276183
48	0x3ca781cf	0.02044764
49	0x3d197e2a	0.037473835
50	0xbd0b43cb	-0.0340002
51	0xbd173fc3	-0.036926042
52	0x3d8cd5da	0.068767264
53	0xbbe35cf1	-0.0069385697
54	0xbd437599	-0.04771957
55	0xbdc1c235	-0.0946087
56	0xbd5cf05c	-0.053940162
57	0xbd7d80d5	-0.061890442
58	0xbd98bfc9	-0.07458455
59	0xbb0b7c19	-0.0021283685
60	0xbd7934db	-0.060841423
61	0x3d45c6a4	0.04828514
62	0xbd48beab	-0.04900996
63	0xbcf873a4	-0.03032858
64	0xbb8fb62c	-0.0043857303
65	0xbd350be3	-0.04420079
66	0x3a0b69a7	0.00053181726
67	0xbce0afe5	-0.027427623
68	0x3d0ce108	0.034394294
69	0xbd2eacc8	-0.042645246
70	0xbd80afab	-0.06283506
71	0x3c17dd1e	0.009269027
72	0x3ae51dca	0.0017480191
73	0xbda19c3c	-0.078911275
74	0xbd359486	-0.044331096
75	0xbabb4d38	-0.0014289981
76	0xbd848ff6	-0.06472771
77	0x3cad7f87	0.021178974
78	0x3d5bc236	0.05365201
79	0x3d5416b0	0.05177945
80	0xbd271eb8	-0.04080078
81	0xbc1eaff9	-0.00968551
82	0x3d439c7d	0.04775666
83	0x3ca5cc6b	0.020239076
84	0xbca69274	-0.020333506
85	0xbc379c50	-0.011206701
86	0x3cc34365	0.023835847
87	0x3d45bee0	0.048277736
88	0xbd4aed03	-0.04954244
89	0x3d1de332	0.03854675
90	0x3be31ef3	0.0069311797
91	0xbd02b5ef	-0.031911787
92	0xbcb95b49	-0.022626536
93	0xbd4d7491	-0.050159995
94	0x3c2662b2	0.010155367
95	0xbc727082	-0.014797332
96	0xbd70203c	-0.05862449
97	0xbc3935a9	-0.0113042975
98	0xbc303a4b	-0.010756086
99	0x3c6c50d9	0.014423572
100	0xbd844b29	-0.06459648
101	0xbd6f262f	-0.058386024
102	0x3c53d61e	0.0129294675
103	0xbda45749	-0.08024461
104	0x3d4acc65	0.049511332
105	0x3d30b7ea	0.043144144
106	0x3d9ec45d	0.07752297
107	0x3db52131	0.088442214
108	0x3d3f3ba2	0.04668773
109	0xbd8048d1	-0.062638886
110	0x3c2f13ff	0.01068592
111	0x3d31af4c	0.043380067
112	0xbcb43359	-0.02199714
113	0x3d45356c	0.04814665
114	0x3ca62952	0.020283375
115	0x3d5b5ebc	0.053557143
116	0x3cd45da5	0.02592356
117	0xbd8e6147	-0.06952148
118	0x3d98c60c	0.074596494
119	0xbc7fb768	-0.015607692
120	0x3c388913	0.01126315
121	0x3c506cce	0.012721254
122	0xbd136a4c	-0.035990044
123	0x3d38064f	0.04492789
124	0xbcfa5754	-0.03055922
125	0x3a90e7c4	0.00110554
126	0xbceedc99	-0.029157924
127	0xbd9f6975	-0.07783786
128	0xbd5a709c	-0.05333005
129	0x3d8a211a	0.06744595
130	0x3d0ac183	0.033875953
131	0x3e0f0a52	0.1396878
132	0x3df70265	0.120610036
133	0x3c287f53	0.010284263
134	0x3de1b637	0.11021083
135	0xbd8803f6	-0.066413805
136	0xbcaf7021	-0.021415772
137	0xbc923a78	-0.017850146
138	0xbdb39092	-0.08767809
139	0x3d3cf8f7	0.04613587
140	0x3d5060e0	0.050873637
141	0xbbb50545	-0.00552431
142	0xbc80c4d2	-0.015718851
143	0x3d4000ce	0.046875767
144	0xbcda13c6	-0.026620757
145	0xbd146509	-0.036229167
146	0x3d4b3827	0.049614098
147	0x3d6a0f66	0.05714359
148	0x3cfaacb1	0.030599924
149	0x3cda3b8f	0.026639728
150	0x3d36ba98	0.044611543
151	0xbe16743a	-0.14692774
152	0x3b1e987d	0.0024199777
153	0x3a632b10	0.00086657796
154	0xbd8a4d23	-0.06752994
155	0x3d557b2b	0.052119415
156	0x3d1f6dfd	0.038923252
157	0x3c1bc4bc	0.009507354
158	0x3cd8ca40	0.026463628
159	0xbd2c6c5e	-0.042095535
160	0xbd0ff69f	-0.035147306
161	0xbd31ce1d	-0.043409456
162	0x3dfbc598	0.122935474
163	0x3bf510bd	0.007478802
164	0xbd3fe6ae	-0.046850853
165	0x3d2de61f	0.04245579
166	0x3c8821cf	0.016617684
167	0xbd2f8dc1	-0.042859796
168	0x3df44c89	0.119286604
169	0xbd1a6b2a	-0.037699856
170	0xbd0ce212	-0.034395285
171	0xbd002466	-0.031284712
172	0x3da7d770	0.08195388
173	0xbde15eeb	-0.11004432
174	0xbe0145e8	-0.12624323
175	0xbc721bcf	-0.014777138
176	0x3b8d4d5b	0.0043122
177	0xbde6841c	-0.112556666
178	0xbdf06ee9	-0.117399044
179	0xbc333bf3	-0.010939586
180	0xbb973e94	-0.004615614
181	0x3de825a8	0.11335307
182	0x3dbe351a	0.09287472
183	0x3db0e798	0.08637923
184	0x3c5bb02c	0.013408702
185	0x3b282260	0.0025655255
186	0x3ceeb3e0	0.029138505
187	0xbdb8b336	-0.09018557
188	0xbd9581fc	-0.07300183
189	0x3dd88ec7	0.105741076
190	0xbd416bad	-0.04722183
191	0xbcb69891	-0.022289546
192	0xbd749e36	-0.059721194
193	0xbd91ffc2	-0.0712886
194	0xbd25e23e	-0.040498964
195	0xbd6eb3c5	-0.05827691
196	0x3ce536f3	0.027980303
197	0x3d583c8f	0.05279213
198	0x3d7fcfcb	0.062454026
199	0xbd141e37	-0.036161628
200	0xbde0f5ca	-0.109843805
201	0x3d981be9	0.074271984
202	0x3d20e658	0.039282173
203	0x3d0c8066	0.034302138
204	0xbdc42f58	-0.095793426
205	0xbd4d7791	-0.050162856
206	0x3dc4768a	0.09592922
207	0x3d1f22c6	0.038851522
208	0xbd833255	-0.064060844
209	0xbd266f41	-0.040633444
210	0xbdf04534	-0.117319494
211	0xbd14ece3	-0.036358725
212	0x3d020cff	0.031750675
213	0xbd02c670	-0.031927526
214	0xbdf923a6	-0.121650025
215	0x3d85a42a	0.065254524
216	0x3c0bf62e	0.0085425805
217	0x3cdc96c7	0.026927365
218	0xbccb07af	-0.024783937
219	0xbdb7e0f7	-0.089784555
220	0xbd82aad2	-0.06380238
221	0x3dd286f1	0.10279644
222	0xbdb91cad	-0.090386726
223	0x3d3ac201	0.045595173
224	0x3d6e49e2	0.05817593
225	0x3d8b5dba	0.06804986
226	0xbdf2863e	-0.11842011
227	0xbda57b98	-0.08080214
228	0x3ca12235	0.019669631
229	0x3db2ff44	0.08740094
230	0x3ddf81d9	0.10913438
231	0x3d29d9b2	0.041467376
232	0x3c0f22e7	0.008736349
233	0x3cca744a	0.024713654
234	0xbdd583c0	-0.1042552
235	0x3d90a805	0.07063297
236	0xbd162d8a	-0.036664523
237	0x3d934584	0.071909934
238	0x3d8a7f19	0.06762523
239	0x3d049d45	0.032376546
240	0xbc12527c	-0.008930799
241	0x3da9a1e8	0.08282834
242	0x3cb9a71b	0.02266269
243	0x3d499c3b	0.04922126
244	0x3c142a6b	0.009043316
245	0xbd291359	-0.041278217
246	0x3dda89ec	0.10670838
247	0xbc4209eb	-0.011843185
248	0xb94900ca	-0.00019169148
249	0xbc6ecafc	-0.014574762
250	0x3cc2b4c2	0.023767833
251	0xbc0250ff	-0.007953881
252	0x3ca0f47c	0.01964783
253	0xbd89f8b5	-0.0673689
254	0xbcf7dee3	-0.030257648
255	0x3c94512d	0.018105114

lstm.weight_hh_l1 f4 [512, 128]
0	0x3d499835	0.04921742
1	0x3dbc908e	0.09207259
2	0x39c83ea7	0.00038193652
3	0x3c386168	0.011253692
4	0x3d615259	0.055010173
5	0xbd8bfc72	-0.068352595
6	0xbc6f49b3	-0.014604974
7	0xbd94d02f	-0.0726627
8	0x3ccbf232	0.024895761
9	0xbdc391f8	-0.09549326
10	0xbc2acbd6	-0.010424575
11	0xbc58769f	-0.013211875
12	0xbca0dc70	-0.019636363
13	0xbd7b6e62	-0.061384566
14	0x3d040847	0.032234456
15	0xbd75c3df	-0.06000125
16	0x3d6e7d39	0.05822489
17	0x3c60fd3d	0.013732252
18	0xbd21e50b	-0.039525073
19	0xbbfb30bd	-0.007665722
20	0x3d84817b	0.06470009
21	0xbcb17a1b	-0.02166467
22	0xbd47d639	-0.048788283
23	0x3c7bd122	0.015369685
24	0x3ba4c26e	0.0050280606
25	0x3db2b1ab	0.08725294
26	0x3aad51be	0.0013223214
27	0x3b5bd6bb	0.0033544737
28	0xbd2579d6	-0.040399395
29	0xbd07128c	-0.032976672
30	0x3d94551c	0.07242796
31	0x3c841985	0.01612545
32	0x3d917f85	0.071044005
33	0xbd16659b	-0.036717992
34	0x3d602e42	0.054731615
35	0xbd491ad2	-0.049097843
36	0xbd6145f8	-0.054998368
37	0x3cbe7b61	0.023252191
38	0xbcaa31f2	-0.020775769
39	0xbca1b5be	-0.019739982
40	0x3d253cfc	0.040341362
41	0xbcd95786	-0.026530992
42	0x3d58e13e	0.052949183
43	0xbd24ab71	-0.04020256
44	0xbdba2e20	-0.09090829
45	0xbce209c4	-0.027592547
46	0x3d732335	0.059359748
47	0xbd9608a7	-0.07325869
48	0x3ce8e83a	0.028431047
49	0xbd16fdc7	-0.036863115
50	0x3c04db8f	0.0081089875
51	0xbd7f89f0	-0.062387407
52	0x3ca9e59e	0.020739373
53	0xbd5fefdb	-0.054672103
54	0xbc8452f5	-0.016152838
55	0xbd55bc79	-0.052181695
56	0xbd6e731f	-0.058215257
57	0x3cf98bef	0.030462233
58	0x3d4b5b04	0.049647346
59	0x3d91343c	0.07090041
60	0xbdaa1f81	-0.0830679
61	0xbdb51111	-0.08841146
62	0xbdc3d477	-0.09562009
63	0xbcd0ba41	-0.025479438
64	0xbdc9f057	-0.09860294
65	0x3d6fd997	0.05855712
66	0x3d7a3f41	0.06109548
67	0x3d9434a4	0.07236603
68	0x3db1b11a	0.086763576
69	0xbd9b413c	-0.07580802
70	0xbd8d4f08	-0.0689984
71	0x3d2df9ea	0.042474665
72	0xbdb43e7f	-0.08800983
73	0x3a156e29	0.0005700314
74	0xbd5654bc	-0.052326903
75	0xbd461bea	-0.048366465
76	0x3dd639a4	0.10460213
77	0x3cfdc48f	0.030977516
78	0xbd9a1764	-0.07523993
79	0xbc857754	-0.016292252
80	0xbc2e7ea4	-0.010650311
81	0x3c9efdbb	0.019408097
82	0xbc4d4e0f	-0.012530818
83	0x3cb39626	0.021922182
84	0xbd0e4543	-0.034734022
85	0xbcdc114b	-0.026863715
86	0xbccdfa44	-0.02514375
87	0xbd2d3023	-0.042282235
88	0x3d4873f6	0.048938714
89	0x3c1e1c76	0.00965034
90	0xbdca64ca	-0.09882505
91	0xbdc12a34	-0.09431878
92	0xbc158cdf	-0.009127825
93	0xbcee2936	-0.029072385
94	0xbd7bccfc	-0.061474785
95	0x3d804419	0.062629886
96	0xbd599721	-0.053122643
97	0x3d159f01	0.03652859
98	0xbd6ed97e	-0.058312885
99	0xbb5ead00	-0.0033977628
100	0xbc35c23e	-0.011093674
101	0x3d138437	0.03601476
102	0xbd904404	-0.07044223
103	0xbda26742	-0.07929851
104	0xbdcb6212	-0.09930815
105	0xbd252b66	-0.04032459
106	0x3c92efcc	0.01793661
107	0xbc8f9603	-0.017527586
108	0xbd7eab34	-0.06217499
109	0xbc4d1cdd	-0.012519089
110	0xbda3d6c3	-0.07999947
111	0x3d93e9d1	0.07222331
112	0x3d8abcaa	0.06774266
113	0xbd54c12a	-0.051942028
114	0x3c307f00	0.010772467
115	0xbdab52ba	-0.08365388
116	0xbd957754	-0.07298151
117	0xbd20487d	-0.03913163
118	0x3ceccf05	0.028907308
119	0x3db82468	0.08991319
120	0xbd2c8c73	-0.04212613
121	0xbd83bf6d	-0.06432996
122	0x3baa96c6	0.005205962
123	0xbd87b670	-0.06626594
124	0x3d11f781	0.03563643
125	0x3a6477b6	0.0008715348
126	0xbcc88e5a	-0.024481941
127	0x3d2d9fb2	0.042388625
128	0x3c910316	0.017701667
129	0x3e027cc7	0.12742911
130	0x3d94f157	0.072725944
131	0x3cf06ad3	0.029347813
132	0xbd4e97bf	-0.050437685
133	0xbcab4768	-0.020908073
134	0x3af251c9	0.0018487509
135	0xbc970930	-0.018436998
136	0x3cbe259c	0.023211293
137	0xbcf746c6	-0.030185115
138	0xbc84a595	-0.016192237
139	0xbcf1c4ac	-0.029512726
140	0x3da31c93	0.079644345
141	0xbe01d88b	-0.12680261
142	0xbc9e87da	-0.019351888
143	0xbdf30361	-0.11865879
144	0xbcb089d2	-0.021550093
145	0x3bc13550	0.005896248
146	0xbd5fdc3b	-0.054653388
147	0x3c4bc003	0.012435916
148	0x3c4967ac	0.012292784
149	0xbd6685a7	-0.056279805
150	0x3ca530e5	0.020164916
151	0x3bc2e754	0.0059479866
152	0x3bd3af45	0.0064601027
153	0xbd5d851d	-0.054082025
154	0xbd843363	-0.06455114
155	0x3dae8317	0.08521097
156	0x3c9e127f	0.019295929
157	0x3c8fe037	0.017562969
158	0xbcb37310	-0.021905452
159	0x3d1506ff	0.036383625
160	0x3d25c251	0.040468518
161	0x3c33b22c	0.010967772
162	0xbc85642d	-0.01628312
163	0x3d5b1792	0.053489275
164	0x3d8e6652	0.0695311
165	0x3bd55b28	0.006511111
166	0x3d055958	0.032555908
167	0x3d506158	0.050874084
168	0xbd0c2cb2	-0.034222312
169	0xbe0920d7	-0.13391434
170	0x3cd74351	0.026277216
171	0xba2c5a4c	-0.00065747346
172	0xbdf832ab	-0.12119039
173	0xbd362313	-0.044467043
174	0x3da14914	0.07875267
175	0x3d38f073	0.045151185
176	0xbccbbcaf	-0.024870245
177	0x3df5da91	0.12004579
178	0xbcf7dc6c	-0.030256473
179	0xbd06ab10	-0.03287798
180	0xbd0d125d	-0.03444134
181	0xbd91794f	-0.07103216
182	0x3c4d1b2f	0.012518688
183	0xbcd6b297	-0.026208205
184	0xbd266896	-0.040627085
185	0x3d9dca18	0.07704562
186	0x3ccf2ed3	0.025290882
187	0x3dee0aac	0.11623129
188	0xbddc0041	-0.10742236
189	0xb9480653	-0.00019075842
190	0x3ce69208	0.028145805
191	0x3c4485a6	0.011994755
192	0x3ccaa5bb	0.02473723
193	0xbbf8a014	-0.007587442
194	0xbd5f8cbd	-0.054577578
195	0xbc32b3ed	-0.010907155
196	0x3dab63b1	0.08368624
197	0x3c64c456	0.013962826
198	0x3c413677	0.011792771
199	0x3d538b2b	0.051646393
200	0xbdd583fa	-0.10425563
201	0xbd9a8ae9	-0.07546026
202	0x3dc56362	0.096380964
203	0xbd78e164	-0.060761824
204	0xbd31a242	-0.04336763
205	0x3d4dea2a	0.050272144
206	0xbd86100e	-0.06546031
207	0xbdf90fe2	-0.121612325
208	0x3dbe3b37	0.09288638
209	0xbd27884c	-0.040901467
210	0x3d884a39	0.06654782
211	0xbc483e07	-0.01222182
212	0xbb7b4f46	-0.0038346811
213	0xbbd8bec6	-0.006614539
214	0x3db1116a	0.086458996
215	0xbcb1fb71	-0.021726342
216	0xbce57fc0	-0.028015018
217	0xbbf5b092	-0.0074978555
218	0xbd3c5fde	-0.045989864
219	0x3da5a7db	0.080886565
220	0xbcc83d5e	-0.024443325
221	0xbcabed75	-0.020987252
222	0xbd8ea4db	-0.069650374
223	0x3d97fd00	0.07421303
224	0x3d20bd3c	0.039242968
225	0x3c1f3374	0.009716857
226	0x3df79c27	0.120903306
227	0xbd846174	-0.064639
228	0xbdd21129	-0.10257179
229	0x3d09c6c3	0.03363682
230	0x3d67b632	0.05657024
231	0xbd364cfc	-0.04450701
232	0x3d6f75d4	0.05846198
233	0xbdc0e985	-0.0941954
234	0x3d9baf70	0.076018214
235	0x3cf2ff03	0.029662615
236	0xbbd7c112	-0.006584295
237	0xbd87c610	-0.06629574
238	0x3dc5b75e	0.09654115
239	0x3d1d8dee	0.038465433
240	0xbc42af90	-0.011882678
241	0xbcf565c2	-0.029955748
242	0xbb7f16bc	-0.0038923463
243	0x3d9a46ba	0.07533021
244	0xbda017a8	-0.07817012
245	0x3db4972f	0.088178985
246	0x3d923071	0.07138146
247	0x3da677d1	0.08128322
248	0x3d853f35	0.065061964
249	0xbdd3d288	-0.1034289
250	0xbcadab17	-0.021199746
251	0x3dcb81dc	0.09936878
252	0x3d11cf93	0.03559835
253	0xbda5ea28	-0.081013024
254	0xbd0c6b79	-0.03428218
255	0x3d45c284	0.048281208

lstm.bias_ih_l1 f4 [512]
0	0x3d4de87b	0.05027054
1	0x3c8feb4b	0.017568251
2	0x3d8a6a92	0.06758608
3	0xbb7a6a06	-0.0038210168
4	0x3bb4a1b4	0.0055124406
5	0xbd7ee38b	-0.06222872
6	0x3c316f39	0.01082974
7	0x3d0509d4	0.032480076
8	0x3d7fc36d	0.062442232
9	0x3b24294d	0.0025049031
10	0xbd057c5a	-0.032589294
11	0x3d8f377d	0.069930054
12	0xbd72fa4f	-0.059320744
13	0x3d5ddba5	0.054164547
14	0xbd5602a0	-0.052248597
15	0x3d036c66	0.0320858
16	0x3d905f9a	0.070494846
17	0xbd526ff0	-0.051376283
18	0xbd79a74d	-0.060950566
19	0x3c732d15	0.014842291
20	0x3d930703	0.07179072
21	0x3d745c54	0.059658363
22	0x3d86432b	0.0655578
23	0x3d1db672	0.03850407
24	0x3c9ae53f	0.018908141
25	0x3d94a962	0.0725887
26	0x3d0ed3e3	0.03487004
27	0x3dbc2daf	0.09188401
28	0x3d26ce86	0.0407243
29	0x3d1a3cf3	0.037655782
30	0xbd2f475e	-0.04279267
31	0x3d9bba96	0.07603948
32	0x3d219fc6	0.039459012
33	0xbc597d48	-0.013274498
34	0xbb7b4122	-0.0038338383
35	0x3d439bbb	0.047755938
36	0x3d5b562a	0.05354897
37	0x3c0f25e1	0.008737058
38	0xbc8e53e0	-0.01737398
39	0xbd22f187	-0.03978112
40	0x3de732b2	0.11288966
41	0xbb004fcd	-0.0019578815
42	0xbd1ea8a9	-0.038735066
43	0x3d9f908d	0.07791243
44	0x3d374d82	0.04475165
45	0xbb541c39	-0.0032365455
46	0x3cc0c069	0.023529248
47	0x3cace4da	0.021105219
48	0x3ce22e4f	0.027609972
49	0x3c00aaf7	0.007853261
50	0xbd34a879	-0.04410598
51	0xbd5c80d5	-0.0538338
52	0x3d90f97b	0.070788346
53	0xbd8a92a0	-0.06766248
54	0x3cd9978c	0.026561521
55	0x3cfbad20	0.0307222
56	0x3adb754f	0.0016743335
57	0x3cbe88a7	0.02325852
58	0xbd530302	-0.05151654
59	0x3c7ec200	0.015549183
60	0xbd27b132	-0.04094047
61	0xbc08bec0	-0.00834626
62	0x3d5db62c	0.05412881
63	0x3da6e83b	0.08149763
64	0xbd993e08	-0.07482535
65	0x3ca98de2	0.020697538
66	0xbc6c3bf7	-0.014418594
67	0xbd48a964	-0.04898967
68	0xbca34ddd	-0.019934589
69	0x3dc8a22b	0.09796556
70	0xbb5bbecd	-0.0033530474
71	0x3c0fd199	0.008777999
72	0xbd59b4ee	-0.053151064
73	0xbbc40a53	-0.005982676
74	0xbd1707a6	-0.03687253
75	0x3cea3fc0	0.028594851
76	0xbb27ccf8	-0.0025604349
77	0x3d8e6c35	0.069542326
78	0x3cb1b951	0.021694811
79	0xbaff0613	-0.0019456766
80	0xbd5d77e6	-0.054069422
81	0xbd62334b	-0.055224698
82	0xbd36768b	-0.044546645
83	0x3d8233f2	0.06357564
84	0x3c8b1386	0.016977083
85	0x3d1dfa11	0.03856856
86	0x3d70e9cc	0.058816716
87	0xbcce9d52	-0.0252215
88	0xbd25a8ba	-0.040444113
89	0xbca3effb	-0.020011893
90	0x3d9161ba	0.07098718
91	0xbd3ef5f0	-0.046621263
92	0x3db2c14f	0.08728277
93	0xbc69168b	-0.014226566
94	0x3d1332ff	0.035937306
95	0xba524090	-0.0008020485
96	0x3c3f53a5	0.011677657
97	0xbcdbfb4c	-0.026853226
98	0x3d3e1e07	0.046415355
99	0x3c7bb690	0.0153633505
100	0xbd666e11	-0.05625731
101	0xbdad6223	-0.08465984
102	0x3d046efc	0.032332405
103	0x3d760fc8	0.060073644
104	0x3d92495d	0.07142899
105	0x3cb4b37b	0.02205824
106	0x3a8c24e2	0.0010692144
107	0xbccfe2a4	-0.025376625
108	0x3c96cfc8	0.018409625
109	0xbce95852	-0.028484497
110	0x3c1a1098	0.00940337
111	0xbd360e84	-0.044447437
112	0x3db3b49f	0.08774685
113	0x3dbca9e4	0.092120916
114	0x3da82172	0.08209504
115	0x3d4c9e53	0.049955677
116	0x3dd31855	0.10307375
117	0xbccca8b8	-0.024982795
118	0xbd5b727c	-0.053575978
119	0x3d8c9570	0.068644404
120	0xbc685fac	-0.014182966
121	0x3d89b233	0.06723442
122	0x3d2d39f7	0.042291608
123	0xbc2014c0	-0.009770572
124	0x3dd784de	0.10523389
125	0x3d29139f	0.041278478
126	0xbcab1a53	-0.020886576
127	0xbcda3ba9	-0.026639776
128	0xbd57c143	-0.052674543
129	0xbd71c2b9	-0.059023593
130	0x3d879651	0.066204675
131	0x3dbe4466	0.0929039
132	0x3d8aaa7a	0.06770797
133	0x3d3a6071	0.04550213
134	0xbd50d027	-0.05097976
135	0x3d659367	0.056048777
136	0xbb3c77ab	-0.002875785
137	0x3b733c6b	0.003711487
138	0xbcbb4157	-0.022858305
139	0x3dad11ca	0.084506586
140	0xbd6504bd	-0.055912722
141	0x3d25e7aa	0.040504135
142	0x3d24b3a1	0.04021037
143	0xbd0a2ac8	-0.033732206
144	0x3dd83295	0.10556523
145	0xbd8b055f	-0.06788134
146	0xbd9457b2	-0.07243289
147	0x3dd163cb	0.10224112
148	0xbd089f75	-0.033355195
149	0x3d97992d	0.07402263
150	0x3d19c60e	0.037542395
151	0xbc973555	-0.018458048
152	0x3cc152e2	0.023599092
153	0xbdb405a9	-0.08790142
154	0xbd7b6d95	-0.061383802
155	0xbcafebf6	-0.02147482
156	0x3dc6d582	0.09708692
157	0xbd81d3fb	-0.0633926
158	0xbd4b406e	-0.04962199
159	0x3bf45357	0.007456224
160	0x3c6edc39	0.014578872
161	0xbb83837a	-0.004013476
162	0x3dd2af1d	0.102873065
163	0xbd9001e0	-0.07031608
164	0xbcd876ab	-0.026423773
165	0x3da51868	0.08061296
166	0x3c26c068	0.010177709
167	0x3c3990d6	0.0113260355
168	0x3d38724a	0.04503087
169	0xbc021e42	-0.007941784
170	0x3d6c490e	0.057686858
171	0xbb8abb80	-0.0042337775
172	0x3d0f3269	0.034960184
173	0x3d49465b	0.04913936
174	0xbd099f62	-0.033599265
175	0x3b3d79b8	0.0028911661
176	0xbd8dcec8	-0.06924206
177	0x3da368e4	0.07978991
178	0x3db14697	0.08656042
179	0xbd63852b	-0.05554692
180	0xbd88cb34	-0.06679383
181	0xb91b9732	-0.00014838277
182	0x3d574ade	0.052561633
183	0x3cd106dd	0.025515968
184	0xbb8026c0	-0.0039108694
185	0x3c0e8abc	0.008700069
186	0xbcbd55e6	-0.023112249
187	0xbd2fd658	-0.042929024
188	0xbd06a767	-0.03287449
189	0xbad0a5f9	-0.0015918604
190	0x3d4c726d	0.049913812
191	0x3dba9c68	0.091118634
192	0x3d5d81e3	0.054078948
193	0xbd15bed3	-0.036558937
194	0x3d6b06b9	0.057379458
195	0x3d5d69c5	0.054055948
196	0x3d6f88bc	0.05848001
197	0x3d4f60d6	0.05062946
198	0x3da1cee1	0.07900787
199	0x3c7d8fbe	0.015476165
200	0x3a2db168	0.0006625862
201	0x3d962700	0.073316574
202	0x3b876dab	0.0041329465
203	0x3cf2950e	0.02961209
204	0x3db2f1fb	0.0873756
205	0xbd8b0083	-0.06787207
206	0xbd7cd80d	-0.06172948
207	0xbd297fbc	-0.041381583
208	0x3ccbf469	0.024896817
209	0xbd8935a4	-0.06699684
210	0x3d1baf40	0.03800893
211	0x3cc066b9	0.023486482
212	0xbd8678c8	-0.06566006
213	0x3dc94b13	0.098287724
214	0x3d0f9482	0.035053737
215	0x3cd20cce	0.025640871
216	0xbda753f0	-0.08170307
217	0x3d048814	0.032356337
218	0x3d96c9c2	0.07362701
219	0x3d871743	0.06596234
220	0x3c91f184	0.017815359
221	0x3cef4313	0.029206788
222	0x3d46cf12	0.04853732
223	0x3dbfe68c	0.09370145
224	0xbd6c3121	-0.05766404
225	0x3c72d426	0.014821088
226	0x3ccef29c	0.02526217
227	0xbc19bbcd	-0.009383154
228	0x3d81c17a	0.06335731
229	0x3d4d0897	0.05005702
230	0xbd9d7a32	-0.076893225
231	0x3dae5504	0.08512309
232	0x3d92ff05	0.07177547
233	0xbd333841	-0.04375482
234	0x3da6648b	0.08124646
235	0xbd13bc18	-0.036068052
236	0x3cf5898a	0.02997281
237	0xbd97c46d	-0.07410512
238	0x3dda0008	0.10644537
239	0xbd1bc7f9	-0.038032506
240	0x3dc504ef	0.09620082
241	0x3d8975d2	0.067119256
242	0x3d4792c6	0.04872396
243	0x3c9f517d	0.019448036
244	0xbd12358f	-0.03569561
245	0x3db901c7	0.09033542
246	0xbd16f768	-0.03685704
247	0xbc8ef476	-0.017450552
248	0x3c15530f	0.009114041
249	0x3cad0ae8	0.021123365
250	0xbcbf4180	-0.023346663
251	0xbce28530	-0.0276514
252	0xbd4dd09d	-0.050247777
253	0xbc96b634	-0.018397428
254	0xbd347226	-0.044054173
255	0x3da3ddec	0.080013126
