Data/PredictionsData/AB10.pth (torch, 828430 bytes, 10 tensors)

lstm.weight_ih_l0 f4 [512, 13]
0	0x3d627108	0.055283576
1	0x3c7c7dfd	0.015410897
2	0x3d86bc86	0.06578927
3	0x3c70f505	0.014706855
4	0xbd14095f	-0.03614175
5	0xbcdfdce4	-0.027327009
6	0xbdd63c2d	-0.10460696
7	0xbcd52daa	-0.02602275
8	0x3dbf6c53	0.09346833
9	0xbda08373	-0.07837572
10	0x3bee5e7d	0.0072744475
11	0xbdaf9e46	-0.0857511
12	0x3cac4ff3	0.021034217
13	0xbd75d3fe	-0.060016625
14	0x3d1d3f5c	0.038390502
15	0x3c1c57e4	0.009542439
16	0x3dd8ef7f	0.10592555
17	0x3cc1c114	0.023651637
18	0x3d5813f7	0.052753415
19	0xbc4d687b	-0.012537117
20	0x3dc1c3a5	0.09461144
21	0x3d44ddd4	0.048063114
22	0x3d8b7420	0.068092585
23	0x3d050abe	0.032480948
24	0x3d904f3b	0.07046362
25	0x3d229ca1	0.039700154
26	0xbda5787c	-0.08079621
27	0xbda7b63c	-0.08189055
28	0x3cbc5712	0.022990737
29	0x3cbd3daa	0.023100693
30	0x3d0c8dae	0.034314804
31	0x3c8967f1	0.016773196
32	0x3b918a44	0.0044415314
33	0xbc82c9ee	-0.015965428
34	0xbe077375	-0.13227637
35	0x3d6f61a6	0.058442734
36	0xbe0daaea	-0.1383473
37	0xbd199702	-0.037497528
38	0x3b116fde	0.0022191922
39	0xbca3dcbb	-0.020002713
40	0xbd2ac946	-0.041695856
41	0xbd15e87c	-0.036598668
42	0xbd1a28bd	-0.037636507
43	0xbd9eb25e	-0.077488646
44	0x3bcf07d3	0.0063180714
45	0x3e03ca95	0.12870248
46	0xbdbf0e60	-0.09328914
47	0x3c008355	0.007843812
48	0xbd732c97	-0.059368696
49	0xbcd679dd	-0.026181156
50	0x3dc2bd04	0.09508708
51	0x3ce84c5f	0.02835673
52	0x3dfd14b8	0.123574674
53	0x3dc93c11	0.0982591
54	0x3d9c06e1	0.076184995
55	0x3c830aa2	0.015996281
56	0xbd808552	-0.06275429
57	0xbd9a35a7	-0.075297646
58	0x3cff4b10	0.031163722
59	0x3cad0afe	0.021123406
60	0xbd459efa	-0.048247315
61	0xbdf7c990	-0.12098992
62	0xbda26200	-0.07928848
63	0xbd23b4c8	-0.03996733
64	0x3cbf6d8d	0.023367668
65	0xbdb42b9a	-0.08797379
66	0xbd91c71f	-0.071180575
67	0x3c790d34	0.015200902
68	0xbdde772a	-0.108625725
69	0xbd90bf22	-0.07067706
70	0x3d2bc175	0.041932542
71	0x3d8b7802	0.06809999
72	0xbc03cfdc	-0.008045163
73	0xbe505ead	-0.20348616
74	0xbc18e57e	-0.009332059
75	0x3df1debe	0.11810063
76	0x3d1a2b68	0.03763905
77	0x3dbb3be7	0.09142285
78	0xbda3fe29	-0.080074616
79	0xbcab5fac	-0.020919643
80	0xbd4b0d9e	-0.049573533
81	0xbc58b968	-0.013227798
82	0x3d8fe363	0.070257924
83	0x3cc2353a	0.023707021
84	0x3de29ef5	0.11065475
85	0xbce2520d	-0.027627015
86	0x3d60a37a	0.054843403
87	0xbc7c74c6	-0.0154087
88	0xbd4136dc	-0.04717146
89	0xbd2ddf22	-0.042449124
90	0xbdcf3e40	-0.10119295
91	0xbbfc70bb	-0.007703868
92	0x3d8f8835	0.07008401
93	0x3d57cbe5	0.052684683
94	0x3da088fc	0.07838628
95	0xbd6b87db	-0.05750261
96	0x3d8426dc	0.06452724
97	0x3d7bb6e4	0.061453715
98	0xbd0d233f	-0.03445744
99	0xbc971e13	-0.018446958
100	0xbd127e39	-0.035764907
101	0xbb045257	-0.002019068
102	0x3dcc23c8	0.09967762
103	0x3da55f02	0.08074762
104	0xbca96ad6	-0.020680826
105	0xbd7312ac	-0.05934398
106	0x3bbd0bb1	0.005769216
107	0x3da5bc05	0.080925025
108	0x3d0bca2f	0.034128364
109	0x3d51aa7a	0.05118797
110	0xbe1b1556	-0.15144858
111	0x3ddb9a0f	0.10722744
112	0x3d0b22c8	0.033968717
113	0x3dc1d331	0.0946411
114	0x3de981b5	0.11401693
115	0x3d93d85b	0.07219001
116	0x3d5c896e	0.053842
117	0xbd64ea89	-0.055887733
118	0x3da12f02	0.07870294
119	0x3d555f34	0.052092746
120	0x3db695d8	0.08915299
121	0xbd5a6b43	-0.05332495
122	0x3d91df39	0.071226545
123	0xbe0d1ca9	-0.13780464
124	0xbd12714d	-0.035752583
125	0x3ddf9ad0	0.109182
126	0xbdedd8fd	-0.11613653
127	0x3e1a5fa7	0.15075551
128	0xbc6fe6c8	-0.014642425
129	0xbcbe49a1	-0.023228468
130	0x3bef3495	0.0072999694
131	0x3d112be1	0.035442237
132	0x3d75d73b	0.060019713
133	0x3bb1dae9	0.0054277075
134	0xbd14b7bf	-0.036308046
135	0x3d18c329	0.037295494
136	0x3d303037	0.04301473
137	0xbdb0e9b3	-0.086383246
138	0xbcb5bbf4	-0.02218435
139	0xbcaeb172	-0.021324847
140	0xbdc454c2	-0.09586479
141	0xbdb2516c	-0.08706936
142	0xbd63b3cf	-0.0555914
143	0xbc01ee9d	-0.007930425
144	0xbc3694cf	-0.011143877
145	0xbe0269d0	-0.12735677
146	0xbc653363	-0.013989302
147	0x3daa9d70	0.0833081
148	0xbd8841b0	-0.06653154
149	0x3dedab0c	0.1160489
150	0x3e124c0e	0.14286825
151	0x3dcb4efb	0.09927174
152	0x3d86d7cd	0.065841295
153	0xbcd16abf	-0.025563596
154	0x3d1e5cc7	0.038662698
155	0x3d414778	0.0471873
156	0x3cedc6df	0.029025493
157	0x3d899d48	0.06719452
158	0xbdc27931	-0.09495772
159	0x3d2d456e	0.04230254
160	0xbd62c7ab	-0.0553662
161	0x3b4a2bba	0.0030848817
162	0xbe010d67	-0.12602769
163	0xbcc00b2c	-0.023442827
164	0xbd573ebd	-0.052550066
165	0x3e0a85d7	0.13527618
166	0x3d858e09	0.06521232
167	0x3c733b5e	0.014845697
168	0x3cc0b611	0.023524316
169	0x3d5b0879	0.053474877
170	0x3d428745	0.047492284
171	0xbc8a4fa0	-0.016883671
172	0xbcf64702	-0.030063156
173	0xbd23010c	-0.03979592
174	0xbda4162a	-0.0801204
175	0xbd6cd7a8	-0.057822853
176	0xbd9fd8d6	-0.0780503
177	0xbd08bb8d	-0.033381987
178	0xbd40de81	-0.047087196
179	0xbc8c047e	-0.017091986
180	0x3b5a9c27	0.0033357234
181	0x3ddc461b	0.10755559
182	0x3de27285	0.11056999
183	0x3c9eb639	0.019374
184	0xbd188335	-0.037234504
185	0xbd8904ec	-0.06690392
186	0x3d68bd22	0.056820996
187	0xbd48aea0	-0.04899466
188	0x3cbfc419	0.023408936
189	0xbce7bf2a	-0.028289396
190	0xbd9c41cf	-0.076297395
191	0x3d0ed3a5	0.03486981
192	0xbd1308c0	-0.035897017
193	0xbd85daa5	-0.06535844
194	0xbd0ef104	-0.03489782
195	0x3dcc9d57	0.09990948
196	0x3cebfa95	0.02880601
197	0x3dbfb5b9	0.09360833
198	0x3deef8eb	0.11668571
199	0x3d97a51e	0.074045405
200	0x3d941b07	0.072317176
201	0xbde2073e	-0.110365376
202	0x3de911c0	0.11380339
203	0xbd4f9c50	-0.05068618
204	0xbd32473d	-0.04352497
205	0x3cef89f7	0.029240591
206	0x3cbef226	0.023308825
207	0xbd606fcd	-0.05479412
208	0x3c435604	0.011922363
209	0xbd17b399	-0.037036512
210	0xbd0ade67	-0.033903506
211	0x3d12ec4d	0.035869885
212	0x3cc8ad29	0.024496632
213	0xbd40d605	-0.047079105
214	0xbd715252	-0.058916397
215	0x3da86ff8	0.08224481
216	0x3d9fb274	0.07797709
217	0x3d32ac5e	0.043621413
218	0xbd555ebb	-0.052092295
219	0xbd8e5417	-0.069496326
220	0xbda3886b	-0.07985004
221	0xbd7c05b5	-0.06152888
222	0xbc3987aa	-0.011323849
223	0x3db615f1	0.08890904
224	0xbc19b13b	-0.009380634
225	0xbdd01c04	-0.101615936
226	0xbda6b2d4	-0.081395775
227	0x3d96512d	0.07339702
228	0x3c9a23ad	0.01881584
229	0xbd37b711	-0.04485232
230	0xbcf183e7	-0.029481841
231	0x3d916e63	0.07101133
232	0x3d9673cc	0.07346305
233	0xbd33ac7f	-0.043865677
234	0xba5bc78d	-0.00083839224
235	0x3d457346	0.048205636
236	0x3dbfe7bf	0.09370374
237	0xbd8c8a8f	-0.068623655
238	0x3d6373d0	0.05553037
239	0xbd51db00	-0.051234245
240	0x3dc2dd3d	0.09514854
241	0x3d1569d8	0.036477894
242	0xbd74021f	-0.059572335
243	0x3d9ad526	0.07560186
244	0xbcc2d146	-0.02378143
245	0xbd96188c	-0.07328901
246	0xbd108835	-0.035286147
247	0x3d8d9b76	0.069144174
248	0x3db5a284	0.08868888
249	0x3cd6202e	0.026138391
250	0x3d7e337c	0.062060818
251	0x3da99110	0.082796216
252	0xbe06c1d7	-0.13159882
253	0x3dd0e7f8	0.102004945
254	0x3dc45214	0.09585968
255	0xbd3ce355	-0.04611524

lstm.weight_hh_l0 f4 [512, 128]
0	0xbc9e4984	-0.019322164
1	0xbce08b05	-0.02741004
2	0xbc6b4aa5	-0.014361058
3	0x3d14dbe6	0.036342524
4	0xbcd2161c	-0.025645308
5	0xbdc21edb	-0.094785415
6	0xbe21e1e4	-0.15808827
7	0x3d4b3984	0.049615398
8	0x3cb9eb9f	0.02269536
9	0xbb2bd4d5	-0.0026219387
10	0xbdf42235	-0.11920587
11	0xbb743c73	-0.0037267476
12	0x3cb57577	0.022150738
13	0xbd4f85e3	-0.050664794
14	0xbdd48011	-0.10375989
15	0xbdbc0ea4	-0.0918248
16	0x3c84973c	0.016185395
17	0x3dd173be	0.10227154
18	0xbe00628d	-0.12537594
19	0xbdba0499	-0.09082908
20	0x3d3f76d8	0.046744198
21	0x3c0cdd7b	0.008597727
22	0xbe0bceda	-0.13653126
23	0xbb76ac50	-0.0037639327
24	0xbddd4974	-0.10805026
25	0x3de06b5e	0.10957979
26	0x3d26535d	0.040606845
27	0x3dc48129	0.09594948
28	0xbc74f1d7	-0.014950237
29	0x3dafd542	0.085855976
30	0x3c0e9d55	0.008704503
31	0xbdef3963	-0.116808675
32	0x3d82c332	0.06384887
33	0xbe1cc425	-0.15309198
34	0xbc1780fa	-0.009247059
35	0xbdb6a964	-0.089190274
36	0x3d90879a	0.07057114
37	0xbde7cfd4	-0.11318937
38	0xbda83a25	-0.08214215
39	0xbe15c9c3	-0.14627747
40	0xbcee4f13	-0.02909044
41	0x3d5e2155	0.054231007
42	0x3d89a61e	0.067211375
43	0xbcce0377	-0.025148137
44	0xbe3f103e	-0.1865854
45	0x3d92dc06	0.071708724
46	0x3dc3c833	0.09559669
47	0xbe200c16	-0.1562961
48	0xbd93e7e7	-0.07221966
49	0x3dc677f6	0.096908495
50	0x3d0de1da	0.034639217
51	0xbcaa9618	-0.020823523
52	0x3d9c9ad1	0.076467164
53	0x3d4f011d	0.05053817
54	0x3d8923cf	0.06696283
55	0xbd2cb483	-0.042164337
56	0xbc8c4916	-0.017124694
57	0x3d754ddd	0.05988871
58	0x3d839dbc	0.0642657
59	0x3c8b3003	0.016990667
60	0xbdd9d0ae	-0.106355056
61	0xbd805f45	-0.06268171
62	0xbd6488ba	-0.055794455
63	0x3c68b772	0.014203893
64	0x3dd0b448	0.10190636
65	0x3d806329	0.06268913
66	0x3d973c0e	0.073845014
67	0xbd6184d0	-0.0550583
68	0xbdf1b48c	-0.11802015
69	0xbdbd0cdc	-0.09230968
70	0xbd7d66af	-0.061865505
71	0xbda41d2d	-0.08013377
72	0x3d4145e8	0.04718581
73	0x3c80ae11	0.015708001
74	0x3cc842e7	0.024445964
75	0x3e2182e9	0.15772595
76	0x3e017505	0.12642296
77	0xbcd3abc1	-0.025838735
78	0xbd388307	-0.045046832
79	0x3ddaf73f	0.1069169
80	0x3bd158a4	0.0063887406
81	0x3daeb600	0.085308075
82	0xbc2a8026	-0.0104065295
83	0xbbe7005a	-0.0070496025
84	0xbbae489c	-0.0053187143
85	0xbcb14a1e	-0.021641787
86	0x3da3e2cf	0.08002245
87	0xbe0ead7f	-0.13933371
88	0x3c628f8f	0.013828172
89	0xbc31a3c0	-0.010842264
90	0x3dcdb878	0.1004495
91	0x3d843b67	0.064566426
92	0xbd3e9268	-0.046526343
93	0xbdb34536	-0.08753435
94	0xbca06b3e	-0.019582387
95	0xbd334c9f	-0.043774243
96	0x3cf2cd5d	0.02963894
97	0xbd8e6702	-0.06953241
98	0x3d1efd84	0.03881599
99	0x3de0ee4f	0.10982954
100	0xb6447df8	-2.92796e-06
101	0xbd85b03e	-0.06527756
102	0x3e01d9b5	0.12680705
103	0x3d882c04	0.0664902
104	0x3d4e2fed	0.050338674
105	0xbdb3167c	-0.08744523
106	0xbd81c01d	-0.06335471
107	0x3ce40cd3	0.027838146
108	0xbdd99d8a	-0.10625751
109	0xbbcaa4bf	-0.00618419
110	0x3a6dace2	0.0009066594
111	0x3cbe2054	0.023208775
112	0x3d5ab211	0.053392474
113	0x3dec2808	0.11531073
114	0xbd5031e0	-0.050828815
115	0xbd908b41	-0.070578106
116	0x3c19b6ce	0.009381963
117	0xbcbffdcc	-0.02343645
118	0xbda80ebc	-0.08205935
119	0x3d88d78b	0.066817366
120	0x3dae850b	0.0852147
121	0xbd4c6160	-0.04989755
122	0xbc584b68	-0.013201572
123	0xbd3c3bc7	-0.045955446
124	0x3d9abb5a	0.07555266
125	0x3d2b0597	0.041753378
126	0xbcd8195d	-0.026379282
127	0xbc68a8e2	-0.014200421
128	0x3dc5f90f	0.09666645
129	0x3d46bf51	0.048522297
130	0xbd504ee7	-0.050856497
131	0x3b4cabdf	0.0031230373
132	0x3d8e0a98	0.06935614
133	0xbde29407	-0.1106339
134	0xbd382eac	-0.044966385
135	0x3caf2f58	0.02138488
136	0x3d721516	0.05910214
137	0x3d3803ed	0.04492562
138	0x3d9fda40	0.078053
139	0xbca3028e	-0.01989868
140	0x3d154bf4	0.036449388
141	0x3d05036d	0.03247397
142	0x3d85d2db	0.06534358
143	0xbbd45c01	-0.0064806943
144	0xbcd51c79	-0.026014553
145	0xbd429c18	-0.047512144
146	0x3c2ea281	0.010658861
147	0xbc0aee6e	-0.008479698
148	0xbcdac0d0	-0.026703268
149	0x3d3219ad	0.043481518
150	0x3c549153	0.012974101
151	0xbdd43fd6	-0.10363738
152	0x3d0c30cb	0.03422622
153	0x3d4fb0eb	0.05070583
154	0xbd940001	-0.07226563
155	0x3da5a17f	0.080874436
156	0x3cac547d	0.02103638
157	0xbd26f19e	-0.040757768
158	0xbd2c6bd4	-0.04209502
159	0x3c914843	0.017734652
160	0x3df52074	0.119690806
161	0xbd4f8714	-0.05066593
162	0x3ce14da7	0.027502848
163	0xbdbb4d52	-0.09145607
164	0xbd042db1	-0.032270137
165	0xbd8bd303	-0.06827357
166	0x3c244293	0.010025638
167	0xbb541b8e	-0.0032365057
168	0x3d88fbee	0.06688677
169	0x3dd8cab0	0.105855346
170	0xbd805c92	-0.062676564
171	0xbdb85c66	-0.090019986
172	0x3d7b8e75	0.061415154
173	0xbd5450f5	-0.05183502
174	0x3aa60311	0.0012665709
175	0xbdb2f43a	-0.08737989
176	0x3d40700e	0.046981864
177	0x3cb2e543	0.021837836
178	0xbd346358	-0.044040054
179	0x3bfd6097	0.0077324617
180	0x3d71685a	0.058937408
181	0xbc9e431c	-0.01931911
182	0x3dcad9d4	0.09904829
183	0xbdbfb740	-0.09361124
184	0xbdc3404d	-0.09533749
185	0xbbe55b32	-0.0069993967
186	0x3dc355a9	0.09537823
187	0xbcf45825	-0.029827187
188	0x3cae3966	0.021267604
189	0xbd7f7919	-0.062371347
190	0x3cd0f43a	0.025507081
191	0xbd4fc0b6	-0.050720893
192	0xbd50bf40	-0.05096364
193	0xbc6b8818	-0.014375709
194	0xbcff411d	-0.031158978
195	0xbd2af508	-0.041737586
196	0x3ac35676	0.0014903087
197	0x3d3d1b91	0.046168867
198	0xbbac2c86	-0.005254331
199	0xbd0e0178	-0.03466937
200	0xbd16d246	-0.036821626
201	0x3d09ddcb	0.033658784
202	0xbb61f5db	-0.0034478817
203	0xbc2ba1e7	-0.010475612
204	0x3d76bf36	0.060240947
205	0x3cb5513c	0.022133462
206	0x3d21f696	0.039541803
207	0x3dcf287b	0.10115143
208	0x38ce9956	9.8514065e-05
209	0xbd19ebe2	-0.03757847
210	0xbda9ca5b	-0.08290549
211	0x3d0f42fa	0.034975983
212	0xbd2340c3	-0.039856683
213	0xbbd2fddf	-0.006438955
214	0xbd93cdcf	-0.07216989
215	0xbcf01dbe	-0.029311057
216	0xbcdfbbe6	-0.027311277
217	0xbb384f51	-0.0028123448
218	0xbd2f2a8e	-0.042765193
219	0xbd902d61	-0.07039905
220	0xbceeea1c	-0.029164366
221	0x3d719585	0.058980484
222	0x3d43738d	0.04771762
223	0xbbc1b112	-0.005911001
224	0xbde5e112	-0.112245694
225	0x3a9e8f1c	0.0012097093
226	0x3d22cf03	0.039748203
227	0xbd6bbdc5	-0.057554025
228	0x3de05b6f	0.109549396
229	0xbd072f64	-0.03300418
230	0x3de090ce	0.10965119
231	0x3d1778a8	0.0369803
232	0x3d76b532	0.060231395
233	0xbc9a7b86	-0.018857729
234	0x3ca54b1e	0.02017742
235	0x3d2ed3be	0.0426824
236	0xbda81500	-0.082071304
237	0xbdce7eaf	-0.10082757
238	0xbb8c7636	-0.004286553
239	0xbda681b0	-0.08130205
240	0x3c34fa7e	0.01104605
241	0x3cc3cf8e	0.02390268
242	0x3c0b1785	0.008489494
243	0x3c3818af	0.011236354
244	0x3c862115	0.016373197
245	0x3d4709e7	0.048593428
246	0xbcf4d22b	-0.029885372
247	0x3cb6fe8a	0.02233817
248	0xbafff38f	-0.0019527542
249	0xbcc53a4b	-0.024075648
250	0x3d2a3771	0.04155678
251	0xbd28d6bd	-0.041220415
252	0x3dd6c2ee	0.10486399
253	0x3d9c9d47	0.07647186
254	0xbdcf348f	-0.10117447
255	0x3b81d543	0.0039621904

lstm.bias_ih_l0 f4 [512]
0	0x3d8f576d	0.06999097
1	0xbd1fd78a	-0.039023913
2	0x3cc645fa	0.02420329
3	0xbc8744cf	-0.016512303
4	0xbd8cd18f	-0.06875908
5	0x3d25c6d8	0.040472835
6	0x3d264463	0.040592562
7	0x3cd8e5b1	0.026476713
8	0x3cbd9035	0.023140052
9	0xbd2641b0	-0.04058999
10	0x3d0c76cd	0.034292985
11	0x3d7d0151	0.061768834
12	0x3dde27cf	0.10847437
13	0x3d5e2245	0.0542319
14	0x3d4303c1	0.047611002
15	0x3d356594	0.044286326
16	0xbcd90a70	-0.026494235
17	0x3d8880b5	0.06665174
18	0xbd13341f	-0.03593838
19	0xbd22972a	-0.039694943
20	0x3de68843	0.112564586
21	0xbd5a4e1f	-0.05329716
22	0x3d9438a1	0.072373636
23	0x3d7f613e	0.062348597
24	0x3b622615	0.0034507562
25	0x3c37ecd9	0.0112259025
26	0x3d9aa9c6	0.07551913
27	0x3c9f3b66	0.019437503
28	0xbd5429a7	-0.051797535
29	0x3d95e08b	0.07318219
30	0x3d7810a8	0.06056276
31	0x3da9aba1	0.08284689
32	0x3cff8680	0.031192064
33	0x3d9a3223	0.07529094
34	0xbca52271	-0.020158025
35	0x3c079df2	0.008277403
36	0x3df63ae7	0.120229535
37	0x3d116757	0.035498943
38	0xbb4c57c3	-0.003118024
39	0x3b857ad3	0.0040734797
40	0x3d8d01ba	0.06885095
41	0x3dd4df4e	0.103941545
42	0xbbb6c5cb	-0.005577778
43	0x3d96dafa	0.07365985
44	0xbc9dc19d	-0.019257361
45	0xbd1acdbd	-0.037793864
46	0xbcd76fc0	-0.026298404
47	0xbcf4fbd8	-0.029905245
48	0x3d98dad0	0.0746361
49	0x3d6f636a	0.058444418
50	0xbcc8bc46	-0.024503838
51	0xba4e640e	-0.00078731857
52	0x3d365e75	0.044523675
53	0xbcbe8789	-0.023257988
54	0x3db29a5f	0.0872085
55	0xbd011740	-0.031516314
56	0x3d2783ca	0.04089717
57	0xbcaa83cf	-0.020814804
58	0x3d115d28	0.03548923
59	0x3dc36f62	0.09542729
60	0x3de52ff4	0.11190787
61	0x3be76687	0.0070617828
62	0x3c2399b4	0.009985376
63	0x3d6bba53	0.05755074
64	0x3cfc53e4	0.03080172
65	0x3946f24a	0.00018973011
66	0x3cc7aa05	0.024373064
67	0x3d810dae	0.06301437
68	0xbda17eb8	-0.07885498
69	0x3d381b97	0.044948187
70	0x3abea6b6	0.0014545533
71	0xbc45f0a8	-0.012081303
72	0x3cb2426a	0.021760184
73	0x3d8b964e	0.06815778
74	0x3d9c966c	0.07645878
75	0x3d23eeda	0.04002271
76	0xbd192932	-0.037392803
77	0x3dc56449	0.096382685
78	0x3da669c4	0.08125642
79	0x3a86322f	0.0010238345
80	0x3cc01494	0.023447312
81	0xbd88d6cd	-0.06681595
82	0x3db3d50f	0.08780872
83	0xbc166f1e	-0.009181766
84	0x3dce1309	0.100622244
85	0xbd3a4509	-0.045475993
86	0x3c938503	0.01800776
87	0xbcfc785e	-0.030819114
88	0x3d16b49f	0.036793347
89	0x3da81fef	0.08209216
90	0x3d577fbc	0.05261205
91	0x3d7f8763	0.062384974
92	0x3d380bd1	0.044933144
93	0xbc79d84d	-0.015249324
94	0x3d3d0ce0	0.046154857
95	0x3da65958	0.0812251
96	0x3dc96389	0.09833438
97	0xbc3eaf18	-0.011638425
98	0x3df2f723	0.11863544
99	0x3b50f6d8	0.0031885412
100	0xbd70052b	-0.05859868
101	0x3d7ddee3	0.06198014
102	0x3dd4c5fc	0.10389325
103	0xbbc2cb81	-0.0059446697
104	0x3bc1c5c7	0.0059134695
105	0xbd0a15c2	-0.033712156
106	0xbc9cbf05	-0.019134054
107	0x3c4d2619	0.01252129
108	0x3d8fa3b5	0.070136465
109	0x3c0de29e	0.008659987
110	0x3dd5e865	0.10444716
111	0xbc82115e	-0.015877422
112	0x3d087354	0.03331311
113	0x3d927c82	0.07152654
114	0xbb003e47	-0.001956837
115	0xbd0f88f2	-0.03504271
116	0x3b223395	0.0024749984
117	0x3cfcbe62	0.0308525
118	0x3cbf7de2	0.023375455
119	0x3d9f9228	0.07791549
120	0xba36072b	-0.0006943817
121	0xbcdb0639	-0.026736366
122	0x3c6f4b4c	0.0146053545
123	0x3dd41603	0.10355761
124	0x3b9e8f00	0.0048388243
125	0x3d88e8d6	0.06685035
126	0xbcbcf5e8	-0.023066476
127	0xbd454d1b	-0.048169237
128	0x3b153888	0.002276929
129	0xbd631054	-0.055435494
130	0x3dd8a2c1	0.10577918
131	0x3d96b3b9	0.07358498
132	0x3dadcd76	0.08486454
133	0x3e05a1d7	0.13050018
134	0x3db71a4f	0.08940565
135	0x3ceeb3b4	0.029138424
136	0xbd5d2082	-0.05398608
137	0x3d6428cc	0.05570297
138	0xbd75349b	-0.05986462
139	0x3da7ac1b	0.081871234
140	0x3dd93b22	0.10606982
141	0xbc68ea87	-0.014216072
142	0x3d8721d8	0.06598252
143	0x3dc4fc21	0.09618402
144	0x3d5237f3	0.05132289
145	0x3d9b9427	0.07596617
146	0xbcf71b48	-0.030164376
147	0x3d8b71cc	0.068088144
148	0x3dd4185c	0.10356209
149	0x3ddb5c06	0.107109115
150	0x3df5d087	0.12002664
151	0xbd3b436b	-0.04571859
152	0x3d9c4275	0.07629863
153	0xbd84eda6	-0.0649064
154	0xbd2da053	-0.042389225
155	0x3d8cd173	0.06875887
156	0xbd691b72	-0.05691094
157	0xbd964638	-0.07337612
158	0x3ccc50ec	0.02494093
159	0x3c2743db	0.010209049
160	0x3db9eb59	0.09078092
161	0xbce41581	-0.027842285
162	0x3b262269	0.00253501
163	0x3d50bdd5	0.050962288
164	0xbcdf7935	-0.027279476
165	0xbbfa999e	-0.007647707
166	0x3bf926f1	0.007603519
167	0x3dddcc2e	0.1082996
168	0xbd098023	-0.033569466
169	0x3dd80219	0.10547275
170	0x3cda4bca	0.026647467
171	0x3c0011ee	0.007816775
172	0x3d597c57	0.053097095
173	0x3d537784	0.05162765
174	0xbcd8e2ab	-0.026475271
175	0x3d57331f	0.052538987
176	0xbcb1c30b	-0.021699449
177	0x3c47fc7f	0.012206196
178	0xbd660e88	-0.0561662
179	0xbd3854e2	-0.045002826
180	0xbd022c6d	-0.03178065
181	0x3d960941	0.07325984
182	0x3e210b24	0.15726906
183	0xbc62b13f	-0.013836204
184	0xbd927776	-0.071516916
185	0x3cb86145	0.02250732
186	0x3df39342	0.118933216
187	0x3d50a531	0.05093879
188	0x3e224042	0.15844825
189	0xbc7468c5	-0.014917557
190	0x3dc6b5c1	0.097026356
191	0x3c128b78	0.008944385
192	0xbbab4d52	-0.005227723
193	0x3d8e3e48	0.06945473
194	0x3d20528a	0.039141215
195	0x3dc03888	0.093857825
196	0x3d07da52	0.03316719
197	0x3d8f362a	0.06992753
198	0xbd1f78ad	-0.038933445
199	0x3db7b51a	0.08970089
200	0xbd681bf1	-0.056667272
201	0xbd445380	-0.047931194
202	0x3d6ba735	0.057532508
203	0xbc98233e	-0.018571492
204	0x3ddf8a4f	0.10915052
205	0xbca05e12	-0.019576106
206	0x3d84b15f	0.06479143
207	0xbd01d5c5	-0.031698007
208	0xba2eb240	-0.00066641346
209	0x3db866c3	0.09003975
210	0x3dc7a74d	0.09748707
211	0x3d25a802	0.040443428
212	0x3db566f5	0.08857528
213	0x3cc2c998	0.023777768
214	0x3de7c641	0.11317111
215	0x3df4e43a	0.11957593
216	0x3d696d03	0.056988727
217	0x3aeb3c71	0.001794709
218	0xbd2490b9	-0.04017708
219	0x3cf7897d	0.030216927
220	0x3dc1268b	0.094311796
221	0xbc278ca4	-0.010226402
222	0x3d8ccec2	0.068753734
223	0x3d499862	0.04921759
224	0x3dc777b8	0.097396314
225	0xbd13ec16	-0.03611382
226	0xbc7a05fa	-0.015260214
227	0x3de0142f	0.1094135
228	0x3c286abc	0.010279354
229	0xbc5379a9	-0.012907424
230	0x3db37d12	0.0876409
231	0x3a10de4f	0.00055262906
232	0x3d1d0bdf	0.0383414
233	0x3c9a09ee	0.018803563
234	0xbcd72bee	-0.026266064
235	0xb9ea39b4	-0.0004467495
236	0x3c0f92f4	0.008763064
237	0x3d40ddbb	0.04708646
238	0x3dd9888b	0.10621747
239	0x3d4f973b	0.050681334
240	0x3d2e1acf	0.042506035
241	0x3d1c880b	0.03821568
242	0x3e0b8f6c	0.1362893
243	0x3d80c31f	0.062872164
244	0xbd31e4da	-0.04343114
245	0xbd64da6f	-0.055872377
246	0x3da25065	0.0792549
247	0xbcb0db42	-0.021588925
248	0xbd027d26	-0.031857632
249	0x3a1c3e9a	0.0005960256
250	0xbc8da6c8	-0.017291442
251	0xbd8b2e9f	-0.06796002
252	0xbc268621	-0.010163815
253	0x3e1e1a80	0.15439796
254	0x3d3e9371	0.04652733
255	0xbd816b9e	-0.063193545

lstm.bias_hh_l0 f4 [512]
0	0xbc3a678f	-0.011377229
1	0x3d086ba2	0.03330577
2	0x3c90c201	0.017670633
3	0x3e01b4b7	0.12666593
4	0xbd04d1ae	-0.03242653
5	0x3deb2f7e	0.11483668
6	0xbd3fd134	-0.04683037
7	0x3d3f446c	0.04669611
8	0x3dc624dd	0.09675
9	0xbd877baa	-0.06615384
10	0x3d9a0c3b	0.07521864
11	0x3dc4f009	0.096160956
12	0xbd049074	-0.032364324
13	0x3d6f1a3b	0.058374625
14	0x3d2be1f8	0.041963547
15	0xbc539323	-0.012913498
16	0x3d8e28ab	0.069413505
17	0x3c0e2971	0.008676873
18	0xbc5d336d	-0.01350103
19	0x3cb0238d	0.021501327
20	0xbc828d71	-0.015936585
21	0x3db2712a	0.087129906
22	0x3cec3627	0.028834416
23	0xbb54467f	-0.0032390652
24	0x3d0b79de	0.03405177
25	0x3db04f59	0.08608884
26	0xbd43b667	-0.047781374
27	0x3de95f7a	0.11395164
28	0x3d186239	0.037203047
29	0x3c11d77b	0.008901472
30	0xbd186ae3	-0.03721131
31	0x3c2e97e6	0.010656333
32	0x3dcd3b58	0.100210845
33	0x3deee2b6	0.116643354
34	0x3e090e3f	0.1338434
35	0x3d80ffef	0.062988155
36	0xbc591430	-0.013249442
37	0x3dca1605	0.09867481
38	0x3c453ba1	0.012038142
39	0x3d67269f	0.056433316
40	0xbd18b2cb	-0.037279885
41	0x3ddfc0ab	0.109254204
42	0x3d7a8fd7	0.061172333
43	0x3dde9455	0.10868136
44	0xba9fc087	-0.0012188115
45	0xbcb31f85	-0.021865616
46	0x3c1d9eab	0.009620349
47	0x3dc6330d	0.09677706
48	0x3db7ade2	0.089687124
49	0x3dc905d1	0.098155625
50	0xbd5da1c7	-0.05410936
51	0xbc1ec0cf	-0.009689524
52	0x3ddba02c	0.1072391
53	0x3df8e5f1	0.12153233
54	0x3d9fbaa1	0.077992685
55	0xbcf07198	-0.02935104
56	0x3d483542	0.048878916
57	0x3d89df92	0.06732096
58	0x3d8fffed	0.07031236
59	0x3d4cb576	0.049977742
60	0x3b83fc0c	0.004027849
61	0x3c09c9b1	0.008409903
62	0x3d8bfbb1	0.06835116
63	0x3d40bf0a	0.04705719
64	0x3dbba798	0.09162825
65	0xbb1c4524	-0.0023844922
66	0xbd1da0a5	-0.03848328
67	0xbc6bb48b	-0.0143863065
68	0x3cfc7613	0.03081802
69	0x3d86ee77	0.06588452
70	0x3b3ddd22	0.0028970917
71	0x3d13ea9f	0.036112424
72	0xbd5a4a67	-0.05329361
73	0xbd139953	-0.036034893
74	0x3d87e1c5	0.06634859
75	0xbc401389	-0.011723408
76	0x3cacab2d	0.021077717
77	0x3db8cdc8	0.09023625
78	0xbd0f92f6	-0.035052262
79	0xbd226a50	-0.03965217
80	0xbaa4708b	-0.0012545747
81	0xbcfdb980	-0.030972242
82	0xbaa57e07	-0.001262606
83	0x3e007819	0.12545814
84	0xbc872bfa	-0.016500462
85	0xbb3d9534	-0.0028928043
86	0x3c6918c1	0.014227093
87	0x3d51d9d3	0.051233124
88	0xbd62ab90	-0.055339396
89	0xbc81840e	-0.015810039
90	0xbc178c5e	-0.009249775
91	0x3ddb2404	0.10700229
92	0x3d42f019	0.047592256
93	0xbb408913	-0.0029378578
94	0x3d8eb44f	0.06967985
95	0xbd897a5b	-0.067127906
96	0xbd157324	-0.03648676
97	0xbc7d8b43	-0.015475097
98	0x3d5ab930	0.053399265
99	0x3d55747c	0.05211304
100	0x3d10f79b	0.035392385
101	0x3c1a81b8	0.009430341
102	0x3dab98c5	0.08378748
103	0x3d5bbda7	0.053647663
104	0xbc84d181	-0.01621318
105	0x3d86b4ff	0.06577491
106	0xbd2cba78	-0.042170018
107	0x3c125d0b	0.008933316
108	0x3dcc86b1	0.09986628
109	0xbbcd74f8	-0.0062700473
110	0xbd1c5af6	-0.038172685
111	0xbc9b9102	-0.018990044
112	0x3d788a55	0.0606788
113	0x3c2e47c1	0.010637225
114	0x3d0cfd9f	0.03442156
115	0x3d6f1e2e	0.05837839
116	0x3c97a81a	0.018512774
117	0xbd870582	-0.065928474
118	0x3e031ca3	0.12803893
119	0x3ca8fe71	0.02062914
120	0x3ccf3a21	0.025296273
121	0x3d19ff16	0.037596785
122	0x3a701b47	0.0009159338
123	0xbd37668c	-0.04477553
124	0x3d315e8a	0.04330305
125	0x3de30e2a	0.11086686
126	0x3de186a3	0.11012008
127	0xbd45c139	-0.048279975
128	0xbd49a5b6	-0.0492303
129	0xbc9bb4c3	-0.019007092
130	0x3c8ed19c	0.017433934
131	0x3dc942b9	0.098271795
132	0x3dd46c90	0.10372269
133	0x3dd017a9	0.10160763
134	0x3d2a5097	0.041580763
135	0x3d4120e1	0.047150496
136	0x3c193661	0.009351344
137	0xbd10f0f2	-0.035386033
138	0x3b20f4a8	0.002455989
139	0x3d82174f	0.06352102
140	0x3d2b6dbe	0.041852705
141	0x3d993a6f	0.074818484
142	0xbb88b6f1	-0.004172199
143	0xbcd52538	-0.026018724
144	0xbd6d5e7f	-0.057951447
145	0xbd81b0cc	-0.063325495
146	0xbd11ea9b	-0.035624128
147	0x3da8ad68	0.082361996
148	0x3dd650db	0.10464641
149	0xbc7a04cc	-0.015259933
150	0x3b94ca37	0.0045407075
151	0x3d8f4495	0.06995503
152	0x3d09b205	0.03361704
153	0x3b820965	0.003968405
154	0x3d475c4d	0.04867201
155	0x3bc17b5d	0.0059045986
156	0x3db3d439	0.08780713
157	0xbd8c9d70	-0.06865966
158	0x3dcb69a1	0.099322565
159	0x3be69519	0.007036817
160	0x3d7a3c26	0.06109252
161	0xbcf47b35	-0.029843906
162	0x3d988fe4	0.0744932
163	0x3d2c7c08	0.042110473
164	0xbd2ec98b	-0.042672675
165	0x3c9bdb6b	0.019025525
166	0x3d32a504	0.043614402
167	0xbbb700e3	-0.0055848225
168	0x3d555f5b	0.05209289
169	0x3da879ac	0.08226332
170	0x3d1feaba	0.039042212
171	0x3d314fdc	0.04328905
172	0x3dc99441	0.0984273
173	0xbd5f6e2f	-0.05454844
174	0xbd33465f	-0.043768283
175	0x3d6b921f	0.0575124
176	0xbd5ebf86	-0.05438187
177	0x3e046a52	0.12931183
178	0xbc946530	-0.018114656
179	0xbc2f0343	-0.01068193
180	0xbc100c16	-0.008791944
181	0x3ddae8de	0.10688947
182	0x3e16973e	0.14706132
183	0x3c832e94	0.016013421
184	0x3da32ff4	0.07968131
185	0x3dac4e8f	0.08413421
186	0x3d40fbdb	0.047115188
187	0xbce15e39	-0.02751075
188	0x3d07638a	0.033053912
189	0x3d81e1c7	0.06341892
190	0x3d98aff8	0.074554384
191	0x3c915101	0.017738821
192	0x3d6fcd34	0.058545306
193	0x3cfb7f5b	0.030700376
194	0x3d86bd6c	0.06579098
195	0x3d9fae28	0.077968895
196	0xbcd2e2ed	-0.025742972
197	0xbc213e79	-0.009841555
198	0xbb30cafe	-0.0026976462
199	0x3cc0623b	0.02348434
200	0xbbd6bdfe	-0.0065534106
201	0x3a3c9bb1	0.00071948307
202	0xbccbf7df	-0.024898468
203	0x3dc6ef96	0.09713666
204	0xbc6cc6ca	-0.014451692
205	0x3c14f51a	0.00909164
206	0x3d2ccdd0	0.042188466
207	0xbc61aa31	-0.013773487
208	0x3d2faef8	0.042891473
209	0x3d871b78	0.06597036
210	0x3ade70a7	0.0016970829
211	0x3dc855a7	0.09781962
212	0xbd477e54	-0.04870446
213	0x3b93eb01	0.0045140986
214	0xbd2037b2	-0.039115615
215	0x3bdcef97	0.0067424285
216	0xbd8d5b2e	-0.06902157
217	0xbd538fad	-0.05165069
218	0xbc86cd22	-0.016455237
219	0xbbdd7734	-0.006758595
220	0x3d86f6bd	0.0659003
221	0x3d384e1c	0.044996366
222	0x3b433132	0.0029783961
223	0x3dddd35f	0.108313315
224	0x3e0727d2	0.13198784
225	0x3d80c155	0.06286875
226	0x3d2612f4	0.04054542
227	0xbd0884ff	-0.03332996
228	0x3dc0153a	0.09379049
229	0x3d2bca25	0.041940827
230	0x3ddda764	0.10822943
231	0x3d8335e2	0.06406762
232	0x3ccca66f	0.024981705
233	0x3dc6c95e	0.097063765
234	0x3d531dd7	0.05154213
235	0x3dc43e20	0.09582162
236	0xbc64930c	-0.013951074
237	0x3e03cca8	0.12871039
238	0xbc1ba050	-0.009498671
239	0xbb93e9d7	-0.00451396
240	0x3dd7a141	0.105288036
241	0x3ce5dd1a	0.028059531
242	0x3d15c058	0.036560386
243	0x3dc447e8	0.095840275
244	0x3d707fea	0.05871574
245	0x3d960738	0.073255956
246	0xbd03ebfe	-0.03220748
247	0xbd34229c	-0.04397832
248	0xbd4b8d7d	-0.04969548
249	0x3daa3d9d	0.08312533
250	0x3dab39c9	0.08360631
251	0xbd42b1f2	-0.047532983
252	0x3ba90846	0.005158457
253	0x3d0e39eb	0.034723204
254	0x3c2b40e9	0.0104524875
255	0xba13b29f	-0.00056342216

lstm.weight_ih_l1 f4 [512, 128]
0	0x3ddc9c17	0.10771959
1	0xbd1a64c9	-0.037693772
2	0x3da97bd1	0.08275569
3	0x3d19d390	0.037555277
4	0xbc3c4fe3	-0.011493656
5	0xbd820279	-0.06348128
6	0xbc3be2c8	-0.011467643
7	0x3db6e717	0.08930796
8	0xbd4aa7a9	-0.0494763
9	0x3dc6e05c	0.09710762
10	0x3cadce77	0.021216614
11	0xbd5dd6fe	-0.05416011
12	0x3d6c8c56	0.057751022
13	0xbde59db9	-0.11211724
14	0x3df185c1	0.1179309
15	0xbd9c42a9	-0.07629902
16	0xbce5eae7	-0.028066112
17	0x3d9e601a	0.07733174
18	0x3d71297d	0.058877457
19	0xbcd31618	-0.025767371
20	0xbd86e56d	-0.06586728
21	0x3d77c9dc	0.060495242
22	0x3cfff515	0.031244794
23	0xbd346ed1	-0.044050995
24	0xbde12108	-0.10992628
25	0xbc9d11f0	-0.019173592
26	0xbe0365db	-0.12831824
27	0x3bbea77a	0.0058183046
28	0xbdddd379	-0.10831351
29	0xbd763795	-0.0601116
30	0xbd80b7b2	-0.06285037
31	0xbd955981	-0.07292462
32	0x3cbe36c8	0.023219481
33	0xbc970e76	-0.018439513
34	0xbd865046	-0.0655828
35	0x3c92816d	0.01788398
36	0xbbb56c2d	-0.005536577
37	0xbcf612f0	-0.030038327
38	0x3d67db7a	0.056605794
39	0xbd906a50	-0.070515275
40	0x3d680528	0.056645542
41	0x3da6c61a	0.081432536
42	0x3d8abf17	0.06774729
43	0xbd0db563	-0.034596812
44	0x3cb8edc6	0.022574317
45	0xbd119ff3	-0.03555293
46	0x3d47d690	0.048788607
47	0xbda851c2	-0.08218719
48	0xbcfd1360	-0.030893028
49	0x3d7364c9	0.059422288
50	0xbca8f74e	-0.020625737
51	0xbd96e6d5	-0.073682465
52	0x3db7b959	0.08970899
53	0x3dad9b7b	0.08476921
54	0xbcc7ead3	-0.024403965
55	0x3ccba03e	0.024856683
56	0xbcf53035	-0.029930213
57	0x3d24eb65	0.040263552
58	0xbccf0e63	-0.025275415
59	0xbc8acdd8	-0.016943857
60	0xbd4e95c4	-0.050435796
61	0x3c713654	0.0147224255
62	0x3da1bec3	0.07897713
63	0x3d0eba32	0.03484554
64	0x3d470b85	0.04859497
65	0xbdfc1e58	-0.12310475
66	0xbd5f1d29	-0.05447117
67	0xbc86f1ae	-0.016472664
68	0xbca1d75a	-0.019756008
69	0xbdf4734d	-0.119360544
70	0xbb9f7ef0	-0.004867427
71	0xbcf80e9e	-0.030280408
72	0xbdc13dc1	-0.09435607
73	0x3c968905	0.018375883
74	0xbe04e6ed	-0.12978716
75	0x3c366b9b	0.011134054
76	0xbd54c0c9	-0.051941667
77	0x3dd9113e	0.10598992
78	0x3a7aac90	0.0009562457
79	0xbd955eef	-0.07293498
80	0x3d300757	0.04297575
81	0x3dcb33ea	0.09922011
82	0x3c71b58c	0.014752757
83	0x3d96b96b	0.073595844
84	0x3d30c486	0.04315617
85	0x3c6f6710	0.014611974
86	0xbd003307	-0.031298663
87	0xbdcccea9	-0.10000355
88	0x3dae3e11	0.08507932
89	0xbd93d5dc	-0.07218525
90	0x3c5d4ebe	0.013507543
91	0xbcd86bca	-0.026418585
92	0x3cffa64c	0.031207226
93	0xbd61ea37	-0.055155005
94	0xbdf0ff95	-0.117674984
95	0xbd869c6f	-0.06572806
96	0xbd833eb2	-0.064084426
97	0x3c28fc2d	0.01031403
98	0x3c7a3acb	0.015272806
99	0x3d043f20	0.032286763
100	0x3d9663cf	0.07343256
101	0x3b139141	0.0022516998
102	0x3ccb174a	0.024791379
103	0x3da5e943	0.08101132
104	0xbd200a2b	-0.039072197
105	0x3d4272a0	0.047472596
106	0xbc456e0f	-0.012050166
107	0x3d0b711e	0.034043424
108	0xbdba5c24	-0.09099606
109	0x3d894bb8	0.06703895
110	0x3bcad61d	0.006190075
111	0x3d9ff715	0.07810799
112	0x3d9bb4d7	0.07602852
113	0x3e23ae01	0.15984346
114	0xbbd19bab	-0.006396731
115	0x3d43ab89	0.04777101
116	0xbd837d20	-0.0642035
117	0xbdad3532	-0.08457412
118	0x3d50f8d4	0.05101855
119	0x3c941977	0.018078549
120	0x3e118e7e	0.14214513
121	0x3c5d2873	0.013498413
122	0xbc9da60d	-0.019244218
123	0xbdb368b0	-0.08760202
124	0xbbcd9183	-0.00627345
125	0xbd3ed7f5	-0.04659267
126	0xbd39de29	-0.045377884
127	0x3c773417	0.015088103
128	0x3c8a8d01	0.016912939
129	0x3dde4e7e	0.10854815
130	0x3d19c9ba	0.037545897
131	0x3d82f1f3	0.063938044
132	0xbc4eb204	-0.012615684
133	0xbde1579c	-0.11003038
134	0xbda9628e	-0.08270751
135	0xbcf9a1d2	-0.03047267
136	0xbcdd4080	-0.027008295
137	0xbd2207de	-0.039558284
138	0xbb01e9fa	-0.0019823299
139	0xbd903d76	-0.07042973
140	0x3d7c2578	0.06155917
141	0xbd65126a	-0.055925764
142	0xbddd137b	-0.10794731
143	0xbce5b679	-0.028041111
144	0xbbcf4942	-0.0063258717
145	0xbd8b9755	-0.06815974
146	0xbdc65e67	-0.096859746
147	0xbded4f1c	-0.115873545
148	0xbd38310e	-0.044968657
149	0x3dd36a88	0.103230536
150	0xbd9cbdbf	-0.07653379
151	0xbd2feb04	-0.042948738
152	0x3d595ca0	0.05306685
153	0xbd2ceb63	-0.04221667
154	0xbd24811b	-0.040162187
155	0x3d810042	0.06298877
156	0x3cc1a26e	0.023637023
157	0x3d94c2e1	0.07263733
158	0xbdcffcd6	-0.101556465
159	0x3c377318	0.011196874
160	0x3dfb2680	0.12263203
161	0xbd95d897	-0.07316702
162	0xbdeb430e	-0.11487399
163	0x3d2e3ff2	0.04254145
164	0xbdb7a872	-0.08967675
165	0xbbbc4f3b	-0.0057467497
166	0x3d3b3193	0.045701575
167	0xbe1adf25	-0.15124185
168	0x3d8b4758	0.06800717
169	0xbc83fd78	-0.016112074
170	0xbdcc2d49	-0.09969575
171	0x3c90bad4	0.017667212
172	0x3d373631	0.044729415
173	0x3d9dad03	0.07699015
174	0x3d9a25f1	0.07526768
175	0x3db1d716	0.086836025
176	0xbda8f2a4	-0.08249405
177	0xbdc74d5e	-0.097315535
178	0x3d30b1b0	0.043138206
179	0x3dd01bfe	0.10161589
180	0xbba6c0a9	-0.005088885
181	0x3c604bc0	0.013689935
182	0xbd47acb8	-0.0487487
183	0xbd43391f	-0.047661897
184	0xbe11e8f2	-0.14249018
185	0x3c19947e	0.009373782
186	0xbd421dbf	-0.04739165
187	0x3db62a37	0.088947706
188	0xbdb658fa	-0.0890369
189	0x39a25ee1	0.00030969738
190	0x3dab450a	0.083627775
191	0xbb8d2180	-0.004306972
192	0x3d36fe55	0.044676144
193	0x3d844f92	0.06460489
194	0x3cd5704a	0.02605452
195	0x3cbff584	0.0234325
196	0xbdb60bf2	-0.08888997
197	0xbd0f5fbc	-0.03500341
198	0xbc7a539b	-0.015278722
199	0xbd74dab6	-0.05977889
200	0xbda76759	-0.08174009
201	0xbda67504	-0.08127788
202	0x3bc60d0c	0.006044036
203	0xbdc3a3ea	-0.095527485
204	0x3c847719	0.016170071
205	0x3d65b410	0.056079924
206	0xbdd6c596	-0.10486905
207	0xbd678a88	-0.056528598
208	0x3c84a207	0.016190542
209	0xbc9aa8f1	-0.018879386
210	0x3cbcb6af	0.02303633
211	0xbd86e66d	-0.06586919
212	0xbd61d951	-0.05513889
213	0x3da6d517	0.081461124
214	0x3d4d3fed	0.050109793
215	0x3d363619	0.044485185
216	0xbd3be695	-0.045874197
217	0x3dc6c21b	0.097049914
218	0x3b7ac190	0.0038262345
219	0x3d0882e7	0.033327963
220	0x3ac7e682	0.0015251192
221	0xbc8b3093	-0.016990935
222	0xbb2b3c1f	-0.0026128364
223	0x3d11b0ca	0.03556899
224	0x3ce40427	0.027834011
225	0x3d2e64eb	0.04257671
226	0xbd00bcc8	-0.031430036
227	0xbd297ca7	-0.041378643
228	0x3c0474d9	0.008084499
229	0xbe076bd5	-0.13224728
230	0x3d028ee0	0.031874537
231	0xbdbad646	-0.09122901
232	0xbc7fc0b8	-0.015609913
233	0x3d1e8909	0.038704906
234	0xbd6a19a2	-0.05715335
235	0x3d5020b0	0.050812423
236	0x3bba18f4	0.005679244
237	0xbd7a0c17	-0.061046686
238	0x3d07df0b	0.033171695
239	0x3d1cd562	0.038289435
240	0x3d6c5029	0.057693634
241	0x3d99d26e	0.075108394
242	0x3db05dfe	0.086116776
243	0xbd7a692e	-0.061135463
244	0x3bc8c4b6	0.0061269654
245	0xbd0abdab	-0.033872288
246	0xbd18a3f9	-0.03726575
247	0x3c1e56cf	0.0096642515
248	0x3da26d8f	0.07931053
249	0x3d62f3a2	0.055408128
250	0x39aa1e02	0.00032447284
251	0x3cb2d3bd	0.02182948
252	0x3c088158	0.008331619
253	0x3d422474	0.047398046
254	0xbc37c2bf	-0.011215865
255	0xbcd21955	-0.025646845

lstm.weight_hh_l1 f4 [512, 128]
0	0xbd2b6c43	-0.041851293
1	0x3d204fd2	0.039138623
2	0x3cc5f419	0.024164246
3	0x3d10dd44	0.035367265
4	0xbc6ccb32	-0.014452742
5	0xbdaa1765	-0.083052434
6	0xbb087f17	-0.0020827705
7	0xbd07cb49	-0.033152852
8	0xbd6da608	-0.058019668
9	0xbd9567cb	-0.072951876
10	0x3dcdf99b	0.10057374
11	0x3db7f794	0.08982769
12	0x3d440906	0.047860168
13	0x3dab95c7	0.08378177
14	0x3da609b0	0.081073165
15	0x3d465fed	0.048431326
16	0xbd7bb33a	-0.06145022
17	0x3d58a59d	0.052892316
18	0x3d8b99aa	0.068164185
19	0x3a67c3fb	0.0008841154
20	0x3d1cd532	0.038289256
21	0xb967e00c	-0.0002211334
22	0xbdd539e1	-0.1041143
23	0x3d8a221d	0.06744788
24	0xbd415085	-0.04719593
25	0x3dc8a7f3	0.09797659
26	0x3cd0c5dd	0.025484974
27	0x3db574a8	0.08860141
28	0x3ceea71e	0.029132422
29	0x3c022558	0.007943474
30	0x3c862926	0.016377043
31	0x3d3ad2e4	0.045611277
32	0xbca1a633	-0.01973257
33	0x3d171257	0.036882725
34	0xbd6f5400	-0.058429718
35	0x3ceed0ec	0.029152356
36	0x3a0e2cbf	0.0005423538
37	0x3dd1d66d	0.102459766
38	0xbc53fba2	-0.012938412
39	0x3d8d85a3	0.06910255
40	0xbdc7ba24	-0.097523004
41	0xbdab6bd9	-0.0837018
42	0x3d45a7ab	0.048255604
43	0x3d8a8050	0.06762755
44	0xbc3a4a74	-0.01137029
45	0xbd3255a6	-0.043538712
46	0xbcd7427e	-0.026276823
47	0xbd782d54	-0.060590103
48	0xbdb84090	-0.08996689
49	0xbdab6a3f	-0.08369874
50	0xbdf52834	-0.11970559
51	0xbdc29639	-0.09501309
52	0xbc450c6c	-0.012026887
53	0xbb9efa57	-0.00485162
54	0xbd481575	-0.048848588
55	0x3cda35d8	0.026637003
56	0xbd3304c0	-0.0437057
57	0x3baa321a	0.005193961
58	0xbc82e4bd	-0.015978212
59	0xbd9e1eb1	-0.07720698
60	0xbd814edc	-0.06313869
61	0xbcc02175	-0.023453454
62	0x3d70f678	0.0588288
63	0xbdb9dc02	-0.09075166
64	0xbda4c0a0	-0.08044553
65	0x3c8ab2d3	0.016930973
66	0x3a6daeff	0.0009066909
67	0xbcde859c	-0.02716332
68	0xbd092e09	-0.03349117
69	0x3d944d0a	0.072412565
70	0xbd6fee60	-0.05857694
71	0xbd1b0d8c	-0.037854716
72	0xbdc1f5b5	-0.09470693
73	0xbda103af	-0.07862031
74	0xbc48e6b8	-0.012262039
75	0x3da03124	0.07821873
76	0xbd5df9ae	-0.05419319
77	0xbdeb3fde	-0.11486791
78	0x3cc4b28d	0.02401092
79	0xbcefbd4f	-0.029265074
80	0x3cc26fac	0.02373489
81	0xbd8e6dcf	-0.06954538
82	0xbc88e9f5	-0.016713122
83	0xbd859d99	-0.065242
84	0xbdd085f8	-0.101818025
85	0x3cd97259	0.026543783
86	0x3d9e6ca6	0.07735567
87	0xbd50cd02	-0.05097676
88	0xbc67d2b8	-0.01414936
89	0x3cab9ae8	0.020947888
90	0x3d22b0d0	0.039719403
91	0x3db22289	0.08697993
92	0x3d3c3a70	0.045954168
93	0x3c6294d5	0.01382943
94	0xbd8c2441	-0.068428524
95	0xbc9699b3	-0.018383836
96	0x3d849921	0.064745195
97	0x3d910816	0.070816204
98	0xbcfc0f2a	-0.03076895
99	0x3ddcbce6	0.10778217
100	0x3ddb0e42	0.10696079
101	0x3ccf7924	0.025326319
102	0x3ca2f4bf	0.019892095
103	0x3df46f1b	0.11935254
104	0xbd12cc40	-0.03583932
105	0x3dad5be2	0.08464791
106	0x3dbde7f2	0.09272756
107	0xbd221cbc	-0.039578184
108	0x3de22400	0.11042023
109	0xbda5cff1	-0.08096302
110	0x3d8b548c	0.068032354
111	0x3db5e198	0.08880919
112	0x3daa16b5	0.08305112
113	0x3d1da672	0.038488813
114	0xbc806a33	-0.01567564
115	0xbd11d97d	-0.035607804
116	0x3dd32fd5	0.103118576
117	0x3c46f532	0.01214342
118	0x3d8903ec	0.06690201
119	0x3c8e1f1f	0.017348824
120	0x3b95f383	0.004576148
121	0xbd351f5d	-0.044219363
122	0xbc6a50ca	-0.014301488
123	0x3d09e1c3	0.03366257
124	0x3d17282f	0.036903556
125	0xbccbb4ac	-0.024866425
126	0x3b056ffc	0.0020360937
127	0xbc922068	-0.017837718
128	0x3d20fb2f	0.039302047
129	0xbd0d2df4	-0.034467652
130	0x3c5b7125	0.013393675
131	0x3d9a3efe	0.07531546
132	0x3ced9c55	0.029005209
133	0x3d82d114	0.06387535
134	0xbd73964f	-0.059469517
135	0x3c871539	0.016489612
136	0xbd02825b	-0.031862598
137	0x3d2322a6	0.039827965
138	0x3d49ddfb	0.049283963
139	0x3dbacf00	0.09121513
140	0xbce7738e	-0.028253343
141	0xbd76dfa8	-0.06027189
142	0xbdb84d21	-0.08999086
143	0x3bc13e22	0.0058972994
144	0xbce880a2	-0.02838165
145	0x3c458bbf	0.012057244
146	0x3ddfcb33	0.10927429
147	0x3d9256ae	0.07145439
148	0x3d8bcdda	0.068263724
149	0x3d92bca0	0.071648836
150	0x3db2a251	0.08722366
151	0xbdc9727a	-0.09836288
152	0xbd2f41b9	-0.042787287
153	0x3d1f9729	0.038962517
154	0xbca9c40d	-0.020723367
155	0x3d9b76d0	0.07591021
156	0x3d7eb3c1	0.062183145
157	0x3dbc0e45	0.09182409
158	0x3caa054d	0.02075448
159	0x3d2e5514	0.042561606
160	0xbd7bb0ba	-0.061447836
161	0x3dadb53c	0.08481833
162	0xbd7572fc	-0.05992411
163	0xbc1a2c1a	-0.009409929
164	0x3c649724	0.01395205
165	0x3d419703	0.047263157
166	0x3cfd66ea	0.030932862
167	0x3d041424	0.03224577
168	0x3d453d8a	0.04815439
169	0x3c81c2bc	0.015839927
170	0xbcbc80fb	-0.023010721
171	0x3cfcd855	0.030864874
172	0xbcb41a94	-0.02198533
173	0x3de93026	0.11386137
174	0x3cdea638	0.027178869
175	0xbddbbcaa	-0.10729344
176	0x3ba3a804	0.0049943943
177	0x3a298b66	0.00064676104
178	0xbde050f5	-0.10952941
179	0x3c986ae7	0.018605663
180	0x3dbac7f8	0.09120172
181	0x3d2f59b0	0.042810142
182	0xbdecf1da	-0.11569567
183	0x3c8c35a8	0.017115429
184	0xbcbd908e	-0.023140218
185	0xbc81f65a	-0.01586454
186	0x3d6606b6	0.056158744
187	0x3d90b002	0.07064821
188	0xbd784354	-0.060611084
189	0xbce9ffd0	-0.028564364
190	0xbd91a0c4	-0.07110742
191	0xbb7bb00e	-0.0038404497
192	0xbc2f1141	-0.010685266
193	0xbd4ca527	-0.04996219
194	0xbd58aa7f	-0.052896973
195	0xbdb3e9a4	-0.08784798
196	0xbc989fab	-0.018630823
197	0xbb5e7484	-0.003394396
198	0x3d667401	0.056262974
199	0xbb26d117	-0.0025454217
200	0xbd6815b7	-0.056661334
201	0x3d8e512e	0.069490775
202	0x3cfd8827	0.030948712
203	0x3c688c27	0.014193571
204	0x3d42a1c2	0.047517546
205	0xbddcb735	-0.107771315
206	0x3b230c45	0.002487914
207	0x3c2cfb35	0.010557939
208	0xbd86811e	-0.06567596
209	0x3c0aaba4	0.008463774
210	0x3cbbb8a4	0.022915192
211	0x3c8349ab	0.016026339
212	0xbd58a2ee	-0.052889757
213	0x3d81736f	0.06320845
214	0x3d362434	0.04446812
215	0x3def54c5	0.116860904
216	0xbd91ccc9	-0.07119138
217	0x3d79cbaa	0.060985245
218	0x3c95b602	0.018275265
219	0xbca62856	-0.020282906
220	0x3d0e9176	0.03480669
221	0xbcba2bb1	-0.022725912
222	0x3c246250	0.010033205
223	0x3d2437c5	0.04009225
224	0x3dc633b9	0.09677834
225	0xbd95301f	-0.07284569
226	0xbd3e025a	-0.04638896
227	0xbda37c28	-0.07982665
228	0x3d012dd9	0.031537864
229	0x3d8ebf04	0.06970027
230	0xbcf8baea	-0.030362565
231	0xbd3c293d	-0.045937765
232	0xbd5654d4	-0.052326992
233	0x3d6cac02	0.057781227
234	0x3c9300ef	0.017944781
235	0xbda56fa8	-0.08077937
236	0x3dcc4a37	0.09975093
237	0xbd9487ca	-0.07252462
238	0xbd4dea34	-0.05027218
239	0xbda5dcb7	-0.08098739
240	0x3b01d819	0.0019812642
241	0xbd05aae8	-0.032633692
242	0x3d6c64c2	0.057713278
243	0x3b98be36	0.004661347
244	0x3d96c622	0.073620096
245	0xbe0cc02f	-0.13745187
246	0x3ca81cee	0.020521607
247	0x3cf42289	0.029801624
248	0x3d830ed8	0.063993156
249	0x3bbf4c2f	0.005837939
250	0x3d35afe5	0.0443572
251	0x3d6656be	0.056235068
252	0x3d9a2325	0.075262345
253	0x3d0aa9d4	0.033853367
254	0x3d7471a0	0.059678674
255	0xbdb7910d	-0.08963213

lstm.bias_ih_l1 f4 [512]
0	0xbd75d54a	-0.06001786
1	0xbcd9fcbb	-0.02660977
2	0xbda455a8	-0.0802415
3	0xbd8bd319	-0.06827373
4	0xbc46d7b5	-0.0121363895
5	0x3d8040cc	0.06262359
6	0x3d6ab799	0.057304
7	0xbc4d90de	-0.012546746
8	0x3de33436	0.11093943
9	0xbd7b61e0	-0.061372638
10	0xbd10e84a	-0.035377778
11	0xbd71f20f	-0.059068736
12	0x3cc9a7f1	0.024616214
13	0x3c904eb8	0.017615661
14	0xbd87c7c2	-0.06629898
15	0xbd399cd6	-0.045315586
16	0x392df7c8	0.00016590871
17	0x3c3ddb13	0.011587876
18	0x3c1a5574	0.009419788
19	0x3d08b46a	0.03337518
20	0xbd15a5ec	-0.03653519
21	0xbd839434	-0.06424752
22	0x3c672d68	0.014109947
23	0xbd844d76	-0.06460087
24	0x3d980618	0.07423037
25	0x3d51a934	0.051186755
26	0xbca3d98c	-0.020001195
27	0x3d7a9bf3	0.06118388
28	0xbd955a3b	-0.07292601
29	0x3bddb0af	0.006765447
30	0x3d2be12b	0.041962784
31	0xbd3701df	-0.04467952
32	0x3d473e64	0.048643485
33	0x3d0a5958	0.03377661
34	0xbc6404b2	-0.013917135
35	0xbd5c86df	-0.05383956
36	0x3b25b4bf	0.0025284735
37	0x3d6be949	0.057595525
38	0x3d43a538	0.047764987
39	0xbd5bff99	-0.053710554
40	0x3d3018db	0.042992454
41	0x3d85a882	0.06526281
42	0xbd24b5e3	-0.040212523
43	0x3da82623	0.08210399
44	0x3d86fd85	0.06591324
45	0xbd903ab5	-0.070424475
46	0xbcbd880e	-0.023136165
47	0x3ceb42a9	0.02871831
48	0xbd84aac2	-0.06477882
49	0x3dc3eded	0.09566865
50	0x3cb4ff53	0.022094404
51	0xbd28917e	-0.041154377
52	0xbd3b5524	-0.045735493
53	0xbd42a004	-0.047515884
54	0x3cc46db0	0.023978084
55	0xbc9ff009	-0.019523637
56	0x3d9b1cda	0.075738624
57	0x3c79350e	0.015210403
58	0xbbaf102a	-0.005342503
59	0x3d97f199	0.07419128
60	0xbb1f6d1c	-0.002432651
61	0xbd21168f	-0.039328154
62	0xbc9ea194	-0.019364156
63	0x3d64f5bf	0.055898424
64	0x3d603d9e	0.054746263
65	0x3baa0429	0.005188484
66	0x3cd2842d	0.025697792
67	0xbd6f4115	-0.058411676
68	0xbd07e9a7	-0.033181813
69	0xbd9bd9a5	-0.07609872
70	0x3d70a983	0.05875541
71	0xbd33d821	-0.04390729
72	0xbd23e812	-0.04001624
73	0xbd441127	-0.04786792
74	0xbc429498	-0.011876248
75	0x3da99506	0.08280377
76	0x3d4ea779	0.050452683
77	0x3ccfddd0	0.025374323
78	0x3bac66ed	0.005261293
79	0x3d149c4e	0.036281876
80	0x3d0e695d	0.03476845
81	0x3c6e42ab	0.014542262
82	0x3b87cc6d	0.0041442425
83	0xbd46242c	-0.04837434
84	0xbcc57812	-0.024105106
85	0x3da551b1	0.08072222
86	0x3aca494d	0.0015433222
87	0x3d6b2750	0.05741054
88	0x3d5758e3	0.052575003
89	0x3c603bb4	0.013686109
90	0x3dca00bc	0.09863421
91	0xbd5ec107	-0.054383304
92	0x3d50f11e	0.051011197
93	0xbb299b9e	-0.0025880109
94	0x3d941ce2	0.072320715
95	0x3d9bf306	0.076147124
96	0xbc29f664	-0.0103736855
97	0x3cbbffc7	0.022949113
98	0xbd73552b	-0.059407394
99	0x3cb5afe4	0.022178598
100	0xbb9d1d16	-0.004794727
101	0xbd2f42db	-0.042788368
102	0x3cf3d2d7	0.029763622
103	0xbcbfeedf	-0.023429332
104	0x3b7a8b11	0.0038229863
105	0x3c84ad45	0.016195903
106	0xbd8107c6	-0.06300311
107	0xbd1ca382	-0.03824187
108	0x3d3ec06f	0.046570238
109	0xbb64e4ca	-0.0034926408
110	0x3d0796e9	0.033102904
111	0xbd0c9b82	-0.03432799
112	0xbd9e1287	-0.077183776
113	0x3d5a2f5c	0.05326782
114	0xbd3a198b	-0.045434516
115	0x3d05464d	0.032537747
116	0xbd12786b	-0.03575937
117	0xbc16f5e2	-0.0092138965
118	0x3c3c6d5d	0.011500684
119	0x3c00b0e8	0.007854678
120	0x3c0c030a	0.008545646
121	0x3ca83e39	0.020537483
122	0xbbbc4057	-0.0057449746
123	0xbd7ef4f7	-0.062245335
124	0xbc69b309	-0.014263877
125	0x3d3e65a9	0.04648367
126	0x3c699f4f	0.014259174
127	0x3d79c3c8	0.060977727
128	0xbd951f89	-0.072814055
129	0x3c5e52bd	0.013569531
130	0xbd5d07cd	-0.053962518
131	0xbc41448f	-0.011796131
132	0xbd4132ec	-0.047167704
133	0x3d252a1f	0.040323373
134	0xbca4f002	-0.020133976
135	0x3d340770	0.043952405
136	0xbc815a41	-0.015790107
137	0x3c1c5ab7	0.0095431125
138	0x3ad2a59f	0.0016071087
139	0x3d9aa1c2	0.07550384
140	0xbd7dff1b	-0.062010866
141	0xbcbece9e	-0.023291882
142	0xbd995a77	-0.07487958
143	0x3bd89856	0.0066099567
144	0xbd6bca4b	-0.05756597
145	0x3d7164dd	0.05893408
146	0x3bc38331	0.005966567
147	0x3d9f1f3d	0.0776963
148	0xbd40aa20	-0.047037244
149	0x3c8a7389	0.016900795
150	0x3d95de98	0.07317847
151	0x3d8c5b74	0.06853381
152	0x3ded754e	0.1159464
153	0xbd31396c	-0.043267652
154	0x3cc155e5	0.023600528
155	0xbd450237	-0.048097815
156	0x3d2fe88e	0.04294639
157	0x3d65760b	0.056020778
158	0x3dba717a	0.09103675
159	0x3ceb9d9c	0.028761677
160	0x3d32d55b	0.043660503
161	0x3d82468b	0.06361111
162	0x3d1756fd	0.036948193
163	0x3d3ae58a	0.04562906
164	0xbb91d030	-0.0044498667
165	0x3d89e7de	0.06733678
166	0xbd92278d	-0.0713645
167	0xbbed90d1	-0.0072499295
168	0xbd75af46	-0.059981607
169	0x3d7a9869	0.061180506
170	0xbd65b241	-0.0560782
171	0x3d8b6fde	0.06808446
172	0xbd06ac82	-0.03287936
173	0x3d69373e	0.05693745
174	0xbb7a3d9f	-0.0038183702
175	0xbccb2fe5	-0.024803111
176	0xbcb0ced5	-0.021583
177	0xbc9a55e3	-0.018839782
178	0xbbfd219d	-0.0077249543
179	0xbc8e9028	-0.017402723
180	0xba09307d	-0.00052333606
181	0x3d7b3683	0.061331283
182	0x3bfdfe24	0.007751243
183	0x3d4002a9	0.046877537
184	0x3dd70623	0.10499217
185	0xbca42b9e	-0.02004033
186	0x3bdce6f7	0.0067414003
187	0x3dbb11c9	0.091342516
188	0xbbc3b12b	-0.005972048
189	0x3d771547	0.060323026
190	0xbd9582f5	-0.07300369
191	0xbd40904a	-0.047012605
192	0x3c2b1c9d	0.010443834
193	0x3dc45105	0.09585766
194	0x3da9c078	0.082886636
195	0x3d78ba5d	0.060724605
196	0xbcc02924	-0.023457117
197	0xbd7426d7	-0.059607353
198	0x3c8d140b	0.017221471
199	0xbd3b3538	-0.04570505
200	0xbd108b23	-0.03528894
201	0x3d67d472	0.056599088
202	0x3dcccec5	0.10000376
203	0xbc5b5960	-0.013388008
204	0x3d3a2349	0.045443807
205	0x3d9fac9b	0.07796594
206	0xbd7f1782	-0.06227828
207	0x3c53562f	0.012898966
208	0xbd9a0f07	-0.075223975
209	0x3d8838b7	0.066514425
210	0x3bca2c73	0.0061698495
211	0x3c15b5a7	0.009137548
212	0x3dc4ed65	0.09615592
213	0x3d3a81dc	0.045534
214	0xbcff3798	-0.031154439
215	0x3d1fdc79	0.03902862
216	0xbcd55eae	-0.026046123
217	0xbd7c3dc9	-0.06158236
218	0x3d6f0849	0.05835751
219	0x3d29cce1	0.041455153
220	0xbc3f2af2	-0.011667954
221	0x3bd659e9	0.00654148
222	0xbd21d424	-0.039508954
223	0x3c81fb98	0.01586704
224	0xbd01fb0d	-0.03173356
225	0xbcd61a70	-0.026135653
226	0x3cc62b3a	0.024190534
227	0x3d713a65	0.05889358
228	0xbcf479a6	-0.029843163
229	0xbd2906b6	-0.041266166
230	0xbd3726a4	-0.044714585
231	0xbd95cd30	-0.07314527
232	0xbd1d61c1	-0.038423304
233	0x3c221bf2	0.009894358
234	0xbd3ecdf6	-0.04658314
235	0x3d571458	0.052509636
236	0x3dbdcabf	0.092671864
237	0xbd65af30	-0.056075275
238	0x3dc2537a	0.09488578
239	0xbca9561d	-0.020670945
240	0x3cf0b609	0.029383676
241	0x3d8a507b	0.06753632
242	0x3d992452	0.07477631
243	0xbd1013a2	-0.035174973
244	0xbd8f5e5a	-0.07000418
245	0xbd8d06f2	-0.0688609
246	0xbd812abf	-0.06306981
247	0x3d3e3920	0.046441197
248	0x3d3aefac	0.045638725
249	0xbd844602	-0.064586654
250	0x3d19f126	0.037583493
251	0xbc7e1253	-0.0155072985
252	0x3c523c01	0.012831689
253	0xbd8bfafb	-0.0683498
254	0x3db0b164	0.086275846
255	0xbd9bfcbd	-0.076165654
