Data/PredictionsData/AB11.pth (torch, 828430 bytes, 10 tensors)

lstm.weight_ih_l0 f4 [512, 13]
-0.07823534 -0.013979004 0.039915062 0.10728055 0.047970966 0.04558 0.06715917 0.09977776
-0.094306685 0.06168239 -0.06990498 -0.00026625698 0.09017004 0.15320958 0.07954088 0.11290261
0.03725535 0.066447675 0.04017638 -0.042256773 0.007111925 -0.10522638 0.07413629 -0.05693711
-0.03336708 -0.019850934 0.10909227 0.019977394 0.09522132 -0.05789921 -0.0888392 0.08589426
-0.13152045 0.0018937957 -0.019315932 -0.055592373 -0.023245843 0.050481178 0.05189558 0.08830032
-0.019354582 0.0058714147 -0.05265597 -0.040548395 -0.09621611 0.025061727 0.12468619 -0.064796455
-0.020744383 -0.12682351 0.03368095 0.11667507 0.007233445 -0.0975313 0.009868899 -0.04524462
0.10199807 -0.056803558 0.013319839 -0.1739041 0.06383868 0.05778387 -0.046467498 0.036605857
0.01957055 -0.034052677 -0.06155125 -0.05653144 -0.029126199 -0.078977056 0.040765338 -0.024119759
0.12523045 0.02035271 0.0129073365 -0.038877852 -0.06288556 -0.014347282 -0.014220584 -0.034192607
0.03406386 -0.023799656 0.0031972805 -0.0944131 -0.02164781 0.0022204297 0.022583708 0.066504
-0.06061945 -0.01831453 0.017183214 0.06331842 -0.11437026 -0.04711787 0.11129297 -0.026821053
-0.024681263 0.02029403 0.025118312 0.079737 -0.10140343 -0.10354113 0.0038516135 0.016009511
-0.037342235 0.0073984447 0.04714115 -0.026003717 0.079670414 -0.008059825 0.010296456 0.06690818
-0.12044521 0.103298515 -0.016423399 -0.085068546 0.09565344 -0.06952657 -0.06472563 0.068264864
-0.03911938 -0.18343987 -0.03422469 -0.112743996 -0.028166693 -0.029938398 0.121815376 -0.07185818
0.043087795 0.005073788 -0.09114195 -0.034036204 0.11138654 -0.035176113 -0.026548833 0.022972453
0.09699903 0.034019087 0.0006160408 0.12057983 0.009251152 -0.046217404 0.03245571 0.008640824
-0.009411484 -0.07460195 0.042122062 -0.045616288 0.027134135 -0.09560848 -0.044058736 0.04948115
0.07912037 0.08557057 0.027711492 0.09751812 0.09198134 0.002273725 0.057231817 0.037117153
-0.0932791 0.07421962 0.06687135 0.062438723 -0.026961077 0.047080237 -0.011391941 -0.0070659034
-0.076953836 -0.030897358 0.007013345 0.017740754 0.011439355 0.034022506 -0.024824861 -0.035682987
-0.09064286 0.0027296552 -0.030692274 -0.04670211 0.08819061 -0.05766047 0.002417152 -0.05115198
-0.08327717 0.044819415 -0.06466576 0.026102373 -0.0338758 -0.018394126 -0.04606818 -0.015993293
-0.029090974 0.06136289 -0.015151154 -0.049254987 -0.056801092 -0.09662522 0.036424328 0.107932724
0.031236261 0.021538854 0.044849698 -0.06952016 0.034411475 -0.06382036 -0.024654174 0.022695778
0.046940215 -0.12213774 -0.008026504 -0.04309474 -0.011338783 -0.11570784 0.015259216 -0.0019391167
-0.07462857 -0.029451864 -0.019485805 0.06125066 0.08848472 0.027506921 0.094424 -0.046045035
0.0767197 0.06673487 -0.09403692 0.08341138 0.093624786 0.03708674 -0.04050734 0.057298906
0.041446015 -0.03759287 -0.069208585 -0.07863087 0.059404794 -0.0009201229 -0.05664389 -0.04887526
0.10891812 -0.0144375255 0.12072917 0.016310535 -0.038853265 0.09903416 -0.07428408 -0.08579517
-0.016553048 0.030008916 -0.096800685 0.01873172 0.015074129 -0.049665593 0.027331842 -0.00978914
00000000: da39 a0bd 3108 65bc fa7d 233d e8b5 db3d
00000010: 347d 443d 18b2 3a3d bf8a 893d 4858 cc3d
00000020: dd23 c1bd aca6 7c3d 582a 8fbd 6898 8bb9
00000030: 12ab b83d f9e2 1c3e 54e6 a23d 7c39 e73d
00000040: 1199 183d b815 883d fd8f 243d 7015 2dbd
00000050: 270b e93b ee80 d7bd c4d4 973d e336 69bd
00000060: ebab 08bd 6d9e a2bc c56b df3d a2a7 a33c
00000070: 6503 c33d b927 6dbd 54f1 b5bd 54e9 af3d
00000080: 4cad 06be 3d39 f83a 723c 9ebc d4b4 63bd
00000090: 116e bebc 5ac5 4e3d 7690 543d ccd6 b43d
000000a0: 808d 9ebc ff64 c03b c9ad 57bd 1316 26bd
000000b0: f40c c5bd 404e cd3c 795b ff3d 01b4 84bd
000000c0: 20f0 a9bc 06de 01be 09f5 093d 57f3 ee3d
000000d0: 8906 ed3b 7dbe c7bd 2ab1 213c 6c52 39bd
000000e0: 5de4 d03d d9aa 68bd 743b 5a3c eb13 32be
000000f0: dbbd 823d c7ae 6c3d b454 3ebd 06f0 153d
00000100: 6b52 a03c d27a 0bbd 2a1d 7cbd 838d 67bd
00000110: 119a eebc b9be a1bd 8ef9 263d cd96 c5bc
00000120: 693c 003e baba a63c 4b79 533c 623e 1fbd
00000130: 25ca 80bd dd10 6bbc 74fd 68bc 8c0d 0cbd
00000140: 8c86 0b3d 7ff7 c2bc 7789 513b a85b c1bd
00000150: bf56 b1bc a184 113b 7801 b93c 4033 883d
00000160: 1a4c 78bd 5a08 96bc d0c3 8c3c 16ad 813d
00000170: f43a eabd abfe 40bd 92ed e33d d3b7 dbbc
00000180: 5c30 cabc aa3f a63c ebc4 cd3c 274d a33d
00000190: 9aac cfbd 5f0d d4bd 5a6b 7c3b 6126 833c
000001a0: 2cf4 18bd a76e f23b 1417 413d bf05 d5bc
000001b0: 3e2a a33d 5b0d 04bc 77b2 283c 2807 893d
000001c0: faab f6bd 2c8e d33d 5d8a 86bc 6b38 aebd
000001d0: f3e5 c33d f263 8ebd df8e 84bd 73ce 8b3d
000001e0: a53b 20bd a9d7 3bbe 302f 0cbd 53e6 e6bd
000001f0: d6bd e6bc 5f41 f5bc 577a f93d 622a 93bd
00000200: d47c 303d 0542 a63b a1a8 babd 8c69 0bbd
00000210: a01e e43d d414 10bd f07c d9bc ba30 bc3c
00000220: 6da7 c63d 9957 0b3d cc7d 213a 8ff2 f63d
00000230: 2592 173c 764e 3dbd 47f0 043d 3e92 0d3c
00000240: a032 1abc e8c8 98bd 2f88 2c3d 25d8 3abd
00000250: 6848 de3c 61ce c3bd ef76 34bd bfac 4a3d
00000260: dc09 a23d 9f3f af3d 3603 e33c 95b7 c73d
00000270: b660 bc3d c702 153b e96b 6a3d 2808 183d
00000280: 1d09 bfbd 7500 983d d9f3 883d bfbf 7f3d
00000290: 7add dcbc 35d7 403d 44a5 3abc 1889 e7bb
000002a0: f999 9dbd 751c fdbc 34d0 e53b 0f55 913c
000002b0: 226c 3b3c 2f5b 0b3d 825d cbbc 5328 12bd
000002c0: f7a2 b9bd 04e4 323b 5d6e fbbc b64a 3fbd
000002d0: 479d b43d 632d 6cbd 1569 1e3b bd84 51bd
000002e0: 398d aabd 9094 373d 7b6f 84bd a5d4 d53c
000002f0: 5ac1 0abd 47af 96bc fdb1 3cbd 5e04 83bc
00000300: 3250 eebc a757 7b3d 8c3c 78bc 99bf 49bd
00000310: 43a8 68bd 71e3 c5bd ad31 153d d50b dd3d
00000320: 30e3 ff3c 4072 b03c 51b4 373d 9660 8ebd
00000330: 0cf3 0c3d 40b4 82bd 8df7 c9bc 7fec b93c
00000340: 6244 403d 5a23 fabd 9981 03bc 1c84 30bd
00000350: 4ec6 39bc 3bf8 ecbd ca01 7a3c f629 feba
00000360: ddd6 98bd 0945 f1bc b2a0 9fbc f9e1 7a3d
00000370: 7a37 b53d 3256 e13c 5f61 c13d b899 3cbd
00000380: 381f 9d3d 4bac 883d 6e96 c0bd 96d3 aa3d
00000390: 5abe bf3d 44e8 173d 06eb 25bd 42b2 6a3d
000003a0: 4cc3 293d fbfa 19bd 3bbd 8dbd 3909 a1bd
000003b0: 7152 733d 6734 71ba 6c03 68bd 6d31 48bd
000003c0: 7710 df3d 5f8b 6cbc db40 f73d ac9d 853c
000003d0: 9a24 1fbd 6cd2 ca3d 4022 98bd 61b5 afbd
000003e0: 429a 87bc 42d5 f53c 703f c6bd 4473 993c
000003f0: 7bf9 763c 266e 4bbd 07e7 df3c a162 20bc

lstm.weight_hh_l0 f4 [512, 128]
0.06423101 0.15389897 0.022882577 0.026199928 0.076202095 -0.039615672 -0.027115222 0.07421007
0.059980657 0.023821076 -0.050725095 -0.0073769772 0.06920839 -0.02137513 -0.09131895 0.07047594
-0.04561709 -0.017930038 -0.07236243 0.059235662 -0.047071416 0.0045696087 -0.021769002 0.014397064
1.706038e-05 -0.0645607 -0.0799987 -0.058648262 0.032698676 0.060140222 0.069336616 -0.0802276
-0.07543512 0.015723579 0.0836841 0.006776768 0.045209114 -0.09272632 -0.083687335 0.111876495
-0.03267767 -0.046025466 0.022925217 -0.06699372 -0.03428752 -0.03824746 0.060251586 0.06263131
-0.018051272 0.0013703756 -0.01612162 0.07403564 0.05477178 0.06706441 -0.014837618 0.013206977
-0.048377395 -0.0036601995 -0.004546071 -0.06400884 -0.119432226 0.12445652 0.1212449 0.011073359
0.063255824 0.01276928 -0.07313684 0.058167048 0.03164721 -0.050506324 0.049101558 -0.078835
0.110193945 0.035860304 0.057867672 0.057965126 -0.037016526 -0.021935241 0.06064176 0.06463333
0.10680233 -0.062528744 -0.060002893 0.06353966 -0.11057138 -0.014123831 -0.016035894 -0.043488797
0.017140867 -0.05273847 -0.02711187 0.045965828 0.021657834 -0.021835594 -0.09503868 -0.038022254
-0.0552084 -0.028193427 -0.02834118 -0.06815634 -0.0026608212 -0.059211574 -0.03112765 -0.0145921055
0.009640455 0.026969684 -0.0055979826 0.11196908 -0.07939807 -0.050836567 0.016382236 -0.06692187
-0.025697067 -0.042914603 -0.010821659 0.07692655 0.08631441 0.021022426 0.0026541387 -0.045601953
0.06716046 0.049012814 0.07202698 0.085560046 -0.1627496 -0.010198272 0.030960243 0.04288572
0.06944631 -0.0073781097 0.056314647 0.028434547 0.057955917 -0.010042988 -0.09261385 -0.025659172
-0.028357895 0.11911365 -0.037339054 0.046486195 0.06330142 -0.111891836 0.0031894208 -0.036398366
-0.050971173 0.11094767 -0.12154262 0.06119704 0.06309561 0.09202345 -0.021307748 0.0693443
-0.095974505 0.001503918 -0.047253218 -0.022734059 0.08335253 0.021538382 0.039640266 0.016958853
-0.023325501 -0.013562645 0.0676074 0.025207384 0.06871186 -0.15604027 -0.009192202 0.14335947
0.052442558 0.0068873237 0.07498473 -0.08998682 -0.03449014 -0.038325395 0.029673418 0.013915196
-0.091923065 -0.018421527 0.09937698 0.07677733 0.033040065 0.050663464 0.05422788 0.06551529
0.004350644 0.029706089 0.024367107 -0.06588872 0.032134797 0.028769381 0.04154641 -0.061626963
0.098325096 0.115891464 0.033406083 0.074376814 -0.019044947 -0.08519984 0.055394944 -0.06690289
0.010743584 -0.054208905 0.056210678 0.121194504 -0.014018639 -0.018621305 -0.097739324 -0.06334797
0.0050816312 -0.0368051 0.002648817 0.107247226 -0.11106312 -0.07165034 -0.11194659 -0.002978833
0.0350446 -0.07063539 0.06515025 0.054863367 0.07762533 -0.046261124 -0.014336853 -0.015634213
-0.10174106 -0.02675947 -0.010301557 -0.0061558164 0.04544638 0.05723265 0.120369755 0.032266825
0.036366567 -0.034441065 -0.044818234 -0.013584298 -0.0763535 -0.10456987 0.041880943 0.057655487
0.05799831 0.07778925 0.10728381 -0.0056600566 -0.019612188 -0.11541179 0.11476631 -0.045415357
-0.01600564 -0.0005397403 0.0326739 -0.002237764 0.12822822 0.02181654 -0.06525701 0.04052673
00000000: 8c8b 833d b197 1d3e 3e74 bb3c 3ba1 d63c
00000010: d80f 9c3d 0b44 22bd be20 debc 73fb 973d
00000020: 47ae 753d 6b24 c33c 1ec5 4fbd 92ba f1bb
00000030: 21bd 8d3d e61a afbc 6e05 bbbd b155 903d
00000040: fcd8 3abd 04e2 92bc c132 94bd 18a1 723d
00000050: f5cd 40bd a8bc 953b e854 b2bc aae1 6b3c
00000060: e31c 8f37 6638 84bd 5cd6 a3bd 2939 70bd
00000070: 0cef 053d 9855 763d 5b00 8e3d 5e4e a4bd
00000080: ba7d 9abd bcce 803c 9262 ab3d a60f de3b
00000090: 312d 393d 4ce7 bdbd 4464 abbd 811f e53d
000000a0: 05d9 05bd 3385 3cbd aacd bb3c 0134 89bd
000000b0: 1271 0cbd 5ea9 1cbd 5eca 763d d844 803d
000000c0: 43e0 93bc 2d9e b33a 7d11 84bc ff9f 973d
000000d0: 6058 603d 1159 893d 7b19 73bc 1462 583c
000000e0: 6027 46bd f5df 6fbb 35f7 94bb 1117 83bd
000000f0: e298 f4bd 0fe3 fe3d 3f4f f83d 096d 353c
00000100: 458c 813d 3e36 513c c4c8 95bd 9240 6e3d
00000110: 81a0 013d b8df 4ebd b71e 493d 3f74 a1bd
00000120: 5dad e13d 41e2 123d a706 6d3d d76c 6d3d
00000130: a49e 17bd 89b1 b3bc 7e63 783d 7b5e 843d
00000140: 2ebb da3d 120f 80bd 98c5 75bd 1521 823d
00000150: 3f73 e2bd a467 67bc b55d 83bc 4f21 32bd
00000160: 016b 8c3c 4b04 58bd b619 debc aa46 3c3d
00000170: c56b b13c 8fe0 b2bc a4a3 c2bd 39bd 1bbd
00000180: 3422 62bd e7f5 e6bc c32b e8bc 8d95 8bbd
00000190: 2c61 2ebb d687 72bd 6aff febc ba13 6fbc
000001a0: 00f3 1d3c 87ef dc3c 486f b7bb 0c50 e53d
000001b0: 759b a2bd 013a 50bd 0a34 863c 550e 89bd
000001c0: a882 d2bc 39c7 2fbd 544d 31bc ab8b 9d3d
000001d0: 9cc5 b03d 3937 ac3c 0ff1 2d3b 1dc9 3abd
000001e0: 6c8b 893d a9c1 483d e282 933d 1b3a af3d
000001f0: d5a7 26be a716 27bc 56a0 fd3c f0a8 2f3d
00000200: de39 8e3d 12c4 f1bb 30aa 663d 91ef e83c
00000210: 2f63 6d3d 588b 24bc 55ac bdbd 2f33 d2bc
00000220: d14e e8bc dbf1 f33d d6f0 18bd 4f68 3e3d
00000230: 2da4 813d 8c27 e5bd 9a05 513b 7416 15bd
00000240: 26c7 50bd 8838 e33d 56eb f8bd bfa9 7a3d
00000250: 4538 813d ca76 bc3d 968d aebc 6204 8e3d
00000260: 488e c4bd 1d1f c53a 978c 41bd c73c babc
00000270: bbb4 aa3d 4371 b03c d55d 223d 4bed 8a3c
00000280: 1f15 bfbc db35 5ebc c075 8a3d b77f ce3c
00000290: ceb8 8c3d 05c9 1fbe e49a 16bc d3cc 123e
000002a0: 02ce 563d 0faf e13b 9891 993d 034b b8bd
000002b0: 8845 0dbd 17fb 1cbd ab15 f33c 90fc 633c
000002c0: 2942 bcbd bee8 96bc 2886 cb3d 6f3d 9d3d
000002d0: 0555 073d 7e84 4f3d 0e1e 5e3d e12c 863d
000002e0: d98f 8e3b 2f5a f33c 879d c73c aaf0 86bd
000002f0: c79f 033d c4ad eb3c 922c 2a3d 8e6c 7cbd
00000300: ab5e c93d 8158 ed3d d1d4 083d df52 983d
00000310: 2604 9cbc 417d aebd cfe5 623d 6204 89bd
00000320: db05 303c 280a 5ebd 2b3d 663d d334 f83d
00000330: 6fae 65bc b58b 98bc 8e2b c8bd 95bc 81bd
00000340: d083 a63b f2c0 16bd c697 2d3b 6fa4 db3d
00000350: 1075 e3bd 6abd 92bd 4144 e5bd 8638 43bb
00000360: ed8a 0f3d 4aa9 90bd 7f6d 853d 69b8 603d
00000370: 07fa 9e3d 4e7c 3dbd 1fe5 6abc 5213 80bc
00000380: 9e5d d0bd ad36 dbbc ddc7 28bc bbb6 c9bb
00000390: fc25 3a3d c96c 6a3d 6b84 f63d 382a 043d
000003a0: 1cf5 143d 1312 0dbd 5393 37bd ad90 5ebc
000003b0: 395f 9cbd ba28 d6bd 5a8b 2b3d 2928 6c3d
000003c0: a38f 6d3d f84f 9f3d 9db7 db3d ff77 b9bb
000003d0: bda9 a0bc 045d ecbd 990a eb3d 7405 3abd
000003e0: 431e 83bc 5c7d 0dba 11d5 053d 73a7 12bb
000003f0: 424e 033e 9ab8 b23c 78a5 85bd 5bff 253d

lstm.bias_ih_l0 f4 [512]
0.049857896 -0.033601526 0.10253531 0.14232047 0.07084134 0.043724146 0.029072642 0.1017508
0.09185339 0.09634999 0.05788663 0.09753245 -0.024990793 0.016257828 0.10367453 0.14270419
0.088726 0.060996845 -0.056448124 -0.08220776 0.103089124 -0.010643581 0.08307327 0.09136601
0.018735373 -0.009608236 -0.021016859 0.07288078 0.09195183 -0.07047432 -0.019036368 0.043765057
0.022815293 0.11443338 -0.022190237 0.03347234 -0.039288238 0.06850683 0.08802439 -0.019546602
0.053157162 0.012214444 0.010283496 -0.041996446 0.09376096 -0.039822247 0.027165733 0.018096784
-0.053426407 0.03397946 -0.0127509525 0.0014759309 0.028464476 0.02641966 0.042355835 0.0860451
0.083467275 0.059990175 -0.051361606 0.062904894 0.011604809 0.078522876 0.111166544 -0.018902238
-0.013772512 0.048032846 0.06740628 -0.009332166 0.13314095 -0.036760952 0.07795768 -0.045006294
0.101761244 0.002772972 0.022101935 -0.0024968942 0.0694393 0.000577104 0.03153692 0.0119143175
-0.03960427 0.10187006 0.03962015 0.021971487 0.048347104 0.13179746 -0.013554339 0.026814064
0.08106552 0.08542406 0.0628341 0.0059468322 0.08015597 0.099220246 0.09591402 0.024890674
-0.051371098 0.037923183 0.06025494 0.06103395 0.015694274 -0.036495574 0.109326914 -0.009005624
0.028197017 -0.033582 0.09412818 0.039570898 0.12380221 -0.022184888 0.048879083 0.037698533
0.11279989 -0.019411849 0.087543555 0.004357071 0.047071196 0.09041211 0.0393518 0.06668011
-0.047576565 0.052003436 0.028205525 0.016769486 0.1432231 0.08385499 0.07975704 0.031238988
0.096738674 -0.009388214 -0.0014041213 0.081438795 0.008453366 0.088501364 0.01826303 -0.027958613
0.122869045 0.07603146 0.06652219 0.100314684 0.09288608 0.09234318 -0.014258212 0.13417254
-0.021997128 0.1091885 0.10445039 -0.00018178475 0.042923994 0.0018949489 0.043584637 0.05002142
0.06725397 0.060686324 0.08573578 0.09876113 0.0946313 0.08226554 0.08890717 0.11193177
0.04625754 0.019536901 -0.032291472 0.06973288 0.072968386 -0.0171334 0.11358702 -0.013240439
0.013648 0.042049788 0.08090607 -0.007100707 -0.048894435 0.07557227 0.09215079 0.03048379
0.105579875 0.092089675 0.12070677 0.04874845 0.05422726 -0.00070237694 0.011640394 0.007205357
0.05587718 0.087028995 0.03463761 0.038285274 -0.0063050035 -0.007050718 -0.03215221 -0.03773809
0.11462156 -0.024106672 0.054613642 -0.03638623 0.13072482 0.104486845 -0.024079606 0.07800172
0.009509897 -0.026174013 0.124371804 0.0028487332 -0.036053922 0.061925568 -0.023716956 0.06577913
-0.03681316 0.023019664 0.10916039 0.10091566 -0.02240634 0.027144866 0.0033153389 -0.012790276
0.046349555 0.00030533044 0.046898864 -0.035613958 -0.026209155 0.061838653 -0.022808578 0.09586298
0.11467091 -0.025542978 0.09281797 -0.03545604 0.092956975 0.005280626 0.018800016 -0.043411996
0.096755825 0.04944394 0.07725188 0.13492583 0.051459193 -0.049007054 0.08256139 0.06166756
0.15021342 0.042870533 -0.053363986 0.06686974 -0.049088947 0.10414272 0.053699803 0.006528397
0.04556706 0.1015217 -0.047685787 0.034663543 0.09191533 0.107503764 0.04156496 0.023291767
00000000: cb37 4c3d c1a1 09bd 08fe d13d 75bc 113e
00000010: 4415 913d 1718 333d c029 ee3c b962 d03d
00000020: a11d bc3d 2553 c53d 881a 6d3d 18bf c73d
00000030: 7eb9 ccbc 232f 853c 5053 d43d 0c21 123e
00000040: fab5 b53d d4d7 793d 2636 67bd 8b5c a8bd
00000050: 6420 d33d 6a62 2ebc 5222 aa3d 1a1e bb3d
00000060: ed7a 993c dd6b 1dbc 8c2b acbc 8542 953d
00000070: 3e51 bc3d d754 90bd 28f2 9bbc fd42 333d
00000080: 23e7 ba3c 0c5c ea3d 4dc8 b5bc 4b1a 093d
00000090: b4ec 20bd 4f4d 8c3d 2246 b43d 3220 a0bc
000000a0: 53bb 593d 171f 483c 1c7c 283c 7704 2cbd
000000b0: bf05 c03d a71c 23bd ac8a de3c b53f 943c
000000c0: a6d5 5abd 0c2e 0b3d 5fe9 50bc 0674 c13a
000000d0: 552e e93c 0b6e d83c 507d 2d3d 6a38 b03d
000000e0: e4f0 aa3d 42b8 753d 8c60 52bd 48d4 803d
000000f0: 1922 3e3c 9ad0 a03d 49ab e33d ded8 9abc
00000100: 1aa6 61bc 17be 443d 4e0c 8a3d f1e5 18bc
00000110: 1a56 083e a792 16bd 47a8 9f3d 8558 38bd
00000120: 3368 d03d c0ba 353b 1e0f b53c efa2 23bb
00000130: 3136 8e3d cb48 173a dc2c 013d 4534 433c
00000140: 1638 22bd 40a1 d03d bd48 223d 8cfd b33c
00000150: 9d07 463d eaf5 063e 0513 5ebc 2ba9 db3c
00000160: ae05 a63d cff2 ae3d 2aaf 803d a5dd c23b
00000170: d028 a43d fc33 cb3d 926e c43d 87e7 cb3c
00000180: 806a 52bd 5755 1b3d e2cd 763d bcfe 793d
00000190: 4791 803c 627c 15bd cae6 df3d 538c 13bc
000001a0: 6efd e63c 478d 09bd 46c6 c03d 1815 223d
000001b0: 038c fd3d 15bd b5bc 6f35 483d c769 1a3d
000001c0: a103 e73d 9905 9fbc 094a b33d c3c5 8e3b
000001d0: bacd 403d fc29 b93d 5a2f 213d 958f 883d
000001e0: a5df 42bd 8e01 553d 460f e73c 2960 893c
000001f0: 14a9 123e 2abc ab3d a957 a33d e8e8 ff3c
00000200: ed1e c63d 06d1 19bc 7e0a b8ba 62c9 a63d
00000210: fd7f 0a3c 3440 b53d 5a9c 953c 7609 e5bc
00000220: c4a2 fb3d 62b6 9b3d c93c 883d c971 cd3d
00000230: 0f3b be3d 6c1e bd3d 479b 69bc 8764 093e
00000240: 5233 b4bc 389e df3d 16ea d53d 799d 3eb9
00000250: 12d1 2f3d ef5f f83a ce85 323d 43e3 4c3d
00000260: 73bc 893d 3992 783d 3e96 af3d 4643 ca3d
00000270: 0ece c13d d67a a83d f614 b63d 7c3c e53d
00000280: 8c78 3d3d da0b a03c 1044 04bd 1dd0 8e3d
00000290: 7370 953d 585b 8cbc 50a0 e83d 6dee 58bc
000002a0: dc9b 5f3c 663c 2c3d 15b2 a53d 0cad e8bb
000002b0: 8845 48bd a2c5 9a3d 8eb9 bc3d 24b9 f93c
000002c0: 433a d83d 8399 bc3d 1c35 f73d 74ac 473d
000002d0: 671d 5e3d b81f 38ba 5ab7 3e3c ea1a ec3b
000002e0: 78df 643d 423c b23d 2be0 0d3d 05d1 1c3d
000002f0: 349a cebb b609 e7bb 09b2 03bd 4193 1abd
00000300: b5be ea3d 5b7b c5bc 8eb2 5f3d ba09 15bd
00000310: badc 053e 33fd d53d 9842 c5bc 5ebf 9f3d
00000320: 66cf 1b3c e26a d6bc a5b6 fe3d d0b1 3a3b
00000330: 47ad 13bd aaa5 7d3d 104a c2bc 35b7 863d
00000340: 65c9 16bd bc93 bc3c 7c8f df3d dfac ce3d
00000350: 808d b7bc e95e de3c 2846 593b 4e8e 51bc
00000360: 08d9 3d3d c214 a039 0619 403d f1df 11bd
00000370: 95b4 d6bc 874a 7d3d 0ed9 babc cf53 c43d
00000380: 95d8 ea3d 823f d1bc 5917 be3d 5a3a 11bd
00000390: 3a60 be3d 1a09 ad3b 7e02 9a3c c7d0 31bd
000003a0: eb27 c63d bb85 4a3d 3c36 9e3d ff29 0a3e
000003b0: e0c6 523d 9fbb 48bd f215 a93d 2097 7c3d
000003c0: 8cd1 193e 0399 2f3d 3294 5abd 01f3 883d
000003d0: 7e11 49bd c748 d53d 53f4 5b3d 2aec d53b
000003e0: 87a4 3a3d 9cea cf3d 2c52 43bd 5cfb 0d3d
000003f0: 1b3e bc3d ef2a dc3d 0540 2a3d 60ce be3c

lstm.bias_hh_l0 f4 [512]
-0.01169192 0.07960698 0.078304 0.01682686 0.031692572 0.05599184 0.028913971 0.057300832
0.02020877 0.02594264 -0.014521269 0.02182298 -0.006901441 0.08910798 0.10976496 0.14141883
0.1102895 -0.02217064 0.07970228 0.02760294 0.08219491 0.09507273 0.101186186 0.007882406
0.08750932 0.08444175 0.03266342 -0.007380328 0.07749251 0.025180453 -0.034506436 -0.04604292
-0.03542364 0.05942059 -0.028452223 0.13168183 0.021629738 0.11544708 -0.018992884 -0.035192564
-0.07391258 0.013497385 0.014005515 0.06606975 0.07072901 0.03877868 -0.023311418 -0.050071094
-0.01230145 0.043291535 0.010041924 0.036725592 0.0015754018 0.038024075 0.10207581 -0.049603045
-0.028442383 0.052949585 -0.029549122 0.06661954 0.06116536 -0.01228553 0.013209541 0.012026131
0.035643157 0.054729193 0.12881334 -0.011577727 0.0766455 0.02045014 -0.0037444602 0.061863843
0.111877434 0.10454485 0.06362301 0.048039086 0.06159899 0.0038914979 0.13991602 0.122398525
0.030157644 0.023280758 0.10013158 -0.014556737 0.09294671 0.019010218 0.0198573 0.06170539
0.10284691 -0.019347051 0.10851828 -0.025481118 0.039628405 0.06752165 0.11449165 -0.024510646
0.05938688 -0.031227691 0.08953349 0.061312873 0.06872725 0.10134699 0.10968504 0.05142889
-0.024986614 0.07463258 0.087417975 0.06230964 0.05216611 0.03989695 0.01328677 0.055820867
0.022244405 0.07503549 0.008703297 0.008078289 -0.013457829 0.014991299 -0.054994993 0.08361971
0.037261665 0.071684375 0.08396979 0.08254387 0.13087434 0.045650903 -0.03482095 0.063830726
0.047013022 0.050731596 0.009829002 0.02575254 -0.023031477 -0.043057952 -0.027968679 -0.02373265
0.12591588 0.065359406 0.08148423 0.06541956 0.039953426 0.011669976 0.025624186 0.0806973
0.09481185 0.080644384 -0.002165054 -0.044344645 0.11041719 0.11607345 -0.01323142 -0.043529417
0.010672142 -0.018036222 0.04139633 0.053152155 0.06306132 0.044255994 0.0003962696 0.07677001
0.07775046 0.096220486 0.052359737 0.023174005 0.098314434 0.13163851 0.12346761 -0.052152492
0.049505252 0.05667863 -0.03515424 -0.037899602 0.05406543 -0.039147418 0.118205324 -0.036613416
0.061479118 -0.014059802 0.082409106 0.108218335 -0.046327222 0.12733135 0.092293374 0.11139227
0.045893136 -0.00010027198 -0.05216902 0.03499946 0.085640766 -0.035387497 -0.0045322184 0.08301282
0.021139635 0.13715532 0.09012908 0.062559634 0.08626597 0.1071353 -0.046613038 0.042997807
0.10136712 0.09224932 0.022739364 -0.0007168356 -0.03437599 0.06074705 0.018440165 -0.041012485
0.04868609 -0.0029320926 0.044431593 0.029930685 -0.061893497 -0.017763866 0.03983586 0.09311336
-0.015433374 0.047146622 0.017886274 -0.013528804 0.011190739 -0.030941116 0.03612717 -0.008587279
-0.03486249 -0.013296467 0.007437536 0.025039783 0.0947984 0.08559387 0.050516844 -0.025208665
-0.04454498 0.05555539 0.028153937 0.09156644 0.116341546 0.019579992 0.019458467 0.06298212
0.14347911 0.108268134 0.072397545 0.080704 0.09654702 -0.027760213 -0.04208369 0.046440005
0.030327378 0.017988479 0.01181517 0.10662822 0.06614258 -0.026851375 0.08452146 -0.017501
00000000: 788f 3fbc fc08 a33d d95d a03d 7cd8 893c
00000010: 12d0 013d b357 653d fedc ec3c 47b4 6a3d
00000020: dd8c a53c a985 d43c 9eea 6dbc 1bc6 b23c
00000030: 7c25 e2bb 3f7e b63d 74cc e03d 19d0 103e
00000040: 76df e13d 349f b5bc f33a a33d 901f e23c
00000050: ce55 a83d 7eb5 c23d b43a cf3d 3525 013c
00000060: 1638 b33d ccef ac3d 14ca 053d aed6 f1bb
00000070: 65b4 9e3d 3d47 ce3c 9f56 0dbd 8097 3cbd
00000080: 6118 11bd 0163 733d a314 e9bc 9ad7 063e
00000090: d930 b13c 856f ec3d f796 9bbc 1426 10bd
000000a0: 7b5f 97bd 2324 5d3c 6377 653c 944f 873d
000000b0: 5fda 903d 65d6 1e3d 96f7 bebc 5917 4dbd
000000c0: 058c 49bc 7752 313d e286 243c 936d 163d
000000d0: b67d ce3a 22bf 1b3d 1f0d d13d 902c 4bbd
000000e0: 0000 e9bc aae1 583d 0011 f2bc d36f 883d
000000f0: 8788 7a3d 3f49 49bc d56c 583c 4009 453c
00000100: 8ffe 113d b82b 603d a5e7 033e 82b0 3dbc
00000110: 51f8 9c3d 0d87 a73c 9e65 75bb f164 7d3d
00000120: ff1f e53d 9c1b d63d c84c 823d a2c4 443d
00000130: 394f 7c3d 8008 7f3b 2546 0f3e 14ac fa3d
00000140: 2a0d f73c 4ab7 be3c c911 cd3d 617f 6ebc
00000150: d85a be3d 51bb 9b3c c7ab a23c cbbe 7c3d
00000160: 67a1 d23d b57d 9ebc d53e de3d c7bd d0bc
00000170: 6551 223d ca48 8a3d 997a ea3d 8dca c8bc
00000180: a83f 733d 37d1 ffbc 565d b73d 3523 7b3d
00000190: dfc0 8c3d 038f cf3d 8da2 e03d 1aa7 523d
000001a0: bab0 ccbc f7d8 983d 3208 b33d 6538 7f3d
000001b0: 22ac 553d fc6a 233d c1b0 593c 6ca4 643d
000001c0: e639 b63c 35ac 993d 4698 0e3c cd5a 043c
000001d0: 3a7e 5cbc 119e 753c 6e42 61bd cf40 ab3d
000001e0: b09f 183d 42cf 923d 5af8 ab3d c30c a93d
000001f0: ec03 063e 71fc 3a3d 6aa0 0ebd afb9 823d
00000200: ba90 403d efcb 4f3d d309 213c fef6 d23c
00000210: 82ac bcbc 895d 30bd 921e e5bc f96a c2bc
00000220: 18f0 003e 27db 853d 34e1 a63d b1fa 853d
00000230: 34a6 233d 6d33 3f3c d0e9 d13c a044 a53d
00000240: b72c c23d e228 a53d 94e3 0dbb bba2 35bd
00000250: 6822 e23d ebb7 ed3d 99c8 58bc e74b 32bd
00000260: 35da 2e3c b3c0 93bc 338f 293d 13b6 593d
00000270: 4b26 813d c645 353d 68c2 cf39 9839 9d3d
00000280: a23b 9f3d 3f0f c53d 2a77 563d 69d7 bd3c
00000290: 1459 c93d 3fcc 063e 96dc fc3d da9d 55bd
000002a0: 05c6 4a3d da27 683d e4fd 0fbd 9d3c 1bbd
000002b0: b673 5d3d 0b59 20bd a215 f23d f3f7 15bd
000002c0: 87d1 7b3d 155b 66bc 1bc6 a83d 93a1 dd3d
000002d0: 9dc1 3dbd 2663 023e 4f04 bd3d a121 e43d
000002e0: 71fa 3b3d 1c49 d2b8 2faf 55bd 985b 0f3d
000002f0: 6d64 af3d 7bf2 10bd 0183 94bb a002 aa3d
00000300: 072d ad3c 7272 0c3e 9895 b83d 441f 803d
00000310: 36ac b03d c169 db3d 50ed 3ebd 781e 303d
00000320: 9199 cf3d 36ed bc3d e747 ba3c 06ea 3bba
00000330: d7cd 0cbd e6d1 783d d40f 973c b5fc 27bd
00000340: 116b 473d 5a28 40bb e7fd 353d 3231 f53c
00000350: 0984 7dbd 8785 91bc ed2a 233d 38b2 be3d
00000360: 43dc 7cbc d11c 413d 3c86 923c eba7 5dbc
00000370: 5d59 373c 3978 fdbc 15fa 133d a9b1 0cbc
00000380: f8cb 0ebd 6dd9 59bc 93b6 f33b 3b20 cd3c
00000390: aa25 c23d d74b af3d c0ea 4e3d 6782 cebc
000003a0: cc74 36bd 0c8e 633d 16a3 e63c 3087 bb3d
000003b0: 7a44 ee3d 3866 a03c 5d67 9f3c c5fc 803d
000003c0: 30ec 123e afbb dd3d 2a45 943d 2448 a53d
000003d0: 72ba c53d 6369 e3bc f35f 2cbd e037 3e3d
000003e0: 1f71 f83c 935c 933c 6a94 413c e55f da3d
000003f0: c375 873d 6af7 dbbc 9619 ad3d 425e 8fbc

lstm.weight_ih_l1 f4 [512, 128]
-0.028113047 0.070055075 0.048063286 0.050726146 0.08057379 -0.05628921 -0.022310646 0.055812616
0.043697685 -0.056926057 0.033477824 0.032780368 -0.04264579 0.058612827 -0.066973984 -0.095545575
-0.03904391 0.011510474 -0.010964037 0.09684887 -0.017907733 0.053180814 -0.025799256 0.079841636
0.023389613 0.02650875 -0.022873215 0.04987554 0.10738512 0.07149026 0.02864454 0.10625479
-0.01128634 0.054953042 0.045420207 0.09116689 0.063797474 0.10196521 -0.08613986 -0.012917471
-0.027176782 -0.08558584 0.06442089 -0.07691135 0.07282045 -0.046993755 0.019422907 -0.07922749
-0.0036199642 -0.0746133 -0.047743127 -0.055668626 0.05489657 0.05583379 -0.03814606 0.053403027
-0.057902705 -0.047853637 0.042324137 -0.037932795 0.058319945 0.039857604 0.06341563 -0.03930414
-0.067606956 -0.015135853 0.03524889 0.12612204 0.036704592 0.02145267 -0.024218047 -0.07485283
0.078502774 -0.03112102 0.098812364 0.009779356 0.055854023 0.054895863 -0.061493654 -0.0068350723
0.06753074 -0.042182177 0.041769378 0.04512174 -0.031437293 0.033503253 -0.08525388 -0.009346481
-0.04994958 -0.07696857 -0.03879993 0.05352249 0.043059055 0.03639919 -0.000585285 0.017423386
-0.06556829 0.03478859 -0.022698777 0.02143289 0.0052585253 0.10565229 0.078360535 0.059306037
0.012261401 0.012986355 0.020137494 -0.06894402 0.06177438 -0.015601 -0.033715863 0.0717937
0.051567454 -0.05952054 0.0011021185 0.07655317 -0.03971913 -0.053647514 -0.0503443 -0.0019389334
-0.03832886 0.043230608 -0.011627247 0.0111225685 0.032021783 -0.026356664 0.103458084 0.09229334
-0.06527967 -0.0021173265 0.11408297 0.061251104 0.02650072 -0.0076623303 -0.01894565 0.13138221
-0.030895187 -0.014107686 -0.04010707 0.073367625 -0.010443159 0.08965931 0.055157002 -0.07341521
-0.097362064 -0.08516857 -0.028786702 -0.073217474 0.14351542 -0.07684454 0.11303611 -0.006699211
-0.0854635 -0.022665977 0.040149804 3.316481e-05 0.034220826 0.021036029 0.07337619 -0.080932185
-0.0061318707 -0.075411186 0.032080248 0.011695019 0.15742226 -0.04342028 -0.08100517 -0.022188487
0.06456982 0.013424241 0.036755335 0.12327093 0.060686335 -0.13526721 -0.016839022 0.07397575
0.0570774 0.010670472 -0.12508988 -0.03968556 -0.08196236 0.08590262 0.09190933 -0.0030277693
0.044557333 -0.0071808007 -0.08667669 -0.043240365 0.04878942 -0.111425124 -0.10392766 -0.1256739
0.039186846 -0.07392568 -0.037697565 -0.15551697 0.080136254 -0.068679534 0.069064535 -0.00672831
-0.018319955 0.04019181 -0.10554798 -0.001119847 0.033092964 0.103022926 0.04293791 0.02479504
0.00011173887 -0.02277196 0.082774855 0.012898155 0.012751952 -0.056499958 0.041829947 -0.08846717
-0.0033177226 0.012594151 0.14722165 -0.11172499 0.036387756 0.04389475 -0.045885276 -0.07758541
0.036697894 0.068908244 -0.009294676 -0.062161427 -0.03970293 0.02777009 -0.020337196 -0.010316422
-0.002090396 -0.0007899649 -0.06769911 -0.048758227 0.13765599 0.049204066 -0.09694909 -0.060764838
0.040344935 -0.058149308 0.008071896 0.12829228 -0.026854469 -0.070094936 -0.046752583 0.004646655
-0.0062798522 -0.034404002 0.013804816 0.012223647 0.0238889 -0.03186749 -0.11661184 0.10932825
00000000: 554d e6bc 0979 8f3d 02de 443d 38c6 4f3d
00000010: df03 a53d 848f 66bd d1c4 b6bc c59b 643d
00000020: 58fc 323d 4c2b 69bd 0b20 093d b544 063d
00000030: 5aad 2ebd 0114 703d a829 89bd 66ad c3bd
00000040: 82ec 1fbd 6d96 3c3c 81a2 33bc b358 c63d
00000050: 3db3 92bc 20d4 593d f658 d3bc 0384 a33d
00000060: 939b bf3c e128 d93c 9c60 bbbc 4b4a 4c3d
00000070: bbec db3d 7c69 923d f4a7 ea3c 1d9c d93d
00000080: 57ea 38bc 7116 613d 8a0a 3a3d b5b5 ba3d
00000090: 40a8 823d 23d3 d03d 186a b0bd cda3 53bc
000000a0: d8a1 debc a147 afbd 19ef 833d b383 9dbd
000000b0: e322 953d 867c 40bd ca1c 9f3c 0642 a2bd
000000c0: ec3c 6dbb dcce 98bd 4c8e 43bd c904 64bd
000000d0: 3adb 603d f9b1 643d 0b3f 1cbd 22bd 5a3d
000000e0: 632b 6dbd 2d02 44bd 135c 2d3d 6b5f 1bbd
000000f0: e5e0 6e3d ba41 233d 0ee0 813d 61fd 20bd
00000100: 8475 8abd 5efc 77bc 2461 103d 2326 013e
00000110: 8e57 163d 83bd af3c ed64 c6bc 714c 99bd
00000120: 10c6 a03d 82f1 febc 235e ca3d 9839 203c
00000130: 30c7 643d 7cda 603d c5e0 7bbd bef8 dfbb
00000140: 8e4d 8a3d 38c7 2cbd 5e16 2b3d 93d1 383d
00000150: 64c4 00bd b53a 093d 9699 aebd fc21 19bc
00000160: ee97 4cbd b3a1 9dbd adec 1ebd 663a 5b3d
00000170: b15e 303d 5117 153d d06d 19ba 7dbb 8e3c
00000180: ab48 86bd 7b7e 0e3d c9f2 b9bc 0794 af3c
00000190: b54f ac3b 3a60 d83d 7d7b a03d e3ea 723d
000001a0: 0be4 483c b9c4 543c 63f7 a43c 8632 8dbd
000001b0: 2207 7d3d 569b 7fbc a519 0abd 9308 933d
000001c0: 6538 533d cfcb 73bd f674 903a e9c7 9c3d
000001d0: 87b0 22bd 7fbd 5bbd d335 4ebd cf23 feba
000001e0: b9fe 1cbd 9412 313d 3580 3ebc 6f3b 363c
000001f0: 4629 033d eee9 d7bc d5e1 d33d 4a04 bd3d
00000200: 59b1 85bd d8c2 0abb 55a4 e93d 70e2 7a3d
00000210: 0a18 d93c 4914 fbbb e833 9bbc 0f89 063e
00000220: e717 fdbc ec23 67bc 5047 24bd c441 963d
00000230: c919 2bbc 4d9f b73d 4fec 613d b75a 96bd
00000240: c365 c7bd dc6c aebd 17d2 ebbc 0bf3 95bd
00000250: b5f5 123e ac60 9dbd 7a7f e73d 0e85 dbbb
00000260: 7d07 afbd 00ae b9bc 1f74 243d 721a 0b38
00000270: 232b 0c3d c053 ac3c 4246 963d c6bf a5bd
00000280: dced c8bb 2e71 9abd 9466 033d 779c 3f3c
00000290: 4d33 213e 77d9 31bd 0ae6 a5bd a1c4 b5bc
000002a0: 2f3d 843d 59f1 5b3c c38c 163d 7875 fc3d
000002b0: 3c92 783d 7d83 0abe fdf1 89bc 9980 973d
000002c0: fec9 693d 34d3 2e3c 9017 00be 538d 22bd
000002d0: e2db a7bd b6ed af3d f53a bc3d 8a6d 46bb
000002e0: c081 363d ec4c ebbb 8c83 b1bd cf1c 31bd
000002f0: 6ad7 473d db32 e4bd 06d8 d4bd a9b0 00be
00000300: 6382 203d 5966 97bd c368 1abd d73f 1fbe
00000310: 7a1e a43d dba7 8cbd b571 8d3d 2879 dcbb
00000320: bb13 96bc 2ba0 243d 8a29 d8bd d4c7 92ba
00000330: 7d8c 073d affd d23d a9df 2f3d f81e cb3c
00000340: 5955 ea38 438c babc dd85 a93d c852 533c
00000350: 90ed 503c 806c 67bd e155 2b3d 472e b5bd
00000360: 266e 59bb b357 4e3c 46c1 163e 12d0 e4bd
00000370: 540b 153d fbca 333d 33f2 3bbd 19e5 9ebd
00000380: 8850 163d c41f 8d3d b248 18bc fb9c 7ebd
00000390: 8a9f 22bd 1a7e e33c 319a a6bc 3606 29bc
000003a0: 06ff 08bb a615 4fba d5a5 8abd b5b6 47bd
000003b0: b1f5 0c3e 348a 493d 3f8d c6bd 8de4 78bd
000003c0: bb40 253d f82d 6ebd fc3f 043c 0d5f 033e
000003d0: e7fd dbbc ef8d 8fbd a37f 3fbd f842 983b
000003e0: 38c7 cdbb 36eb 0cbd 982d 623c b145 483c
000003f0: a8b2 c33c 7c87 02bd 30d2 eebd 7de7 df3d

lstm.weight_hh_l1 f4 [512, 128]
-0.050271407 -0.06135377 -0.07961536 0.019167036 0.09451837 -0.02228825 -0.011758044 0.01600379
0.017782528 0.06423001 0.0667892 0.020851152 -0.021400468 -0.031357482 0.009911796 0.03872357
0.03895684 -0.07149041 -0.067273475 0.014465456 -0.069702305 0.09540903 -0.024062924 0.11187081
-0.062175974 0.05542191 -0.056265287 0.024272911 -0.013734348 0.026467526 -0.00053607556 -0.04924278
0.07529001 -0.10460628 -0.07194789 0.061113052 -0.049826093 -0.043021496 -0.0045170365 0.06015426
-0.10026223 0.04022169 0.032753207 0.04491183 -0.02225491 -0.080537714 -0.089090474 0.009358356
-0.073967725 -0.051158953 0.04308256 -0.08354657 -0.04716843 0.05222501 -0.045023873 0.0776506
0.06937215 0.05036199 0.06642361 -0.007705361 0.060002346 -0.02548901 -0.10261028 0.0026772113
-0.04616462 -0.016588176 0.000648566 -0.028187096 0.04908397 -0.010340347 0.037625685 -0.0077040447
-0.055056963 0.059303634 -0.07030399 -0.032682072 -0.03588321 -0.026235381 0.014049015 0.07812983
0.043739438 0.016388496 -0.051946707 -0.036472127 0.026410285 0.07228773 -0.031028893 0.01789893
-0.05229444 -0.0049128397 -0.009658448 0.09052242 -0.0325576 -0.07796301 0.025731694 -0.047282558
0.07178325 0.022296414 0.11163827 -0.016608994 0.014315219 0.029180203 -0.009555403 0.06880429
0.0030214775 -0.0037132269 0.030746466 -0.06131224 -0.07113996 0.08274157 0.020947048 -0.03616259
-0.052941117 0.043456435 0.06857039 -0.006071564 0.012756255 -0.05458603 0.042036988 0.004115204
0.054246694 0.033078622 0.12917057 0.058335178 0.014429658 -0.03911258 0.014921932 0.047650903
-0.043075074 -0.07944372 -0.036447573 -0.05388744 0.058406133 0.062910385 -0.04451783 -0.0007840677
-0.051570293 -0.037041854 -0.04643386 -0.05329741 -0.08449066 0.0037612012 0.07651843 -0.020742262
-0.07848447 -0.045650583 -0.06764661 -0.07095176 0.09615369 0.016804824 -0.04335677 -0.06420651
-0.077100396 -0.026416494 -0.022020692 -0.0029099453 0.0066346345 -0.03872894 0.042119175 0.016687809
0.036624257 -0.09154322 0.015675703 -0.025433503 0.07460398 -0.0544261 0.0056335055 0.09038425
-0.021338517 -0.037838012 -0.073532075 0.0028832133 0.009255549 -0.07941821 -0.08233241 -0.016990947
0.07305937 0.052511904 0.054998502 -0.03300564 -0.07670187 -0.063612126 -0.061004233 0.023539627
0.07178802 0.0040958105 -0.025570942 0.071735054 0.0035546883 -0.017706325 -0.0583676 -0.097481064
0.055524543 -0.049957443 0.047875743 -0.06812563 -0.044108447 0.042883877 0.058887266 -0.010309179
-0.09865932 -0.07374634 -0.0069121197 0.085026465 -0.057820532 -0.065674074 -0.07966398 0.075149715
-0.006559686 -0.0056042233 -0.032309014 -0.009751774 -0.04387262 0.008501021 0.04336287 0.027853454
-0.031683862 0.04108167 0.062200878 0.047025457 -0.09021825 0.012735871 -0.07748 0.09053393
-0.060278315 0.03750787 0.073246114 0.044700038 0.0066717644 -0.05828069 -0.0333954 -0.0851514
0.010131909 -0.07843829 -0.0059489766 -0.07831005 0.028070569 0.015413803 0.071073614 -0.062298294
0.01431284 0.028391527 0.01454568 0.011471047 0.055838447 0.0036624214 0.07128239 -0.054591887
-0.101472385 0.028631426 -0.0012590409 -0.039084528 0.044115078 -0.022052335 0.025566882 -0.039933424
00000000: 64e9 4dbd 174e 7bbd 610d a3bd 3004 9d3c
00000010: d992 c13d d995 b6bc d0a4 40bc 611a 833c
00000020: aaac 913c 068b 833d c7c8 883d 09d0 aa3c
00000030: 0950 afbc b470 00bd 1665 223c 9b9c 1e3d
00000040: 3591 1f3d 9069 92bd adc6 89bd 8500 6d3c
00000050: 15c0 8ebd cf65 c33d 9c1f c5bc 861c e53d
00000060: 3cac 7ebd 1602 633d 6e76 66bd fcd7 c63c
00000070: 0806 61bc 6dd2 d83c 6c87 0cba ccb2 49bd
00000080: a631 9a3d d13b d6bd 6a59 93bd ae51 7a3d
00000090: 7216 4cbd 4f37 30bd a603 94bb 5064 763d
000000a0: 4956 cdbd 80bf 243d 3a28 063d 78f5 373d
000000b0: ee4f b6bc f5f0 a4bd 1175 b6bd ca53 193c
000000c0: 647c 97bd 0d8c 51bd 5777 303d 771a abbd
000000d0: af33 41bd e4e9 553d f46a 38bd 4707 9f3d
000000e0: fc12 8e3d 6048 4e3d 1a09 883d 417d fcbb
000000f0: 05c5 753d 54ce d0bc 5725 d2bd 2774 2f3b
00000100: 1d17 3dbd ede3 87bc 8704 2a3a a0e8 e6bc
00000110: 460c 493d 8f6a 29bc 641d 1a3d 3672 fcbb
00000120: 6983 61bd 5ee8 723d 8afb 8fbd a3dd 05bd
00000130: 46fa 12bd 95eb d6bc d72d 663c 8802 a03d
00000140: 2028 333d 2b41 863c 12c6 54bd cc63 15bd
00000150: 625a d83c 970b 943d 4e30 febc c7a0 923c
00000160: b232 56bd e3fb a0bb 783e 1ebc d263 b93d
00000170: 1e5b 05bd 12ab 9fbd 46cb d23c 5bab 41bd
00000180: 1903 933d f8a6 b63c 9ba2 e43d 960f 88bc
00000190: 618a 6a3c 520b ef3c 448e 1cbc 43e9 8c3d
000001a0: fb03 463b 9c59 73bb 03e0 fb3c 8b22 7bbd
000001b0: d4b1 91bd 6a74 a93d 2599 ab3c 391f 14bd
000001c0: c9d8 58bd 60ff 313d a26e 8c3d f8f3 c6bb
000001d0: 9dff 503c 9a95 5fbd fa2e 2c3d d5d8 863b
000001e0: c831 5e3d 737d 073d 4a45 043e def0 6e3d
000001f0: 5f6a 6c3c 8334 20bd 1e7b 743c 982d 433d
00000200: 7d6f 30bd 64b3 a2bd 0d4a 15bd 14b9 5cbd
00000210: 453b 6f3d 29d7 803d 5458 36bd e589 4dba
00000220: 5f3b 53bd 33b9 17bd 6e31 3ebd 634e 5abd
00000230: 7009 adbd 7c7e 763b b2b5 9c3d adeb a9bc
00000240: 77bc a0bd 1bfc 3abd 4e8a 8abd 284f 91bd
00000250: 3aec c43d 45aa 893c de96 31bd b47e 83bd
00000260: d0e6 9dbd 6767 d8bc bd64 b4bc c8b4 3ebb
00000270: 5967 d93b 3da2 1ebd 2885 2c3d dfb4 883c
00000280: 5103 163d 037b bbbd 556a 803c ec59 d0bc
00000290: f9c9 983d e7ed 5ebd 4599 b83b 611b b93d
000002a0: 1dce aebc 08fc 1abd fc97 96bd 4bf4 3c3b
000002b0: 96a4 173c 04a6 a2bd e59d a8bd 9930 8bbc
000002c0: 27a0 953d b916 573d 1c46 613d ec30 07bd
000002d0: df15 9dbd 1347 82bd 93df 79bd 2dd6 c03c
000002e0: 9905 933d 2636 863b 277a d1bc d4e9 923d
000002f0: c6f5 683b db0c 91bc dd12 6fbd 27a4 c7bd
00000300: b46d 633d 2da0 4cbd 5b19 443d 7385 8bbd
00000310: 0fab 34bd 01a7 2f3d c633 713d d5e7 28bc
00000320: e60d cabd 5208 97bd 107f e2bb 5b22 ae3d
00000330: 39d5 6cbd 2180 86bd de26 a3bd 18e8 993d
00000340: a2f2 d6bb a2a3 b7bb 7556 04bd e8c5 1fbc
00000350: c7b3 33bd de47 0b3c 449d 313d ed2c e43c
00000360: f0c6 01bd 4145 283d 59c6 7e3d c49d 403d
00000370: 59c4 b8bd 1daa 503c d6ad 9ebd da69 b93d
00000380: 65e6 76bd daa1 193d 0f02 963d 6317 373d
00000390: d19e da3b bcb7 6ebd 9dc9 08bd db63 aebd
000003a0: 4e00 263c 41a4 a0bd a2ef c2bb 0561 a0bd
000003b0: 40f4 e53c 2d8a 7c3c 0b8f 913d 7f2c 7fbd
000003c0: 6780 6a3c 5995 e83c 0151 6e3c 0ff1 3b3c
000003d0: dbb6 643d 3c05 703b 80fc 913d be9b 5fbd
000003e0: c1d0 cfbd 748c ea3c 6706 a5ba 1917 20bd
000003f0: 03b2 343d 19a7 b4bc a371 d13c 3b91 23bd

lstm.bias_ih_l1 f4 [512]
-0.019830655 -0.013050271 0.03116757 -0.015590152 0.043896303 -0.04538411 -0.077296875 -0.053611144
0.023377772 -0.033411976 0.07441414 -0.037021928 0.089247786 0.020278877 -0.00591355 -0.06967567
-0.046456337 0.082410514 0.051913425 -0.023424627 -0.07303496 0.112075195 0.0014461484 -0.02403377
0.017030882 -0.047627084 -0.0135029815 0.07399704 0.10979523 -0.026640913 0.0061583384 0.048343632
0.020327477 0.070462815 0.010979385 -0.018040096 0.046036873 0.06157835 -0.036857218 -0.028074386
0.055369448 0.07031174 -0.025522605 -0.037386905 -0.086441085 0.06911426 -0.07919207 0.06421784
-0.04456117 0.028228724 -0.05039821 -0.07354941 0.01717951 0.066100344 0.025627747 -0.060152017
-0.028445518 0.08656429 0.052564684 -0.059036292 -0.05686384 0.09020728 0.07200795 0.014451637
0.0005104635 0.09374906 0.07050628 -0.031417433 -0.03165512 0.049010925 -0.014623619 0.0076952013
0.0032552239 -0.011172466 0.0327838 -0.01770917 -0.056238092 0.0431037 0.06655647 -0.008917393
0.013057765 -0.026178379 -0.04823639 0.04554784 -0.056657404 -0.058790382 0.046447128 0.04474658
-0.023185557 0.049004547 0.06005603 0.025178771 -0.003570034 -0.07382244 -0.06251129 0.0943225
-0.048277423 -0.030135272 0.046242665 0.087573625 0.03426873 0.08794764 -0.054043733 -0.0001460904
0.05750639 0.0024588387 0.05515057 -0.052086063 0.03146564 -0.07099008 0.07006706 0.04742703
-0.07721887 -0.03860723 0.015822684 -0.0008799762 0.10263379 -0.05369669 0.034906156 0.088322364
-0.07359557 0.06358831 0.017654175 0.056213055 -0.009675172 0.046450008 -0.023830365 -0.032731317
-0.06917635 -0.0132713 0.006651756 0.022687849 -0.032558117 -0.030625321 -0.014736491 0.08803646
0.052524652 0.07725181 0.035566293 -0.023307897 0.090784 0.053954773 -0.0067364126 0.07061238
-0.072002284 -0.032571785 -0.09196981 0.08312542 -0.039949723 0.05077754 -0.006000684 0.0049708155
0.068675876 0.091641836 0.0717909 -0.011058556 0.052182924 -0.03752133 0.08248788 0.012573573
-0.08359118 0.010882203 -0.059547015 -0.03499574 0.037421793 -0.022001555 -0.019005354 0.030871099
0.0072406824 0.016729513 0.081995204 -0.022807494 -0.03520128 0.07798556 0.047535624 0.062491603
0.006130692 0.09130748 0.019786092 -0.02379911 -0.021980207 0.021434471 0.038875762 0.05559767
-0.078566134 0.056110535 0.04416355 -0.030220851 0.086328775 -0.015449489 0.020809902 -0.002745713
0.1067501 0.06492688 0.045373343 -0.056014583 -0.07062378 0.00987488 -0.074174166 -0.015046336
-0.0655219 -0.08605154 0.07500642 0.08164612 0.024701703 0.013279303 -0.052481543 0.06399659
-0.05781467 0.06740176 -0.019309144 0.07156144 0.066741265 -0.045722462 -0.059735477 0.08029461
-0.06304488 -0.031971514 0.04685216 -0.024271892 -0.0028354947 -0.040535647 -0.015064071 -0.031031037
0.0020733422 -0.013530487 -0.0801822 0.07285199 -0.025450157 -0.032716367 -0.059640516 -0.071442015
0.08469762 0.02063495 0.07818614 -0.024919422 -0.008868123 0.08457751 0.11705083 -0.030600471
0.041696213 0.08459152 0.016087875 0.007399074 0.016037194 0.02607447 0.10407963 0.026077798
0.024683086 0.09256542 -0.04713163 -0.06619374 -0.04913122 -0.056610063 0.028097013 -0.072807424
00000000: e673 a2bc ced0 55bc 2253 ff3c d66d 7fbc
00000010: 9ccc 333d b0e4 39bd d34d 9ebd 5c97 5bbd
00000020: be82 bf3c ffda 08bd 7166 983d 4ea4 17bd
00000030: 8bc7 b63d e31f a63c 74c6 c1bb 1eb2 8ebd
00000040: 0049 3ebd d8c6 a83d 2ca3 543d 01e5 bfbc
00000050: 5a93 95bd ae87 e53d b08c bd3a 78e2 c4bc
00000060: 5984 8b3c 9e14 43bd 9c3b 5dbc c38b 973d
00000070: 52dc e03d 0b3e dabc e3cb c93b f903 463d
00000080: cf85 a63c cf4e 903d e1e2 333c d3c8 93bc
00000090: 2991 3c3d 9439 7c3d 98f7 16bd 41fc e5bc
000000a0: 13cb 623d 9aff 8f3d c814 d1bc 0323 19bd
000000b0: 0608 b1bd c78b 8d3d 742f a2bd a584 833d
000000c0: c685 36bd ed3f e73c 5a6e 4ebd 13a1 96bd
000000d0: 0bbc 8c3c 9e5f 873d 48f1 d13c f661 76bd
000000e0: 9306 e9bc 9e48 b13d 114e 573d 0ad0 71bd
000000f0: 0fea 68bd 98be b83d e778 933d 8fc6 6c3c
00000100: a0d0 053a 82ff bf3d 9965 903d 91af 00bd
00000110: cda8 01bd aebf 483d e797 6fbc 0728 fc3b
00000120: 9855 553b b80c 37bc 4e48 063d d212 91bc
00000130: ea59 66bd 818d 303d c24e 883d 421a 12bc
00000140: 3cf0 553c 0a74 d6bc 8593 45bd 5f90 3a3d
00000150: 9811 68bd 2fce 70bd 583f 3e3d 3148 373d
00000160: a3ef bdbc feb8 483d 50fd 753d b643 ce3c
00000170: 3bf7 69bb 3830 97bd eb05 80bd 282c c13d
00000180: 8cbe 45bd 3fde f6bc f368 3d3d cd59 b33d
00000190: 5e5d 0c3d e41d b43d f65c 5dbd d82f 19b9
000001a0: d28b 6b3d 7824 213b 90e5 613d 3258 55bd
000001b0: 1de2 003d 3f63 91bd 527f 8f3d d842 423d
000001c0: ed24 9ebd 9d22 1ebd 939e 813c 34ae 66ba
000001d0: aa31 d23d 0ff1 5bbd c2f9 0e3d 5be2 b43d
000001e0: 46b9 96bd 963a 823d 7d9f 903c a93f 663d
000001f0: 9d84 1ebc 5d42 3e3d e637 c3bc 4611 06bd
00000200: 55ac 8dbd de6f 59bc f9f6 d93b dedb b93c
00000210: a95b 05bd f4e1 fabc 5371 71bc 764c b43d
00000220: 1724 573d 3236 9e3d f6ad 113d 34f0 bebc
00000230: f6ec b93d aeff 5c3d 20bd dcbb 399d 903d
00000240: ef75 93bd fe69 05bd ab5a bcbd a93d aa3d
00000250: 52a2 23bd 1cfc 4f3d 63a1 c4bb 39e2 a23b
00000260: f0a5 8c3d b7ae bb3d 1b07 933d f22e 35bc
00000270: c3bd 553d f7af 19bd 68ef a83d 6301 4e3c
00000280: da31 abbd 444b 323c 92e7 73bd b157 0fbd
00000290: 9847 193d 9b3c b4bc 1eb1 9bbc 63e5 fc3c
000002a0: 3f43 ed3b 550c 893c 1aed a73d c8d6 babc
000002b0: 382f 10bd e5b6 9f3d b7b4 423d 32f7 7f3d
000002c0: f9e3 c83b 6bff ba3d 7116 a23c 5af6 c2bc
000002d0: d60f b4bc 5897 af3c 313c 1f3d 62ba 633d
000002e0: 48e7 a0bd 29d4 653d d7e4 343d b891 f7bc
000002f0: 24cd b03d da1f 7dbc 8779 aa3c 6cf1 33bb
00000300: cc9f da3d 62f8 843d 66d9 393d 8c6f 65bd
00000310: 33a3 90bd 40ca 213c a0e8 97bd e884 76bc
00000320: 5930 86bd ca3b b0bd f79c 993d 1536 a73d
00000330: 3a5b ca3c 6f91 593c e3f6 56bd a510 833d
00000340: 13cf 6cbd ef09 8a3d 362e 9ebc ce8e 923d
00000350: a5af 883d 7a47 3bbd 30ad 74bd 8071 a43d
00000360: ad1d 81bd 90f4 02bd 0de8 3f3d d9d5 c6bc
00000370: b5d3 39bb b508 26bd 4bcf 76bc cd34 febc
00000380: e9e0 073b faae 5dbc 9136 a4bd 6d33 953d
00000390: d97c d0bc 9901 06bd 9d49 74bd 3150 92bd
000003a0: f275 ad3d a00a a93c 0e20 a03d d123 ccbc
000003b0: 9b4b 11bc f936 ad3d 58b8 ef3d d7ad fabc
000003c0: a6c9 2a3d 523e ad3d b8ca 833c ee73 f23b
000003d0: 6f60 833c 209a d53c b327 d53d 1ba1 d53c
000003e0: 2f34 ca3c f092 bd3d 190d 41bd 9590 87bd
000003f0: d13d 49bd f4df 67bd b52b e63c 0f1c 95bd
