Data/PredictionsData/AB12.pth (torch, 828430 bytes, 10 tensors)

lstm.weight_ih_l0 f4 [512, 13]
00000000: 3ed1 553d 90a7 c63d 6bc9 323d 31e6 f03c
00000010: a840 d13d a04d 203e 910a 503d e404 063d
00000020: 1c7c b73c 182d 043c 1989 853d 95d6 e43c
00000030: 1f53 99bd b524 153c b241 90bd 4b4c 303d
00000040: 5b94 8dbd 9ec8 bf3d 1286 c83d 43fc 23bd
00000050: 42d5 6e3c d0b6 34bd 38ac 9539 6bcf 6c3d
00000060: 8dde 1fbe 28bd 043e 5351 0bbd 90b9 5d3d
00000070: 0a6a 0f3b 6659 f5bd 5621 60bd e625 9c3d
00000080: f09b b83d f976 02be c2aa 403d 0513 9bbb
00000090: ead3 02bc ccff 173d b538 f9bc 6cd0 b8bc
000000a0: 4f9e 26bc 5d92 4f3c 4133 5fbd 9ab7 bdbd
000000b0: 6dd2 d13b 44c2 abbd 4314 933d c381 413c
000000c0: 62a8 e63c 9f81 133d b82b a93d ba33 2cbd
000000d0: 4fc7 0d3d 19ad 9ebd 3504 723d de24 153d
000000e0: 6ee2 4f3d d90c 7dbd c6b5 4c3b d9db e83d
000000f0: 4ff2 23bd 71c0 6bbc 221f 083d 36c5 ddbc
00000100: 3de0 12bd eac9 933b 3f65 a33d 3bfa da3d
00000110: dae5 c23d a76c 133d 89ca 3a3d 345e 88bd
00000120: f480 cebc bac0 b8bb 8099 bb3d daf1 3dbc
00000130: 6bc1 94bb 0b29 06bd 70a1 99bd f40b 3ebd
00000140: 460f 8e3d 8580 9e3d 9918 de3c 04fb 3e3d
00000150: c316 21bd 4ec8 9b3d 6391 a83c 9d22 02bd
00000160: 78e8 883d 0b18 943d 6841 ec3d 2e77 98bb
00000170: 1361 a03a 1b54 7bbd c2f6 53bd bb0a 55bc
00000180: feaa eabc 01a1 6b3d c2bd dc3d 3565 af3d
00000190: 20c4 a2bd b3ff 05be d5d7 88bd 004f 303d
000001a0: a75b 7b3d c4eb 623d 5a81 8f3d 3cb9 0d3d
000001b0: c050 ee3b 50d2 20bd 81df eb3c fd42 bc3d
000001c0: 8c3f aabd 24c4 7e3d c2e6 34bd 0df3 2d3d
000001d0: 160a 893d 53c6 fb3c ae5c e8bc 9bfd 8e3d
000001e0: 1f23 cd3d 83f7 933d a1c9 bfbd 7905 0cbe
000001f0: 1d02 0c3e 027c 6e3b 69f6 6f3d d5bf 043d
00000200: f60d 383d 4381 d13d 0c69 943d 5c2a 85bc
00000210: 61e3 ae3d 083e 80bc 10eb 543d 8c80 55bd
00000220: 8e2a 14bb 613a e13d 7ba0 ce3d 969a 9dbd
00000230: 9608 b8bc 39d7 44bd c95d 903c 2b7e e83d
00000240: ea10 373c 1141 a23d 0583 823c fa9c 6c3b
00000250: ab0b c0bd fb04 88bd 1e3f 263e f47a 103b
00000260: b2e6 7d3d 9a25 c4bd 49c7 4ebd 629c 99bc
00000270: 53ab 58bd 6a9f 9dbd 6f52 463d 2594 173d
00000280: d04a 9bbd 84e0 cabc 4c16 1fbd 0fb1 733b
00000290: 2a2f be3c 8ea5 48bd 4f4b 87bd abf0 e73c
000002a0: 8d31 913d e6d2 14bd 25b3 643d 485b 8f3c
000002b0: 5ed8 56bb 13d0 e93d d07a 21bb e6cc 45bd
000002c0: 5c6b 043e 760f 58bb 30ff 2a3e fea3 cf3c
000002d0: f2d1 8c3c 2d76 4bbd 711f 9b3d 9387 2dbd
000002e0: 8f36 97bd c53e dc3c 1071 efbc 7645 afbc
000002f0: 352f dc3d d66c 2c3d 64d6 e6bc c87f bb3c
00000300: 728e 543b f441 d83c dc5d 753d 5857 28bd
00000310: e75b 293d e995 523c f977 783d e072 debc
00000320: b56b 223d f6c2 c5bd f4fe 8ebd 7e26 203d
00000330: 9912 8fbd 0326 883d 9be7 193d 2942 97bd
00000340: bdc7 bc3d f63d 233d 1972 ae3d caf8 b03c
00000350: a9a1 d2bd 287c 2dbd fee6 353e 1eaa d73c
00000360: d922 e33b 7c0e 17bc 1544 84bd 8a93 fcbc
00000370: f1fb a63d 7141 b73c c12c a03c e19a 66bd
00000380: a1aa f7bc eb50 e7bc 054d 05bd f8f6 323e
00000390: a5bb 133d d1ac 86bc d6f2 e03d 4944 ccbc
000003a0: 235e a2bd b50e 1ebd 951e 9639 a0ce 843d
000003b0: e936 d43c ce05 703d 1fc4 4e3d 3835 afbd
000003c0: 5104 0ebd 3f89 0d3d b747 963d 291c 92bd
000003d0: 19ae 323d 32a1 1cbd 644e c0bc 9821 943d
000003e0: fb38 fc3c 25ed 09bd 20d2 0f3d 4399 b9bb
000003f0: 1258 ac3d d4d4 9ebd 73f7 5c3d 877d 033d
0.052201502 0.09699929 0.04364912 0.029406639 0.1021741 0.15654612 0.050791327 0.032719508
0.022398047 0.008067392 0.0652029 0.027934352 -0.07486557 0.00910299 -0.070437804 0.04304151
-0.06913062 0.093644366 0.09791197 -0.040035497 0.014577212 -0.044119656 0.00028547808 0.057814997
-0.1561224 0.12962782 -0.034013104 0.054132044 0.0021883273 -0.11979942 -0.05471929 0.07624416
0.09014118 -0.12740697 0.047037847 -0.004732492 -0.007985095 0.03710918 -0.030422548 -0.02256032
-0.01016958 0.012669173 -0.05449224 -0.09263535 0.0064032585 -0.083866626 0.07181599 0.011810723
0.028156463 0.03601229 0.08260292 -0.042041518 0.034613904 -0.077478595 0.059086043 0.036412112
0.05075305 -0.06177983 0.0031236275 0.113700576 -0.040026005 -0.014389143 0.033232816 -0.027071577
-0.03585838 0.004510154 0.079782955 0.10692259 0.09516497 0.03599229 0.04560331 -0.06658593
-0.025207974 -0.005638209 0.09160137 -0.011593306 -0.004539659 -0.032753985 -0.07501495 -0.04639812
0.06936507 0.07739357 0.027111338 0.046626106 -0.039328348 0.076065645 0.020577138 -0.03177129
0.06684965 0.07231148 0.11535913 -0.004652879 0.0012235962 -0.061359506 -0.051749 -0.013003047
-0.028645989 0.057526592 0.10778381 0.085642256 -0.07947564 -0.13085823 -0.06681792 0.04304409
0.061366703 0.055400625 0.07007094 0.03460048 0.0072728097 -0.03926307 0.028793098 0.091924645
-0.08312902 0.062198773 -0.04416538 0.04246812 0.06691377 0.030734217 -0.028364506 0.06981965
0.100164644 0.072249435 -0.093646295 -0.13673963 0.13672681 0.0036389832 0.058584604 0.032409508
0.04493519 0.10229733 0.072465986 -0.01625555 0.08539463 -0.015654579 0.051981986 -0.052124545
-0.0022608372 0.10997463 0.10089203 -0.076955006 -0.022465032 -0.048056815 0.017622845 0.1135219
0.011173466 0.07922567 0.015931616 0.0036104308 -0.093772255 -0.06641575 0.16235015 0.0022045942
0.061987586 -0.095774844 -0.050483022 -0.018751327 -0.052897763 -0.076964214 0.04841846 0.037006516
-0.07582629 -0.02476526 -0.038839623 0.0037184393 0.023215849 -0.04898601 -0.06606161 0.028313002
0.07089529 -0.03633394 0.055834908 0.017499581 -0.0032782773 0.1141664 -0.0024639852 -0.04829111
0.1293158 -0.00329682 0.16698909 0.025346752 0.017189953 -0.049673248 0.07574356 -0.04236562
-0.07383453 0.0268854 -0.029228717 -0.021395426 0.107511915 0.04209598 -0.028178401 0.02288808
0.0032433537 0.026398636 0.059903964 -0.041098922 0.04134741 0.012853124 0.06066129 -0.027154386
0.0396535 -0.096563265 -0.06982222 0.03909921 -0.06985969 0.06647875 0.03757439 -0.07385666
0.092177846 0.039854012 0.08517856 0.021603007 -0.102847405 -0.042354733 0.17763898 0.026326235
0.0069316444 -0.009219762 -0.06458298 -0.03083207 0.08153523 0.022370072 0.01955259 -0.056300048
-0.03023273 -0.028236827 -0.032544155 0.17477024 0.036067624 -0.016439827 0.10983817 -0.024934905
-0.079281114 -0.038588244 0.00028633015 0.06484723 0.02590509 0.058599286 0.050480004 -0.085550725
-0.034672085 0.034554716 0.07337897 -0.071342774 0.043623064 -0.038239665 -0.02347488 0.0723297
0.03078889 -0.033673424 0.0351125 -0.005664022 0.084152356 -0.077554375 0.053946923 0.032102134

lstm.weight_hh_l0 f4 [512, 128]
00000000: e756 5e3d 3647 dabd 602c 2ebd d924 16bd
00000010: 05d0 89bd 2f7d fabc df91 743d e99f 193d
00000020: 99ca 803d d9a3 e1bd 10b0 97bd 1762 82bd
00000030: 6ff2 09be 7186 d93d fc80 52bd 7c63 82bd
00000040: 6d32 8ebc 85ad acbc ac3b fb3c 42c8 babb
00000050: 76eb 16bd 9523 fb3c d39d 02be 3bd0 f1bb
00000060: 2a1d 043b 061d 623c 3025 d63d cca8 c8bd
00000070: 2eca a43d 85dd 8d3d aa8f b7bc f2de 0f3c
00000080: 0458 75bd ee67 5ebd cda8 153d ebae a13a
00000090: 840e 4fbd 356d 21bd c81f 78bd 7ce2 943d
000000a0: 72ff 723d 8061 7c3d 9fb1 35bd 8f0b 82bd
000000b0: a378 ddbd 491e 2e3d 1a08 1f3b 5baf ab3d
000000c0: 4b7d 54bd 3999 87bc 008c 363d 97bb 5f3d
000000d0: 1198 043d 5e43 efbd fd4e b83c 8d03 20bc
000000e0: 708b 74bd 3b43 c33b c5ed 91bd 5973 a23b
000000f0: a9e4 1c3d b0ad a93d 5e14 ed3c 6aac 9b3d
00000100: 38cc 763c cba3 aabd 25b1 86bc 6321 e73d
00000110: 913c 023e 022a cfbd 1ad0 8b3c db22 8dbc
00000120: 300f 823d b552 adbd 97d2 01bd 5003 fb3c
00000130: 1018 3fbc 3ed1 153d 7e4c d83c efd4 f8bb
00000140: 84ca 403d d21f 953c 5cce b73c 1345 5abd
00000150: 1ad7 8b3d 106f 473d 2e88 aebd fa83 8e3c
00000160: 00f0 8dbb 4ec6 4b3d b77c 843c 285a 30bd
00000170: e149 133d 6aaa 5ebd 68a1 6b3a 9848 c9bd
00000180: 52a9 973c 0703 0abc a394 253d b390 e0bd
00000190: e706 d83d 2a35 2a3d fc72 8e3d 9cd7 193d
000001a0: c074 df3d 54df 9f3b 7ae1 433d eea4 943c
000001b0: 80b8 1e3b ae11 8f3d bcaf c93d 8d3d 9c3b
000001c0: 12a3 afbd abb4 50bd ddc6 2cbd 3d12 22bd
000001d0: b5ce 7c3d d0d0 383d 3f64 343d 561d 9a3d
000001e0: 2998 5d3d 7966 8fbd 4d9f 2abd c635 463d
000001f0: 0db0 4dbd 789a 98bc a9c6 debd deb0 663c
00000200: dcc2 96bc 3f55 e9bc 0fae 7f3d f5f3 09bc
00000210: 66bb cd3d c245 3fbc a561 9ebd 639e 3d3d
00000220: 0d9e 9bbd 3aa6 d7bc d9c1 4b3d 48c0 c43d
00000230: e38f 2abd 5e15 83bd ae93 68bd 166a 253d
00000240: 07ea afbb 2994 cfbd 3788 073c 07f8 0a3d
00000250: f879 803d 205d b43d a25c a5bd 2f70 98bd
00000260: 7b21 593d 5289 2a3d 36be 3c3d 29be dfbd
00000270: 4b30 4c3d 9626 483d 6c58 0bbe 6932 24bd
00000280: 643f b13d 2217 16bd c697 1db9 8f4e 343d
00000290: c152 11bd 6718 bf3d 72e0 94bc 53d6 95bd
000002a0: c447 63bc 129d 183b 5788 eb3d 39c9 323b
000002b0: fcfb b4bd c998 80bd e132 953d ebbf a7bd
000002c0: 619a d6bd a40e 8b3d 35b0 3c3d ddc1 983c
000002d0: d3e8 33bc eeb6 9e3b 0f94 873d 2c8c 94bd
000002e0: db0c 943b bbed efbd 817d 123c a957 f7bc
000002f0: 9e7e 6bbd 29e3 97bb e2d4 35bd f398 f93c
00000300: d70d 213d 0b9d e53c 49e2 77bd caf5 0c3d
00000310: 18b8 33bd 8f98 c33d 7a51 54bd a8eb b73d
00000320: d9b3 bc3c 8e0e 20bd e0f3 10bd 2b7e 89bd
00000330: dcf1 8c3c ee2d af3d 2854 8e3d 62ee bb3d
00000340: 5bd0 2ebc 0b7b 353d 4c83 68bd 8aa2 8bbd
00000350: 06df 9cbd f853 f5bc a761 b3bd e375 f0bd
00000360: 3357 b8bd 8f9d 5d3b 2cda 363d db3f b63b
00000370: ecc3 893d 7824 0a3e 366c c9bd c1e0 943d
00000380: adb8 70bd d90e 86bd 8806 48bd 8262 8ebc
00000390: f7aa 05bd bd42 e939 2e0b 8ebd e5ee a13c
000003a0: 5dde 713d e519 d3bd 0be2 fd3b e872 debd
000003b0: 7878 75bd 439d 6fbd de0d 6bbd c4c9 7dbc
000003c0: 2f70 8b3d 04d7 37bd 43da d8bc 9423 4abd
000003d0: 50bc 723d 0c38 433c 92a5 073d 02a3 84bd
000003e0: e93e e0bc 521c 963c 0f95 e73c 05aa 44bd
000003f0: 3169 8bbd c25e a43d 7ae4 4f3d 80b6 1fbd
0.054282095 -0.10658114 -0.042522788 -0.036656234 -0.0672913 -0.03057727 0.059709426 0.037506018
0.062886424 -0.110175796 -0.07406628 -0.063663654 -0.13471387 0.10621346 -0.05139254 -0.063666314
-0.01735803 -0.021078834 0.030668102 -0.005700142 -0.036845647 0.030656615 -0.12755518 -0.0073795593
0.0020158985 0.013800865 0.10456312 -0.097978204 0.08046375 0.06927017 -0.022407372 0.008781182
-0.05989839 -0.054298334 0.036537934 0.0012335455 -0.050550953 -0.03941079 -0.060577184 0.07269761
0.059325643 0.06161642 -0.044358846 -0.06349861 -0.10814025 0.04250935 0.0024266304 0.08383056
-0.0518773 -0.016552554 0.04456711 0.05462226 0.032371584 -0.11682771 0.022498602 -0.009766472
-0.05970329 0.005958942 -0.07125429 0.004957598 0.038304005 0.082850814 0.028940376 0.07601245
0.015063338 -0.08332022 -0.016441891 0.11285665 0.12718417 -0.10115434 0.017067004 -0.017228534
0.06350553 -0.08463041 -0.031694975 0.030641228 -0.011663452 0.036576502 0.026403662 -0.007593743
0.047068134 0.01820365 0.022437267 -0.05328853 0.06828137 0.0486899 -0.08522068 0.017396916
-0.0043315887 0.049749665 0.01617275 -0.04305473 0.03595913 -0.05436174 0.000898859 -0.09828299
0.018513355 -0.008423573 0.040424954 -0.10965099 0.105481915 0.041554607 0.06955525 0.037559137
0.1091094 0.0048789177 0.047822453 0.01814505 0.0024218857 0.06985794 0.09847972 0.0047680796
-0.08576025 -0.05095355 -0.04218184 -0.039568175 0.06172057 0.045121014 0.044040915 0.07525127
0.05410019 -0.07001967 -0.041655827 0.048391126 -0.050216723 -0.018628344 -0.10877735 0.014080254
-0.018403463 -0.028483031 0.062421855 -0.00841998 0.10045509 -0.011674346 -0.07733468 0.046293627
-0.07598505 -0.02632438 0.049745414 0.09606987 -0.041641127 -0.0640056 -0.056781463 0.040384375
-0.0053684744 -0.10135681 0.008272222 0.033927944 0.06273264 0.08806825 -0.08074309 -0.07443272
0.053010445 0.041634865 0.046079837 -0.10924942 0.049850743 0.048864923 -0.13607949 -0.040087137
0.08654669 -0.036643155 -0.00015029227 0.04402023 -0.03547931 0.09330826 -0.01817343 -0.0731627
-0.013872091 0.002328698 0.11500614 0.0027280583 -0.08837125 -0.062791415 0.07285095 -0.08190902
-0.10478664 0.06789902 0.04606648 0.018647129 -0.010980803 0.0048435843 0.06620037 -0.07253298
0.004518134 -0.11715265 0.008941055 -0.030193167 -0.0574938 -0.004635234 -0.044392474 0.03046844
0.03931984 0.028028985 -0.060518537 0.03441409 -0.043876737 0.095505826 -0.051835515 0.08980495
0.023034977 -0.03907638 -0.035388827 -0.06713518 0.017205171 0.08553682 0.06949645 0.09176327
-0.010669793 0.044306796 -0.05676584 -0.06818111 -0.07659726 -0.029947266 -0.0875886 -0.11741235
-0.09001007 0.0033815836 0.04464166 0.0055618114 0.06726822 0.13490474 -0.09835093 0.07269431
-0.05876987 -0.06545801 -0.048834354 -0.017380957 -0.032633748 0.00044490947 -0.06935726 0.019767234
0.059049953 -0.10307673 0.0077478937 -0.108617604 -0.05992934 -0.058499586 -0.05738627 -0.015489999
0.06808507 -0.04488279 -0.026471263 -0.049350336 0.05926162 0.011915218 0.033116885 -0.06476404
-0.027373748 0.018324051 0.028269319 -0.048013706 -0.06807173 0.08025886 0.050755 -0.038992405

lstm.bias_ih_l0 f4 [512]
00000000: b147 3a3c c08c db3d 1177 1bbc 4fa6 37bb
00000010: e74f 2c3c ca83 37bd bf2f 1e3d f887 dabc
00000020: 3557 b23a b977 be3c 3165 243b 2eea d43d
00000030: 7d8e 1c3d fa35 5b3d 2f8d 413d 3781 4c3d
00000040: 09a9 45bd ae63 bc3d 37bd 973c 85e5 ae3c
00000050: 28f8 92bd a6f9 a2b9 3285 783d 42c2 9d3c
00000060: 2238 9abc f3b1 833d 7c3b 843d cb7c 423d
00000070: 9c11 973d b85d fc3c 82d3 083e 5887 753d
00000080: 3e90 28bd 6b31 cb3d 34bd 5a3d d60e be3d
00000090: caa2 963d 1589 b03d 3eb2 a63d 1fa4 9c3d
000000a0: f511 04bd ba50 1e3d f572 83bb ff34 cbbc
000000b0: 0c6c 913c bce6 923d 777e 383a ae47 9b3d
000000c0: 59e0 d13b c351 b83d f021 583d ef0d 833c
000000d0: e9cc 663b a037 843d ba4e 693d 7ddb 003e
000000e0: 9826 c03d 99e9 403d 3a73 cc3d f84a 32bd
000000f0: 5152 30bd d3df 21bc 434b 313c 5102 b13d
00000100: ae8c 2e3c a9de 7fbc 7b76 72bd 5812 33bd
00000110: 865a 0c3e ad99 f2bc 9dbc 64bd a3d8 a43d
00000120: ac7e 07bd 854a 4d3d 1e47 493d d74d 9dbc
00000130: 29ff 4a3c f38b 773c 656c 8a3d 06b8 003e
00000140: 9cf1 a43d 9eb3 babb e46c 6b3d f304 483d
00000150: a528 b53c 651e 38bd e2be b43d 2320 5a3d
00000160: 68dd 7b3d 43d5 c03d b290 10bd 2cf4 963d
00000170: cd24 9cbb 92ba 8ebc c7e0 013d ca23 1cbd
00000180: 3292 6a3d 8bbd 7fbc f0b3 e83b ca7b d63d
00000190: 4ffd 843d f086 9d3d f462 433d 96d7 913d
000001a0: a35c dbbc 3d6e b33d c5eb 6dbd 0c80 643d
000001b0: 571c 813c f125 933d df85 043e 6814 1b3d
000001c0: c758 1a3d f4a2 693d 3c29 2ebd 9062 973d
000001d0: fd60 1a3d a61f 623d 2700 f5bb 3463 a0bb
000001e0: b757 c1bb b625 dc3d a737 c0bc 9736 45bc
000001f0: a316 863d 4603 ef3d 87ab 333d 0239 c83d
00000200: 8714 d03d 5446 003e e6be b9bc 2e99 26bd
00000210: f617 81bc 25a0 c2bc ca04 e63d ed78 9a3d
00000220: 6ba1 d7bb 02cb f0bc 8298 f93a f3c5 e0bb
00000230: 38f7 a4bc 80ff e7bc ad8d 09bd bb7e e03d
00000240: 28a0 9dbc ddf9 4d3c 3e05 bbbc 3fac ad3d
00000250: 459c c03d a034 9ebc d235 943d 71e4 14bd
00000260: 57ba 233e f1cd 6c3d 58eb 87bd 7a8e e9bc
00000270: d7c9 493c 5aea c63d 0647 033e 320e bb3d
00000280: d1a6 a63d f01b 3dbd 3f51 e53d 3cbc 70bb
00000290: c5cf 6fb9 af3c 1dbc 29dc d8bb f2a4 fdbb
000002a0: 0b79 84bd 8958 99bc 7dc1 a6bc 4fe5 883d
000002b0: 9572 273b 0b2d 8bbc 3440 a5bb cb23 2ebd
000002c0: 61ea 88bb edad 323d c14a 463d f2f2 4b3c
000002d0: bd40 1b3d 26d2 053e e997 723c 3b34 8d3d
000002e0: 84c1 af3d 1c9d 603d 6800 6c3d 7fe9 26bd
000002f0: 7dd2 d33c 1325 df3d 710c 5f3c 7d5c d63d
00000300: 00ab 053b 765c 233c 2c73 7cbd ed27 d83d
00000310: 7b44 6e3d 3853 af3d 2e60 0bbd 6543 e03c
00000320: 1e38 5f3d a21b 9f3d 0a11 c63d 836c 0c3d
00000330: 416b 59bc f6de 9d3d c7e3 78bc d753 1bbd
00000340: e6a5 05bb 404c 423d da1c 6b3d 3364 b13d
00000350: acb5 a13d 4b54 b33d 91a8 3f3d d443 943d
00000360: 8bc5 543d fc9e a63d 0a83 8b3d 8ad5 403c
00000370: ef46 46bd 9b7a de3d 66e4 96bd f8ad 7ebd
00000380: 9b8c b03c b343 d53d 5075 d4bc 4c30 8f3d
00000390: ae07 aa3d 435b a0bc 81ad cc3c d31e 1c3d
000003a0: f5e9 de3d b4df c33d 6d3a b43b cac8 82bd
000003b0: edbe e03d d344 6ebd 17ec e43d 62b8 22bd
000003c0: 438b 563d efb8 4fbd 00bf 933d 7138 f73c
000003d0: 8636 e8bc daa6 033c 1e16 283d 9c9b 443c
000003e0: 3f59 ac3d bb2b c13d 2534 ca3d caf8 e33b
000003f0: 58ab 05bc 11e0 393d 5ab3 7d3d 5cd9 65bd
0.011369632 0.10720205 -0.009488837 -0.0028022712 0.010517097 -0.04480342 0.038619753 -0.026676163
0.0013606312 0.023250448 0.002508473 0.10396229 0.038221825 0.053518273 0.047253784 0.049927916
-0.048256908 0.091987 0.018522842 0.021349678 -0.07176238 -0.0003108505 0.0606739 0.019257668
-0.018825594 0.064304255 0.06456658 0.047482293 0.073764056 0.030806407 0.13361934 0.059943527
-0.041153185 0.09921535 0.053403094 0.092801735 0.07355268 0.08619896 0.08139466 0.07648491
-0.032243688 0.038651206 -0.0040115067 -0.024805544 0.017751716 0.07172915 0.00070378877 0.07582031
0.006404918 0.0899997 0.05276674 0.015997855 0.003521735 0.06455922 0.056959845 0.12583728
0.09382361 0.047097776 0.09982915 -0.043528527 -0.043047253 -0.009880024 0.010821166 0.0864302
0.010653658 -0.015617051 -0.059195023 -0.043718666 0.13706407 -0.029614294 -0.05584394 0.08049133
-0.033079788 0.050119895 0.04914009 -0.019202156 0.0123899365 0.01510905 0.06758956 0.125702
0.08053896 -0.0056976816 0.057476893 0.048832845 0.022114107 -0.04495086 0.088254705 0.053253304
0.061490446 0.094156764 -0.035294242 0.07370791 -0.004765129 -0.017422948 0.031708505 -0.03812007
0.05726833 -0.015609155 0.0071015283 0.1047283 0.06493627 0.07691753 0.04770179 0.07121198
-0.026777571 0.08761261 -0.058086175 0.055786178 0.015760584 0.07184971 0.12941693 0.037861258
0.03768232 0.05704017 -0.042519793 0.07391846 0.03769015 0.055205964 -0.007476825 -0.0048946384
-0.005900349 0.1074938 -0.023464037 -0.012036941 0.06547286 0.11670546 0.043864753 0.097764984
0.10160165 0.12526828 -0.022674035 -0.040673427 -0.015758496 -0.023758003 0.11231382 0.07542596
-0.006580522 -0.029393677 0.0019042643 -0.006859535 -0.020137414 -0.028320074 -0.03358238 0.10961672
-0.019241408 0.012571779 -0.022829648 0.08480119 0.09404806 -0.019312203 0.07236828 -0.03635067
0.15989052 0.05781359 -0.06636685 -0.028510321 0.012316189 0.09712668 0.12820062 0.09133567
0.081372865 -0.04616922 0.11197137 -0.003673329 -0.00022870216 -0.009596988 -0.006618042 -0.0077406103
-0.064683996 -0.018718975 -0.020355934 0.06684362 0.0025550474 -0.016989252 -0.005043054 -0.042514604
-0.004178331 0.0436229 0.048411135 0.012448059 0.037903536 0.13068447 0.014806726 0.06894728
0.08581832 0.05483733 0.057617575 -0.040750023 0.025857205 0.10895743 0.013613806 0.104668595
0.0020396113 0.009970775 -0.061633274 0.1055449 0.058170777 0.085607946 -0.03402727 0.027375886
0.054496877 0.077689424 0.09671219 0.034283172 -0.0132702 0.07708542 -0.015191025 -0.037921753
-0.0020393073 0.047436 0.057400562 0.086616896 0.07895979 0.08756312 0.046791617 0.072395
0.051946204 0.081357926 0.06812103 0.011769662 -0.04840749 0.10863229 -0.07367782 -0.06217763
0.02155142 0.10413303 -0.025934845 0.06991634 0.08302246 -0.019574767 0.024985077 0.038115334
0.108844675 0.09564152 0.005500129 -0.06385954 0.10973916 -0.058171105 0.11177843 -0.039726622
0.052378904 -0.050713476 0.07214165 0.03017828 -0.028346311 0.008035386 0.041036718 0.011999991
0.0841546 0.09432169 0.09873227 0.006957148 -0.008158527 0.045379702 0.06193862 -0.056115493

lstm.bias_hh_l0 f4 [512]
00000000: b71b f73c 4c7c ffbb 6ec3 bc3d 7b68 e9bc
00000010: f3a5 353c 5064 e9bc 88e6 023d 718d 4ebd
00000020: 83ec c43d 44bc 933d 0956 5f3d c721 9f3d
00000030: 3aae 1e3d d746 8abd a32a febc bcb9 7abd
00000040: 3b42 53bd d5af 76bd 24b9 923d 0487 d73d
00000050: 035b a43a b100 9fbc ce41 663d 7fed a33d
00000060: 59c8 5a3d 12f3 0cbd 9a66 6d3d 2545 a53d
00000070: 4a48 86bc dfa5 713d cf2e 583c c8ce 18bc
00000080: 6b9a ca3d fadd 4f3d d8f2 823d ea5e 32bd
00000090: 1411 bfbc 1ba5 dd3d 2d2c 81bd dc2f 6ebd
000000a0: a38c 3e3d dc03 d1bc 1e21 46bd e8ed ac3d
000000b0: 2afb 8fba 82db 953c c8ea 2539 78be 2fbc
000000c0: 07e2 50bd e24e 50bd e581 ac3d 5bd5 473c
000000d0: 0a60 da3c c5b9 013e e7f8 57bc e15d 6a3d
000000e0: 4b14 053d e3fd 0d3d 7f10 10bd b438 743d
000000f0: 54da 193d b2a9 1b3d 99de 3e3c 7280 6b3c
00000100: 6df9 b73b bd32 c73d 012d db3d 3b4f 933d
00000110: e2cc 113e b25e 59bb ec3b a0bc 0501 42bd
00000120: 4a6d 1c3d bc79 b53d 51d8 51bd 18a8 893d
00000130: 203f ce3d b8b7 15bd 98e1 873d b9f2 933d
00000140: 7c51 943c 7f06 843d e852 cebb 18d1 1bbc
00000150: 5da8 fc3d 8ff4 68bd 24a3 5dbc 2952 9dbc
00000160: 702c e5bc 3b3f bfbc b096 203d c1f6 a63d
00000170: ad80 04bd 560d 403d e569 5e3b 207e a43b
00000180: 0b70 823d 68ff 10bd 39b1 ea3b 1519 fb3d
00000190: 44bc 9dbc 96a0 9cbc 87d8 943c 484f 713d
000001a0: 79e1 b73d 33e8 93bd 7e97 263d 193f 58bd
000001b0: ce95 ce3d 865b 5b3d 2661 b93c 4532 1bbd
000001c0: d09b 58bd f92c 003d 269f 73bd 0f73 d33d
000001d0: b7d4 e03b e12b cdbb 2e56 f43d 0126 b23d
000001e0: 5051 fb3c 9c64 9c3c 9233 cabc 6001 f63d
000001f0: 2378 533b 400b 8cbb e625 e13d b18a 8d3d
00000200: c6b6 863d c1a7 ae3d 58ea 01bd 72f4 0a3d
00000210: b77f dd3d f83a d9bc e956 b63d 0a38 9b3d
00000220: fac1 d33c 8db3 e13d 6e17 663c e249 1c3c
00000230: 95f4 eb3b 91f3 4dbd eb39 b4bc 461d e43d
00000240: 8906 20bd 701c 0e3d 56fb 963d dd8e bf3d
00000250: d6ef 553d 8a94 863d 28bf 0cbc 34d0 54bd
00000260: 11dd b73b de07 a23d 2474 b63d c7f5 23bd
00000270: 84f0 1cbc 95d5 713c 7e3e 96bc f865 c43d
00000280: e92a 6a3d 80ba bb3c 7ca9 8b3d 26b1 0dbd
00000290: 9703 153d 9d4e a0bc 36a7 963d 750a 8d3d
000002a0: 237e 16bd d708 f7bc 81c5 a83c 5f2a 9d3d
000002b0: bb2a 9c3d 5ad7 0dbd 1f18 e83c dc81 b93d
000002c0: 6579 6fbd 7d5e 7a3d babc 923d fd06 dfbb
000002d0: 6df0 b43d 1a1b e83d bbfe 363d a3ba 183d
000002e0: df89 1b3c 3ae8 4f3d 5684 bd3d 2e5f 703d
000002f0: 746e a43b b831 b03d 5d65 5d3d 5162 d33d
00000300: 3efe 973d 0230 6d3d e967 9f3d 0242 c33d
00000310: 6dc6 93bc bb8a 1bbd 309d 463d 5c5d 843d
00000320: 2054 19bd 7373 7d3d 07c5 d63c a75a d1bc
00000330: c54e 173d 0bac 4f3d 92dd 17bd c531 80bb
00000340: b5ff 86bb 9e5e 2b3c a08f 033d 63a2 f7bb
00000350: 7aab 6b3d b2be 4d3c 06b2 043e aff0 693d
00000360: 6ca2 c63d 2409 0dbd 14bb a1bc 3a91 153e
00000370: fe7f 813d 4930 8d3d 3c17 663d 7253 af3c
00000380: 7672 7f3c ac31 6fbd 0b93 733d 6f4d c23d
00000390: 8d17 ec3c 790b 473d 5a9f 9e3c b407 96bc
000003a0: cb75 ddbc c65d df3b 48b8 453b 4b3e d73b
000003b0: e3c2 d63d c5b9 de3d 956a f53d 1bf7 e73c
000003c0: f140 43bd 7d8b 563d daf6 77bd 2b4d 203d
000003d0: 59d3 34bd a03f 953d 4e29 ff3d 32ad d63d
000003e0: e3a0 b33d f216 1e3e cf02 b43d 0a8b 033e
000003f0: e340 58bd 237b 3fbd 6f1f 9ebc 926b 863d
0.030164583 -0.0077967998 0.09216963 -0.028492203 0.011086929 -0.028490216 0.031958133 -0.050427858
0.096154235 0.07213643 0.05452541 0.077701144 0.038740374 -0.06751793 -0.03102619 -0.061212286
-0.051576834 -0.06022628 0.07164219 0.10523799 0.0012539331 -0.01940951 0.0562151 0.08004283
0.053413723 -0.034411497 0.057959177 0.08069829 -0.016391892 0.058996078 0.013194754 -0.009326644
0.09892734 0.050748803 0.06393975 -0.04354755 -0.023323573 0.10822507 -0.06307254 -0.05815111
0.04652084 -0.025514536 -0.048371427 0.084438145 -0.0010984887 0.018293146 0.00015823089 -0.010726564
-0.050996806 -0.05085648 0.08423213 0.012196864 0.026657123 0.12668522 -0.013181902 0.057218436
0.032490056 0.034665953 -0.035171982 0.05962439 0.03756173 0.03800363 0.011649751 0.0143738855
0.0056144507 0.097264744 0.10701943 0.071928464 0.14238313 -0.0033168015 -0.019559823 -0.047364254
0.038190164 0.088611096 -0.051231686 0.067215145 0.10070634 -0.03655216 0.066348255 0.0722403
0.018105261 0.064465515 -0.0062965043 -0.009510301 0.123368 -0.056873854 -0.013527665 -0.019204216
-0.027975291 -0.02334558 0.039206207 0.08152533 -0.032349277 0.04688772 0.003393763 0.005019918
0.06369027 -0.035399824 0.00716224 0.122606434 -0.019254811 -0.019119542 0.018169655 0.0589135
0.08978552 -0.07222023 0.040671818 -0.05279455 0.10087167 0.05355408 0.022629332 -0.037889738
-0.05288297 0.03129289 -0.059477948 0.1032468 0.006861295 -0.0062613343 0.119305 0.08698655
0.030678421 0.019090943 -0.024682794 0.12011981 0.0032267652 -0.004273802 0.10993557 0.06911219
0.0657783 0.0852809 -0.03171763 0.033924527 0.10815375 -0.026517376 0.089032955 0.07579048
0.025849331 0.11020575 0.014043672 0.009539099 0.0072007873 -0.05028111 -0.022000274 0.11138396
-0.039068732 0.03469509 0.07372157 0.09353421 0.05223068 0.065713 -0.008590497 -0.05195637
0.00561107 0.07911657 0.08908871 -0.040029313 -0.009578828 0.014760395 -0.018340345 0.095897615
0.05716983 0.022916079 0.06819436 -0.03459277 0.036380377 -0.019568736 0.07356112 0.0688676
-0.036741387 -0.030155582 0.02060199 0.07674097 0.07625338 -0.034629203 0.028331814 0.09057972
-0.05846538 0.061125267 0.07164903 -0.006806253 0.0883492 0.11333294 0.044676524 0.037287366
0.00949332 0.050758578 0.09253757 0.05868452 0.00501805 0.08603233 0.054051746 0.10321487
0.0742154 0.057907112 0.07783491 0.09534074 -0.018038953 -0.0379741 0.04848975 0.064631194
-0.037433743 0.06187768 0.026216997 -0.025555922 0.036940355 0.050701182 -0.03707654 -0.003912183
-0.004119838 0.01045957 0.032119393 -0.0075572 0.05753658 0.012557672 0.12958536 0.0571143
0.09698948 -0.034432545 -0.019742526 0.14606181 0.06323241 0.06893975 0.0561745 0.021402095
0.015591254 -0.05839698 0.059466403 0.094874255 0.028819824 0.048594926 0.019363094 -0.01831422
-0.027033707 0.0068165986 0.0030169655 0.006568705 0.104863904 0.108752765 0.119832195 0.028316071
-0.047669355 0.05237912 -0.06053815 0.039136093 -0.04414687 0.07287526 0.1245905 0.10482253
0.08770921 0.1543844 0.08789598 0.12846008 -0.052796256 -0.04674829 -0.019302098 0.06563486

lstm.weight_ih_l1 f4 [512, 128]
00000000: 1780 11bd 4b2e 583d dfa2 e53d 76d4 ab3c
00000010: 82a2 5cbd 3634 ba3c 5b1b c8bc e700 9b3c
00000020: 5811 1ebd 861f 01be 1be8 d13d 57b6 a9bd
00000030: 310b 22bb 52ff 8c3d 612d 89bd 9fb1 61bd
00000040: 8385 5cbd a093 90bd 3bff 09be c2b0 f8bc
00000050: 8e59 c03d 6b9e e0bd 83c6 f2bc 7cf1 b3bb
00000060: ae81 203e d58c 86bd 7133 a03d 86f8 25bd
00000070: a203 a93d 7b31 a1bd 2aff 37be 9fcc 25bd
00000080: 29dc 8cbd d920 81bd 0778 9abb 660b e63c
00000090: 2285 a53c 397e 0f3e a07e 5abc 2caa 22bd
000000a0: 8215 9abd 8f11 09bb 1480 edbd 2711 3b3d
000000b0: 1218 d2bc ab95 9d3d 240a 79bd 61b2 84bd
000000c0: 8b6a d6bb 1a3f 26bd e0c0 49bd 717b bb3d
000000d0: fe01 17be 39b3 a63b 65af 03bd fbc3 ab3d
000000e0: 3274 95bd aa5f 7abd 4936 1bbd b1cf fc3c
000000f0: c030 fa3c a8b4 00bd 2a5b a0bd 7a15 1fbd
00000100: 6272 5a3d 225b a4bc 5afa 473d b54f 8f3d
00000110: c6a2 c13c 182c 3dbd 99ee 63bd 3267 b93d
00000120: 1967 d0bd 69d9 b73a 7507 7a3d 4559 7c3d
00000130: 9ca2 12be faea a43d 6cf8 e43d 0579 f63c
00000140: c888 17bd 91ae 913d 36bb e4bd dafa 983d
00000150: 758c 2e3e 416b 0c3d 437e c43c a084 20bd
00000160: dfac 063d 35af ba3b 6d1c 8b3c e299 313b
00000170: 7ecd 15bd 1532 453d dd65 503d 0366 203d
00000180: bd06 94bc b9dd d2bd 7090 a6bd 170f 4c3d
00000190: cbcf 783c 2718 25bd a837 dbbd 6b23 76bd
000001a0: 7c31 9dbd 5581 52bd efe4 263c 5a3c 193d
000001b0: 40ef 5d3d 7199 fe3c 5fe9 a3bd bbb9 afbc
000001c0: 7820 59bd c4fe dcbc 9bd9 343c 4e4c 05bd
000001d0: 94e1 88bd 7760 07bd 403a 8c3d c4db e3bc
000001e0: f3ad c43d a0c8 823d d2d4 9abd f1bf a2bc
000001f0: 8995 9bbd 21fa 34bc 486d 023d 231a 543c
00000200: b47b 15bd eea4 983d 11ab 92bd ccf7 8c3d
00000210: 5eac 40bd 096e 17bd 44cd b2bd ae8b c13d
00000220: b321 85bc f1c7 a5bd f297 dabb c13a 1dbd
00000230: 418b a3bc ed7f 903c efc8 b0bd 5a89 6abc
00000240: 7097 963d 6ec3 8abd d81a f93b 80d4 30bd
00000250: 7d1c 863d ffc6 8dbd 7f61 a9bd a407 c1bd
00000260: 7d6c 29bc 3e12 12bd e419 073d 1e56 9f3d
00000270: 71df 853d 6663 89bd 0a43 edbd 9576 ecbc
00000280: d2c8 803d dd7f 993d e98f 8cbc 2a3b 76bd
00000290: edb8 473c 09e5 803d 8b5f dcbd 4afc b93b
000002a0: b512 a93c e9cf 0c3d d611 913d 4c16 a13b
000002b0: de47 a83d 3c31 a13d d96a b4bd 58c5 8e3d
000002c0: 27ab 40bd 2d1b 92bd e681 72bd 4ba0 1fbd
000002d0: 5ad8 96bd 4552 a0bd ccef a1bd 0877 863d
000002e0: f794 3abd 47c7 ba3d 987e 2f3d 773f ddbb
000002f0: 225c 03bd 31b7 853d 3f14 9c3d e4f6 05bd
00000300: ef04 20bd 14b5 b43d 0e00 b9bd 20df 63bd
00000310: a426 64bd f7ca 12ba 3533 133d 13a2 82bd
00000320: d6a4 4b3d b082 ffbb 699c acbd d55c d23d
00000330: 7b5a 8cbc a3e7 13bd 7771 a039 b8f4 413d
00000340: 4cbe 02ba 1e50 b7bb 6839 eabc 7c6c 0abd
00000350: d4df f43c 8df3 803d c9ad d1bd 4f42 5fbb
00000360: 65f7 383d 41ed 593d 629f 1fbc 0fc4 65bc
00000370: 69fe 6fbc d4d2 8e3d 3af9 52bd dfcf 823d
00000380: debe cbbd 0740 743d c027 613d c95b 74bd
00000390: 7ed9 8c3c a440 6d3d 6270 c0bd 06d9 b43d
000003a0: fe43 14bc 4792 a43c 6e10 f23b 8d8a 163d
000003b0: 8490 85bd c5c1 6fbd d196 8e3a 79bd a4bd
000003c0: 2d0e 08bd 8835 443d 7528 1abd 6dcf 9dbd
000003d0: 9d7a 70bd 2a19 e1bb 73b9 0f3d 4fcc d8bb
000003e0: 9073 b93c 8905 093c 4f43 ca3c 2286 6c3c
000003f0: 8ab7 853c b3e7 8d3d 342c 51bc 4901 623c
-0.035522547 0.052778523 0.11212706 0.020975333 -0.053865917 0.022729974 -0.024427107 0.018921329
-0.03859076 -0.12609681 0.10249349 -0.08286732 -0.002472591 0.06884636 -0.066981085 -0.055101033
-0.053838264 -0.07059407 -0.13476269 -0.030357722 0.09392081 -0.10967716 -0.029635673 -0.0054914337
0.15674469 -0.0656983 0.07822312 -0.040520214 0.08252646 -0.07870766 -0.17968431 -0.040478345
-0.0687793 -0.06305093 -0.0047140154 0.028081607 0.020205084 0.14012994 -0.013335854 -0.03971307
-0.075236335 -0.0020915007 -0.115966946 0.045670655 -0.025646243 0.076945625 -0.060800686 -0.064793356
-0.0065434626 -0.040587522 -0.049256206 0.09154404 -0.14746854 0.005087283 -0.03214969 0.0838699
-0.07297553 -0.06112639 -0.037893567 0.030860754 0.030540824 -0.031422287 -0.07829888 -0.03883884
0.05333174 -0.020062987 0.04882274 0.06997625 0.023637187 -0.04618463 -0.055647466 0.09052886
-0.10175914 0.0014026585 0.061042268 0.06160857 -0.14319843 0.08052631 0.11180195 0.030087003
-0.03699568 0.07113374 -0.1116852 0.07469721 0.17045768 0.034281973 0.023985988 -0.03918898
0.032879706 0.005697156 0.016981328 0.0027099778 -0.036572926 0.048143465 0.050878394 0.039159786
-0.01806962 -0.102961965 -0.08133018 0.04981908 0.01518626 -0.040306237 -0.10703975 -0.06009237
-0.07675454 -0.051392872 0.010186418 0.03741107 0.054183245 0.031079026 -0.080034964 -0.021450868
-0.05300948 -0.02697695 0.011038209 -0.032543473 -0.066836506 -0.03305098 0.06847048 -0.027814753
0.09603491 0.063859224 -0.075601235 -0.019866915 -0.07596881 -0.0110459635 0.0318425 0.012945685
-0.036494926 0.07453333 -0.071615346 0.06883201 -0.047039382 -0.036970172 -0.087305576 0.0945047
-0.01625142 -0.080947764 -0.0066709453 -0.03838611 -0.019963862 0.017639125 -0.08632075 -0.014314974
0.07353103 -0.067755565 0.007602077 -0.043171406 0.065484025 -0.06922721 -0.08270549 -0.094252855
-0.010340807 -0.03566193 0.032983676 0.077800974 0.06536759 -0.06708412 -0.11585052 -0.028865138
0.062883034 0.07495091 -0.017158465 -0.060115017 0.012190086 0.06293685 -0.10760411 0.005675827
0.020638803 0.034377966 0.0708348 0.004915988 0.082168326 0.07870719 -0.08809442 0.06971234
-0.047038224 -0.071340896 -0.059205912 -0.038971227 -0.073654845 -0.07828192 -0.07907066 0.06565672
-0.04555222 0.091200404 0.04284534 -0.0067519504 -0.032070287 0.065290816 0.07621049 -0.032706156
-0.039067205 0.088236004 -0.090332136 -0.05563271 -0.055700913 -0.0005599702 0.035937507 -0.063785695
0.049717747 -0.0077975616 -0.0842827 0.102716126 -0.017132988 -0.036109578 0.00030602116 0.047352523
-0.0004987463 -0.0055942675 -0.028591827 -0.033794865 0.029891886 0.062964536 -0.10238225 -0.0034066623
0.04515781 0.05320478 -0.00974259 -0.014023795 -0.014648058 0.06973806 -0.051507212 0.063873045
-0.099485144 0.059631374 0.05496955 -0.059657846 0.017193552 0.057922974 -0.09396435 0.088304564
-0.009049414 0.020089282 0.0073872125 0.036753226 -0.06521705 -0.058534402 0.0010878687 -0.080439515
-0.033216644 0.047902614 -0.03763624 -0.07705579 -0.058710683 -0.006869455 0.035088968 -0.0066161524
0.022638112 0.008363136 0.024690298 0.014436277 0.01632287 0.06928959 -0.0127668865 0.013794252

lstm.weight_hh_l1 f4 [512, 128]
00000000: c76f 733d 0c68 483d e98d 1e3d 8ab9 3abd
00000010: e74a b8bd 35c5 f23c eb9b 523d d1dd cfbc
00000020: a667 f63c d0c4 81bd 3506 8b3c b867 84bd
00000030: 207f 9abd 8fb9 1bbd def8 e83c a5f9 d43b
00000040: 74ab ab3d 7647 183b 7076 b53d 8b75 6bbd
00000050: 0fe4 993d 6671 26bd c6e1 51bd d022 6f3b
00000060: e5d5 2e3a 9538 98bc 4d47 45bc f725 1e3d
00000070: d676 993d 06a3 373d ce17 76bd 3a24 073d
00000080: 1f0b 653d a69b a03d fc23 fb3c bfd8 fb3c
00000090: a2ad d13d 5d56 b63b 7ef9 74bd 69f8 19bd
000000a0: 7eb7 6e3d a725 94bc 24e5 53bd efb8 46bc
000000b0: bd11 873c f135 323d a53a 313c 9e72 e3bd
000000c0: 6518 a3bd 72fa b5bc 73cf 593d 922c 60bd
000000d0: f330 d8bc 3b19 913d 69ba 87bd fba1 043d
000000e0: d3ee 4d3d e922 3dbd df24 863d 7096 0f3d
000000f0: 6816 0d3e 4c8f 82bc f68d b5bc 6e48 76bd
00000100: 4fea 86bd 87ea 553d d5a3 d53a ea4c ac3d
00000110: fef2 e03d 47e8 a13d 77aa 98bc 96d0 7bbd
00000120: 8118 d4bd 7634 c93d 5cae 2fbd 5f62 cb3d
00000130: 63fd 903d 4432 233d 119c 0a3d 0bb2 7f3c
00000140: 22da b5bd 631b 80bd a3a7 043c e57c 733d
00000150: aecd 263c d7d6 0a3d fd66 ad3d 40c8 7e3d
00000160: ee40 123c 8183 4bbd b75f be3d c4fc cd3d
00000170: 931a 093b 59a3 c4bd 458d 1e3d 97cb 183d
00000180: f7fa 423c 7a1f 1abd af3e 093d 493d 983d
00000190: 7417 8b3d 1438 3cbd 70c7 3a3d b875 333d
000001a0: 66d4 2fbb a864 e8bc 1642 de3c f59c c1bd
000001b0: 4390 a43d 5d28 043d fe2b 92bd 53ca 9abd
000001c0: ffc3 ba3d b407 d53d 19fc 11bd 625f 7ebb
000001d0: ed13 2cbd 6275 ff3d e745 a93d 6cf5 e03c
000001e0: 58f3 123c 6b9e f43c 56d3 b3bd 87cb ebbc
000001f0: b956 dbbd 1451 a7bc 8d50 6b3b 38aa cb3c
00000200: 971f 3bbd 0ea2 013c eafc ef3c c5cc cab9
00000210: 6bc0 823d 71ce 933d 2c99 eabc f4ba 7cbd
00000220: 647a f8bc bf26 3dbd fa86 48bd d2c8 6d3d
00000230: cab4 f9bc d51c ab3d ddf7 af3d 561f 8e3c
00000240: 06de 173b 204d 813d bb0e ff3c 96a6 bd3d
00000250: a73d 78bd db02 703c a108 293d f9d1 98bd
00000260: 8bde 2b3c 1cdb 823d 9974 aa3c 8cc6 d33d
00000270: 5ae8 a53d 42f9 8e3c bb73 33bd ea38 293c
00000280: d56b 753d 0123 c73c b0f9 b93d 3ff8 f8bd
00000290: f238 dc3d a884 b3bd cc35 99bc a659 153d
000002a0: d098 5e3d 97c3 87bd bf43 75bd 2bd2 d3bc
000002b0: c834 67bd d7ca cc3c 9aac 543d c0d3 c6bd
000002c0: afdf 16bc 0f47 4e3d ac4e 1bbc 6f32 a13d
000002d0: af38 c33b 1114 a9bc e4fc 693d 3085 35bd
000002e0: af31 723c 7dcb 6cbd 16dd 243d ce71 aabd
000002f0: cc06 87bd 85c5 8f3d 3caf 6cbd eea3 aebd
00000300: e9f7 97bd 4d2c ccbd 8d2a 4abd fa51 cb3d
00000310: f980 193b ab71 8f3d b8a8 c23d 2d08 24ba
00000320: cadb 4c3d 79ba 963d 3122 7b3d 12bb 0e3d
00000330: d5d0 8bbd 05f8 22bd 8376 703d 1890 e93c
00000340: 63ae b7bd 448b 423d 4935 383d 2a8d aa3d
00000350: 05dd a53d dee9 a0bd a824 5dbd 6f2c ecbb
00000360: cc08 0bbd 4ab5 98bd f928 903d 08c7 c63d
00000370: b88c e23c 5801 89bd f244 2bbd fc84 b53d
00000380: ae25 8b3d 9e46 26bc 6fbc 58bd 0ce9 2a3d
00000390: fd7e b1bc 9298 cfbd a100 e93c b40f d4bb
000003a0: 47bb 8e3d 76b3 d7bc 8a33 95bd 8519 92bd
000003b0: 2577 bf39 fad6 823c a258 43bd 400a 583d
000003c0: e9cb 16bd 291c b63c 49ac d0bc 63f7 6a3d
000003d0: 8d41 94bc 853f 15bd f239 9c3c 85db 403c
000003e0: 9358 4dbd dd32 37bd 8fc2 133d 2b08 68bb
000003f0: 9552 c43c d339 c4b8 07ab cb3d 0b7e 81bd
0.05943277 0.04892735 0.038709555 -0.0455871 -0.089986615 0.029635051 0.051418226 -0.025374325
0.03007872 -0.06336367 0.016970733 -0.06465095 -0.075437784 -0.03801876 0.028438982 0.0064994865
0.083823115 0.0023235953 0.08860481 -0.057485145 0.07514202 -0.04063549 -0.051240705 0.0036489256
0.0006669446 -0.018581668 -0.012040925 0.038610425 0.07493369 0.044833206 -0.060081296 0.032993533
0.05591881 0.078421876 0.030656807 0.030743001 0.10238196 0.0055644945 -0.059808247 -0.037590418
0.05828046 -0.01808436 -0.051732197 -0.012129053 0.01648795 0.043508474 0.010817205 -0.11105846
-0.07963637 -0.022214148 0.053176355 -0.054730006 -0.026390528 0.070848905 -0.06627352 0.03238104
0.05027659 -0.04617587 0.06550001 0.035055578 0.13778079 -0.01593747 -0.022162419 -0.060127668
-0.065876596 0.052225616 0.0016299436 0.08413108 0.10983847 0.079056315 -0.018635971 -0.06147822
-0.10356236 0.09824459 -0.04289089 0.09930872 0.0707958 0.03984286 0.033840243 0.015606414
-0.08879496 -0.062552236 0.008096608 0.05944528 0.010180874 0.033896293 0.08466909 0.062202692
0.008926613 -0.04968596 0.092956 0.10057977 0.002092038 -0.096014686 0.038708944 0.037303533
0.011900655 -0.037627675 0.033507045 0.07433564 0.06791583 -0.045951918 0.045600355 0.043813437
-0.002682948 -0.02836831 0.027131122 -0.09453765 0.08035328 0.032265056 -0.07137297 -0.075581215
0.091194145 0.1040186 -0.03564081 -0.0038814177 -0.04201119 0.12473561 0.08265286 0.027460776
0.0089691505 0.029860696 -0.087805435 -0.028783573 -0.107099004 -0.020424403 0.0035906166 0.02486144
-0.045684423 0.007912172 0.029295404 -0.00038681008 0.06384357 0.0721711 -0.028637491 -0.06170173
-0.030331798 -0.04617953 -0.04895685 0.058052845 -0.030481715 0.08355109 0.08592198 0.017348927
0.0023173108 0.063135386 0.031134954 0.09260289 -0.06060567 0.014649118 0.041267995 -0.07461924
0.01049007 0.06389448 0.020807551 0.10340604 0.08100958 0.01745284 -0.04381154 0.010328511
0.05991729 0.024308683 0.09080827 -0.12156724 0.10753049 -0.087655365 -0.01870241 0.03646245
0.054344952 -0.06629103 -0.05987906 -0.025857052 -0.05644682 0.024999065 0.05192242 -0.09708357
-0.009208604 0.050360736 -0.009479206 0.078709476 0.005957685 -0.020639451 0.05712594 -0.04431647
0.014782353 -0.05781125 0.040249906 -0.08322488 -0.06593093 0.07020096 -0.057784304 -0.08527361
-0.07420332 -0.09969387 -0.049356986 0.09927745 0.002342282 0.07004102 0.09504837 -0.0006257322
0.050014295 0.073597856 0.061311904 0.034846373 -0.06826941 -0.03978731 0.05870677 0.028511092
-0.089688085 0.047496095 0.04497269 0.08327706 0.08098797 -0.078571066 -0.053990036 -0.0072074453
-0.033943936 -0.07456453 0.07039065 0.09705931 0.02765499 -0.066897094 -0.0418138 0.088632554
0.06794296 -0.010148672 -0.05291408 0.041726157 -0.021666998 -0.10136522 0.028442683 -0.0064715985
0.06969314 -0.02633069 -0.07285221 -0.07133774 0.00036519128 0.01597165 -0.04769195 0.05274415
-0.036815558 0.022230225 -0.025472777 0.057364833 -0.018097663 -0.03643753 0.0190706 0.011771088
-0.0501333 -0.04472624 0.036074217 -0.003540526 0.02396516 -9.356779e-05 0.0994473 -0.06322869

lstm.bias_ih_l1 f4 [512]
00000000: 5a0a 27bd 2f46 503d f9fd 8c3d 7770 b9bb
00000010: ffa7 03bd f035 43bd cde3 6fbd 26e7 2d3c
00000020: 3e77 dc3c 1185 6dbd 526d 413d 478e 273d
00000030: 7738 b33d 5997 78bc d777 20bd ca33 ad3d
00000040: 9cde 703d 77a2 983c f291 b6bc 70a5 0bbc
00000050: 34fd 993d 1d70 8d3d 0c92 cc3d ea84 90bd
00000060: 850f aabc e9b2 8b3d f12f 883d 7593 d93c
00000070: e6bb 733d 15bc 47bd 79f8 81bd 9263 2a3d
00000080: d83c 6ebd 77f1 973d 8bf4 053d 7847 023d
00000090: 60bb c43d 7732 a9bc 4eb1 b4bb 3a53 0ebd
000000a0: 05a4 5c3d b2fe 16bd 4ad7 143d 19d4 75bd
000000b0: e36d 29bd 4650 5fbd 44c8 92bd 7a42 af3d
000000c0: 2115 00bd 423d 003d eb2a 28bd b4e2 aa3d
000000d0: 21f1 ae3d 7d6e 46bc 8297 853c 7040 38bd
000000e0: 6fab 493d e2bd 233d 601b c6bc 86bf 9e3c
000000f0: 8fa7 cfbc 9bd4 ba3d f318 bf3d ed17 68bd
00000100: aaae 473d ddec 2b3d 6a78 cb3d 67f3 ab3d
00000110: b81b a33d c89b 9abc 4a55 c8bc c7f5 a5bb
00000120: 0b6e b13c 0b0d 103d 4eae 9dbd b025 32bc
00000130: 7ee8 143d baec ddbc 3a75 ce3d ea01 2fbd
00000140: 2cb3 473d b354 2fbd c3d2 f73c 7c20 d63d
00000150: 9aa2 7abc 1836 bb3d 06a9 82bd 6148 bc3b
00000160: 4ad2 a63d 16b6 8ebd e4c8 5c3d 1390 b43d
00000170: 902c 5abd 76f2 b93d 0b92 7abd 5eec 05bd
00000180: 60b2 953d e26b b23d 0528 56bd d4aa 823d
00000190: a321 9ebd 9f26 503c c690 753d 8838 8b3d
000001a0: a1a8 263d 688f 533d 8a2e 12bd 59e6 2e3d
000001b0: f6bc ac3d a74f 7cbd 91fa b3bb 3914 f7bc
000001c0: af06 87bd 4dc2 a93d 493b 53bd cc16 9a3d
000001d0: b4fd 253c aa8c 00bc 90b7 503d 7dbe 793d
000001e0: 5f9e c0bb 890d 8cbd 0e37 5f3d 3d88 c83b
000001f0: 9287 bd3d 496d aabc f390 843d 35f3 643d
00000200: ac3d cc3c 2249 98bc 7eb1 1ebd de5f 6cbc
00000210: c90b d8bc 5d88 d7bb c1d0 903d 2f83 b13d
00000220: e622 4b3c f2bd 303d ca28 633c 3916 e53c
00000230: 3aa5 a53d fc97 3abc c73b ad3d 6e1f 82bd
00000240: 87f7 d43c b29a 933c e913 59bc f261 bc3d
00000250: 98ee e8bb 5308 a83d 580d 553d 0beb 81bd
00000260: 6bae b3bc ecc0 b43d 6fe1 563d 98ab 2dbd
00000270: 0044 cc3c 65ae 1abd 8e47 3bbd eaf7 923d
00000280: 7f82 703c 40d1 6b3d f2f8 af3d fea1 f5bc
00000290: d563 e8bc 98f3 263d 01dc b73d 68ea b63d
000002a0: 051b 34bd cb6e 87bd e704 833d 8551 c43c
000002b0: de21 babb c19a 413c ce2a 1a3d 7431 79bd
000002c0: c1a0 e13d 7234 01bd c4ca 83bd d0af a23d
000002d0: 6d10 3bbd e6bd b4bc c879 8dbd 5f2e 64bd
000002e0: 7ce3 253d b542 143d 109f c73d 4080 253d
000002f0: d967 18bd e573 9c3d 1fc7 f43d 7d42 753d
00000300: 9b68 34bd 2e0f db3c 0082 a73b 0662 7d3d
00000310: 4fcb c43d 90ca 083d b51a 12bc 77b7 033c
00000320: a3de 0c3d bf99 29bd f978 ca39 17d3 c83d
00000330: 91f4 843d 01c8 d3bc 8c4a d43c 1ec3 d53d
00000340: 9fd8 b7bc 30a6 4e3d ad0d 2a3a acd1 1b3c
00000350: fd84 e8ba 6579 56bd 265d 23bc 93d0 ebbc
00000360: 7842 36bd 9b11 823d e8ba 2d3d 5246 05bd
00000370: ef70 b63c 7868 60bd 3493 a03d b3ba a83d
00000380: 579b 35bd 9b08 543d 5f70 b83d d8b2 94bc
00000390: cf32 7cbd f9ed 3f3d 4634 883d fc3a f9bc
000003a0: 4ba8 92bd 5f35 20bd 9455 ac3d e7a0 bf3d
000003b0: 3287 a2bc ff42 85bd 0553 abbb 9d77 93bd
000003c0: 3a67 b33d 17cd 8a3d 84ff d83d 6d05 b13c
000003d0: 8315 db3c 5368 843c 777c d03d cdb6 9b3d
000003e0: 1dad 5c3d 8049 afbb f0a2 963d b7f7 463d
000003f0: 5c7a db3d 8e3c 873d e226 853b 7230 093d
-0.040781356 0.050848182 0.06884379 -0.005659159 -0.032142635 -0.04765886 -0.058566857 0.010614192
0.026912328 -0.05798823 0.047223397 0.04090717 0.08751004 -0.015172803 -0.03917679 0.084571436
0.058806047 0.018632157 -0.022286389 -0.00852333 0.07518998 0.069061495 0.09988794 -0.07056601
-0.020759353 0.06821234 0.06649769 0.02655957 0.059505366 -0.048763353 -0.063462205 0.041598864
-0.058163494 0.07419103 0.032703917 0.03180644 0.096060514 -0.020653946 -0.0055143004 -0.03474734
0.05386736 -0.03686399 0.03633813 -0.060016725 -0.04136456 -0.054519914 -0.07167104 0.08557601
-0.03127015 0.03130842 -0.041056555 0.083440214 0.085420854 -0.012111303 0.016307596 -0.044983327
0.049235757 0.03997601 -0.024182975 0.019378435 -0.025348453 0.091225825 0.093309306 -0.056663442
0.048750557 0.041973937 0.099350765 0.08396035 0.07964271 -0.01887311 -0.024454731 -0.0050646993
0.021658918 0.03516869 -0.076992616 -0.010873243 0.036354534 -0.02709042 0.10080953 -0.042726435
0.048754856 -0.042805385 0.030251866 0.10455415 -0.015297556 0.09141177 -0.06379895 0.005745933
0.08145578 -0.06968324 0.05390252 0.088165425 -0.053265154 0.09079449 -0.061174434 -0.03269612
0.07309413 0.08711983 -0.05228426 0.06380239 -0.077212594 0.0127045205 0.05995252 0.06797892
0.04068816 0.051650435 -0.035688914 0.042700145 0.08434479 -0.0615994 -0.0054925163 -0.03016101
-0.06593072 0.08289013 -0.05157021 0.075238794 0.010131288 -0.007846037 0.05095631 0.06097268
-0.0058782543 -0.06838519 0.054495864 0.0061197565 0.092543736 -0.020804064 0.06472959 0.055896003
0.024931751 -0.01858956 -0.03874349 -0.014427153 -0.026372807 -0.006577535 0.07071067 0.086675994
0.012398457 0.043149896 0.013864705 0.027964698 0.08088155 -0.011388775 0.08458667 -0.06353651
0.025996936 0.0180181 -0.013249376 0.09198369 -0.0071085207 0.08204713 0.05201468 -0.06343659
-0.021933755 0.088258594 0.052461084 -0.042399973 0.024934769 -0.03776397 -0.045722537 0.07176192
0.01467955 0.057572603 0.085924044 -0.02998447 -0.028367916 0.040759653 0.08977509 0.08931428
-0.04397108 -0.06612929 0.063974194 0.023964653 -0.005680307 0.011816681 0.037638478 -0.060838178
0.110169895 -0.031544156 -0.06435159 0.0794369 -0.04566996 -0.022063207 -0.069079936 -0.055708285
0.04050015 0.03619643 0.09747136 0.04040551 -0.03720841 0.07639293 0.11952042 0.05987786
-0.044045072 0.026740637 0.0051119328 0.06186106 0.096090905 0.033396304 -0.0089175 0.008039347
0.03439201 -0.04140639 0.00038618574 0.09805887 0.0649196 -0.025852205 0.025914453 0.10437606
-0.02244216 0.050451458 0.0006487023 0.009510439 -0.0017739829 -0.052361865 -0.009970939 -0.02878598
-0.044496983 0.06351014 0.042414576 -0.032537766 0.022270648 -0.05478713 0.07840577 0.08238735
-0.044337597 0.05176602 0.09005808 -0.018151686 -0.061571892 0.046857808 0.06650595 -0.030423634
-0.071610056 -0.0391134 0.0841476 0.093568616 -0.019839857 -0.06506919 -0.0052284026 -0.07200549
0.08759923 0.06777399 0.10595611 0.021609033 0.026743656 0.016163027 0.1017999 0.07603226
0.05387603 -0.005349338 0.073552966 0.048576083 0.107166976 0.06603347 0.004063473 0.033493467
