Data/PredictionsData/AB13.pth (torch, 828430 bytes, 10 tensors)

lstm.weight_ih_l0 f4 [512, 13]
000000 b2 d0 a4 ba ae 67 fb bc ff 53 98 3d d9 e0 a3 bd
       -0.0012574403 -0.030689087 0.07437896 -0.08001871
000010 be d5 50 bc aa 0d 42 3b cf 0c a2 bc 2c 90 bd 3d
       -0.012746273 0.0029610195 -0.019781498 0.09256014
000020 40 75 cd 3c 66 94 25 bd a3 2c b0 bd 60 db 1f 3d
       0.025080323 -0.040424727 -0.08602264 0.03902757
000030 9e 44 70 bd 22 2d 66 bc d6 43 be 3c de 26 1f bc
       -0.05865919 -0.014048846 0.023225706 -0.0097138565
000040 1a 2b 0f bd 49 d7 89 3d 28 4b f2 bd af 49 0e be
       -0.034953214 0.067305155 -0.11830741 -0.13895296
000050 13 5b a7 bd 3c 3f b5 bd 99 9a ed 3c 1d 8e e9 bc
       -0.08171668 -0.088499516 0.029004382 -0.028510148
000060 fd 3a 32 bd 86 6a 95 bc 5e e4 9b 3d 80 1f 84 3c
       -0.043513287 -0.01823927 0.07611917 0.016128302
000070 9a 6e 87 3d 53 a2 95 3d 9b 70 80 bd 72 ec c9 3c
       0.066128924 0.073063515 -0.06271478 0.024648879
000080 39 ff d8 bd 94 e6 ca 3d c6 19 39 bb 01 f4 98 3d
       -0.10595555 0.099072605 -0.0028244122 0.07468415
000090 41 7f 81 3d 90 07 f2 3c e4 a1 61 3d 4d 6c 79 3d
       0.063231 0.029544622 0.05508603 0.0608943
0000a0 68 b6 12 3d 89 04 b9 3c 2a 4c da 3b b9 2e 7e 3b
       0.035818487 0.02258517 0.0066619115 0.0038785173
0000b0 2e a5 08 3d 80 8b 08 bd 07 e3 87 3d 98 e6 32 3c
       0.033360653 -0.033336163 0.06635099 0.010919236
0000c0 2f e8 98 bd 5e 3a 35 3d 8c b3 ae bd 6a b5 ae bd
       -0.074661605 0.044245116 -0.085303396 -0.08530696
0000d0 9c c0 41 3c 1e fb b5 bd 0e 4c 84 bd 4e a9 41 3d
       0.011825707 -0.088857874 -0.06459819 0.047280602
0000e0 4a c2 0d 3b 8c 91 a8 3d 7e 3c 1d bd f4 67 d7 3d
       0.0021630698 0.08230886 -0.038387768 0.10517874
0000f0 4d 28 63 3c 58 b6 b7 bd be 3c 88 3d be 1b 29 3d
       0.013864589 -0.08970326 0.06652211 0.041286223
000100 9c ad 47 bd 90 12 8c bd 5d b4 10 bd c7 ce dd bc
       -0.04874955 -0.06839478 -0.035328258 -0.027076138
000110 97 e5 a0 3d a9 08 bb bd d9 78 c8 3b 6c e6 97 ba
       0.07856291 -0.09132511 0.006117922 -0.0011589057
000120 f8 78 66 bd 14 fd 60 3c 3d 12 ee bc 30 02 e5 3d
       -0.05626771 0.0137322135 -0.029061431 0.11182058
000130 53 7d e6 3d 39 4a 87 3d 89 4b 05 3d b3 40 b8 3d
       0.112543724 0.06605954 0.03254274 0.089967154
000140 84 47 99 3c 43 a0 3e 3d 21 71 85 3d d5 28 bf 3b
       0.01871086 0.046539556 0.06515718 0.005833725
000150 a9 63 f4 3d 85 9c bb 3d 3d 81 39 3d 95 97 99 bc
       0.11933071 0.09160713 0.045289267 -0.018749038
000160 3a ae a7 bd 58 58 bd bd 51 6b a9 3d bf e0 b2 bd
       -0.08187528 -0.09245366 0.08272422 -0.08734273
000170 14 bd 92 3b fa dc f4 ba f6 1c bc bd f7 bf 16 3d
       0.0044781063 -0.0018681579 -0.09185211 0.036804166
000180 92 61 21 bd 2e 9d b0 bd e5 f0 8a bd a9 42 fa 3d
       -0.03939969 -0.0862373 -0.06784228 0.12219746
000190 2e 2a 92 bd 44 8c 8b bc 4a 11 c0 3d 05 2c 90 bd
       -0.071369514 -0.017034657 0.093782976 -0.07039646
0001a0 c4 44 bc 3d e9 54 a7 3c e7 6e 21 bb e1 3c 4f 3d
       0.091928035 0.02042623 -0.0024632753 0.050595168
0001b0 c0 09 75 3d 13 dd 0a bc 20 58 16 be 17 de 43 bd
       0.05982375 -0.00847556 -0.14682055 -0.047819223
0001c0 7f af 04 bd 0e 4a 97 3c 2a ff 93 3d 93 90 eb bc
       -0.03239393 0.01846793 0.07226403 -0.028755462
0001d0 31 99 e2 bc ea 72 9d bd 22 44 48 3d 47 c7 0c be
       -0.027660938 -0.07687934 0.0488931 -0.13747893
0001e0 4a 2c a7 3c f0 d4 e7 3c 18 e5 28 3c 96 be 67 bd
       0.02040686 0.028299779 0.010308526 -0.05657824
0001f0 e9 b8 f9 3c df e6 df bd 2e 05 22 be 8a 15 02 3d
       0.03048368 -0.10932707 -0.15822288 0.031758823
000200 df 21 21 3b 77 12 84 3d 91 85 9a bd 2c 37 0b 3d
       0.002458684 0.064488344 -0.07545007 0.033988163
000210 89 44 31 3d fb 42 c3 bd bb 10 e4 3b 6a 94 89 bd
       0.04327825 -0.0953426 0.0069600022 -0.06717761
000220 72 07 de 3d f7 82 d5 bc 0d c4 20 bb 1c 80 dc bd
       0.10841264 -0.026063425 -0.0024530918 -0.107666224
000230 bc 05 1a be 6f 96 55 3d f8 ee 1f 3d 3c 45 fb 3c
       -0.1504125 0.052145418 0.039046258 0.030672662
000240 4f 58 c5 bb 58 93 9d 3b e2 02 17 bd 7e 08 f5 bc
       -0.00602249 0.0048088245 -0.036867984 -0.029911276
000250 01 14 96 3c d9 22 00 3c 1a 7d 2c 3d 42 6e 00 bd
       0.018320085 0.007820808 0.042111494 -0.03135515
000260 ce 14 83 3d 14 a4 bf bd 57 40 54 3d 47 96 76 bd
       0.064004526 -0.09357467 0.05181917 -0.06020191
000270 e8 bc 5c 3d be 05 e7 bd b4 86 f0 bd 3a af 2e bd
       0.053891093 -0.11280392 -0.117444426 -0.042647578
000280 5b 3f 88 bd ea 79 6b bd 74 35 a4 3c 98 8a b7 bc
       -0.06652709 -0.057489313 0.02004502 -0.022404954
000290 3e 1f 04 3c c4 15 20 bd 6e cf b6 3d ac 1e 4c 3d
       0.008064089 -0.039083257 0.08926283 0.04983394
0002a0 a1 d9 fe 3c a1 87 0b 3b 1f f0 ad 3b e2 08 9c bc
       0.031109633 0.0021290558 0.0053081657 -0.019047204
0002b0 ff 08 44 bd 35 09 ac bd cf 31 0e 3d 3f c7 86 bd
       -0.04786014 -0.084001936 0.03471547 -0.06580972
0002c0 68 89 19 3d 2d ed 60 3d d0 9f 0c be 35 bd c3 3d
       0.037484556 0.05491369 -0.13732839 0.09557573
0002d0 c9 f3 09 bc 71 ce c6 3d 3a 06 07 bc 09 60 b9 bd
       -0.008419939 0.09707344 -0.008241231 -0.090515204
0002e0 a3 bc 96 bd 5e 39 07 be a7 d0 a0 bc 9c e5 d8 3d
       -0.07360198 -0.13205478 -0.019630743 0.105906695
0002f0 b2 b7 74 3d ae d1 a4 bd 83 48 81 3d f1 43 65 ba
       0.059745498 -0.08047806 0.06312659 -0.0008745781
000300 49 ac a4 3d 35 36 a5 3d 68 10 73 bd 0a 1b ed bd
       0.08040673 0.0806698 -0.059341818 -0.11577423
000310 43 f8 83 bd c2 89 35 3d d7 46 38 3d d5 95 14 3d
       -0.064438365 0.04432083 0.044989433 0.036275703
000320 a1 13 35 3d 4d 8c cd bc 9d 58 b0 bd 54 1b c3 bc
       0.044208173 -0.025091315 -0.08610652 -0.023816742
000330 d9 77 77 3d d2 a1 6e bc d2 6f 2f 3c 89 8d c0 bd
       0.06041703 -0.014564948 0.010707812 -0.09401996
000340 74 34 10 3e 4d 75 03 3e 2f f5 23 bd 69 af 77 bd
       0.1408251 0.12837715 -0.040028747 -0.06047002
000350 1f 1b 15 3e af 6f 90 3c 15 ce 31 3d 83 54 7f 3d
       0.14561127 0.01763138 0.043409426 0.062336456
000360 30 ea 49 bd 6a 8a 23 bd da 7c f9 3b ee 36 76 bd
       -0.049295604 -0.039926924 0.0076137604 -0.06011098
000370 31 63 11 3e 7f 7a a8 3c a9 fa 73 3d ee 68 b7 bd
       0.14197995 0.020566223 0.05956522 -0.089555606
000380 53 a1 92 bd c7 53 24 3c 92 ff af bc 3c e4 9d bd
       -0.071596764 0.01002974 -0.02148417 -0.07709548
000390 03 78 fc 3d 8f a8 01 be 47 e0 28 bd 46 dc 91 3d
       0.12327578 -0.12661956 -0.041229513 0.07122092
0003a0 b2 83 a4 3d ea 0f 48 3d 65 f0 dc 3c 89 70 49 3d
       0.080329314 0.0488433 0.026970098 0.049179588
0003b0 f4 ee d6 bd 1d 64 a2 3d a9 07 89 3d 1c 7e 57 bc
       -0.104947954 0.07929251 0.06690914 -0.013152625
0003c0 2f 8a d4 bc 4f d2 90 bd 37 95 fc 3d ed 4d 43 3d
       -0.025944797 -0.07071363 0.12333148 0.047681738
0003d0 2a 61 8a 3c 84 6c 57 bd d3 69 ca bd 0e 44 05 3d
       0.016892035 -0.052593723 -0.098834656 0.032535605
0003e0 f3 db ad 3c 56 25 ca 3d cb 22 61 3d 4c 6a 15 bd
       0.021223044 0.098704025 0.05496482 -0.036478326
0003f0 04 38 ad 3d f3 61 0d bc 6f d4 41 bd d6 d1 e7 3d
       0.0845795 -0.00862931 -0.047321733 0.1131932

lstm.weight_hh_l0 f4 [512, 128]
000000 20 1d a4 3d f6 50 90 3d 38 c5 2c bc f3 52 9b bd
       0.08013368 0.07046692 -0.0105450675 -0.07584181
000010 e0 e4 9b 3d 86 60 06 3e d5 ba 91 3d c8 28 e7 3b
       0.07612014 0.13122758 0.071157135 0.007054422
000020 a0 19 6e 3d 5b ed b6 3d 97 88 c4 bc fa 70 92 bd
       0.058129907 0.08931991 -0.023990912 -0.07150455
000030 fc 03 4d bd 4e af e0 3c bd db b3 3d fc 8f aa 3c
       -0.050052628 0.027427342 0.08782146 0.02082061
000040 6e e1 2d 3c 2b 42 ec 3c 9f d0 85 3d e0 4e 0e bc
       0.010612829 0.028840145 0.06533932 -0.008685797
000050 8f 91 2e bc b0 00 c9 3d ef 44 4c 3d e0 24 a4 3d
       -0.010654821 0.09814584 0.049870428 0.08014846
000060 a8 4d b2 ba cf 05 7c bd 52 16 69 3d a2 58 9c bd
       -0.0013603466 -0.061528977 0.056906052 -0.07634093
000070 66 0c 3c 3d 09 7c 3e 3d 36 eb 98 3d bd 7e 77 bd
       0.04591026 0.046505008 0.07466738 -0.0604236
000080 a0 b0 55 bd ae 9e 54 bd 3f a2 97 bc 89 fb 53 bc
       -0.052170396 -0.05190914 -0.018509982 -0.012938389
000090 dd 4f 09 3d 54 30 29 3d c4 24 95 3d 1a 42 05 bd
       0.03352343 0.041305855 0.07282403 -0.032533742
0000a0 f4 93 59 3d 3a 66 23 3c 09 45 d8 bd b5 8c a7 3d
       0.053119615 0.009973103 -0.105600424 0.081811346
0000b0 ef 08 8d 3d fe 21 4f bc 71 1e 88 3d 62 57 fe bc
       0.068864696 -0.012642382 0.06646431 -0.031047527
0000c0 20 bb cf bd 31 ab 23 bd cb 76 b2 3b 67 cf 9b bc
       -0.10143113 -0.039958183 0.00544629 -0.019019796
0000d0 32 91 9e bc 95 c9 4a bd b0 9a 83 3d d2 c2 2c bc
       -0.019356344 -0.04950865 0.06425989 -0.010544496
0000e0 53 19 6b 3b 91 7e 51 bc 7a 35 af bc 41 63 60 bc
       0.0035873249 -0.012786523 -0.021387804 -0.013695539
0000f0 a8 9a ba bc 44 97 79 bc 6c 55 6d 3d aa 47 6a bd
       -0.022778824 -0.015233818 0.057942793 -0.05719725
000100 26 e5 93 bd 9a 52 ad 3c 1f ea 00 3d a4 ef 1c bd
       -0.07221441 0.021157552 0.031473275 -0.038314477
000110 19 d0 98 3d e8 29 53 bd c5 00 26 bd 98 75 8f 3d
       0.074615665 -0.051553637 -0.040528078 0.07004851
000120 c5 9e 21 bd e9 8b 38 3d d8 b4 c9 3c 4b 46 21 3c
       -0.039458055 0.045055304 0.024622366 0.009843419
000130 c5 d8 dc bc e3 d6 d1 3c d9 4a 92 3d 3a 46 c8 3d
       -0.026958833 0.025615161 0.07143182 0.0977902
000140 f0 6a 44 bd c6 74 26 bc 1d 62 2e 3d 08 69 56 3d
       -0.047953546 -0.010159677 0.042574037 0.05234626
000150 95 6e b4 bd ef 0d d7 bb 79 81 02 3d 10 48 ba bd
       -0.08810154 -0.0065629403 0.031861756 -0.09095776
000160 22 c1 7a bd a1 a3 b8 3c 0b 94 dc bc 27 42 b3 bd
       -0.061219342 0.022538962 -0.026926061 -0.08752852
000170 59 3f fe bc ac 46 5e 3d c2 da a4 3d 6e 42 c7 3c
       -0.031036066 0.054266617 0.08049537 0.024323668
000180 91 ba 82 3d c5 60 bf 3b c1 5a 6c bd 82 f7 3e 3d
       0.06383241 0.0058403932 -0.057703737 0.04662276
000190 3f d7 01 bc df a4 2c 3d a7 be 23 bd 79 92 f2 bc
       -0.007924854 0.04214942 -0.039976742 -0.02961086
0001a0 d0 3d 68 bc 3a 55 1c bd 51 31 ef bd 1e 93 3c bd
       -0.0141748935 -0.038167216 -0.11679328 -0.04603874
0001b0 2b 38 4b bc 10 83 c0 3d ce a9 8e 3c e9 bc 03 ba
       -0.012403528 0.09399998 0.017414954 -0.0005025403
0001c0 5b 6d 19 3c 2b 98 10 be 8b 63 4a bd 16 f4 71 3d
       0.009364451 -0.14120547 -0.049411338 0.05907067
0001d0 7c 5b e4 ba 8d 89 a3 bd b7 d8 a5 3c 4c e5 c5 bd
       -0.0017422284 -0.0798522 0.02024494 -0.096628755
0001e0 37 f6 b8 bd 4b 19 25 bd 46 20 5a 3c 7f f3 4d bd
       -0.09031337 -0.040307324 0.013313359 -0.050281044
0001f0 24 0f 41 3d 7e 3e 08 be 24 d3 7e bd 22 1a aa 3d
       0.04713358 -0.13305089 -0.06221308 0.08305766
000200 c8 a7 89 bc 74 12 57 3d 24 c8 ce 3c 5d 0e 3b 3d
       -0.016803637 0.052507833 0.025241919 0.045667995
000210 29 14 2b bd cd 7f 0b be 3e 98 d9 3c 79 40 bb 3c
       -0.041767273 -0.13622971 0.026561853 0.022857891
000220 de dd a7 3d 4c 5e 36 3d b6 48 2f 3d 37 69 89 3d
       0.08196615 0.044523522 0.042793952 0.06709521
000230 59 2a 0a 3d 2b 97 1b bd f7 5d 8c 3b c9 92 2b bd
       0.033731792 -0.037985962 0.0042836624 -0.041888032
000240 a8 28 34 bd 1f 1c 74 3c b6 18 59 3d 95 d5 50 3c
       -0.043984085 0.014899283 0.05300208 0.012746234
000250 4d cc 8a bd bf 25 95 bd 1a d3 2a bd d6 93 cf bd
       -0.067772485 -0.0728259 -0.04170523 -0.10135619
000260 9e db 07 3e 31 60 33 3c 2d ed 67 bd e7 f5 ad 3c
       0.13267371 0.010948227 -0.056622673 0.02123542
000270 0f a3 96 bd e5 0a 9c 3d cf a6 99 bc 7f a3 3c bd
       -0.0735532 0.076192655 -0.018756298 -0.04605436
000280 ee 74 9f bd 7e 3f b2 bb 40 6a a3 3c 6b ac 88 3d
       -0.077859744 -0.0054396978 0.019948125 0.06673511
000290 59 f0 d8 3c f1 3c c0 bd d8 8e f4 bc 51 a5 c0 3c
       0.026481794 -0.09386624 -0.02985327 0.023516329
0002a0 8b 86 ec 3c 88 03 dc 3c db 1a 60 3d 2d 47 e8 bd
       0.028872749 0.026857153 0.05471311 -0.11341701
0002b0 88 7c 20 bd 67 96 b4 bc 70 77 2d bd d6 15 fb bd
       -0.039181262 -0.022044374 -0.042350233 -0.12260024
0002c0 01 4b c4 bd 36 62 9e 3c 38 f3 66 bd ec ff 01 3e
       -0.09584618 0.01933394 -0.056384295 0.12695283
0002d0 59 bd f9 3c 57 c3 6d 3c 5e 89 89 3c df 6e 55 3c
       0.030485796 0.014511905 0.016789135 0.013026922
0002e0 c8 6a 24 3d 3b 0b 04 bd 5e 49 70 bd 6c 92 e9 bd
       0.040140897 -0.032237273 -0.05866372 -0.11404881
0002f0 dc fe 59 bd 00 70 71 3c a6 ae 36 bd 18 8c 7c bd
       -0.05322157 0.014736176 -0.04460015 -0.06165704
000300 8c 4f dc bc 42 7f 03 bd 32 dc 8b bd d0 36 ef bb
       -0.0268934 -0.032103784 -0.06829108 -0.0073002353
000310 c6 b4 52 bd 28 b0 87 bd fa 7d 15 3d 41 76 1f bd
       -0.05144193 -0.06625396 0.036497094 -0.038931135
000320 a3 78 80 3d 8b be 1e 3c 5f d9 ff 3c 22 65 9e bc
       0.0627301 0.009688984 0.03123158 -0.019335333
000330 60 e3 79 bc c9 28 c5 bd 12 22 4b ba 1e 3c 82 3d
       -0.015251964 -0.0962692 -0.00077489123 0.06359123
000340 08 51 1d bd 5d 65 28 3a d2 18 fb 3b 09 d2 a8 bd
       -0.038407356 0.0006423796 0.007662871 -0.08243186
000350 14 a4 1e bd 0b 24 aa bd 1f 9d ca bd 57 1f 55 3d
       -0.038730696 -0.08307656 -0.0989325 0.05203184
000360 f7 a6 8e 3d 09 73 07 bd a1 37 d2 3d 4a 6e 8a 3d
       0.0696544 -0.03306869 0.102645166 0.06759317
000370 94 0b 02 3c 5e a8 45 bc 93 14 a7 bb 6f e5 e7 bb
       0.007937331 -0.012064068 -0.005098888 -0.007076911
000380 f5 fb c3 bd 06 4a d4 bc ee e0 8a 3d 03 e4 c4 3c
       -0.09569541 -0.025914203 0.06781183 0.024034506
000390 96 91 c8 bc 85 66 87 3c a6 10 b6 3d 0f d6 c1 bc
       -0.024483483 0.016528377 0.08889894 -0.023661641
0003a0 be e9 a1 bd 4d 79 ad bc 1d e1 69 bd 6b dc 93 3d
       -0.07905911 -0.021176005 -0.05709945 0.07219776
0003b0 fe 55 2f 3d 6d ef bc bd 7c c3 6f 3d 1c e1 4b bd
       0.042806618 -0.09225354 0.058536038 -0.049775228
0003c0 11 2c 4a 3d da 0b 61 bd 22 8e ef bb b4 58 b6 3d
       0.04935843 -0.054942943 -0.0073106447 0.089036375
0003d0 62 45 00 bd 2b bf 4a 3c c2 93 d5 3d 20 71 45 bc
       -0.03131617 0.01237468 0.10428573 -0.012050897
0003e0 b4 c6 92 bc ca c5 6e 3d 64 d0 3a 3c e9 47 6f bd
       -0.017917015 0.058294095 0.011402223 -0.05841819
0003f0 9d 0c ca bb fa 8e 33 bd f4 b8 7b bc 50 6c bc bd
       -0.0061660544 -0.043837525 -0.0153639205 -0.092003465

lstm.bias_ih_l0 f4 [512]
000000 49 fb 51 bd c0 1f ce 3b a3 c2 da bc c7 8f c9 3d
       -0.051265035 0.006290406 -0.026704138 0.098418765
000010 c4 fa 39 bd a1 29 c1 3b 0e a3 23 3d be 2b f6 3c
       -0.045405164 0.005894855 0.039950423 0.030050155
000020 69 84 b3 3d 81 35 f7 3d 61 9d 34 bd 1a 98 4f 3d
       0.087654896 0.12070752 -0.0440954 0.050682165
000030 9f 76 f2 3c 45 83 69 3d 4c 95 97 bc de 4c c8 bc
       0.029597579 0.057009954 -0.018503807 -0.024450716
000040 f0 b7 d5 3d 2a d3 07 3e 97 17 1c bd c5 ec f7 3b
       0.10435474 0.13264146 -0.038108435 0.007566067
000050 fa 12 08 bd e7 28 78 3d 91 13 d8 3d 9d 6e 0e bd
       -0.033221222 0.060585883 0.10550607 -0.034773458
000060 15 51 96 3b 5d f9 82 ba c1 c8 ab 3d 59 4a be 3c
       0.0045873025 -0.0009992529 0.083879 0.023228811
000070 33 4b b9 3d 78 03 16 bd 6f 13 86 bd 92 4e 07 3d
       0.09047546 -0.0366244 -0.065466754 0.033033915
000080 fc c6 68 3c 28 f6 c6 3d a8 12 b5 bc 00 3e 95 3c
       0.014207598 0.09714919 -0.022103623 0.01821804
000090 60 69 f8 3c ae 55 56 bd be 10 82 bd 2d 67 0e 37
       0.030323684 -0.052327804 -0.063508496 8.487882e-06
0000a0 b8 7e c7 3c a7 d6 8b 3d 11 e3 dc 3d fd 41 56 bc
       0.024352416 0.06828051 0.10785497 -0.013077256
0000b0 6a 2a 21 bd 36 79 ff bb 75 ed dd bc 33 ca f2 3d
       -0.03934709 -0.007796432 -0.027090767 0.11854973
0000c0 91 ad 4f bb 9b 39 9b 3c 6e 45 e3 3d c8 fa fb 3c
       -0.0031689147 0.018948367 0.11097227 0.03075923
0000d0 e0 81 86 3d c9 4c 58 bd 45 bf cd 3d 7e 04 8e bc
       0.065677404 -0.052807603 0.100462474 -0.017336126
0000e0 2a 8c b8 3d 12 e7 26 bd 16 95 05 3d bf a0 ce 3d
       0.09011109 -0.04074771 0.032612883 0.10089254
0000f0 17 36 39 3d bf 5a 10 bd 79 b8 bc 3c 2b cf 30 bc
       0.0452176 -0.035242792 0.023037182 -0.01079158
000100 35 c8 e9 ba ee 22 a8 3d 28 dd 76 3d fa 20 52 bd
       -0.0017836156 0.08209787 0.060269505 -0.05130098
000110 f1 3e 01 3d 1f 8c 4d bd 45 b4 f4 bb 5e 3b ec 3c
       0.031554166 -0.050182458 -0.007467779 0.028836902
000120 34 b6 60 bd eb c1 f7 3c ac 0a 05 3d 47 14 1d bd
       -0.054861262 0.030243834 0.03248088 -0.038349416
000130 23 8f b0 bb a0 bf c9 3d e7 0e 98 3d 89 52 0d 3b
       -0.005388157 0.09851003 0.074247174 0.0021564087
000140 bd d1 65 3b 14 53 72 3d f8 4d bc 3d 84 9e d7 3c
       0.003506764 0.05916126 0.09194559 0.026320703
000150 34 c2 71 bd 8c 6a 08 bc a9 0f f9 3c 08 d9 ba 3d
       -0.059023097 -0.008326184 0.030402975 0.09123427
000160 f0 e5 f8 3d 5f 79 27 bd 89 c7 db 3d 20 02 5c 3d
       0.12153232 -0.040887233 0.10731418 0.053712964
000170 09 d6 0d 3d 34 3d 5f 3a 41 c5 90 3d ec 53 1a 3d
       0.034627948 0.0008515895 0.07068873 0.03767769
000180 21 5c c8 3c 61 03 97 3a 3c 95 6f bb ac 43 8f bd
       0.024457993 0.0011521393 -0.0036557456 -0.06995329
000190 9c bb 40 3d 35 58 ce bc 9a 64 41 3d d6 ec 8e 3d
       0.04705392 -0.025188545 0.04721508 0.069787666
0001a0 52 92 65 3d 9a 65 0c 3d ab 9b 14 bd 88 cc a8 3d
       0.056047745 0.034276582 -0.03628127 0.08242136
0001b0 b1 cd 92 bc e4 06 37 3d 63 76 d1 3d b1 b7 db 3d
       -0.017920347 0.044684306 0.102276586 0.10728396
0001c0 14 25 e4 3c 84 90 3e bd f3 66 a7 3d 33 e6 4b 3b
       0.027849711 -0.04652454 0.08173933 0.0031112551
0001d0 31 7a 69 3d d2 e8 ba 3b c5 3a 07 bd cf 36 c7 3d
       0.057001296 0.005704024 -0.03301503 0.09727251
0001e0 2b fb b9 3c 59 a2 3c 3d 87 7b 4c 3d c4 3b 88 3c
       0.022702774 0.046053264 0.049922492 0.016630061
0001f0 56 70 11 3e b1 fd 75 3d 92 bf bc 3d b2 97 14 3c
       0.14203009 0.060056392 0.09216227 0.00906937
000200 67 36 52 bd fb ec cb 3d 85 f4 c0 3d f3 e0 84 bc
       -0.051321413 0.0995731 0.094216384 -0.016220545
000210 cb 1f fc b7 25 41 0d 3d 51 a2 23 bd e9 19 04 bd
       -3.0055546e-05 0.034485955 -0.03994972 -0.032251272
000220 75 91 b8 3c 0f d3 33 3d 76 de a2 3c f0 7e 95 3d
       0.022530297 0.043902453 0.019881468 0.07299602
000230 2a d7 e4 3d 60 6e 8c 3d a3 b6 42 3d 94 c8 4b bd
       0.11173852 0.0685699 0.047537457 -0.049751833
000240 61 f8 f7 3c 57 9e 94 bc df df dc 3d 20 6b 57 bc
       0.030269803 -0.018141909 0.107848875 -0.013148099
000250 66 db 73 3c fd 4a c5 3c 06 d2 c5 3c 8b db 9a 3d
       0.014883852 0.024083609 0.024147999 0.07561406
000260 ea dd 91 3d 35 64 5f bc db 90 44 3c 7c ab 52 3d
       0.07122405 -0.013634731 0.011997427 0.05143307
000270 b9 7e 1a 3d d4 6e b9 3d 42 24 a3 3d 85 c3 f7 3c
       0.03771851 0.09054342 0.079659 0.030244598
000280 37 ae 8d bd 61 f0 06 3e c3 a8 41 3d 33 5f 26 bd
       -0.069179945 0.13177635 0.047280084 -0.040618133
000290 d5 03 a2 3d e7 66 ad 3b a3 84 80 3c ae ae c4 3d
       0.07910887 0.005291808 0.015688246 0.0960363
0002a0 9f 64 ed ba d1 c8 b9 bc 22 21 fc 3b e0 51 71 bc
       -0.0018111652 -0.022678765 0.0076943794 -0.014728993
0002b0 20 02 42 bd 55 23 39 bd 9b 2c 06 bb 24 d9 90 3d
       -0.047365308 -0.04519971 -0.0020473364 0.07072666
0002c0 7d 47 a7 3d 85 c7 e0 ba f5 72 ab 3c af a4 4e 3d
       0.08167932 -0.0017149305 0.02092884 0.050450023
0002d0 6f e1 bf 3d 3a cc 72 3c 7e 34 fa bc d1 ef d8 3c
       0.0936917 0.014819199 -0.030542608 0.02648154
0002e0 31 65 db 3c 23 c3 a5 3d e7 6d 9f 3d 1c cd b9 3d
       0.02678165 0.0809386 0.07784634 0.09072325
0002f0 f2 f6 b6 3d 3b 1d 5b 3d 01 a8 ea bc dd 8d 94 bb
       0.0893382 0.053494673 -0.028644564 -0.004533513
000300 a3 a4 86 bc c0 31 15 3d 87 35 9e 3c d5 ec 86 3d
       -0.016435927 0.0364244 0.019312633 0.06588141
000310 df 65 70 3d 4b 6c e5 3d 24 5c 03 3c 05 62 63 3d
       0.0586909 0.11202296 0.0080175735 0.0555134
000320 0e dc d6 bc de 18 f0 3c 47 61 36 3d a9 1e 71 bc
       -0.026227977 0.029308733 0.044526365 -0.014716783
000330 b6 f4 a7 3d ea e1 36 3d 73 63 0a 3c 01 7b 6a bd
       0.08200972 0.044649042 0.008446562 -0.057246212
000340 8c e6 87 3d ce 63 53 3d e2 f3 d3 39 9a 64 dd 3d
       0.0663577 0.051608853 0.00040426763 0.10810204
000350 39 88 bc 3d 45 9f 98 3c 75 1b fe bc a0 53 4d 3d
       0.0920567 0.018630633 -0.031018952 0.05012858
000360 3d 50 89 3d 00 90 b6 3c ef a6 a0 3d 73 bd 14 bd
       0.06704757 0.022285461 0.0784434 -0.036313485
000370 de 40 74 3d b6 0b 0f 3c e1 e8 47 bd 38 d9 85 3d
       0.059632175 0.008730819 -0.048806075 0.06535572
000380 de 94 2d bd db 9d 6e 3d d8 dc b9 bb f4 aa 95 3b
       -0.0423783 0.05825601 -0.0056720786 0.0045674983
000390 db 3b 8e 3d e6 95 d2 3d ea 68 c8 3c ef 02 cc 3d
       0.0694501 0.10282497 0.02446409 0.09961497
0003a0 5b 7a cb 3a cf bd 4f 3d 0f fc 80 bc 92 95 e1 3d
       0.0015524136 0.050718125 -0.01574519 0.110148564
0003b0 a3 f9 32 bc d0 a3 b8 3d 04 8d 1d 3d 35 48 c0 bc
       -0.010923776 0.0901562 0.03846456 -0.023471931
0003c0 a5 40 90 bc c0 53 d7 3d 64 56 aa 3d 6c 40 9c 3d
       -0.01760895 0.10514021 0.08317259 0.07629475
0003d0 2e 28 a7 3d 82 8f c0 bc 6f bd 4a bd d0 93 7d bb
       0.081619605 -0.02350593 -0.049497064 -0.003869284
0003e0 54 d4 7e 3d be 1f a9 bc dd 0b bb 3c 33 ff a2 3c
       0.06221421 -0.020645019 0.022832805 0.01989708
0003f0 2d 2a 1e 3e 6f 9f 69 3d 15 37 a9 3c 36 6f 21 3d
       0.15445776 0.057036813 0.020656148 0.0394127

lstm.bias_hh_l0 f4 [512]
000000 d3 45 73 bc 66 92 da bc be ce 94 bc 2c 29 7d bc
       -0.01484819 -0.026681136 -0.018164989 -0.015451711
000010 7f 9c 64 3d e8 01 d3 3d cf c1 25 bd b7 8a 2f 3d
       0.05581331 0.10303098 -0.040468033 0.0428569
000020 0c fa 51 3c 2d e8 99 3d 12 30 1f 3c 23 dd bb 3b
       0.0128159635 0.07514987 0.009716051 0.0057331487
000030 6b 14 e0 3d 26 82 90 3d 2c 3c f7 3d 56 f6 31 3d
       0.109413944 0.07056074 0.12072024 0.043447815
000040 df ac db 3d b5 1b ce 3d 62 47 00 3c c0 98 d5 bc
       0.10726332 0.100638784 0.007829519 -0.026073813
000050 e3 d5 d1 3d 30 6b d9 3c bb 29 39 bd e9 88 01 3d
       0.10245874 0.026540369 -0.045205813 0.03162471
000060 f1 ee 79 3d 4c 13 a3 bd c3 c2 f5 3c 08 5a eb 3d
       0.061018888 -0.07962665 0.030000096 0.114917815
000070 07 8b 94 bc ac a6 98 bc c2 52 82 bb 27 64 f5 3d
       -0.0181327 -0.018634163 -0.0039771507 0.11981993
000080 e5 cc 8b 3d 16 85 7b 3d 49 f4 9f 3d 8d bc aa 3d
       0.0682619 0.061406218 0.078102656 0.083367445
000090 3b 32 89 bc fe 7f 83 3d 64 6c 8f bc b7 b3 83 bc
       -0.016747585 0.06420897 -0.01750774 -0.016076906
0000a0 2d 06 d6 bb 81 20 4e bd e0 3a 31 3d 7d 06 ce 3d
       -0.006531498 -0.050323967 0.04326904 0.10059831
0000b0 fd 23 83 3d 78 5b 01 3c 2a 4a 0d 3d bb 15 d1 3d
       0.064033486 0.007895343 0.034494556 0.10209223
0000c0 a4 0d a4 3d ef c7 40 3d cb 11 6a 3d 62 79 12 3e
       0.08010414 0.04706567 0.057145875 0.14304116
0000d0 20 4d b5 bc 03 43 1a 3b 51 b8 b8 bc cc a7 9d 3d
       -0.022131503 0.0023538477 -0.022548826 0.0769802
0000e0 de 0c 32 3c 5d 5b 2d 3d 3a 32 4e bd 98 7c 7f 3d
       0.010867326 0.04232346 -0.05034087 0.06237468
0000f0 6f 34 98 3c 48 ae 12 bb 3b 8f bf 3d f9 4d ce 3d
       0.01857969 -0.0022381712 0.09353491 0.10073466
000100 16 10 42 bd 18 a8 5d 3b f9 28 34 3d de c8 a9 3c
       -0.047378622 0.0033822116 0.043984387 0.020725664
000110 f9 d0 8c 3a 3a 37 a6 3d 4a 4a 88 3d b9 13 3f bc
       0.0010743431 0.081160024 0.066547945 -0.011662417
000120 93 bb f9 3c ba 70 ce 3d 24 b7 bf 3b f6 6c f6 3d
       0.03048495 0.10080095 0.0058506895 0.120325014
000130 c9 70 a3 3d c5 e9 4c 3d 9f 7c 89 bc 49 30 83 3b
       0.079804964 0.050027627 -0.016783057 0.004003559
000140 66 de 08 bb 78 a4 96 3d 0d 5d 80 3d 7f 01 b6 3d
       -0.0020884513 0.07355589 0.06267748 0.08887004
000150 b5 1b 5b 3d 37 83 74 3b 3a a8 0d 3c ec 5d f7 3d
       0.05349322 0.0037309655 0.008646065 0.12078461
000160 86 9a e4 bb bd a0 62 3c d3 6e 4f 3c 82 ed 93 3d
       -0.0069764284 0.013832268 0.0126607 0.072230354
000170 08 0b 82 3d 61 af d3 3d 3e 94 17 3c 40 a3 82 3d
       0.0634976 0.10336185 0.009251652 0.06378794
000180 2e ff 48 3d 6a 22 8d bd b8 fd f9 3c 53 cd c3 3c
       0.049071483 -0.068913296 0.03051649 0.023901617
000190 20 be 3c 3d 77 90 84 3d 26 50 f1 bc a7 52 d8 3d
       0.046079755 0.06472867 -0.029457163 0.1056264
0001a0 63 ab 04 3b d3 64 97 bc 72 9f dc 3d 27 cf 3c bd
       0.0020243756 -0.018480694 0.10772599 -0.046095993
0001b0 d1 f9 f5 bc e7 0c b4 3d 0a 9e d1 3d 90 29 34 bd
       -0.030026348 0.087915234 0.10235222 -0.04398495
0001c0 29 0e 0e bd 47 f1 a6 bc 56 5a 85 3d 17 aa 5f 3d
       -0.034681473 -0.020378722 0.06511371 0.05460557
0001d0 06 c0 ea 3d 2f 4a aa bb 02 d5 f2 3c df cb 53 bc
       0.11462407 -0.0051968317 0.029642586 -0.012927025
0001e0 a1 0c 01 3e 29 70 e7 bc b8 4b 90 bd 52 2a 88 3d
       0.12602474 -0.028251724 -0.07045692 0.06648697
0001f0 89 6f eb 3a 80 ec 40 3c 08 02 a4 3d 09 25 88 3d
       0.0017962317 0.011775136 0.080082 0.06647689
000200 73 0c 83 bd e1 9a 39 3d 3b 73 d0 3d a9 fe 98 3d
       -0.06398859 0.04531372 0.101782285 0.074704476
000210 33 d2 cd 3c 34 69 a7 bc 7e 98 5e bc f0 11 a0 3d
       0.025124645 -0.020435907 -0.013586162 0.07815921
000220 06 d2 69 3d cb e2 84 3d 62 a7 31 3c 14 e1 1a 3e
       0.05708506 0.0648857 0.01084313 0.15124923
000230 8c a2 86 3d de 12 43 3d 80 7a 9d 3d cb 7b 24 3c
       0.06573972 0.047625415 0.07689381 0.01003928
000240 d0 f1 d6 3c 5b 01 4e 3d d2 a3 30 bd e8 cf 26 bc
       0.026238352 0.05029426 -0.04312498 -0.010181405
000250 48 33 5f 3d 49 ab b6 3d 7e c3 a7 3d a0 2e 01 bd
       0.054492265 0.08919389 0.08191584 -0.031538606
000260 80 e4 d3 3d ff ff 01 3d 60 1c a6 bc de 28 e6 bb
       0.10346317 0.031738278 -0.020277202 -0.0070239147
000270 98 88 03 3e 13 02 e4 3d 67 81 3c bd 52 c1 cd 3d
       0.12845075 0.11133208 -0.046021845 0.100466385
000280 b9 a0 be 3c 76 04 53 3d 7c 44 95 3d a5 c7 be 3b
       0.023269998 0.051517926 0.07288453 0.0058221393
000290 e1 d1 97 3d 8d ff ac 3b 5f 57 6d 3d b4 db c8 3d
       0.07413078 0.0052794875 0.05794465 0.0980753
0002a0 2c d3 1c 3d 32 82 d3 bc 50 79 f0 3d a1 1e f0 3d
       0.038287327 -0.025818918 0.117418885 0.11724592
0002b0 0f 27 9b 3c d4 54 c4 3d cb 5d 14 bd 01 8b 0d 3e
       0.018939523 0.09586492 -0.03622226 0.13822557
0002c0 ec 0a f2 3d a0 87 1e bd 3b b1 1f bd 66 e2 0c 3e
       0.118184894 -0.03870356 -0.03898738 0.13758239
0002d0 19 86 42 3d a5 ca 1e bd fc 5c 85 3d dc f4 f2 3d
       0.047491167 -0.038767476 0.06511876 0.118631095
0002e0 7f 8b b9 3c 6c 80 42 bc c3 c3 86 3d de f4 76 3d
       0.022649525 -0.0118714385 0.06580307 0.060292117
0002f0 09 47 cc 3d 6c 98 0f bc f5 5d da bb 7d ff 15 bd
       0.099744864 -0.008764368 -0.0066640326 -0.036620606
000300 e6 c8 ca bb 69 05 5e 3d e7 be 43 3d 01 00 91 3d
       -0.0061884997 0.05420438 0.04778948 0.07080079
000310 3d ee ba 3d 11 12 a9 3d cc 48 a7 3d cd 55 ac bc
       0.091274716 0.08255399 0.08168182 -0.021037007
000320 27 e8 9f bc 7c ae 41 3d 53 69 ee 3d c2 e8 79 bc
       -0.019519879 0.047285542 0.11641183 -0.015253248
000330 75 2a b6 3d bb 9c 38 3d 3b d1 84 3d 40 b7 05 3d
       0.08894817 0.045071345 0.0648522 0.032645464
000340 13 2f d1 3d 8f 82 ba 3d 44 6e c7 bc ef c4 2f 3d
       0.10214057 0.09106933 -0.024344571 0.04291242
000350 f0 12 85 3d 53 c7 00 3e 0d e1 d2 3b 81 d4 85 3d
       0.06497753 0.12576036 0.0064355195 0.065346725
000360 bf 56 2b bb 2f 98 0f bd b8 59 4d 3d 4d f7 06 bd
       -0.0026144234 -0.035057243 0.05013439 -0.03295069
000370 79 0b a0 bc 57 ac a8 3d 0e a8 a4 3d 70 6e a7 3d
       -0.01953672 0.08235996 0.080398664 0.08175361
000380 a5 b6 5f 3d 67 5b 62 bd 5b e0 4a bc 03 f9 1f bd
       0.054617543 -0.05526295 -0.012382592 -0.039055835
000390 05 c4 83 bc 6c 76 18 3b e8 46 d0 bc 91 39 bf bc
       -0.01608468 0.0023263944 -0.025424436 -0.02334288
0003a0 22 2b 37 3d 72 40 47 bd 23 92 5e bd 13 a7 e4 bb
       0.04471887 -0.048645444 -0.054338586 -0.0069779246
0003b0 6c 53 58 3d ae 56 e0 3d f0 07 1f bd 7e 54 b0 3d
       0.052813932 0.10954033 -0.03882593 0.086098656
0003c0 24 c9 6f 3d 89 e4 bd 3c 35 0b 40 3d fb 57 48 3d
       0.058541432 0.023180263 0.046885688 0.04891203
0003d0 2b b5 be 3d 1d e7 79 bd 24 f2 47 3d 52 dc 2d 3c
       0.09311899 -0.061011422 0.048814908 0.0106116105
0003e0 45 08 7d 3d ce 4e 68 3d bf c8 1d bd b6 18 25 3d
       0.061775465 0.05671578 -0.038521525 0.04030677
0003f0 95 0f ab 3d 7f 39 1c 3c b8 2d 8c bc af 5f a3 3d
       0.083525814 0.0095351925 -0.017111644 0.079772346

lstm.weight_ih_l1 f4 [512, 128]
000000 4f 1e bb bd eb 85 93 3d cd fa d6 3d 38 52 b7 bd
       -0.0913664 0.07203277 0.10497055 -0.08951229
000010 8a 88 bd bd dd 81 3b 3d a1 e9 9a bd f7 cb 7b bc
       -0.092545584 0.045778144 -0.075640924 -0.015368453
000020 b9 33 3f 3d d8 b2 a7 bd 29 95 b7 bd 24 a4 d7 3d
       0.046680186 -0.081884086 -0.08963997 0.10529354
000030 8d 06 22 3d e5 9f 5e bd e4 42 99 3d 87 36 b1 bd
       0.03955703 -0.054351706 0.074834615 -0.086529784
000040 7b 2b 0b 3b c2 83 c6 3c a4 cd a8 3d 68 88 32 3d
       0.0021235633 0.024232749 0.08242348 0.04358712
000050 de f6 8b bc df 93 85 bd e3 04 15 3c 71 e2 33 bd
       -0.017085489 -0.06522345 0.009095403 -0.043917123
000060 e2 05 67 3d c2 6a b1 bc c6 71 90 bd 1a d2 ce 3d
       0.056402095 -0.021657351 -0.070529506 0.100986674
000070 59 aa 0b bd f5 25 bb bb 24 8b 58 3d 11 6f 1b 3d
       -0.034098003 -0.005711312 0.05286707 0.037947718
000080 7c 5e e9 bc fc 20 aa bc 52 43 1c bd f4 6f 07 3d
       -0.028487436 -0.020767681 -0.03815014 0.03306575
000090 60 84 8f 3c 08 09 15 3c ef 21 3b 3d 30 4e 6c bd
       0.017519176 0.0090963915 0.04568666 -0.057691753
0000a0 2d ce ef 3d df 4c 9e 3d 76 59 12 3c ad 53 39 bd
       0.11709247 0.07729506 0.008932462 -0.045245815
0000b0 74 80 2d bc 0e e5 83 3d ed 12 57 bb 5e bc ce bb
       -0.010589708 0.06440173 -0.0032817677 -0.006309076
0000c0 90 29 8c 3d 3a 9a 57 bd 58 7e 3c bd aa f4 4c 3c
       0.06843865 -0.052637316 -0.04601893 0.012509504
0000d0 d7 da 96 bd b2 99 c2 3c d3 2f 6b 3d a7 72 c5 3d
       -0.07365959 0.023754928 0.057418656 0.09641009
0000e0 f9 6c 3f 3d 9f e7 49 bd 2a a5 54 bd 65 8a 56 bd
       0.046734784 -0.049293157 -0.051915325 -0.052378077
0000f0 92 ab 17 bc 1c 35 b3 bd c8 6e 96 3c c3 79 14 bb
       -0.009257214 -0.08750364 0.018363371 -0.0022655583
000100 7b 15 ad 3d c4 4d 8e 3d 7c 8a ec bc 12 1e e3 3c
       0.08451363 0.06948426 -0.028874628 0.0277243
000110 53 f2 d3 bc 18 77 1a 3d dd 0c aa 3d 95 4f 98 3d
       -0.025872385 0.037711233 0.08303235 0.07437054
000120 54 0f 91 3d aa 73 29 bd 00 ad a9 bd 57 25 eb 3d
       0.07083002 -0.04137007 -0.0828495 0.114817314
000130 74 71 34 ba a6 b2 87 3d 7e df 03 bd b8 9e 44 bd
       -0.0006883361 0.06625871 -0.03219556 -0.04800293
000140 23 e2 5b 3d 7a cc 82 bd d9 46 35 bd 9e 64 69 bd
       0.053682458 -0.06386657 -0.04425702 -0.05698072
000150 09 2d 1a bd 54 64 6d 3d 00 94 ab 3c 4f 96 8d 3d
       -0.037640605 0.05795701 0.020944595 0.06913435
000160 6a c8 82 bd be d9 69 3c cd 5f dd 3d a5 1a 8c 3d
       -0.06385882 0.014273105 0.10809288 0.068410195
000170 1b 07 f0 bc 04 13 5a bd 94 d2 9b 3d dc 78 97 bd
       -0.029300263 -0.05324079 0.07608524 -0.07396099
000180 3e ac 12 3d 30 2e 3b bd 3f 91 3c 3d a8 2c 81 bd
       0.035808794 -0.045698345 0.046036955 -0.06307346
000190 d4 a6 b4 3d 4b 84 77 3d ff 07 51 3d ef 9f 86 3c
       0.088208824 0.0604289 0.051033016 0.016433684
0001a0 1e f5 9f 3b a3 6d 3c bd 97 cf 75 3d c7 e3 28 bd
       0.004881515 -0.046002995 0.060012426 -0.04123285
0001b0 7d 55 0e bd b7 92 b0 bd 9b b4 7a bd 34 e6 3a 3d
       -0.034749497 -0.08621734 -0.061207395 0.045629695
0001c0 ad c5 cf bc 85 00 da 3c f7 a0 86 3d 34 dc 97 3d
       -0.025362814 0.026611576 0.0657367 0.07415047
0001d0 d0 55 57 3d e5 d1 48 3d ee 35 01 3d b3 3a 71 bd
       0.05257207 0.049028296 0.031545572 -0.05889387
0001e0 b6 74 3f 3d d2 6d 18 bc d5 70 25 bd 25 d4 80 bc
       0.046742164 -0.009303527 -0.040390808 -0.015726158
0001f0 6a af 8b 3d 42 3e a4 bd 1c 60 0e bd 30 dc 74 bd
       0.06820567 -0.08019687 -0.034759626 -0.0597803
000200 d6 6e d0 bb c2 21 13 bd f1 b4 89 3d 10 9f f6 bd
       -0.006360869 -0.035920866 0.06723965 -0.120420575
000210 75 fe 5f bd c5 80 d9 3d b0 f6 fd bc 44 fc f6 3c
       -0.05468603 0.10620264 -0.031001419 0.030149586
000220 0c 5b a4 3d 3d dc 9a bd e4 9d b9 bc 96 5c 21 3d
       0.08025178 -0.07561538 -0.022658296 0.039394937
000230 99 81 ac 3d f5 af e8 bd f5 da 80 3d cf 52 6f bc
       0.08423156 -0.11361686 0.06291763 -0.014607145
000240 0b 1a 2a 3e d7 33 8f 3c 1e 1c 20 bd e9 fd 68 bd
       0.16611497 0.017480774 -0.039089315 -0.056882773
000250 95 5c 3b bd d3 4d 0f 3e 30 7e b8 3c ed b6 00 3e
       -0.04574259 0.13994531 0.022521108 0.1256978
000260 a0 a0 d8 bd 4e 98 6b bc dc de f7 bc 22 53 6c 3d
       -0.10577512 -0.014379574 -0.030257635 0.05769647
000270 17 d0 78 39 ef 65 2f 3c 7b d1 21 bd de 21 1a 3d
       0.00023728643 0.010705455 -0.039506417 0.037629955
000280 7b 12 1b 3e b2 40 3f 3d ff c3 b5 3c dc 23 e5 bc
       0.15143768 0.046692558 0.022188185 -0.0279712
000290 90 70 bb bc 11 4b 97 3d 58 82 14 3e bc f1 df bd
       -0.022880822 0.07387365 0.14502847 -0.10934779
0002a0 c5 1f eb 3d 66 0b d6 3d 46 55 3e bd f6 de 94 bd
       0.11480669 0.10451393 -0.04646804 -0.07269089
0002b0 0c 84 9c 3c b0 af 5e 3d c6 72 b1 3c 4b e5 db 3d
       0.019105934 0.054366767 0.021661174 0.107370935
0002c0 85 ba 42 bd 7c ea 3e 3d 14 e5 d5 3d 4b 3d 7f 3d
       -0.04754116 0.04661034 0.10444084 0.062314313
0002d0 74 b1 0b be 06 44 a6 3c 6f f8 96 3d b2 3a a8 3c
       -0.13641912 0.020296108 0.07371604 0.0205358
0002e0 72 72 ca bd 6b 1f bc bc 4e 6e 95 3d 9b 2d 4f bd
       -0.0988511 -0.0229642 0.072964296 -0.050580602
0002f0 1f 9a 5a 3d 5f 17 59 bd f9 47 1c 3e 66 3a a8 bd
       0.053369638 -0.053000804 0.1526183 -0.082142636
000300 0b da 77 3d d9 9c 1a bc cd 7f 18 bd 54 02 10 be
       0.060510676 -0.009436809 -0.037231255 -0.14063388
000310 07 7c c2 bd 21 9a e8 bd 5f 89 3d bd e8 02 7d bd
       -0.094963126 -0.11357523 -0.046273585 -0.06177035
000320 4f b4 d7 3c d0 4a be 3c 21 47 16 bc 86 22 48 3d
       0.026331095 0.023229033 -0.009172232 0.04886105
000330 ac 3b 9c 3d 66 65 95 bd 68 3c 7d bd 13 f4 be bd
       0.07628569 -0.07294731 -0.061825186 -0.09323897
000340 51 8b aa 3d 77 86 ae bb bd 49 23 bd be fb 64 bd
       0.08327354 -0.005326088 -0.039865244 -0.055904143
000350 f8 30 8c bb df b7 a5 bd 9d 4f 02 be 3a be dd bd
       -0.0042782985 -0.08091711 -0.12725683 -0.108272985
000360 ff 02 42 bd 2a e3 17 3d ce b7 c6 3d 3d 21 b7 bb
       -0.04736614 0.037081875 0.09703027 -0.005588679
000370 69 68 0d 3c 59 1f 05 3e c4 77 2b 3d 29 8e c3 bc
       0.00863085 0.1300024 0.041862264 -0.023871498
000380 80 84 07 3e 8d 9d 8a 3c 0b 36 be 3c 81 3a bb 3d
       0.13234138 0.01692083 0.02321913 0.09142018
000390 b7 42 a7 3d 10 e1 89 3d 65 97 1e 3d ba 66 30 bd
       0.08167022 0.067323804 0.0387186 -0.043066718
0003a0 5c 77 79 3c ad be 39 bd 50 6e 58 3d b2 44 0c be
       0.015226211 -0.04534786 0.052839577 -0.1369808
0003b0 56 e2 24 3d 30 67 89 bc ae e2 80 3d c6 4c c4 3d
       0.040254913 -0.016772836 0.06293236 0.09584956
0003c0 67 fb 41 bd 09 d0 fc bd 2b 52 38 3d b2 6e c7 bc
       -0.047358897 -0.12344367 0.045000236 -0.024344776
0003d0 c6 ed 44 3d 3c 25 32 bd ae f7 e3 bd c6 16 ca bc
       0.04807832 -0.04349254 -0.111312255 -0.024669062
0003e0 f8 d8 f0 3d 5d 38 fd bd 96 7c 0e bd d7 ad 6e bc
       0.117601335 -0.12364266 -0.034786783 -0.014567814
0003f0 0b 07 06 bc b7 e1 2a bc bb 54 5e 3d fd 8a 04 bd
       -0.00818039 -0.010429791 0.054280024 -0.032359112

lstm.weight_hh_l1 f4 [512, 128]
000000 3e 53 fe bc b0 4a 48 bd d9 bd 39 bd 0a f2 ac bc
       -0.031045552 -0.048899353 -0.04534707 -0.021111507
000010 17 e6 cf bc f4 24 5c 3d ff ae 1e 3d 58 20 82 bb
       -0.02537827 0.05374618 0.038741108 -0.003971141
000020 a9 e9 e0 3d a1 4a ee bc a2 fa 9d bd 08 6e 64 3d
       0.10982067 -0.02908832 -0.0771382 0.055768996
000030 cd 4c b1 3d df 6e 6f 3d 69 e2 7a 3d 08 65 b7 bd
       0.08657227 0.058455344 0.061251078 -0.08954817
000040 f9 83 04 3d 11 6d 1a 3d 17 b1 c3 3d 75 1e 63 3d
       0.03235242 0.03770167 0.095552616 0.055448968
000050 17 43 12 3d dd ff 4f 3d 8e 08 f7 bb c9 4f 16 bd
       0.035708513 0.05078112 -0.0075388616 -0.036697183
000060 dc d9 22 bd 2b 65 cd 3b a7 70 18 bd e9 18 b0 3c
       -0.03975855 0.0062681637 -0.03721681 0.021496253
000070 74 14 c6 bc 5f 32 90 bd 47 b8 1a 3d 2c 1d 52 3d
       -0.024179675 -0.070408575 0.037773397 0.05129735
000080 9e b3 0b bd 22 71 f5 bb 11 2e b3 3d 35 80 92 3c
       -0.034106843 -0.007490293 0.08749021 0.0178834
000090 17 73 65 bd b9 6c 8d bd c8 e8 d6 bc e0 39 35 bb
       -0.05601796 -0.06905503 -0.026234046 -0.0027652904
0000a0 72 4a fb 3b 3c 2a ea 3c f8 fa ef bc 12 d9 71 bd
       0.0076687867 0.028584592 -0.029294476 -0.059044905
0000b0 a0 65 b8 3d 1d eb a2 3d ad 92 88 3c b8 2b 89 3d
       0.090037584 0.079550005 0.016671503 0.06697792
0000c0 0b ba 86 bd 2a 4e 96 3c 16 21 b7 3d b6 6d 89 bd
       -0.06578454 0.018347818 0.089418575 -0.06710379
0000d0 f8 1f 9b bc 17 61 cd ba f6 c9 53 3d 98 2c a0 3d
       -0.018936142 -0.0015669194 0.051706277 0.078210056
0000e0 5d 9e 84 3c 6a 81 c5 bb 7d 96 7e 3d 7b f6 b5 3d
       0.016188795 -0.0060273902 0.062155236 0.08884903
0000f0 40 6a 42 bd 0e 8b 97 3c 38 dc 54 3d 25 75 55 3d
       -0.04746461 0.018498924 0.05196783 0.05211367
000100 67 9d 75 bb c0 39 b6 3c b0 50 38 bd dd 1d b3 bc
       -0.0037477852 0.022244334 -0.044998825 -0.021864826
000110 02 b1 ac 3d 1d 2d 57 bc cc 08 22 3d 14 2c 89 3d
       0.08432199 -0.013133314 0.03955917 0.0669786
000120 f8 41 2f 3c 74 6e 9f bd 31 d2 ae 3d 5d e6 8b 3c
       0.0106968805 -0.07784739 0.085361846 0.01707762
000130 ab 48 45 3d bc 72 41 3b 3c 67 c9 3d ff d9 99 bc
       0.048165005 0.002951785 0.098341435 -0.018780706
000140 cf 75 1b 3d 7f b2 04 3d da c4 c6 3d 43 60 05 bd
       0.037954148 0.03239679 0.09705515 -0.032562505
000150 65 45 bc bc b6 14 50 3d 36 7a 27 3d 31 07 5d bc
       -0.022982309 0.050801 0.040888034 -0.013490484
000160 bc 8d d6 3d ff 8f e7 3b e5 80 06 bd 2c 55 4d bd
       0.104762524 0.007066726 -0.032837767 -0.050130054
000170 f0 07 ce 3c 59 8a 21 3d d2 93 2b 3d 2e 1f 80 3c
       0.02515027 0.03943858 0.04188902 0.015639868
000180 5a 21 42 3d 08 bb 4b bd e1 7c 8d 3d d6 bc b6 3c
       0.047395088 -0.049738914 0.069085844 0.02230684
000190 6c 4a cf bd 4b 4b db 3c 1b 5a 48 3d 55 e1 4e 3c
       -0.10121617 0.0267693 0.048914056 0.0126269655
0001a0 3f c5 ba bc 3f 1f c3 bc f9 48 4f bc 29 42 b0 3d
       -0.022799132 -0.02381861 -0.012651675 0.08606369
0001b0 2f 50 d3 bd 70 d0 ce bd 82 38 26 bd d6 5d 8f bd
       -0.10318028 -0.1009835 -0.040581234 -0.0700032
0001c0 87 07 01 3d 52 1d bc bc ec 9b c1 bd de 77 ed 3d
       0.03150132 -0.0229632 -0.09453568 0.115951285
0001d0 49 90 01 3d 63 f5 12 bd 91 a8 67 bc 4e 20 5c 3d
       0.03163174 -0.03587855 -0.01413931 0.053741746
0001e0 1e 93 64 3d 61 f3 10 3d 95 80 83 bd eb 33 e9 bd
       0.055804364 0.035388354 -0.064210095 -0.11386856
0001f0 1c 89 3e 3c 03 75 7b 3c cb 01 1e bc 9b e5 7c bd
       0.011629369 0.015347722 -0.009643982 -0.061742406
000200 77 16 16 bd b1 3f 83 3d 52 fb 9c 3d 19 b1 af ba
       -0.036642518 0.064086325 0.07665123 -0.001340422
000210 f0 32 a2 bd a5 18 04 bd d0 8c a2 bd 78 59 4f 3d
       -0.07919872 -0.032250065 -0.07937014 0.050622433
000220 1b 76 c0 3d d9 3c 6c 3c 5f 2d 36 bd c9 81 4e bc
       0.09397527 0.014418804 -0.044476863 -0.012604185
000230 a8 a5 93 bb e5 9c b4 3d e6 88 00 3d 45 a3 17 3b
       -0.0045058317 0.08818988 0.031380557 0.0023138088
000240 45 e2 f8 bc 9f d0 a8 39 05 5a fb 3c 83 c9 43 3d
       -0.030381331 0.00032198892 0.030682573 0.0477996
000250 ce c6 97 3d 71 b9 0a 3d 3f f3 80 bd 01 7f 81 3c
       0.07410966 0.033868257 -0.062963955 0.01580763
000260 9f fa 85 3c 27 5c 95 bd 4d 9f 8e 3d 73 82 e0 3b
       0.016354857 -0.07292967 0.06963978 0.0068514883
000270 8d 47 18 bc 91 a8 93 bd 1d bd 3a 3d 51 67 d2 bc
       -0.009294403 -0.07209886 0.04559051 -0.02568403
000280 74 cd 56 bd 40 07 ab bd bb ee 20 3c 89 dc 22 3d
       -0.05244203 -0.08350992 0.009822543 0.0397611
000290 5b 87 b8 3d a4 7b 91 bd d6 70 39 bd 88 09 3d bc
       0.09010192 -0.07103661 -0.045273624 -0.011537917
0002a0 e8 f8 37 bd 00 97 2d bd 86 61 0e bd db 50 68 bd
       -0.04491511 -0.042380333 -0.034760974 -0.056717735
0002b0 2c 9f 07 3d 65 3c 91 3c 2d cf 37 3d 20 b1 be bc
       0.033110783 0.017728994 0.044875313 -0.02327782
0002c0 eb 4a f2 3d d3 71 16 be bb 48 1b 3d ff d1 cf 3d
       0.11830696 -0.14691858 0.037911158 0.101474755
0002d0 7e a3 0e 3d 7e 80 89 3d ff 91 87 3c a5 71 df 3c
       0.034823887 0.06713961 0.016549109 0.02727587
0002e0 73 cf 0e 3d e4 c5 ea ba 10 88 80 3d 33 18 85 bd
       0.034865808 -0.0017911759 0.06275952 -0.06498756
0002f0 e0 d5 e8 bb 6c c8 c1 3b 7f 61 d5 3c d1 ff 83 3d
       -0.007105574 0.0059137847 0.026047466 0.064452775
000300 04 e0 5f 3d 6b ff 1e 3b 74 9d a1 3d 31 6c 1b 3c
       0.054656997 0.0024261128 0.0789136 0.009486244
000310 a9 d4 95 3d ea 44 81 bc 01 81 c1 bd 87 09 a0 bd
       0.07315952 -0.015779931 -0.09448434 -0.07814317
000320 68 e2 da bd 27 f1 99 bd fb e1 f0 bb 16 bf b8 3b
       -0.10687715 -0.07516699 -0.0073511577 0.0056380136
000330 aa 29 91 3d 1b 3d 24 bd 70 21 05 bd d8 4f 81 bd
       0.07088025 -0.040097337 -0.03250259 -0.06314057
000340 92 c9 dd 3d 79 db 8b 3d e4 9d ce 3d bb 57 74 3b
       0.10829462 0.068289705 0.10088709 0.0037283737
000350 d2 c3 99 bc 5d 5c 6b 3d c3 66 fa bd d7 97 27 bd
       -0.018770132 0.05746113 -0.122266315 -0.04091629
000360 15 92 dd 3d 5e 17 db 3b 6b b9 ae 3d 0f e7 9d 3d
       0.108188786 0.006686135 0.085314594 0.077100866
000370 63 73 a2 bd ae 32 50 bd 84 82 13 3c 96 de aa 3d
       -0.079321645 -0.050829582 0.009003285 0.08343236
000380 c8 dd 81 3d cf dc 6b 3c 7e 65 88 3d d8 5f bc 3c
       0.063411295 0.014395907 0.06659983 0.02299492
000390 54 1d 54 3d 35 2f e6 bd e0 94 99 bc 3a 9b 75 bd
       0.051785782 -0.11239473 -0.018747747 -0.05996249
0003a0 bf 23 1a bd 1d 11 2c bc d4 66 0a bd c6 ad 8d 3d
       -0.037631746 -0.010502127 -0.03378947 0.0691791
0003b0 a7 dd 28 bd d9 57 03 bd 30 d4 cc bc 44 f9 a7 3d
       -0.04122701 -0.0320662 -0.025003523 0.082018405
0003c0 88 2f de bb c5 33 4f bb 71 22 92 3c 37 3a aa 3c
       -0.0067805685 -0.003161655 0.017838689 0.020779712
0003d0 d7 0c b5 bd 93 00 0f bc ad 31 e9 bc aa 66 32 3d
       -0.0884034 -0.008728164 -0.02846607 0.04355494
0003e0 c5 06 67 3b eb 71 23 bd c0 b6 a0 bd 58 f9 45 bd
       0.0035251838 -0.039903563 -0.07847357 -0.048333496
0003f0 4f cf c0 3b 0f 39 48 3b ba b3 e8 3d 49 db 1c be
       0.005884088 0.0030551588 0.11362405 -0.15318026

lstm.bias_ih_l1 f4 [512]
000000 76 72 9e 3b ad 85 19 bd 99 93 e1 b9 7d 08 a0 3d
       0.004835422 -0.037481 -0.00043025313 0.07814119
000010 9b 52 23 3c 11 f9 cc 3c 31 bb a6 3d 75 28 68 3d
       0.009968425 0.025021108 0.08141173 0.056679208
000020 42 97 42 bc c9 63 41 3d 18 55 d9 3c 86 29 3a bd
       -0.011876883 0.047214303 0.026529834 -0.045449756
000030 6d 8a 69 bd c6 03 a8 3d 65 6e 85 bd 2f 06 b5 3d
       -0.05701678 0.08203845 -0.06515197 0.0883907
000040 3d 47 60 bd f8 5d 99 bc b9 bb 05 bd 84 f9 05 3d
       -0.054755438 -0.018721566 -0.03264973 0.03270866
000050 50 78 44 3d 6d 5f 32 3d 45 4e 1e bb 71 f2 82 3c
       0.0479663 0.043548036 -0.002415554 0.015984746
000060 e7 c6 34 bd 11 6b 45 bd 11 5b e0 3d 27 39 67 bd
       -0.044135 -0.04819781 0.109548695 -0.05645099
000070 5c ba aa 3d ba 25 76 3d 19 bd 80 3d f1 27 4a 3d
       0.083363265 0.060094573 0.062860675 0.049354497
000080 b4 eb 28 3c 30 65 73 bd 3f 6b c7 bc 0d 39 8a bd
       0.010310102 -0.05942267 -0.024343131 -0.06749163
000090 b9 2f bd 39 56 ec 36 bd da ab 81 bd 61 cb 66 3d
       0.00036084445 -0.04465898 -0.06331606 0.0563463
0000a0 4f bf b9 bc bd fb 89 3c 70 60 6a 3d bd 45 59 bb
       -0.02267423 0.016843671 0.057220876 -0.003315314
0000b0 8b 76 7f 3c 48 60 af 3d f6 14 f9 3c 47 a8 02 3b
       0.015592228 0.08563286 0.030405503 0.0019936727
0000c0 dd 07 52 3d e7 c6 15 3c a6 0a 41 bc c7 20 91 3d
       0.05127703 0.00914166 -0.011782324 0.0708633
0000d0 44 9b 8a 3d 8e aa 5b 3d b4 6f 09 3d d3 bf 8b bc
       0.06767896 0.05362945 0.033553794 -0.017059242
0000e0 5b 27 af 3d 54 98 12 bd c9 58 8f bd a2 6b c2 3c
       0.08552428 -0.035789803 -0.06999356 0.023732964
0000f0 3d b8 8b bd dd cf fd bc a4 ab c4 3d a7 b2 4a bc
       -0.0682225 -0.030982906 0.0960305 -0.012371696
000100 c2 f4 a2 3d c3 e2 90 3d e0 4e bf 3d 10 3d 5c bd
       0.0795684 0.07074501 0.09341216 -0.05376917
000110 90 a0 a2 3d 63 17 20 3c c7 f0 21 bc 56 3f 82 3d
       0.07940781 0.009771201 -0.009884066 0.063597366
000120 92 0a 1a bd 24 aa 2b bd e6 6a 45 bd f3 35 90 bd
       -0.037607737 -0.041910306 -0.04819765 -0.0704154
000130 d3 98 aa 3d 33 3c 2e 3d ca dc 51 bc d1 e6 79 bd
       0.0832993 0.04253788 -0.012808988 -0.06101114
000140 ac eb 87 bd e4 70 a7 3d 15 56 84 3c 10 b8 88 bd
       -0.06636748 0.08175829 0.016154328 -0.06675732
000150 d4 9d 7d 3d 8b da 82 3d 81 fc 37 bd 3b 3c 8d 3b
       0.061918095 0.0638934 -0.04491854 0.0043101585
000160 25 1c 39 bd ef 60 e5 3c 2f 13 c6 3c d6 65 3e 3c
       -0.045192856 0.028000323 0.02417907 0.011620959
000170 25 e6 10 bd 64 df 64 bd 1b ff 9a bc 50 1c b4 3d
       -0.035375733 -0.055877104 -0.018920472 0.08794463
000180 2f fc ad 3d f2 b4 23 3d 92 11 1b 3d c3 3f 76 3b
       0.08495366 0.039967485 0.037858553 0.0037574626
000190 4d e3 9c bd b3 fd e5 3c 2c 92 8c 3d ee 2c ca bc
       -0.07660542 0.028075075 0.068638176 -0.024679627
0001a0 07 29 20 bd ed c0 a2 3d 24 03 0c bd 09 45 93 3c
       -0.039101627 0.07946954 -0.034182683 0.017977254
0001b0 82 af 29 bd 12 e2 89 bd d9 36 9c bd 9d c9 07 bd
       -0.041427143 -0.067325726 -0.07627649 -0.033151258
0001c0 b6 72 13 bd a0 61 9d bd 79 8b b2 3d dd 5d 32 bd
       -0.03599807 -0.07684636 0.087180085 -0.043546546
0001d0 3d 15 14 3c 88 be 1e bc 2d a8 98 3d b9 e2 e2 bc
       0.009038267 -0.009688981 0.07453952 -0.027696
0001e0 65 fb 23 3d 7e 68 53 3d 21 0c ac 3d 42 de 86 bd
       0.04003467 0.051613323 0.08400751 -0.06585361
0001f0 c0 a6 18 3b 01 ca 7c bd 09 b3 8a 3d 2c c3 c9 3d
       0.002329275 -0.061716083 0.067724295 0.09851679
000200 9c e8 46 bd 76 7e 34 3d ef 52 1c 3c 13 6d 2f bd
       -0.048561677 0.044065915 0.009541257 -0.04282863
000210 88 3e b1 3d 2e fc 28 3c 75 50 f0 3c 8b 0a 83 bd
       0.08654505 0.010314031 0.02933524 -0.06398495
000220 4b d7 57 3d 61 49 ba bc ab 23 24 3d a1 80 67 bd
       0.052695554 -0.022740068 0.040073078 -0.056519154
000230 3b 88 68 3d 00 30 69 3d 97 61 27 bd ee b5 5d bc
       0.056770544 0.056930542 -0.040864553 -0.013532145
000240 9e 5f 83 3c 1b 56 70 3d 98 d2 fa 3c 0e 78 a8 3d
       0.016036805 0.058675867 0.030617997 0.082260236
000250 b1 99 bf bc f2 d5 26 3d d1 a7 47 3c 6f 30 55 3a
       -0.023388715 0.040731378 0.012186007 0.00081325223
000260 a3 3f 1a 3c e6 19 b3 3d 65 eb 56 bd 6d 54 80 bb
       0.009414586 0.08745174 -0.052470583 -0.0039163143
000270 34 99 88 3c e9 28 9f 3b 18 57 86 bc c1 fc 9d 3d
       0.016674615 0.004857172 -0.016398951 0.077142246
000280 66 d5 3d 3d 2d 78 14 bd 84 5c ff 3c 57 b5 1b bd
       0.04634609 -0.03624742 0.031172045 -0.038014736
000290 be 1a 87 bd f6 26 cb 3d 4e 70 39 bd 9a c7 5b bc
       -0.065968975 0.099195406 -0.045273118 -0.013414288
0002a0 78 1c 8e bd 45 34 88 bc 10 6c ad 3d 6f c3 ab 3d
       -0.06939024 -0.016626487 0.08467877 0.083868854
0002b0 5b f6 97 3d 82 ab ff bc 68 78 54 3c 81 33 88 bc
       0.074200355 -0.031209711 0.01296816 -0.016626121
0002c0 8d 66 a7 3d 12 36 ab 3d d3 07 f8 bc ff 42 cd 3d
       0.08173857 0.083599225 -0.030277168 0.10022544
0002d0 5a 39 37 bd 4e cf 03 bc 93 5c 95 bd e2 59 81 bc
       -0.04473243 -0.008045031 -0.07293048 -0.01578993
0002e0 b7 62 37 bd 18 fd 89 bd 8a 95 52 bd 00 9f 29 3c
       -0.044771876 -0.06737727 -0.051412143 0.01035285
0002f0 19 3f b9 3b 2d 97 75 3d ef 4f 90 bd cf 2a 0f bd
       0.005653274 0.059958626 -0.07046496 -0.034952935
000300 fc d6 25 bc 5e 81 cb 3b 4d 1e 16 bd bd 7b a8 bc
       -0.010122057 0.00621049 -0.03664999 -0.020566816
000310 cc 44 6d bc 8a fe 41 bd 89 fa b7 3c be 9f 38 bc
       -0.0144817345 -0.047361888 0.022458332 -0.011268554
000320 ba ed 13 bd fa 52 e9 bc 6d 92 66 3d 0a d0 00 bd
       -0.036115386 -0.02848195 0.056291986 -0.0314484
000330 b8 b6 9d 3d ee d9 af 3c 9d ac 80 bd 27 0d 8c bd
       0.077008665 0.021466222 -0.06282923 -0.06838446
000340 c2 e1 11 bd 8b c3 35 3d 4d 4a 5c bd b0 db 0f bc
       -0.03561569 0.044375937 -0.053781796 -0.008780405
000350 bd 40 be 3d 0a 17 da bc 5a be b7 3d b4 0b ce 3c
       0.092896916 -0.026622314 0.089718536 0.025152065
000360 64 bd f2 3d d8 05 4f 3a af 2b 46 bd 62 78 44 bd
       0.1185253 0.0007897294 -0.048381504 -0.04796637
000370 ab 7e 31 bc ee ef 1f bd 20 9d aa 3c ca 13 94 bd
       -0.010833423 -0.039047174 0.020826876 -0.07230337
000380 7d 4c 44 3d 1a 95 67 3d 11 75 99 bd f5 9a 26 bd
       0.047924507 0.05653868 -0.07493032 -0.040675122
000390 4b a8 1f 3c 7f 4b 80 bd 05 3a 9e 3d 63 1c be 3d
       0.009744714 -0.062644 0.0772591 0.09282758
0003a0 c3 ed a7 3d 36 f4 bb 3d 12 8f 2c 3d 6c b7 eb 3c
       0.08199646 0.09177439 0.04212863 0.028773986
0003b0 cf 5e 57 bd 6d 75 af 3c 77 22 78 3d fe 8e 14 bd
       -0.05258065 0.021418298 0.060579743 -0.03626918
0003c0 c3 1f 8b bc 7c 18 1a 3d 0e 9b 9c bd f0 47 32 bd
       -0.016982919 0.037621006 -0.07646762 -0.043525636
0003d0 87 40 53 3c 39 c0 aa 3d fd fb cf 3d 77 3f fa bc
       0.0128938025 0.08337445 0.10155485 -0.03054784
0003e0 8e fc 38 3d 25 26 b6 3c 12 53 1b bd e0 4b 04 bd
       0.04516273 0.022234986 -0.03792102 -0.032298923
0003f0 fd 3f 29 3d 8d 18 02 3e 8b 3f cc 3d 29 a9 86 3d
       0.04132079 0.12704678 0.09973057 0.065752335
