Data/PredictionsData/AB15.pth (torch, 828430 bytes, 10 tensors)

lstm.weight_ih_l0 f4 [512, 13]
000000 db 18 a9 bd 79 d5 d2 3d ae eb 74 bc 4e 45 b9 bc
       -0.08256694 0.10294623 -0.014948769 -0.022616055
000010 36 4e ba 3d 7a ce 86 bd 79 44 01 bd 48 93 db 3d
       0.09096949 -0.06582351 -0.03155944 0.10721451
000020 80 85 b1 3d 9e c2 ec 3d eb b7 c5 3c 1b 54 59 3a
       0.08668041 0.11560558 0.02413555 0.0008290426
000030 ad cd b0 3d 76 53 dd bd 51 5c 9e bd 13 7e 34 bd
       0.086329795 -0.108069345 -0.07732452 -0.044065546
000040 3f 73 90 bc 13 50 d8 3c eb 50 92 3d c0 b6 1f bd
       -0.017633079 0.02640537 0.0714434 -0.038992643
000050 36 e2 93 bb 9d 77 2a 3d db 24 db 3c 39 b8 cb 3d
       -0.0045130504 0.04161798 0.026750972 0.09947247
000060 f8 d3 86 3c 80 62 c7 3b 2f f7 c0 bd 71 24 e0 bd
       0.016458496 0.00608474 -0.094221465 -0.10944451
000070 5b 84 70 3b 87 9a cb 3c 2c b7 05 3c dd 2c 16 3d
       0.0036699984 0.024853958 0.008161347 0.03666388
000080 3a c2 8e bd 74 3b c0 bd 00 8b 4b bd a3 d9 44 3d
       -0.069706395 -0.0938634 -0.049693108 0.048059117
000090 a3 8c d7 3d 68 55 95 bd 04 a7 88 bd 7d a0 0e bd
       0.10524871 -0.072916806 -0.06672481 -0.034821022
0000a0 d7 ab e6 3c a1 1e e1 bb a7 79 3c bd 6f dd 52 3c
       0.028158111 -0.0068701063 -0.046014454 0.012870177
0000b0 5d 39 83 bd 2c 21 b3 3b ac 30 6a 3c 98 cf 15 3d
       -0.064074256 0.005466601 0.014293831 0.03657493
0000c0 96 c8 e1 bc f6 2a 16 3a 61 7c a4 bd 3c 7b 81 3d
       -0.027561467 0.00057284476 -0.08031536 0.06322333
0000d0 82 3a 3c 3d f6 b9 f0 3c cd f1 78 3d d9 68 4b bc
       0.045954235 0.029385548 0.060777474 -0.012415134
0000e0 c6 ab 98 3d 2a a6 c8 3d fb 95 46 bc 0a 44 ad bd
       0.07454638 0.09797318 -0.012120719 -0.08460243
0000f0 d3 c1 9c 3d cf b3 77 3b 26 b2 d1 3d ea 10 e5 3c
       0.076541565 0.0037796383 0.10239057 0.027962167
000100 4b 30 61 3d 15 ed 0e bd da 60 d0 bc fc b8 f2 3d
       0.054977696 -0.034894068 -0.025436807 0.11851689
000110 09 d1 95 bd 9d 95 b8 bd 3b 6f 41 bc 05 52 e5 3d
       -0.07315261 -0.090129115 -0.011806305 0.111972846
000120 e1 3f 03 3e 23 47 79 3d 49 74 98 bd 61 3c af 3d
       0.12817337 0.060858857 -0.07444055 0.08556438
000130 45 32 7f bd cd 47 08 3e 80 62 b1 bd e4 c4 18 bd
       -0.0623038 0.1330864 -0.086613655 -0.037297145
000140 c3 0b 80 bd fe 79 32 3c 6d e8 bf bd 6f be d0 39
       -0.06252243 0.010893343 -0.093705036 0.00039814736
000150 5a 06 0a 3c c1 51 0a 3e 8d 68 a0 3d f9 4e fd 3d
       0.008424366 0.13507749 0.078324415 0.123685785
000160 1b 93 dc 3d 9b cb f4 3d 98 84 af 3c fa 0d f7 bd
       0.10770246 0.11952897 0.02142553 -0.12063213
000170 45 3b 60 bb df cf ba 3b 23 b8 0b 3d 77 42 bf bd
       -0.0034215015 0.0057010497 0.034111153 -0.09338849
000180 f7 44 a5 3d 9b 4f 98 bd 70 3c df 3d 4c a9 33 3e
       0.080697946 -0.074370585 0.109001994 0.1754505
000190 0d 55 67 3d 86 6c 86 bd f3 e9 92 3d fb 3a 2b 3d
       0.056477595 -0.06563668 0.071735285 0.041804295
0001a0 c4 6f da bc 97 42 0c bd 20 f0 1f 3e 39 d9 65 3d
       -0.026664622 -0.034243193 0.15618944 0.056115363
0001b0 a5 4a 3c 3d fa 69 b3 3d 94 0a c7 3d cf 65 aa bd
       0.045969624 0.08760448 0.097188145 -0.083202
0001c0 c0 2c aa 3d 0b 2d 1a 3d 20 0c 40 3d 76 fd 41 bb
       0.08309317 0.037640613 0.046886563 -0.0029600537
0001d0 03 49 52 3d 6d 98 ab 3d 75 84 00 bd fe c5 e0 bd
       0.05133916 0.08378682 -0.03137632 -0.10975264
0001e0 f4 66 b0 bd 8b 68 b7 bd 47 62 c4 bc 6c 37 87 3d
       -0.08613387 -0.08955487 -0.023972644 0.06602368
0001f0 d1 e7 09 3d 29 1c d4 3b 72 c0 31 3e 9f 80 77 3b
       0.033668343 0.0064730835 0.17358568 0.0037765873
000200 52 7f 53 3d bd d9 b6 3d 91 7e 5c 3d 11 73 90 bd
       0.051635094 0.08928249 0.05383164 -0.07053197
000210 74 f3 a5 bc 65 59 b5 3d 4c 40 57 3d 30 10 a6 3d
       -0.020257689 0.08854941 0.052551553 0.08108556
000220 13 2d 75 3d 22 7f b9 bc 66 35 e4 3c 05 5f 9a 3d
       0.05985744 -0.02264363 0.027857494 0.07537655
000230 da dc 99 bb fe c2 75 bd 35 4c ad 3c 94 24 e4 3c
       -0.004695517 -0.060000412 0.021154502 0.027849473
000240 da 05 0d be 06 88 14 3c 6a 66 62 bd 18 cf fc 3a
       -0.13771763 0.009065634 -0.05527345 0.0019287793
000250 4a df 5c bd 9a 97 b2 bd ce 13 34 bd 68 d7 3e 3d
       -0.053923883 -0.08720322 -0.0439642 0.046592146
000260 91 f7 5e bc 7c cf 94 bd b9 30 ad bc f3 fd 33 bb
       -0.013608829 -0.07266137 -0.021141397 -0.0027464598
000270 48 b2 92 3c ab 8b cc bd 83 d5 fa bd 6a 47 e0 bd
       0.017907277 -0.09987577 -0.122477554 -0.10951121
000280 f4 8a e4 bc f4 d0 e8 bd 4a b0 d4 3d 3c 1d a5 bc
       -0.02789829 -0.1136798 0.10385187 -0.020155542
000290 ca c6 5a bb 66 cc 42 bc e5 7d 56 bd 92 32 7d bd
       -0.0033382648 -0.011889553 -0.052366156 -0.061815806
0002a0 59 06 e0 bb dc 27 a3 3b 8c ec f3 3c bc 3a 52 bd
       -0.006836694 0.004979117 0.02977588 -0.051325545
0002b0 f5 4e 6e 3b 0a 03 ac 3d 7b eb ba bc 31 5a 04 3e
       0.003636298 0.08399017 -0.022817364 0.1292503
0002c0 61 91 42 bc 01 6f a7 3d aa b0 54 bd 24 05 f2 3b
       -0.011875481 0.08175469 -0.051926292 0.0073858667
0002d0 d8 19 89 bd 73 44 21 bd 6c b8 d7 bd de 84 8b 3d
       -0.066943824 -0.03937192 -0.105332226 0.06812452
0002e0 08 76 a7 3d 1e c7 96 bd c5 c0 b2 bd 78 1b 42 bc
       0.081768095 -0.07362197 -0.08728174 -0.011847369
0002f0 3a 31 a3 3d 79 96 87 3d be c2 82 3d ae a6 8a 3d
       0.079683736 0.06620497 0.063848004 0.06770073
000300 8a 9d 7b bd cd be 87 3b 76 21 26 bd e6 76 a8 3c
       -0.061429538 0.0041426183 -0.040559255 0.020564508
000310 12 30 b3 3c 5a aa 30 3e 60 64 d2 3d 21 2d de 3d
       0.021873508 0.17252484 0.10273051 0.108484514
000320 49 50 32 3d e3 52 be bd 39 8a c0 bc 49 98 b9 bc
       0.043533597 -0.09293153 -0.02350341 -0.022655623
000330 d6 36 72 bd 7d a0 22 3e 2c 8f a3 bd 52 a4 c2 bc
       -0.059134327 0.15881534 -0.07986292 -0.023759995
000340 22 ce 02 3c d5 1b 67 bd ea a0 91 bd 4e 17 1f bc
       0.007983716 -0.056423027 -0.0711077 -0.009710146
000350 21 f5 b3 3d 18 59 91 bd a4 03 5d bd be b8 bb bd
       0.08786989 -0.070970714 -0.05395855 -0.09166096
000360 1a 49 b2 bc b0 2c f7 bc d1 c6 8f bc 48 ab d3 3c
       -0.021763373 -0.030172676 -0.017550858 0.02583851
000370 a9 59 03 3d 6e db cc 3d ea 30 a9 bc c2 90 85 bd
       0.03206793 0.100027904 -0.020653207 -0.06521751
000380 d8 fb 8e 3d b8 49 2f 3d d7 94 69 bd f9 19 05 bb
       0.06981629 0.042794913 -0.05702671 -0.002030967
000390 aa 07 34 3c 42 4f 2b bc 0a 7d a5 3d d2 00 95 bc
       0.010988155 -0.010455908 0.0808049 -0.018188868
0003a0 f6 a3 f3 bd 1f af 07 3c 62 6a 3f bd b5 58 98 bc
       -0.118965074 0.008281498 -0.046732314 -0.018596986
0003b0 12 2d ca 3d 4e f6 96 3c 04 b7 29 3a f6 ec 3f 3a
       0.09871878 0.018427994 0.000647411 0.00073213817
0003c0 34 bc 66 bd 5c ab a4 3c 63 e4 a2 3d 8a 3b a7 3d
       -0.05633183 0.020101242 0.079537176 0.08165653
0003d0 16 e3 c4 3d 8e 4f 80 bd 2f cc d5 3d 6b 3e 00 bd
       0.09613626 -0.06265174 0.104393356 -0.031309526
0003e0 18 a3 4b 3d 34 a7 51 3d 91 ad 48 3a 80 a3 bb 3c
       0.049716085 0.051184848 0.0007655258 0.022905111
0003f0 50 cc a0 3c 51 bd 7c 3b 19 5a c9 3d 5b b6 b4 bc
       0.019628674 0.003856499 0.09831638 -0.02205961

lstm.weight_hh_l0 f4 [512, 128]
000000 19 fa 92 bc 3b 39 85 bd 4c 95 2d bd 2f f9 00 3e
       -0.017941521 -0.065050565 -0.04237871 0.12595056
000010 b1 15 e8 bd 6c 1a ff 3c 0b 2b 68 3d 98 6d cf bc
       -0.11332262 0.031140529 0.056681674 -0.025320813
000020 f0 34 3c 3e d2 fd 37 be 1a c4 e0 bd 7c 7e 39 3d
       0.18379569 -0.17967919 -0.109749034 0.04528664
000030 c0 05 14 bd 5d de 8d bd 5e 5d 29 3d 96 03 0e 3d
       -0.036138296 -0.06927178 0.041348808 0.03467139
000040 f4 1c 7d bd b5 6b c8 bc 5a 22 0c be 50 19 77 bd
       -0.06179519 -0.024465421 -0.13684979 -0.060326874
000050 78 d0 06 3d b7 a4 48 3d 78 38 01 3e e2 44 d3 3d
       0.032913655 0.04898521 0.12619197 0.10315873
000060 3c 23 a6 bc a9 88 8f 3d 3c 9e 8a bd c9 be 82 3d
       -0.020280473 0.07008488 -0.06768462 0.06384046
000070 87 fa bb bd b2 a0 80 bc 17 c0 1e 3d 18 f0 e2 bd
       -0.09178644 -0.015701625 0.03875741 -0.110809505
000080 26 50 94 3b 46 21 83 3d c0 25 77 3d 91 ca 87 3d
       0.004526156 0.06402831 0.060338736 0.06630433
000090 d0 dc 06 3e b2 ad 9c bd b2 8a 22 3d 0a 2d 0c bd
       0.13170171 -0.07650317 0.03968305 -0.03422264
0000a0 8e da 91 3d e8 6e f9 3c f6 22 03 3d c3 4c 9d bd
       0.07121764 0.030448392 0.032015763 -0.07680657
0000b0 0b ca 58 bb 41 4d 57 bd fb ac 82 3d 91 e6 72 bc
       -0.0033079411 -0.05256391 0.0638065 -0.014825479
0000c0 9c 17 8c bd 85 d6 30 bd da 20 97 bd 7b fb b1 3b
       -0.06840441 -0.04317333 -0.07379313 0.00543159
0000d0 e5 37 11 bc 36 49 06 bd 1d b5 9e 3d 94 96 72 3d
       -0.008863424 -0.032784663 0.07749388 0.059225634
0000e0 e1 22 ae bd 88 60 86 bd 71 37 a7 bd 13 c8 22 bd
       -0.085027464 -0.065613806 -0.081648715 -0.039741587
0000f0 79 87 8f 3d 17 21 22 bd 85 40 02 bd ad 76 a9 bc
       0.07008261 -0.03958234 -0.031799812 -0.020686472
000100 9d 52 90 bd db d5 79 3d 2f 78 54 bd 16 5c c9 bd
       -0.07047007 0.060994964 -0.05187243 -0.09832017
000110 83 30 01 3e 56 fb 29 bc 1c f0 2d 3d e0 3b 0d 3e
       0.12616162 -0.010374865 0.042465314 0.13792372
000120 ce 9a 7b bd 2b 89 98 bd a4 51 f0 bd 2a c2 11 bc
       -0.06142693 -0.07448038 -0.11734322 -0.00889639
000130 21 f8 09 be 52 87 7f bd 32 ee 7f bd 39 19 0c bd
       -0.1347356 -0.06238491 -0.06248302 -0.03420374
000140 e6 d7 5f 3b dc e9 d1 bc 90 5b 0c bd 12 c9 cf 3c
       0.0034155785 -0.025624208 -0.03426701 0.025364432
000150 f5 cd cb 3b 91 85 fa 3d 08 f6 3c bd ae 39 5d 3d
       0.0062196204 0.12232507 -0.04613307 0.054010086
000160 1e f1 c1 3d aa 7a ae 3d 55 b3 82 bb 07 13 05 be
       0.094698176 0.0851949 -0.003988663 -0.1299554
000170 59 60 f7 ba b3 e6 4c bd 9d bf c3 3c 27 4e 98 bd
       -0.0018873318 -0.0500247 0.02389508 -0.074367814
000180 24 68 fc 3c 45 ad 53 bd b4 3f 21 3d ac 6d 9e bd
       0.030811377 -0.051678915 0.039367393 -0.07735762
000190 24 21 86 3d dc fd 92 3d b1 bf 4e bd a0 61 46 bc
       0.0654929 0.07177326 -0.05047578 -0.012108237
0001a0 8c 25 35 3d d4 8b 63 3d 14 82 54 bd 2e c9 52 bd
       0.04422526 0.055553272 -0.051881865 -0.05146139
0001b0 d4 88 2b bd 1a 1c ac 3c a2 2a e6 3d 48 f7 ef 3d
       -0.041878536 0.021009494 0.112386 0.11717087
0001c0 02 2d 00 3d ac c9 4a bd 3b f1 89 bd 26 e0 49 3d
       0.031292923 -0.049508736 -0.06735464 0.04928603
0001d0 59 bf 8a 3b 02 d7 98 3d c7 d7 3a 3b 6d f1 a0 3d
       0.004234236 0.074628845 0.002850996 0.07858548
0001e0 3e 35 a0 3c 37 04 2e 3c bf 84 d1 bd 26 7d 00 3e
       0.019556638 0.010621122 -0.102303974 0.1254774
0001f0 9c cf 85 3d 26 65 56 3d c8 45 a7 bc b9 44 10 bd
       0.06533739 0.052342556 -0.020419016 -0.03522179
000200 fc 8d a2 bd 58 bc 8d bd 72 c3 14 bc 5d 12 31 bc
       -0.079372376 -0.06920689 -0.009079801 -0.010807601
000210 a4 84 83 3c e4 f1 34 3d 7e 57 4e bb 99 43 85 3c
       0.016054459 0.044175997 -0.0031485255 0.016267585
000220 cf 17 5f bd 07 b5 87 bd c1 c7 1c bd 44 93 ad bc
       -0.054466065 -0.06626325 -0.038276438 -0.021188386
000230 08 9d ba bd 1e d9 80 3c 06 c3 3b bd 67 4e a1 bc
       -0.091119826 0.01572853 -0.045840286 -0.019690705
000240 24 63 32 3d dc c5 45 3d 2e 8d cf 3c 2f 95 66 3d
       0.04355158 0.048284397 0.025335874 0.056294616
000250 74 5b 2b 3e e6 c1 21 bd f9 17 cf 3d cc 71 b9 3d
       0.16734105 -0.039491557 0.10111994 0.09054908
000260 b2 8b 8c bd af 64 6d 3d 69 96 3e bd fe 72 59 bd
       -0.06862582 0.057957347 -0.04653016 -0.05308818
000270 3a 88 bd 3d ce 4e 9a bb 50 cd 65 bc 07 fa 1f bd
       0.09254499 -0.0047091013 -0.014026001 -0.039056804
000280 db d8 00 be 0c d7 4d 3d fa 12 ce bb b5 ce 23 3d
       -0.12582724 0.050253913 -0.0062888833 0.039992053
000290 57 71 62 3d 9e b0 14 be 61 35 67 bc 89 b7 a6 3c
       0.05528387 -0.14520499 -0.014111848 0.020351188
0002a0 66 b4 ea 3d ca 0b 98 bc b0 1d 12 3e 1a 07 b5 bd
       0.114601895 -0.018560309 0.14269137 -0.08839245
0002b0 e2 7f a8 bc 39 fd 29 be 63 e9 80 bd 3a 22 f0 bc
       -0.020568792 -0.16600503 -0.06294515 -0.029313195
0002c0 4e 7c da bd 36 3f db bd f5 de f3 3c da 06 66 3d
       -0.106682405 -0.10705416 0.0297694 0.056158878
0002d0 b7 1b 2d 3c 1d 72 b3 3d 61 e1 ff bc 43 b9 d8 3c
       0.01056569 0.08762 -0.031235399 0.026455527
0002e0 aa 7b 88 bb 1d 80 65 3c 92 11 44 bd 60 4e 97 3d
       -0.0041651325 0.014007595 -0.04786832 0.07387996
0002f0 22 b4 e8 3d 87 6d 6e 3a 44 d9 02 3d 50 52 88 3c
       0.113624826 0.00090953003 0.031945482 0.016640812
000300 92 1c 81 3d 8f 3c bf 3d 2a 44 a6 bc 15 96 88 3d
       0.063042775 0.093377225 -0.020296175 0.06669251
000310 01 7f 0a 3e 5a 4d 70 3d 28 e3 a7 3d f6 4e 38 3d
       0.1352501 0.05866752 0.081976235 0.044997178
000320 5b 87 7d 3c a8 52 05 be 2a d9 d6 bc cb 3d d6 bc
       0.015474166 -0.13019812 -0.026226599 -0.026152512
000330 d5 09 17 3d 05 af 85 3c 48 e6 1e 3d 8b 88 2d bc
       0.03687461 0.016318807 0.038793832 -0.010591636
000340 4a 4c 82 bd 26 33 b9 bd d2 7c 82 bc 01 c6 51 3a
       -0.06362207 -0.09042959 -0.01592866 0.0008002222
000350 83 37 e7 3c 22 8d 13 bb eb 85 fa bd 0c 89 12 3c
       0.028224712 -0.0022514542 -0.12232574 0.008943807
000360 6e 49 87 3d b0 68 17 bd ee 32 51 3c 40 f7 36 3d
       0.066058025 -0.036965072 0.01276849 0.04466939
000370 65 ad 44 bd a0 b7 d9 bd 31 e2 48 bd 4b 55 84 bd
       -0.048016924 -0.10630727 -0.049043838 -0.06461581
000380 b5 52 76 3d 35 bb 50 3d c4 a9 81 3d 2f 8e 51 bd
       0.06013747 0.050959785 0.06331208 -0.051160987
000390 11 6f a1 3c 01 e1 9e 3d dc 14 b4 bd 76 43 87 3c
       0.01970628 0.0775776 -0.08793041 0.01651166
0003a0 d9 da f5 3d 5e 87 39 3c c0 66 5f bc 2a 14 be bd
       0.120046325 0.011323778 -0.013635337 -0.0928119
0003b0 68 99 44 bc 2c a5 5b 3d 1e ac cc 3c ef ef 6d 3d
       -0.0119994655 0.053624317 0.024984416 0.058090147
0003c0 34 22 a4 3d 0f f2 cc bd e3 af 7b bc ce 24 25 3d
       0.08014336 -0.100071065 -0.015361759 0.040318303
0003d0 76 fa aa bd 58 2a c9 3d ee 87 18 3c 26 18 18 3d
       -0.08348553 0.098225296 0.009309752 0.037132405
0003e0 e4 5c e5 bd 7c 26 58 bb 33 fc 9f bd 93 27 84 bd
       -0.11199358 -0.0032981923 -0.07811775 -0.06452861
0003f0 e9 2d 70 3d 4e 20 f5 3d b5 37 bb bd de cf 95 3d
       0.058637533 0.11969052 -0.09141485 0.07315038

lstm.bias_ih_l0 f4 [512]
000000 b5 af 15 bd 1e 6b ae 3d e1 20 0f 3c a0 c9 3d bd
       -0.03654452 0.08516525 0.008735866 -0.046334863
000010 52 9d 99 3d 6a 8d 07 bd 7d 63 b8 3d 08 30 0f bd
       0.075007096 -0.033093847 0.09003351 -0.034957916
000020 5e 3c 19 3d 20 0f da 3d e3 d0 3a bd 0f ad ad 3d
       0.037411086 0.10647416 -0.045609366 0.08480274
000030 2c 3f 63 bd a0 fd 04 3d ce b6 62 bc 5a 78 48 bd
       -0.055480167 0.03246844 -0.013837529 -0.0489429
000040 95 bf 1e 3e 0e e6 15 3d 10 b9 47 3d 61 e1 d1 3d
       0.1550277 0.03659635 0.048760474 0.10248066
000050 a3 bf d6 b8 2c 30 29 3d ac 32 f2 3c 2a e4 d8 3c
       -0.0001024001 0.041305706 0.029565178 0.026475985
000060 6c 70 d7 3d a4 2e a3 3d bd 09 a9 bb 9c 78 61 3d
       0.1051949 0.0796788 -0.0051586316 0.055046663
000070 68 d3 74 3c 92 20 3c bd d4 6c c0 ba d5 4d 28 3c
       0.014942981 -0.0459295 -0.0014680871 0.010272463
000080 44 0f 77 3d e4 fd 54 3d ba 50 69 3c dc ed bc 3d
       0.060317293 0.05199994 0.014240438 0.092250556
000090 da 79 f9 3b 89 36 09 3e 8f f3 6b 3c a9 cd 3f 3d
       0.007613403 0.1339971 0.014401331 0.046826992
0000a0 d0 02 e8 3d 3b 08 61 3a e4 bb d8 3a fe ae 8c 3d
       0.113286614 0.0008584295 0.0016535488 0.068693146
0000b0 ce bb 92 3b 97 25 88 3d f1 b4 a7 3c 01 33 77 3d
       0.0044779545 0.06647795 0.020472022 0.060351375
0000c0 df 61 ec 3c 05 d5 ec 3d 2e 96 37 3d ea a4 90 3b
       0.028855262 0.11564068 0.044820957 0.0044141905
0000d0 f5 6d 02 bc 5b c9 ab 3b 20 cd 2a 3b 71 65 dd 3b
       -0.007960786 0.0052425093 0.0026062205 0.0067564775
0000e0 84 c3 41 3d fb 24 9b 3d 32 d6 77 3c c9 a6 5e 3d
       0.0473056 0.07575413 0.015126752 0.054358277
0000f0 19 10 71 bd 47 0d f2 3c 5a 99 7f 3d ae 04 12 bd
       -0.058853243 0.029547347 0.062402107 -0.035648994
000100 1e 81 85 3d 4c 9f 1e bd e4 44 87 3d f4 1a ab 3b
       0.06518768 -0.038726136 0.06604937 0.005221719
000110 d7 3c 30 3d 08 92 bc 3d 27 6a f6 3d fc 3d c8 3c
       0.04302677 0.09207541 0.12031966 0.024443619
000120 ea c2 a1 3d c2 dd 9e 3d 70 e9 02 3d dd cf ae 3d
       0.07898505 0.07757141 0.031960905 0.085357405
000130 95 29 41 bd 4d 6a bb 3c 3f 2a 37 bd e2 43 55 bc
       -0.047158796 0.022877837 -0.044718023 -0.013016673
000140 ae fe 73 3d 8f 45 0d bd 64 9e 1a 3d 84 43 3e 3d
       0.059569053 -0.034490164 0.03774871 0.046451107
000150 a7 ea d7 bc 9d 27 82 3d 3b e4 bb 3d e5 27 c5 3d
       -0.026357008 0.06355212 0.09174391 0.0962675
000160 1b 91 d2 3d 80 df c0 3d cd 8f 8c bc 69 18 d2 3c
       0.10281583 0.09417629 -0.017158413 0.025646405
000170 d5 14 92 bc 12 48 1c 3d 42 cb e0 3a 8f 83 fb 3d
       -0.0178322 0.03815467 0.0017150419 0.12280952
000180 79 65 04 3e f2 37 b7 3d 12 79 19 bd 24 3d ec 3c
       0.12929334 0.089462176 -0.037468977 0.028837748
000190 4b 52 bb 3c 43 49 34 3d a8 88 67 3d ee dd 07 3d
       0.022866389 0.04401518 0.05652681 0.033170633
0001a0 70 ef 8c 3d 34 f0 8f bc 59 d2 1d bd b7 8f 8c bc
       0.068816066 -0.017570592 -0.03853068 -0.017158372
0001b0 39 ad 8b 3c 54 2c a0 3d a9 2e 1a 3d 27 7b 1d bd
       0.017050372 0.07820955 0.037642155 -0.038447525
0001c0 1b be ed 3d 64 a0 0e bd 00 14 67 3d 17 58 4b bc
       0.11608525 -0.03482093 0.056415558 -0.012411139
0001d0 27 bb 13 3d f5 68 cf 3d 82 4d 45 3d 73 15 df bc
       0.036067154 0.10127441 0.04816962 -0.027231907
0001e0 48 78 9f b8 ba 50 3a bd bc 4f 01 3c 59 7c 0e 3d
       -7.604115e-05 -0.045487143 0.007892545 0.034786556
0001f0 7f 18 40 3d 53 b9 08 bd e3 b8 fa 3b 54 50 91 bd
       0.04689836 -0.033379864 0.0076514347 -0.070953995
000200 9e 2d a2 3d 1d 28 a9 3a 76 04 d0 3d 3a 18 aa 3d
       0.07918857 0.0012905631 0.10157101 0.08305402
000210 4c a3 6f 3d 3d 69 9f 3d 58 cb 40 bd 78 45 06 3d
       0.05850534 0.077837445 -0.047068924 0.032781094
000220 53 13 06 3e b9 29 ba bc 70 c3 32 bd 58 30 3e 3d
       0.13093309 -0.022724973 -0.043643415 0.046432823
000230 62 a7 48 bc a7 a0 38 bd d3 36 9a 3b b3 80 84 3d
       -0.012246938 -0.045075085 0.0047062426 0.0646986
000240 03 2b 02 3e 0c 49 02 3c 09 59 c6 3d 60 66 83 3c
       0.1271172 0.007951986 0.09684951 0.016040027
000250 4c b0 bd 3d 51 54 b8 3d 2a 8e c4 bc b8 3c e0 3d
       0.092621416 0.09000457 -0.02399357 0.10949081
000260 51 99 8e 3d 6b 6c e6 3c 00 74 0d 3d 66 53 c5 bb
       0.069628365 0.02812787 0.034534454 -0.0060219048
000270 10 63 08 3d 74 8b 03 bd 29 50 f3 3b 8a fa f1 3d
       0.0332976 -0.032115415 0.0074253273 0.11815365
000280 28 3e 01 3d be 75 78 3d 53 96 4f 3d 3c d9 cb 3d
       0.031553417 0.060659163 0.05068047 0.099535435
000290 09 e6 19 bd e6 7a f4 3c 35 23 b2 3c 40 43 99 3d
       -0.037572894 0.029843759 0.021745304 0.0748353
0002a0 c3 30 3a 3b 87 93 39 bc 16 c4 a5 3d b8 54 94 3d
       0.0028410412 -0.011326677 0.08094041 0.07242721
0002b0 e4 f6 74 3d 78 77 75 3d 33 3e 05 3d 89 e3 0a bd
       0.059805766 0.059928387 0.03253002 -0.0339084
0002c0 11 72 8e 3c 30 6a 0b bd 63 10 e4 bc ea 07 84 bc
       0.017388375 -0.034036815 -0.027839845 -0.016117055
0002d0 88 55 64 bd d1 d1 e8 bc 64 05 f2 3c 4f e2 b8 3d
       -0.05574563 -0.02842036 0.029543586 0.0902754
0002e0 35 88 2b 3e fa a6 90 bc f0 96 10 3c e3 6c 1d 3d
       0.16751178 -0.017657746 0.008825049 0.03843392
0002f0 ab 03 87 3d 31 d0 13 bd 04 04 d2 3d e3 87 37 bd
       0.065924965 -0.03608722 0.10254672 -0.044807326
000300 4a 90 21 bd 86 2e 4e bd 3f 3c 6e 3c 84 dc 80 3d
       -0.039444245 -0.050337337 0.014540731 0.0629206
000310 c5 e2 de 3d cc 65 80 3d 44 a6 46 3c 19 3c 4b bd
       0.108830966 0.06269416 0.012124602 -0.04961786
000320 5b 14 08 3d 69 bb 59 3d 15 e1 74 3d 0d 81 6e 3d
       0.033222537 0.053157244 0.059784967 0.05822854
000330 80 30 45 bd 0a ac 42 bc fa 22 dd bb 4c a9 d3 3c
       -0.048141956 -0.011881838 -0.0067485543 0.025837563
000340 d1 fe f2 3c f4 2d cd 3d 00 ad 09 3e 0c 75 fe bc
       0.029662522 0.100185305 0.134449 -0.031061672
000350 4d bf aa bc b5 c2 cc 3d 96 28 17 bd 82 11 bd 3d
       -0.020843172 0.09998075 -0.03690394 0.09231855
000360 e7 99 1f bd 3b 06 04 bd 24 e9 d8 3d 0b 74 f3 3d
       -0.038965132 -0.032232504 0.10591343 0.11887368
000370 eb fe b8 3c 45 cf fc 3d 62 30 50 bc 2c 9a ac 3d
       0.022582492 0.12344221 -0.012706848 0.084278435
000380 c0 ae 92 3d f1 5b a5 3d 87 4a 24 3d f2 8c 2d bd
       0.07162237 0.08074177 0.040110137 -0.042370744
000390 58 9d ae 3d 8c 6f 3e 3d 84 18 47 bd 0e 5e cc 3d
       0.08526105 0.0464931 -0.048607364 0.09978877
0003a0 5f e2 51 bd b3 cc d3 3d 31 b5 29 3d c9 ab ee bc
       -0.051241275 0.10341778 0.041432563 -0.029134648
0003b0 31 2c d7 3d 09 f2 93 bd 73 b9 72 bc 29 a8 8c 3c
       0.10506476 -0.07223899 -0.014814722 0.017170029
0003c0 8a 04 14 3d 0c 2b 34 bd 33 79 89 bc 2d f7 da 3c
       0.03613714 -0.043986365 -0.016781425 0.02672919
0003d0 eb ed a4 bb 8a b8 5c bc a9 0b 5d 3d 13 70 a7 3d
       -0.005033245 -0.013471732 0.053966198 0.08175673
0003e0 1c e9 96 bc ee 23 82 bd 40 f1 89 3d e1 8a 80 3d
       -0.018421702 -0.06354509 0.06735468 0.06276489
0003f0 75 eb 99 3d a7 ad 59 bc 24 e9 94 3d 4c 77 f5 3b
       0.07515613 -0.013286031 0.072710305 0.007491028

lstm.bias_hh_l0 f4 [512]
000000 10 ef 15 3d 5e 14 d0 3d 0a 44 af 3d 4d 99 fb 39
       0.03660494 0.10160135 0.08557899 0.0004798867
000010 9a c6 a5 3d b9 68 68 3d dd d2 87 3d 0f f9 f3 3c
       0.08094521 0.056740496 0.06632016 0.029781846
000020 5c c8 29 bd 3a 4e 99 3c 2f c0 7b 3d db 32 06 3e
       -0.041450843 0.01871406 0.061462577 0.13105337
000030 e7 e6 44 3c 0f 6d d8 3d 82 f8 41 bd eb fc 00 bd
       0.012017942 0.10567676 -0.047356136 -0.0314912
000040 c7 bf 14 3c bc 3d c3 3d c0 64 ef bc ee 93 65 bd
       0.009078926 0.09533259 -0.029222846 -0.05604928
000050 0d 08 03 bd f8 2b 09 3d de f0 5a bd 90 a0 84 bd
       -0.0319901 0.033489197 -0.053452365 -0.06475937
000060 4a 85 43 bd d5 31 5d bd bb 5e b2 3d 9e 01 76 3c
       -0.047734536 -0.0540026 0.08709475 0.015015034
000070 75 78 42 bd fa da 99 bb 15 ff e3 3c 7d d2 a0 3d
       -0.047478158 -0.0046952935 0.027831594 0.078526475
000080 0a c1 72 3d 78 55 2a bd 15 eb 14 3d 76 c9 f7 3c
       0.059266128 -0.041585416 0.036357004 0.030247431
000090 6a b1 ba bc 50 61 9e 3d a4 fc 38 bb 24 ea 30 3d
       -0.022789676 0.07733405 -0.0028226757 0.043192044
0000a0 c0 67 4c 3d 90 ab 0e 3d de e5 61 3d 75 68 9e 3d
       0.04990363 0.034831583 0.05515086 0.07734767
0000b0 1d 1e dc 3d 4a 03 c0 3c dc 4e 76 bc 84 82 fa 3c
       0.10747931 0.023439068 -0.01503345 0.030579813
0000c0 60 09 1d bb f6 6a 34 bd 17 22 a3 3c 17 66 bb 3c
       -0.0023961887 -0.04404732 0.019913716 0.022875829
0000d0 91 6c 8d 3d 1b 11 87 3d 72 90 96 3d 77 52 39 bc
       0.06905473 0.065950595 0.073517695 -0.011311165
0000e0 b2 db a2 ba a2 50 c8 3d 7e 70 9e 3d c6 2e 8e 3d
       -0.0012425093 0.097810045 0.077363 0.06942515
0000f0 66 79 26 bc a5 be 3b bd f9 9c ab 3d 42 3c 4a bd
       -0.01016078 -0.04583611 0.083795495 -0.049373873
000100 2d 90 fd bc b0 93 0d 3c 1e 04 6e 3d b6 fa 86 bd
       -0.030952537 0.0086411685 0.058109395 -0.06590788
000110 f4 96 46 bd 81 f9 bb 3d 5c db 0c 3d 91 c8 8a 3d
       -0.048483804 0.091784485 0.034388885 0.06776536
000120 00 11 ca 3d 2a 61 65 3d e7 d9 81 ba a9 4a 8e 3d
       0.09866524 0.056000866 -0.0009906859 0.06947834
000130 56 be 8a 3d 35 3f b0 3d 7c d9 ef bb 8f 86 ae 3c
       0.06774585 0.08605806 -0.0073196273 0.021304397
000140 d8 ec da bc 89 7b fe bc 32 3e 64 3c 33 77 e7 3c
       -0.026724264 -0.031064766 0.013930844 0.02825508
000150 bf 69 04 3d c4 42 a6 3d a6 d8 83 3d 16 58 98 3c
       0.03232741 0.08118203 0.06437807 0.01859669
000160 9e 6c 42 3d 03 f3 67 3d bf 1e d9 3d 76 ba a0 3d
       0.047466867 0.05662824 0.106015675 0.078480646
000170 0c 40 ce bc 46 61 bb 3a fa cc 4b 3d 1d 10 95 3d
       -0.025177024 0.0014295958 0.049756028 0.07278464
000180 7c 0e 24 3d 36 22 dd bc 7e 04 57 3d 29 7d 00 3d
       0.040052876 -0.026993852 0.05249452 0.031369362
000190 82 e3 bb 3d 78 76 58 bb 24 c5 3a bd 6b 36 b4 3c
       0.09174253 -0.0033029597 -0.045598164 0.021998605
0001a0 5b 14 8e 3d 4c 0d 88 3c b7 e2 17 3d e6 05 25 bd
       0.06937476 0.016607903 0.037081446 -0.04028883
0001b0 08 b6 a1 3d 1b 2f aa 3d b2 f6 8f 3c 9d 55 0e 3d
       0.07896048 0.08309766 0.017573688 0.034749616
0001c0 e1 6d db 3c 24 e7 03 3e 7f b3 76 3d b3 54 97 3d
       0.026785793 0.12881142 0.060229775 0.07389202
0001d0 6c 25 d9 bb 5d 3a 1c 3d d4 bb f1 bc 3b 71 ca 3d
       -0.0066267755 0.038141597 -0.029508509 0.09884878
0001e0 53 7f d8 3d 12 c2 54 3d de 27 54 3d 1b 58 88 3d
       0.1057116 0.051942892 0.051795833 0.0665743
0001f0 b7 73 33 3b 3f dd d4 3d 17 87 f2 bc 9d 93 f7 3c
       0.0027382204 0.10393762 -0.029605431 0.030221755
000200 a1 c4 d1 3d 18 94 63 3d ec e1 aa 3c 42 36 b8 3c
       0.10242582 0.055561155 0.020859681 0.02248681
000210 d9 f3 56 3d c1 3e d9 bc 90 8e a9 3d 1d be 7b 3d
       0.052478645 -0.026519181 0.08279145 0.061460603
000220 6c 51 28 bd 31 d2 4a bd 6d 30 35 bd 24 3e 09 3e
       -0.041093275 -0.04951686 -0.044235636 0.13402611
000230 25 47 10 3d 5a 97 40 3d 18 d6 50 3d 6b b3 c5 3b
       0.0352241 0.04701934 0.050985426 0.006033351
000240 66 cb a8 bc 95 05 d2 3b cf 2c b0 3d c6 b1 7e 3b
       -0.0206048 0.006409357 0.086022966 0.0038863285
000250 ae 6d 23 bd c7 2e dd bc 54 a8 a3 3c ac 3e df 3d
       -0.03989952 -0.026999844 0.019977726 0.109006256
000260 d9 4d 96 3d 7d c5 39 bd 4a 32 3e bd a0 98 2e bd
       0.07339067 -0.045354355 -0.046434678 -0.042626023
000270 85 ec 13 bd 6e b0 3f 3d d8 64 8b 3d 30 18 c9 3d
       -0.036114234 0.046799116 0.06806344 0.098190665
000280 8b 49 82 bb 52 6f 44 3c 78 c9 13 bd 8d de 70 3d
       -0.003976052 0.011989431 -0.036080807 0.05880599
000290 ac df d5 bb 4c 82 b3 3c d0 c6 2f 3c 2a 12 bd 3d
       -0.006526908 0.021912716 0.010728553 0.0923198
0002a0 0a 26 38 3d 26 3c d8 3d 10 91 25 bd 26 35 b0 3d
       0.044958152 0.105583474 -0.040421546 0.08603887
0002b0 8c 6c 9f 3d fe 9a 26 bc 21 a7 7f 3d a6 d9 d3 3d
       0.077843755 -0.010168789 0.062415246 0.103442475
0002c0 d6 38 77 3c 61 85 05 bd f0 93 06 bd 4d ac 3b 3d
       0.015089234 -0.032597903 -0.032855928 0.045818616
0002d0 48 21 b6 3d a2 88 70 3d 44 03 1b 3d 9f 97 db 3d
       0.08893067 0.058724053 0.03784491 0.10722279
0002e0 96 a2 f9 3c 0f 1d bc 3d 12 5e e8 3d 90 56 b5 ba
       0.030473035 0.0918523 0.113460675 -0.0013835002
0002f0 57 07 6e bd 71 68 62 3d 88 fd c2 3c 3a 37 be 3d
       -0.05811247 0.055275384 0.023802534 0.092878774
000300 92 43 1e bd d4 ba b7 bc 05 52 1b bc 5d da ad 3c
       -0.03863866 -0.022427954 -0.009480004 0.021222288
000310 81 54 0a 3b 3d ae d8 3d 08 73 43 bc 1c 11 6b 3d
       0.0021107497 0.10580108 -0.011929281 0.057389364
000320 91 dd ff 3c a6 7c 28 bd d0 03 78 3d 3a 03 f3 3d
       0.03123358 -0.0411345 0.06055051 0.1186585
000330 87 6d 04 bd db 5a ef 3d 27 fc cf 3d ea cf 85 3d
       -0.032331016 0.11687251 0.10155516 0.06533797
000340 89 d9 60 3d 5b bf ca 3c a5 e9 08 3e b6 ae 71 bc
       0.054894958 0.024749449 0.13370378 -0.014751127
000350 4f a0 8a 3b 06 80 d6 bb 6d 19 d1 3d 28 98 1d bd
       0.004230536 -0.0065460233 0.10209928 -0.038475186
000360 c2 1d bc bc ae b8 c2 bc 21 2e b3 3d e8 f1 9f 3d
       -0.022963408 -0.023769703 0.08749033 0.07809812
000370 e1 5c 40 3d fa 13 c4 b9 32 f6 95 bd f6 a6 ea 3d
       0.046963576 -0.00037398917 -0.07322349 0.114576265
000380 0b 80 a5 3b aa 50 91 3d e9 a1 23 bc d7 45 9b bc
       0.0050506643 0.070954636 -0.009987333 -0.0189542
000390 e5 6a e6 bc b8 25 9a bc 58 09 8b bb 39 18 d0 3d
       -0.028127143 -0.018816814 -0.004243057 0.1016087
0003a0 d7 57 88 bc 17 30 bb 3d 74 e5 a5 3d f6 72 e2 3d
       -0.016643448 0.09140032 0.08100405 0.11057083
0003b0 81 c1 fd 3c ad 6d c8 3d af 41 96 3d f2 ce d5 3d
       0.030976059 0.09786544 0.07336747 0.10439862
0003c0 c6 0d 17 3d ce 4f 6f 3d 1d 20 34 bd b3 cb 59 3d
       0.03687837 0.058425717 -0.043975938 0.05317278
0003d0 89 b2 f5 3d d8 45 f8 3d 33 c9 f5 3d fb cd bc bc
       0.119969435 0.12122697 0.12001266 -0.023047438
0003e0 09 c3 9a 3d c6 04 10 bd c5 97 2b 3d d0 b2 37 3c
       0.07556731 -0.035160802 0.041892786 0.011212066
0003f0 49 f5 34 3d 70 5e 25 ba 3f a0 2d 3d a9 2d d5 3c
       0.044179235 -0.0006308323 0.04238915 0.026022749

lstm.weight_ih_l1 f4 [512, 128]
000000 b0 fc 91 3d b4 0d ec 3c 7c 60 8c bd 91 46 db 3d
       0.071282744 0.028815128 -0.068543404 0.10706819
000010 e8 fe 87 bd 9f 6a 9c 3d 36 3a 61 3d 4e 98 05 bd
       -0.066404164 0.07637524 0.054987155 -0.032615952
000020 12 93 b4 3d b2 0b 0c 3d 9f 8a f6 3c 73 fc f7 3d
       0.08817114 0.03419084 0.030095397 0.12108698
000030 47 3e 8c bd 6f 22 59 3c 40 a5 af 3d 8e 09 15 be
       -0.06847816 0.0132528385 0.08576441 -0.14554426
000040 2b 1d 1f 3d 54 64 c4 3d 63 bf 84 3b f4 47 16 3d
       0.038846176 0.095894486 0.0040511354 0.036689714
000050 fe ac 26 3d ee 27 d0 bd 55 49 9d 3d de 27 00 bd
       0.040692322 -0.10163866 0.076800026 -0.03128802
000060 78 34 2f 3d 50 a8 5b 3d c2 e3 53 bd bd bc b8 bd
       0.042774647 0.053627312 -0.05173088 -0.09020374
000070 56 fe c9 bd 7c 2c 4d 3d e2 47 ac 3a ab cd 8e bd
       -0.09862964 0.05009125 0.0013143981 -0.06972822
000080 ed ce c4 bc c2 22 ad 3d f8 ba bb 3d 62 1b 81 3d
       -0.024024451 0.08453895 0.09166521 0.06304051
000090 8f 82 59 3d c4 03 27 bd 29 4b 17 3a 99 11 2c 3d
       0.053103026 -0.040775076 0.00057713926 0.04200897
0000a0 3d 1e 99 3d 3d 3a 04 bd 95 76 37 3c 19 b0 29 bd
       0.074764706 -0.032282103 0.011197706 -0.041427705
0000b0 84 e1 5f bd c4 41 7f 3d e8 b8 e4 3d 9b 49 91 bc
       -0.054658428 0.06231858 0.111680806 -0.017735293
0000c0 8a 1a 5a bb bd d5 72 bd b2 72 78 3d 3d df df bd
       -0.0033279979 -0.059285868 0.060656257 -0.10931251
0000d0 ea 1d 4d bd a2 7d 17 3c 99 1f 6e 3d 20 d7 7a 3d
       -0.050077356 0.009246262 0.058135603 0.061240315
0000e0 4f a1 de bd 38 20 92 3c c7 e0 df bc 71 b0 92 3d
       -0.10870611 0.017837629 -0.027328862 0.0716256
0000f0 00 00 ad bc 89 23 0a bd ad a2 7c 3d 23 d8 b4 3d
       -0.021118164 -0.033725295 0.061678577 0.08830287
000100 93 da 12 3d bb c0 cf bc be 90 11 3d eb 6c 27 bd
       0.03585298 -0.025360456 0.035538428 -0.040875357
000110 57 84 97 bd 67 10 4b 3d 30 4e 4b bd 5b 35 15 bd
       -0.07398289 0.04957619 -0.049635112 -0.036427837
000120 7a 31 72 3d 57 e1 b2 bc 06 74 4c bd 8c 99 93 3c
       0.059129216 -0.021835966 -0.049915336 0.018017553
000130 4c 3d da bd 38 9b 6a 3d 61 51 df 3c 11 95 f0 bc
       -0.10656223 0.057276934 0.027260484 -0.029367955
000140 f1 09 2c 3d 1e 22 70 3d a5 72 ec bd 1e d1 8e 3d
       0.04200167 0.058626287 -0.11545304 0.0697348
000150 ff e8 66 3d 57 90 7f 3d f7 5d 66 bd eb 3b 9b bd
       0.056374546 0.062393513 -0.056241956 -0.07579788
000160 90 8d 22 bc 09 53 7b 3d 23 95 44 3d 30 30 a3 bd
       -0.009921446 0.061358485 0.04799379 -0.079681754
000170 db 99 6e 3d f6 f8 84 3d 3b 53 3f 3c ad 09 98 3d
       0.058252197 0.06492798 0.0116775585 0.074237205
000180 a7 53 ae bd ac d8 8e 3d 80 51 35 bd 29 9e fb bc
       -0.08512049 0.06974921 -0.044267178 -0.030715065
000190 1a ae 88 3d c3 94 ea 3d ea 19 99 bc 7c fd b2 3d
       0.06673832 0.11454155 -0.018689115 0.087397546
0001a0 c3 61 80 bc a6 b8 72 bd 2e ba 5b bd af d4 94 bd
       -0.015671616 -0.059258126 -0.05364435 -0.07267129
0001b0 97 71 41 3d af 33 a5 3b 75 9f 24 bd 7d 23 53 bd
       0.04722747 0.0050415616 -0.040191133 -0.051547516
0001c0 0c 9a e7 3d bc aa 64 bd 3a fc 92 3d 78 06 f4 3d
       0.11308679 -0.055826887 0.07177015 0.11915296
0001d0 9d 26 f7 bc 2c d7 fd bc 3d 98 29 3d 38 b8 0b bd
       -0.03016978 -0.030986391 0.04140495 -0.03411123
0001e0 ee 78 02 3b 61 e1 78 3d ab 85 13 bd e2 fb f6 3d
       0.0019908505 0.060761813 -0.036016148 0.120597616
0001f0 b7 a1 74 3d 26 7a 90 bd b0 89 1d bd 37 b9 fd 3a
       0.059724536 -0.07054548 -0.038461387 0.0019357566
000200 8e 26 6d 3c f3 0d 06 3d 14 41 91 bd 1c 3e ed 3c
       0.014474524 0.032728147 -0.07092491 0.02896028
000210 d3 02 32 3d 57 d6 4f bc 86 bd 27 bd ea f5 a7 bc
       0.043459725 -0.01268538 -0.040952228 -0.020503003
000220 cc fd 1a bc 61 de ac 3d 92 8a 9b bc 2a c1 a9 3d
       -0.009459924 0.08440853 -0.018986974 0.08288796
000230 d5 82 0c 3d 45 03 0f bd 6c f1 4a bd e2 f7 4b 3c
       0.03430446 -0.034915227 -0.049546644 0.012449237
000240 36 b9 3e bb 78 b3 90 3d 52 70 1c bd 15 77 96 3d
       -0.0029102094 0.07065481 -0.038193054 0.07346932
000250 a2 31 93 3d 4f a3 04 3b d2 25 12 bd 24 71 d4 3c
       0.07187201 0.002023894 -0.0356806 0.025932856
000260 93 69 a1 3d 7c 71 7b 3d 33 a1 a2 bd 84 0e 99 3d
       0.07881465 0.061387524 -0.079409026 0.07473472
000270 92 c3 a9 3d 91 0e a3 ba e5 7b 9d bd 97 e3 cc bd
       0.08289255 -0.0012440254 -0.07689647 -0.10004347
000280 56 54 a2 bd 82 41 4b bd fe 65 ca 3d 04 f8 93 bd
       -0.07926242 -0.04962302 0.09882735 -0.072250396
000290 cf be e4 3c 4a 6c b9 bd c4 b4 a0 bc 97 40 2c 3d
       0.027923016 -0.090538576 -0.019617446 0.042053785
0002a0 d2 65 92 3c 44 8e 36 bd ec 0c bf 3d 29 e8 ae bd
       0.017870817 -0.04456927 0.093286365 -0.08540375
0002b0 f1 7c c0 3d de 0e 30 3d c2 4d 87 3c 47 e5 e4 3c
       0.09398831 0.04298293 0.01651657 0.02794136
0002c0 7b 99 09 3d 18 55 3b bd 1d 48 bd bc 90 34 97 bd
       0.033593636 -0.04573545 -0.023105675 -0.073830724
0002d0 5e 13 b3 3c 16 f8 c1 3a 2f 3e 35 bd 85 69 33 bb
       0.021859821 0.0014798667 -0.044248756 -0.0027376127
0002e0 aa f2 8c 3d 48 bd f3 3c 80 f9 84 bc 68 2a 2e 3d
       0.06882222 0.029753342 -0.016232252 0.04252091
0002f0 26 9a 8c bd b5 81 5c bd e1 21 a1 bc 72 44 3c 3d
       -0.06865339 -0.053834636 -0.019669475 0.045963712
000300 3d 02 5c 3c 5b 47 11 3d 2a 7e 19 bd b3 a1 91 bc
       0.013428268 0.03546844 -0.037473835 -0.0177773
000310 72 4c a2 3d c9 7e ac bc 2a 43 7c bd 74 54 97 bb
       0.07924737 -0.02105655 -0.06158749 -0.004618222
000320 c7 b0 31 bd 81 af 88 bd fe 32 33 3a 11 66 b1 3d
       -0.04338148 -0.066741 0.00068359065 0.08662046
000330 0a 29 73 3c 44 86 0f 3c 98 fc 5c 3d 20 74 d3 3c
       0.014841327 0.008760039 0.05395183 0.025812209
000340 3b 24 8e 3d 74 49 91 bc 6e 03 2b bd 1f ba 4b 3d
       0.06940504 -0.01773522 -0.041751318 0.049738046
000350 e1 ea 2b bd 36 e5 8f 3d bd 52 61 3d b1 22 be 3d
       -0.041972045 0.070261404 0.055010546 0.092839606
000360 2d 7c 9a 3d f8 aa 29 bd 37 92 4d 3d 69 f0 a4 bd
       0.07543216 -0.041422814 0.05018827 -0.08053667
000370 96 45 80 3c 56 ec 09 bd e9 3b e9 bc 6f 70 bb 3c
       0.015658181 -0.033672653 -0.02847095 0.022880761
000380 6f 12 7d 3d c1 1b 3b bd 09 bd 85 3d 69 c0 a6 bc
       0.061785158 -0.045680765 0.06530196 -0.02035542
000390 ba 02 86 bd 8b 96 8b 3d 8a ff c9 bd 20 4d 0d 3c
       -0.06543489 0.06815823 -0.09863193 0.008624345
0003a0 97 d8 63 bd 80 43 88 bc 1c 05 5f bd e3 cb 15 bd
       -0.055626478 -0.016633749 -0.054448232 -0.036571395
0003b0 5a f3 f9 bd 84 4d 0d bc 7a 08 f3 bc 3f 7e ba 3c
       -0.12204619 -0.008624438 -0.029667128 0.022765277
0003c0 25 23 19 bd fd 4f 61 3c 5e d9 3a bd 4c 5b c8 3d
       -0.037387032 0.013751981 -0.045617454 0.097830385
0003d0 8a 84 05 3d d4 c5 8e bd 29 6b cb 3d 81 e0 0b 3d
       0.032597102 -0.069713265 0.099325486 0.03414965
0003e0 ca f6 1f bd 25 07 12 3d c8 66 ce bc 84 72 b8 36
       -0.039053716 0.035651345 -0.025195494 5.4969587e-06
0003f0 10 cc 03 3c ac b1 72 bd 09 ab 56 3d a9 b0 3b bb
       0.008044258 -0.059251472 0.052409206 -0.0028639233

lstm.weight_hh_l1 f4 [512, 128]
000000 08 7c 3f bd 23 8d e5 bd ea 75 00 bd 5a 6c 85 bc
       -0.046749145 -0.1120856 -0.03136245 -0.016287018
000010 f9 7c b4 bd 6c 69 c4 3d bf 68 51 3d 04 d4 84 3d
       -0.08812899 0.0959042 0.051125284 0.06485751
000020 6c 80 84 3c a5 e6 c7 ba 98 b6 84 3d 6b dc 54 3d
       0.016174518 -0.0015251233 0.064801395 0.05196802
000030 71 28 28 bd a3 88 5b 3c 39 15 86 bd a7 d5 c1 bd
       -0.041054193 0.013399276 -0.06547017 -0.09464579
000040 1a 22 dd 3d d9 3f fc 3d de ba 5d 3d f3 0a 91 3d
       0.1079752 0.123168655 0.05413329 0.070821665
000050 07 41 b3 3d f4 57 b1 bd 81 ed 9a 3d 5e 6e 97 3d
       0.08752637 -0.08659354 0.075648315 0.07394098
000060 d1 50 c6 bc e7 63 55 bd a4 3f 3f bc 1a ba 3d 3d
       -0.024208458 -0.052097227 -0.011672888 0.04632006
000070 ed 71 9b 3c 3f 85 1b bd 1e 2c f7 3d 67 d3 42 3c
       0.018975222 -0.03796887 0.120689616 0.011891223
000080 a3 15 89 3d 37 a4 e3 bc 00 56 cb bd 08 d7 95 bd
       0.0669358 -0.027788265 -0.099285126 -0.073164046
000090 f6 2f 6e bd fc 3a c2 bc 9f 31 6b 3d 96 8c 08 38
       -0.058151208 -0.023709767 0.05742037 3.2555858e-05
0000a0 00 70 8f 3d c6 83 be 3b cb ae 0a 3c b3 8f a9 3c
       0.07003784 0.0058140485 0.008464525 0.020698404
0000b0 2c 23 f2 bd a7 ad a5 bd 92 22 50 3c c6 53 f4 bc
       -0.11823115 -0.08089762 0.012703555 -0.029825103
0000c0 a5 c4 b3 bd 7b e4 bf bd b9 bb a9 bd 30 8b f2 bd
       -0.08777741 -0.09369751 -0.082877584 -0.11842954
0000d0 5d 50 83 3d c5 90 a2 bd 74 a8 92 3d f8 fa 58 bd
       0.064118125 -0.07937769 0.07161036 -0.052973717
0000e0 d5 b5 a2 3d 0d 7c ca 3d 68 6e 4b bd e9 ab 6c 3d
       0.07944838 0.09886942 -0.04966584 0.057781134
0000f0 f8 f2 0b 3d b8 78 34 bd ef 30 7c 3d 25 8c 81 3d
       0.03416726 -0.04406044 0.061570104 0.063255586
000100 9c 6e 8a 3d fc ca 8d 3d 75 06 84 bd 4d ca 06 bd
       0.06759378 0.06923482 -0.06446544 -0.032907773
000110 d2 a5 ae bd 9b 4c 2d bc 19 fe d0 3d b3 4b a3 3d
       -0.085277215 -0.010577346 0.10204715 0.07973423
000120 58 9c 8b bd 44 79 e3 bc 7d 84 4b 3c d2 e8 d5 bd
       -0.068169296 -0.027767785 0.012421724 -0.104447976
000130 12 85 75 3c d6 e8 a0 3c a7 20 e1 3d fe 89 73 bc
       0.01498534 0.019642275 0.10992556 -0.014864443
000140 4b 3e fa 3b f4 e8 84 bc 99 59 9f bd 83 05 4c 3c
       0.0076368204 -0.016224362 -0.07780761 0.012452486
000150 2c d7 55 3d 3e 82 ec 3d 55 f4 21 bc 97 45 c1 3d
       0.052207157 0.11548279 -0.009884913 0.09437101
000160 b7 d2 d1 3c 36 fd 48 bd 49 68 cf 3b 3a cb f5 bc
       0.025613172 -0.049069606 0.0063295704 -0.030004133
000170 2e bb fe 3c 61 ed af bc c9 3a 5c bd 99 d7 c0 3d
       0.031095114 -0.021475496 -0.053767 0.09416122
000180 02 9b d2 3b cb 2a dd bd b7 ff ef bd fc 06 dc bc
       0.00642717 -0.10799178 -0.117186956 -0.0268588
000190 8c 74 9d 3c a5 e8 02 be b4 8d a1 3d 37 53 2d 3d
       0.019220613 -0.1278406 0.07888356 0.042315688
0001a0 bb 8e 09 bd 47 13 47 bd af 73 10 bd ff 98 dd 3c
       -0.033583384 -0.04860237 -0.035266574 0.027050493
0001b0 00 db 59 bd 40 0f a0 3c f3 53 46 bc 1d d9 d3 3a
       -0.05318737 0.019538522 -0.012104976 0.0016162727
0001c0 a5 88 c7 3c 17 57 af ba 5f c4 55 bd 9d 19 f2 3d
       0.02435715 -0.0013377395 -0.052189227 0.118212916
0001d0 e9 c0 b0 bd 47 60 3a 3d 21 61 42 3d 90 d9 89 bc
       -0.08630545 0.045501973 0.04745591 -0.016827375
0001e0 56 cb 9d 3d e7 fe a8 3d ac 3e a9 bc 12 dc 71 3d
       0.07704799 0.08251744 -0.020659767 0.059047766
0001f0 e3 d1 36 3c 3d 1b 72 3d 8e cd 01 3d 02 21 ce 3b
       0.011158439 0.059108008 0.031690173 0.006290556
000200 39 c5 8f bd f1 c7 82 3d 72 48 d6 3c 5a c2 0b bd
       -0.07020039 0.06385792 0.026157591 -0.034120895
000210 d0 fc 51 3d e8 98 85 bd 59 24 03 3d cb 3e d2 bd
       0.05126649 -0.06523305 0.032017086 -0.10265883
000220 f0 ee 40 bc 03 7e 0c 3d b8 f3 34 3d 4d dd 7c bd
       -0.011775717 0.03429986 0.04417774 -0.061734486
000230 19 98 44 3c 0f 87 34 bb 4e 53 78 bc d7 9c 47 bd
       0.0119991535 -0.0027546322 -0.01515658 -0.04873356
000240 db 56 44 3d 72 ec fd 3c cd 1a dc bd 14 27 9b bc
       0.047934394 0.030996535 -0.10747299 -0.018939532
000250 18 28 d2 bc 67 4a ec 3a 6d 80 8a 3d d1 11 82 3c
       -0.025653884 0.0018027545 0.067627765 0.015877636
000260 d7 8c 43 bc f2 cb 17 3d fa fe 97 bc 4d ea 53 bd
       -0.011935434 0.03705973 -0.0185542 -0.05173712
000270 5e 40 bd 3d 64 cc 27 bc 21 83 3c bd cb fd ef 3b
       0.09240793 -0.010241602 -0.04602349 0.0073239557
000280 22 48 d7 3d 69 42 ef bc 23 17 e5 3c 84 c2 7d bd
       0.10511805 -0.029206472 0.027965134 -0.061953083
000290 0f 29 8a bd ec c3 98 bd 51 7d 4a 3c 32 ea ab bd
       -0.067461126 -0.07459244 0.012358979 -0.083942786
0002a0 84 79 80 3b ad 80 9c 3d aa 18 e3 bd 36 8f ae bc
       0.003920736 0.076417305 -0.11088689 -0.021308523
0002b0 50 2c 40 bd ed 7b 0e bd e6 96 9a bd 4c 3b 2d 3b
       -0.04691726 -0.034786154 -0.07548313 0.0026433049
0002c0 13 fb 01 bd e0 b8 9b bd 2a 6d 5e bd 01 2a 14 3c
       -0.031733584 -0.076036215 -0.054303326 0.009043218
0002d0 2d 00 b3 bc a2 e3 8c bd 25 24 c6 bd 81 cb 53 3d
       -0.02185067 -0.06879355 -0.09674863 0.05170775
0002e0 6e 2a 22 bc b1 26 b4 3d 5b 30 5a bd 18 76 58 bd
       -0.009897811 0.08796442 -0.05326877 -0.052846998
0002f0 c1 ab 45 3d d9 68 2c 3d fa 4c 2f bd d8 b8 c1 3d
       0.0482595 0.042092178 -0.04279802 0.09459084
000300 75 05 46 bd f0 2c cb 3d 9f ac 0c 3d f6 17 23 bd
       -0.048345048 0.099206805 0.03434431 -0.039817773
000310 be b4 15 3d 45 cc 96 3c 29 78 6c 3d c1 b6 22 bd
       0.036549322 0.01840795 0.05773178 -0.03972507
000320 48 45 8e bd 4e fe 0d 3d 8d 51 c0 3d dc 4a ab bd
       -0.06946808 0.034666352 0.093905546 -0.08363888
000330 5e 84 b5 bc 42 d0 e1 3c 0e b5 db 3d 9b 52 93 bb
       -0.022157844 0.027565125 0.10727893 -0.0044959313
000340 d1 42 cb bd 7c da 51 bd d8 57 94 bd 77 d6 8a bc
       -0.099248536 -0.051233754 -0.07243317 -0.016947968
000350 6a 45 82 3d 46 3c 8a bc 51 f8 88 bd e8 1a 69 3d
       0.06360896 -0.016874444 -0.066879876 0.056910425
000360 26 19 74 bd 42 cd d9 3b b3 b5 58 bd eb 1c 74 3d
       -0.059594296 0.006646783 -0.052907657 0.05959789
000370 70 6d 0f 3d 45 49 72 3b 6c 5c b4 bd b7 ef 82 bd
       0.035016477 0.0036969942 -0.088066906 -0.06393378
000380 8a fd d2 3d cc 0a 83 3b b9 47 c8 bb b4 42 9e bd
       0.10302265 0.00399909 -0.0061120656 -0.07727566
000390 16 11 d5 bc 75 76 36 bd 8d 1e 6d 3d f3 e7 8b 3d
       -0.026009124 -0.044546563 0.057890464 0.0683135
0003a0 f2 40 8a bd 46 e8 43 3d be 0b 82 bd 53 ee 4f 3b
       -0.067506686 0.047828935 -0.06349896 0.0031727746
0003b0 4b af a9 bd 0b 93 a3 3d f5 ab 22 bd e5 04 10 bd
       -0.082853876 0.079870306 -0.039714772 -0.035160918
0003c0 82 ca d7 bc 34 d1 7a bd 98 85 d1 bd fe 7e 57 bd
       -0.02634168 -0.061234668 -0.10230559 -0.052611344
0003d0 fe 0c a8 bd e2 0b 8e 3d f2 82 97 3c 87 e0 8f 3d
       -0.08205603 0.0693586 0.018495057 0.07025247
0003e0 55 22 46 bd f5 b9 48 3b 03 b1 94 3c 60 62 af bd
       -0.048372585 0.0030628417 0.018150812 -0.085636854
0003f0 e3 09 93 3d ac 6f c2 bd 12 d8 7f bd 28 dd 41 3d
       0.0717962 -0.09493956 -0.06246192 0.04733005

lstm.bias_ih_l1 f4 [512]
000000 85 26 b5 3d 8d 58 6e 3d 00 30 62 bd 53 11 69 bd
       0.08845238 0.058189917 -0.055221558 -0.056901287
000010 8d af 1f 3c c7 d4 5a 3d 10 67 f7 bc 79 25 c8 3d
       0.009746444 0.053425577 -0.030200511 0.09772772
000020 65 07 2b 3d 51 00 31 bc 33 f2 4c bd e6 74 3e 3c
       0.0417551 -0.010803298 -0.050035667 0.01162455
000030 43 0c 51 bd ca d5 d4 b9 0d 78 ab bc 14 44 10 3d
       -0.051037084 -0.00040595076 -0.020931268 0.035221174
000040 f1 82 f6 3c 65 95 a9 bd c1 16 b3 3c 9e ff 34 3b
       0.030091735 -0.08280448 0.021861436 0.002761818
000050 06 ab c3 3d d8 6e fc 3c 36 86 d7 3c 04 f3 8c bc
       0.095541045 0.030814573 0.026309114 -0.017205723
000060 10 bb 06 3d 56 44 b0 3d e3 3e b8 3d 32 a7 78 3c
       0.03289324 0.08606784 0.0899637 0.015176581
000070 1f 97 f1 3d 68 11 ad bc 0d e4 58 3d 92 e4 15 3d
       0.11796402 -0.021126464 0.05295186 0.036594935
000080 95 e0 dd 3c 5d e4 96 3d cb 26 08 3c 7f 69 99 3a
       0.027084628 0.073677756 0.00831003 0.0011704414
000090 11 47 eb bc 17 d5 27 bd 47 9b 7d 3d a6 d8 0f 3d
       -0.02872041 -0.040974703 0.061915662 0.03511872
0000a0 1e ec 32 3c 2e 26 7c bd 74 e4 35 bd 35 eb 85 3d
       0.010920553 -0.06155985 -0.044407323 0.06539003
0000b0 ed d5 13 ba 31 00 89 3d a1 9c 8c 3c 87 b9 bc 3d
       -0.00056394824 0.0668949 0.01716453 0.09215074
0000c0 e6 4c 69 bd 5e 24 bc 3c 5c 1b a1 bb fd 9c 74 3d
       -0.0569581 0.02296656 -0.0049165916 0.05972003
0000d0 8d 93 1e 3d 30 5e b4 3c 7a 4b a9 3d 90 a7 80 3d
       0.038714934 0.022017568 0.08266349 0.0628196
0000e0 ff dc 7b bd 6d 99 b7 3c 5f f7 89 3d 1d 5c 64 bd
       -0.061490055 0.022412026 0.067366354 -0.05575191
0000f0 d7 9e 98 3d 37 43 37 bd 17 c9 8a bc 85 76 c2 bd
       0.07452171 -0.044741835 -0.01694159 -0.09495262
000100 ef fa 4f bd 24 76 9f bc c2 0f 84 bd 1e 53 21 bc
       -0.05077642 -0.019465514 -0.06448318 -0.009846477
000110 36 42 4f 3d 3d 97 b0 3d f1 4c 0b bd 53 61 25 bd
       0.050600253 0.086225964 -0.034008924 -0.04037602
000120 12 cf 62 bc b4 4f 6b 3d 65 9b fb 3c 22 9d e7 3b
       -0.013843315 0.057449058 0.030713746 0.0070682922
000130 1e e1 b5 3c 96 47 be 3d 22 e8 2a 3c 93 15 03 bd
       0.02220207 0.09290998 0.010431321 -0.032002997
000140 4c 45 43 bd be 5f c6 bc 89 61 f2 bc 87 c7 89 bd
       -0.04767351 -0.024215575 -0.029587524 -0.0672751
000150 23 6d 82 3d 48 ab 02 3c 98 26 6d bd 60 67 c4 bc
       0.063684724 0.007975407 -0.057898134 -0.023975074
000160 c9 88 20 3d 77 51 9c bd e8 14 6b 3d 16 e6 8b bd
       0.03919295 -0.07632726 0.057392985 -0.06830995
000170 64 d6 94 bd d7 fa 4c 3d 13 39 a6 bc 1a 72 33 3d
       -0.07267454 0.050043907 -0.020290887 0.043809988
000180 fe 34 9b 3d 7c 56 91 bc 93 6a ac 3c 50 93 a3 39
       0.07578467 -0.017741434 0.021046912 0.0003119954
000190 31 e6 68 3d 07 63 38 b9 a9 c7 a3 3d 34 1e 73 3c
       0.056860153 -0.00017584498 0.079970665 0.014838744
0001a0 1c 32 d4 3b 38 4d df 3c e6 96 9e bd 42 d6 26 3b
       0.0064757 0.0272585 -0.07743625 0.0025457297
0001b0 c7 0b ff bc 0b 9d 55 3c f4 3d 30 3d da 7c 0d bd
       -0.031133546 0.01303793 0.043027833 -0.034542896
0001c0 0e 15 83 3b fe d6 08 3d 6a b4 9f 3d 35 12 be 3d
       0.0040003126 0.033408158 0.07798083 0.092808165
0001d0 59 45 74 bd 0f b1 b5 bc 97 70 ea 3d e1 eb 2b 3d
       -0.059636448 -0.022179155 0.11447256 0.041973
0001e0 b0 ac 2c 3d 11 2c 20 3c 17 11 93 3d 5e c5 2d bd
       0.042156875 0.009776131 0.07180994 -0.042424552
0001f0 23 da 1d 3d 81 c4 27 3b 1d 07 4c bd 91 b8 0b 3c
       0.03853811 0.0025599303 -0.04981147 0.008527891
000200 92 56 41 3d 9f b7 15 bd 1c 64 08 bd 32 5e 36 3d
       0.0472017 -0.036552068 -0.033298597 0.044523425
000210 46 09 91 3c 51 fa 8b 3d df ac 7f 3d 25 29 9b bd
       0.017704617 0.068348534 0.062420722 -0.07576207
000220 ae 6b c7 3c 64 b0 21 bd cf 1a 4a 3c 09 79 88 3d
       0.024343338 -0.03947486 0.012335493 0.066637106
000230 34 0b 2b 3d 76 2a 6c bb 79 b1 7b bd 56 56 97 3c
       0.04175873 -0.003603605 -0.061448548 0.018473785
000240 8b 86 80 bd 4b db 4a 3d bd 23 d2 3d f5 b5 38 bb
       -0.06275662 0.04952554 0.10260723 -0.0028184627
000250 45 f9 b4 ba c1 a0 b0 bb db e0 31 bd 25 1d 14 bc
       -0.0013807198 -0.005390257 -0.04342733 -0.009040152
000260 a6 8c 4e 3d 35 b1 9c 3d f5 71 54 3d 97 33 86 bd
       0.0504271 0.07650987 0.05186649 -0.06552809
000270 01 46 6a 3c 93 5c 2a bd 0d 81 b5 3d 7a 25 87 bd
       0.014298917 -0.041592192 0.08862505 -0.06598945
000280 05 bd a0 bc 09 ba 91 3d 6c 76 bd 3d 35 b8 b4 3c
       -0.019621382 0.071155615 0.09251103 0.022060493
000290 2c a6 4d 3c 2e 0a de 3c 48 4f 86 bb 7e e0 fa bc
       0.0125518255 0.027104463 -0.0040988065 -0.030624624
0002a0 0f e3 56 bd 6b 96 2a 3d 6f f5 8d 3d e9 cd 6a 3d
       -0.052462634 0.041647356 0.06931578 0.057325277
0002b0 4a 9a c9 3d 08 43 d6 ba ee 1a 02 3d ef e7 7f 3b
       0.098438814 -0.0016346881 0.031763963 0.0039048155
0002c0 8a 0f da 3a 6b 4a 80 bc 1a d9 9c 3d b0 f3 70 3d
       0.0016636711 -0.015660485 0.07658596 0.05882615
0002d0 e5 fa 2c 3d 86 42 16 bd 13 32 fe bc cd 51 8b bd
       0.04223146 -0.036684535 -0.031029737 -0.06802712
0002e0 79 09 8f 3d 10 5e 5c 3d 94 96 2f 3d 0c 73 32 bd
       0.06984229 0.053800642 0.042868212 -0.04356675
0002f0 c3 fb ca 3d 66 86 69 bd 93 39 93 3d 39 0c 8f bd
       0.09911301 -0.057012938 0.07188716 -0.06984753
000300 0e 2a 19 bc 9b 7c 98 bd c6 df b5 3d bc 2e 34 bc
       -0.0093484055 -0.074456416 0.08880572 -0.0109974705
000310 07 c4 8d 3b 6a 48 f8 bc 55 d7 87 bd 49 3f e9 3c
       0.004326347 -0.030307967 -0.06632868 0.02847256
000320 8f 53 09 3d be 5d 8f 3c 56 f1 3a 3c a9 ad 96 bd
       0.033526953 0.017500754 0.011410078 -0.07357342
000330 c5 84 79 bd a0 10 99 3d 33 00 fd 3d fb 55 34 bd
       -0.060917635 0.07473874 0.123535536 -0.04402731
000340 60 c9 29 bb f7 58 f3 3c ef 85 96 3d 3e 00 61 3d
       -0.0025907382 0.029705508 0.073497646 0.05493187
000350 6e 47 8d bd 8c 7b ce 3c 4c 1f 5c bc e6 2e 1d bd
       -0.0689839 0.025205396 -0.013435196 -0.038374804
000360 c4 39 fa bc c1 16 8b 3d 32 a6 34 3d 12 ed 8e bb
       -0.030545123 0.06791449 0.04410381 -0.004361757
000370 3d f8 0d 3d d8 62 a7 bc bd 58 c0 3c 0f be 89 3d
       0.034660567 -0.020432875 0.023479814 0.06725704
000380 56 9c 61 bd b9 b1 88 3d dd 02 ce 3c 5c d9 65 bd
       -0.055080734 0.06674523 0.02514785 -0.056115493
000390 ca 15 4d bd 65 1f 63 bd c1 01 e3 bc 53 60 87 bd
       -0.050069608 -0.055449862 -0.027710797 -0.06610169
0003a0 45 60 84 bd f5 3a c0 3b b5 ce 4f 3d 67 f2 04 bd
       -0.064636745 0.005866403 0.05073424 -0.032457735
0003b0 4d cc 87 3d a1 0e 16 3d 93 16 c4 3d 02 b6 2f bc
       0.06630764 0.036635045 0.09574618 -0.010724546
0003c0 f6 43 fc bc a4 5c 07 bd 84 34 b3 3c ce 10 8b bc
       -0.030794125 -0.033047333 0.021875627 -0.016975787
0003d0 e5 93 af 3c 4f 79 92 3d 6e 63 f2 3c 27 30 98 3c
       0.021432826 0.07152044 0.029588427 0.018577648
0003e0 f9 c7 10 3d c3 24 20 3d 0e d1 57 3c 85 59 ba bc
       0.03534696 0.03909756 0.013172401 -0.022747764
0003f0 3a f6 32 bd 96 f4 0a 3d ca 5c 5b bd f2 21 14 3d
       -0.04369185 0.03392466 -0.053555287 0.036165185
