Data/PredictionsData/AB16.pth (torch, 828430 bytes, 10 tensors)

lstm.weight_ih_l0 f4 [512, 13]
00000000: 1d7a c33b b0e7 cb3d 7cf6 dc3d d9c2 7e3d
00000010: 203e 9fbd 378d 8e3d d353 263d bfdb ef3d
00000020: dc75 843d 004b 9cbc 865c c1bd f246 91bd
00000030: 3871 e23d d4b4 073e e61b 453d 270a 6abd
00000040: f179 eb3b f7d0 bc3b 180e b93d f7a3 163e
00000050: 1a7e b23d 285e f23b 7c0e 37bd 11ad b33d
00000060: 0ed6 d73c dff3 97bd 9967 4a3e 6fc2 313e
00000070: b8f0 bc3d 0758 80bb 2897 183d a8ae 0a3d
00000080: 2191 0a3d 96f7 223a 1948 333d 7971 4cbb
00000090: c26c 873d d123 f93c c5cb 143e 1161 a73d
000000a0: a7a5 70bc 49d1 243c 5936 1fbd ded9 e439
000000b0: fe5b 9fbd 976d 86bb 4732 533d fc76 9abd
000000c0: 9b93 9abd a5d2 84bc 9ac2 96bd dee0 993b
000000d0: 2584 0fbe 003e 563c e46b 8a3d 877f adbd
000000e0: deac e53c 84df 2c3b 80c7 2bbd 35ea 9cbd
000000f0: 34bd 8cbd 8e95 04bb ae43 203d b455 32bd
00000100: 83c2 0cbc b923 e53c bce7 40bd e48c 1d3e
00000110: 3d44 8ebd 04b5 b0bd 8e4d 703d 158b 303d
00000120: 7045 803c 8205 afbd 652a f33d dd8d 9fbc
00000130: ce31 8a3d 29d0 97bc 436a a83d 05e8 29bd
00000140: 205b 37bc 28d2 603d 8a09 653d 299a a0bd
00000150: 05a9 313c 355f 333d b22d c63d 2a8d d13d
00000160: f0d7 aa3c b473 3ebd 6d63 a53c a2f9 5ebd
00000170: 8aa8 d0bb dfe5 96bd c2dd 9b3d 7d2e 07bd
00000180: 9ce3 85bc 5563 06bb a012 0bbe 1962 07be
00000190: 34cd f13c 816f 76bd 0170 f73c 2253 33bd
000001a0: 375f ea3d e668 13bd c909 a43d 9645 bebd
000001b0: af7f 11be 930b 38bd 0bbf dd3b ebd2 1a3e
000001c0: 2b04 c83d 47c1 05be 88af 16bd d0c3 2e3b
000001d0: 34e9 783d 3ab3 80ba 95fd fdbc 756e 413c
000001e0: 5b20 87bd 5288 90bc 7ef4 943d 8b80 f4bc
000001f0: e7b1 c3bd 98fd 293d 63cc a53c 63a9 b9bb
00000200: 9567 ccbc 1f86 18bd d877 b53b 353d 133d
00000210: 929f 3f3d e01b 77bc 7df9 18bc 9298 66bd
00000220: 5e97 08be 98d3 96bd 1e73 eab7 1bc9 813d
00000230: 6429 3bbd ad6c e13d d86c 323d 9919 b93d
00000240: 372e 8f3d 619b 6039 f2f8 ed3b 6788 a8bc
00000250: cfbc 3b3d 9248 6dbd 8aa8 2bbc 034e cf3b
00000260: 0792 143e 5826 a13c cb19 b6bd d79e 4c3d
00000270: 9331 dc3b f85a 0a3d 2f24 3fbc 5021 79bd
00000280: 7c8f 893d 9be3 e33d b49c 863d 1297 10bd
00000290: 2242 f9bc 79a7 0e3a a841 143d edfb 313d
000002a0: a89e 38bd bc3a 1b3d a66a dc3d 77d1 cf3d
000002b0: ac0c 323d 0933 d1bd 2850 8f3d 58c5 223a
000002c0: 6249 a63d 8174 f8bb 57c8 97bd 0651 5e3d
000002d0: eb52 0e3d 6f08 8bbc e98e 00be b32e 1ebd
000002e0: 7617 ae3d 6fbd d33b 5a02 1e3a 7b9c d43c
000002f0: 50d7 14be 5b34 91bd 04e8 ebbd a0fc babd
00000300: 031a 573c a819 c03d 8b77 d6bd e55c 883c
00000310: 37c3 0ebd 86c1 603c 292b ec3c 30fd 45bc
00000320: 66be 403d 2ccb 8f3d a56b 53bd 3783 0dbd
00000330: dc1e ba3d ce82 333e 4cfc 4fbe 1bbc 32bd
00000340: 5b71 e1bc d483 3abd 02ed 68bd 9902 053c
00000350: 357b ccbd 2a95 0cbc ede8 2d3d cb23 1c3c
00000360: dfe5 a93c 24a7 df3d 0ff8 40bd 61fd 51bd
00000370: 77bb 863d 67fa babd 973d c6bd c3c3 473d
00000380: 405a 78bc fe5d 603d 7401 553d 9896 41bd
00000390: 9ae7 ff3d f6b9 883c ef46 9c3d 70ad 29be
000003a0: dacf 933b 6dbc 90bd 02f6 d43d 835f 403d
000003b0: 9542 6d3d ee8a 763d 2fd5 96bc 1901 073c
000003c0: 26d9 323d 16b0 56bb 04bf dbbc 9073 b9bb
000003d0: bc9c 5abc 5744 b3bd 4532 183d 8dfc 483d
000003e0: 0fbc 0a3d d642 b03a 10a4 603d 6ae9 eebc
000003f0: 15ce bfbd 5bb4 893d f75f dfbc 2b72 2abd
0.005965485 0.099563 0.10789201 0.06219754 -0.07775521 0.06960528 0.040607285 0.11711835
0.064677924 -0.019078732 -0.094414756 -0.0709361 0.11056751 0.13252574 0.04812231 -0.05713859
0.0071861674 0.0057622152 0.09035891 0.14710985 0.08715458 0.007396478 -0.044691548 0.08773244
0.026347186 -0.074195616 0.19766082 0.17359327 0.09225601 -0.0039167437 0.03725353 0.03385797
0.033829812 0.0006216703 0.04376993 -0.0031195565 0.06612541 0.030412586 0.14530857 0.08172811
-0.014687932 0.010059663 -0.03887019 0.00043649873 -0.07781218 -0.0041024196 0.05156162 -0.07542226
-0.07547685 -0.016213724 -0.07361336 0.0046959957 -0.14015253 0.013076305 0.0675886 -0.084715895
0.028036531 0.0026378343 -0.041938305 -0.07661859 -0.06872025 -0.0020230743 0.039127044 -0.043538764
-0.008591297 0.027971135 -0.047096 0.15385777 -0.06946609 -0.08628276 0.058667712 0.04310139
0.01565811 -0.085459724 0.118733205 -0.019476825 0.06747781 -0.018531876 0.08223393 -0.041481037
-0.0111911595 0.05488792 0.0559173 -0.07841904 0.01084352 0.04379197 0.096766844 0.10232003
0.02085492 -0.04649706 0.020189011 -0.054437287 -0.0063677477 -0.07368063 0.07610656 -0.03300332
-0.016343884 -0.0020505984 -0.13581324 -0.13221015 0.029516794 -0.060164932 0.030204775 -0.043780454
0.11443942 -0.03598871 0.08009679 -0.09290616 -0.14208864 -0.044932913 0.006767159 0.15119521
0.0976642 -0.1306201 -0.036788493 0.0026667006 0.060769275 -0.0009819039 -0.031004706 0.01180612
-0.06597968 -0.017643128 0.07273196 -0.02984645 -0.095554166 0.04150161 0.02023906 -0.0056659444
-0.024951736 -0.037237283 0.005537968 0.035947043 0.046783037 -0.0150823295 -0.009336826 -0.056297846
-0.13338992 -0.07364577 -2.794858e-05 0.06337186 -0.04569377 0.110070564 0.043560833 0.090380855
0.06991237 0.00021420188 0.0072623426 -0.020572854 0.04583436 -0.057930537 -0.010477195 0.0063264384
0.1450883 0.019671604 -0.08891638 0.04995617 0.006719777 0.03377816 -0.011666342 -0.060822785
0.067168206 0.11127397 0.065728575 -0.035300322 -0.030427042 0.00054418255 0.036195427 0.043453146
-0.04507318 0.03789781 0.10762529 0.10147374 0.043469116 -0.10214812 0.069977105 0.0006209216
0.081194654 -0.0075822477 -0.07411259 0.05427649 0.034747045 -0.016971795 -0.12554516 -0.038618755
0.085005686 0.006461791 0.0006027572 0.025953522 -0.1453526 -0.07090064 -0.11518863 -0.09130216
0.01312876 0.093798935 -0.1047202 0.016645858 -0.03485414 0.013718015 0.028829174 -0.01208429
0.047056578 0.07021174 -0.05161633 -0.034548964 0.09087917 0.17530367 -0.20311087 -0.043636423
-0.027519872 -0.045535877 -0.056866653 0.008118295 -0.099844374 -0.008580485 0.042458463 0.009530018
0.020739494 0.109205514 -0.047111567 -0.05126703 0.06578725 -0.09129792 -0.09679716 0.048770677
-0.015158236 0.054777138 0.05200334 -0.047262758 0.12495346 0.016690236 0.07630717 -0.16570067
0.004510862 -0.07067189 0.10398485 0.046966087 0.057924826 0.060191087 -0.0184122 0.008240008
0.04366412 -0.0032758764 -0.026824482 -0.005659528 -0.013343032 -0.08753269 0.037157316 0.049068976
0.033870753 0.0013447653 0.054843962 -0.029164035 -0.09365479 0.06723853 -0.02726744 -0.041612785

lstm.weight_hh_l0 f4 [512, 128]
00000000: 808b ab3d 05f2 b23d e89f 3a3b 4446 473d
00000010: ba46 c63d bd39 46bc 7a0b 4e3e 5acb a7bd
00000020: aaeb bebd 9bb4 303d 40ea 02bb ca03 673d
00000030: 9a2f ea3d e9b8 943c 62af 553a eb50 293e
00000040: 4808 b03d 1f74 a6bc 19bd 183d 63d4 32bd
00000050: 8476 55be 5acb c0bc db2e 783d f673 fa3d
00000060: 08aa 203d 3b36 f33c deb5 8abd 2023 afbb
00000070: 2435 60bd 3b55 04be ec44 b7bd 2955 b63d
00000080: ddd9 acbd 996a b7bc 99dd c7bd d5a7 083d
00000090: 445d f43c 02fe 0cbc 2437 46bd f601 1d3d
000000a0: f01c a43c 16af 0d3e af76 673d 4667 2abd
000000b0: 71b0 843c 0faa 0cbc aa82 2d3d 3fcb 9b3c
000000c0: 4a71 e2bd 50c7 d43d df41 773d 73c4 b9bd
000000d0: c54f 213d 0d7e d7bd d1f9 1c3c 6f54 30be
000000e0: aed2 1f3d b81e 44bd 32f1 ffbb b27a 41bd
000000f0: bf59 483d 155a 5abd d0a5 b3bc 270b 8839
00000100: 924a e8bd 50e8 0bbe c0d3 293d a668 053d
00000110: fa2e 0fbc fab1 68bd f1ed 02bd c31b d93c
00000120: 0561 c2bd 277d ecbc 083f 0d3e 5e64 dabb
00000130: 7a45 393d b168 3abd 924a 793d 814c 6b3c
00000140: ad68 6c3d 9f38 b0bc d67f 30bd 7718 b53d
00000150: 5d8c 433b fda9 ba3d 3759 393c 81b9 31bc
00000160: 8c4a 263d 5147 00be b815 4f3d 6b2f 123b
00000170: 189e 913d 0a1e ec3c 1283 2ebd 20c5 143e
00000180: cf0e 383d 274f a13d 56a1 7a3d d812 acbc
00000190: 4e27 ab3d 234d 2b3c fdbc c7bc b614 11bb
000001a0: d966 84bc f1d8 85bd 72b9 693c 2f95 3dbd
000001b0: 4acf 143c ab1d 40bd 261a 6cbd 62a8 65bd
000001c0: 21b4 5cbd f65d 9bbd e715 1dbd 0d4e 4cbd
000001d0: a343 f3bd cf31 4c3c d4a0 22be 1c43 d3bc
000001e0: d158 0e3d c41e c8bd 2cc2 2f3d 2f21 77bc
000001f0: a02c a6bc 1762 4b3c 86fa 1d3d 11dd 5abd
00000200: c435 173d 0dde cabc afad ad3c 572c afbd
00000210: b688 023d ce33 4f3d 10f9 8cbc 44a5 60bc
00000220: 15a0 843d 62f4 38bd 6aaa f4bc 2f5d 4ebc
00000230: c28d 2abd d167 90bd 9068 993b c157 12bd
00000240: 87bb 1b3d ba65 82bb 6011 2fbd 1c51 17bd
00000250: 534a c23d e1bf 59ba f416 10bd ae9c 193d
00000260: ec02 3c3d cc17 913d 8961 4cbd ea3c f3bc
00000270: 42f0 26bc 33ee d83c 7d81 e73c b6ba 88bb
00000280: aa2c 803d 33af 29bd c920 33bd ae0a 7abc
00000290: 96f3 acbc be6e 343d f9f5 dbbc ad66 073d
000002a0: 7709 60bc e205 5b3d c00f bcbd c0e9 0d3d
000002b0: 6822 05bd 6482 8abd ff7d 863c 81cf d3ba
000002c0: 499d 4b3d a246 44bd 96c3 253c 7f08 abbd
000002d0: efd2 f03a 5abf 34bd 5d7d be3d 1057 4c3d
000002e0: 9777 24bc 1089 843d 278e cf3d cac5 c03c
000002f0: c284 993d 3740 d3bc 57f5 8ebd 5292 bbbd
00000300: ac64 0a3d bb86 8a3b 0163 6abc 0fac 85bd
00000310: 71d2 6d3d 0a53 05bc 7609 763d 9db2 db3c
00000320: 0519 9c3c bec6 793c c49b c9bc 83c2 a73d
00000330: 28cd 8fbc 311c 95bd 6e05 e43b c45a 483d
00000340: 828f cf3c 5649 973d ebaf 6fbd ab15 92bd
00000350: d407 9b3d 71fb 4ebd 0602 70bc 2e69 ff3c
00000360: 32ef 553d c05f 8cbd 5677 9d3d 01e9 ef3c
00000370: 6334 d6bb 62d3 113d 3324 173d 8d91 793d
00000380: a8e0 1a3d 37a1 8c3d 660c 20bd cf97 69bd
00000390: 587b 913d 26c4 803d c70a afbb 61e9 bfbd
000003a0: 7040 893d 0ff2 a73a 9c13 61bc f31a 4cbd
000003b0: a663 123d fca7 523c 4486 7f3c 2ba7 a23c
000003c0: c7c4 823c 2d7e c8bc 9c71 7e3d 0556 803d
000003d0: 0c00 5bbd be64 843d 6c6f acbd fe6e 99bd
000003e0: d9e9 44bd de6f a2bc 79f6 33bd 96d2 8a3d
000003f0: 3223 9dbd 7466 123d 3966 89bd 15f3 493d
0.08376217 0.08737568 0.002847666 0.048650995 0.09681459 -0.012098727 0.20121565 -0.08193083
-0.09322293 0.04314099 -0.001997605 0.056400098 0.114348605 0.018154578 0.0008151439 0.16534774
0.085953295 -0.020319043 0.037289713 -0.04365958 -0.20845991 -0.023534466 0.06059156 0.12229149
0.039224654 0.029688945 -0.0677297 -0.0053447634 -0.05473818 -0.12923138 -0.08948693 0.08902962
-0.084399916 -0.022389697 -0.09759063 0.033363182 0.029829629 -0.008605482 -0.04839243 0.03833195
0.02003333 0.13836321 0.05650967 -0.041602395 0.016197415 -0.008585467 0.04236094 0.019017814
-0.110567644 0.10389578 0.060365554 -0.09070673 0.039382715 -0.10522089 0.009581045 -0.17219709
0.03901928 -0.04788086 -0.007810735 -0.047236152 0.048913714 -0.053308565 -0.021929651 0.0002594825
-0.11342348 -0.13662839 0.041461706 0.032570504 -0.008739227 -0.056810357 -0.0319652 0.026502496
-0.09491161 -0.028868271 0.13793576 -0.0066647967 0.045232274 -0.045509998 0.06086213 0.014361502
0.057717014 -0.021511374 -0.043090664 0.08842557 0.0029838302 0.09114454 0.011312774 -0.01084745
0.040598437 -0.12527205 0.050557822 0.0022306095 0.07110232 0.028822917 -0.042605467 0.14528322
0.044935998 0.07876425 0.06118902 -0.02100508 0.08357106 0.010455403 -0.024382109 -0.0022137589
-0.016162323 -0.06535519 0.014265405 -0.04628485 0.009082625 -0.046903294 -0.057642125 -0.056068785
-0.05388272 -0.07586281 -0.038350966 -0.049879123 -0.11878135 0.012463047 -0.15881664 -0.025788836
0.03475267 -0.09771493 0.042909786 -0.015083595 -0.02028495 0.012413523 0.038568996 -0.05343348
0.03691651 -0.024764085 0.021200983 -0.08553379 0.03186866 0.050586514 -0.017208606 -0.013711277
0.06475846 -0.045154937 -0.029866416 -0.012595459 -0.041639097 -0.070510514 0.0046816543 -0.03572822
0.038020637 -0.003979412 -0.04274118 -0.036942586 0.094868325 -0.0008306485 -0.03517814 0.037502937
0.045901224 0.07084617 -0.049897704 -0.029692132 -0.010189118 0.02648077 0.028259987 -0.0041726483
0.06258519 -0.04142685 -0.04373244 -0.015261335 -0.021112245 0.044050924 -0.026850687 0.033056904
-0.013674132 0.053472407 -0.091826916 0.03464675 -0.032503515 -0.06763151 0.016417501 -0.0016159863
0.049710546 -0.047918923 0.010117432 -0.0835123 0.001837341 -0.0441278 0.09301255 0.049887717
-0.010038278 0.06471455 0.10134535 0.023531813 0.07496025 -0.025787456 -0.069803886 -0.09158768
0.033787414 0.004227487 -0.014305831 -0.06526958 0.05806202 -0.008137474 0.060067616 0.026818568
0.019054899 0.015245138 -0.024610408 0.08191397 -0.01755388 -0.07280768 0.006958655 0.048914686
0.025336985 0.073870346 -0.058517378 -0.07133039 0.075698525 -0.050532762 -0.01464892 0.031178083
0.052230068 -0.068542 0.07688777 0.02928591 -0.0065370067 0.03560198 0.036899757 0.060929824
0.037811905 0.06866687 -0.039074324 -0.05702954 0.07103604 0.06287412 -0.005341861 -0.09370685
0.067017436 0.0012813228 -0.013737585 -0.04983039 0.035739563 0.012857433 0.015595976 0.019855103
0.015962971 -0.024474228 0.062120065 0.06266407 -0.05346684 0.064645275 -0.084196895 -0.07491873
-0.048074577 -0.019828733 -0.043936227 0.06778447 -0.076727286 0.03574224 -0.067089505 0.049304087

lstm.bias_ih_l0 f4 [512]
00000000: 1701 ce3d 24a3 57bd 1f89 b03d ee8c a6bc
00000010: 490d f43b 06bf 3bbc 2857 373d 3e20 923d
00000020: 4145 7e3d 4313 5d3c 4560 a3bc 8b69 7c3d
00000030: ad34 13bd 3f89 26bd 40be 583b 0f64 bb3d
00000040: 206f 75bd 7163 743d d947 b83d e011 333d
00000050: 663b c73d d58d d03c 8b4d 5c3d ef86 8b3c
00000060: 8543 6a3c 7c0d 18bb f959 ad3d 2dd8 a03b
00000070: 2e53 2cbc 0bdf 993d adc9 21bd 3833 a4ba
00000080: 63cf 40bd 579c 82bc b53d 633d cd16 503c
00000090: 101e 5a3d 1ad3 e93c 0720 6bbd 7c18 403c
000000a0: cc56 a13d d545 273e b42b a83d 857b b5bc
000000b0: f7ef 333d 0dbd 72bd 1caa bb3d 2d2b 043e
000000c0: f154 40bd c9f7 ed3b af8a 943a 970e 4cbd
000000d0: bac3 863c 139d 073e a868 a63d 83d9 173d
000000e0: 5b15 4b3d d3ae 6f3c 0d10 34bc cb4c 78bc
000000f0: 56d9 273d 1b64 193d c33a bc3d 47ce cc3b
00000100: f69a b43d b114 5bbc 2e5b 833d a77c 433d
00000110: 7315 f3bc 8c28 4b3d 7407 643d 357c 313c
00000120: e29c a53d 90c1 6a3d 3f66 3b3d 0384 dd3d
00000130: e4f7 d0bb 4bac f8ba bc97 89bc f248 263c
00000140: cac8 adbc b363 51bc b520 dc3d aebf 5bbd
00000150: c913 d1bc 5044 36bd dbdd 433d 3d0d e0bb
00000160: 7433 a93d 1555 c9bc 4900 4d3d cb47 853d
00000170: b448 003e 5f3e b13d 7a76 b43d 6767 0cbd
00000180: 9291 ac3a ee12 c33c 6b6f c93d 94b1 423d
00000190: 1cab 85bc 44e8 b03d 075e 9d3d 096e bf3d
000001a0: 56de 17bd c7a5 f2bc eb3f bb3d e99d 0dbd
000001b0: 9ad1 af3d b996 3fbd a312 e63c 6960 863d
000001c0: 26fd c23d fb2f d93c 143d 9d3d 9730 473d
000001d0: 83d0 b93d 1dd2 a83d db3a 3fbd 2163 a23d
000001e0: 27e9 7f3d 4181 8a3d 08ea b8bc b2b3 5e3c
000001f0: 50ad 163d 0c4c 49bd 7cd0 ba3d 15eb f33c
00000200: c26f 0fbd 87cd 7dbd a230 a83d 342f a33c
00000210: edc5 313d 87a6 bf3d a2c9 2bbd 15f6 b2bc
00000220: 187c c73c 9015 dc3d a77c 373d 3cbb 5a3d
00000230: 2734 84bd 583b f93c 1ec6 533c e036 8f3c
00000240: 0d45 423c e103 4b3d 466b 00bd d6ab d13d
00000250: 3688 8e3d d923 62bd 11eb 5f3d 89c9 bebc
00000260: 5fc5 0b3d cd5d 96bd f251 5a3d 231f a23b
00000270: b0eb 5b3d 722f ca3d 697f e33d cd8e cd3d
00000280: 558d 2a3d 0265 943d 921d cd3d 32ec 233c
00000290: 8ac8 9e3d ae71 fbbc 20ff d8bc 1d90 eebc
000002a0: 02cf 37bd 62b9 da3d c0ea 83bd eb92 1fbd
000002b0: ad69 d23d 4af6 5339 8f50 6b3d ce9e bd3d
000002c0: 65b2 6f3d 1422 e83d 013a e93d 6b35 df3d
000002d0: 31af 04bd 8647 d33d 36a9 913d a93c d13d
000002e0: f197 17bc b43a 8dbc d3d9 54bc 5edf b1bc
000002f0: 6dc0 123d 9538 0a3d 8aed 2c3d ffe3 043d
00000300: 5e5e 07bb 48cf 1d3d 9aea 30bd a0ad 31bb
00000310: ff26 de3d ee2b 303d 0fcf abbc 7696 07bd
00000320: 5620 7fbd 7238 d13c e260 8f3d 1b2a 2cbd
00000330: 6312 693d e121 62bd 4316 1dbd 99a4 953d
00000340: 442f f63d bef0 24bd 9f79 243d e376 23bd
00000350: 8302 63bc 3674 11bd 724d 7a3d 4278 c93c
00000360: 2da7 903d 6c7a 9c3d ff4b 4d3d da80 ad3d
00000370: 9120 a63c 2c9c 5ebd b99a 823d 9111 613d
00000380: e62f 5cbd 82cd 933d f183 bf3c 825a e73c
00000390: b0c1 c03d 95fb 293d 6896 533d f815 b33d
000003a0: 7247 e33d 91fb 2f3b 57b1 6ebc 1634 0e3e
000003b0: 5a93 fc3d 25b2 eb3c b9d6 dabc fc61 bd3d
000003c0: bb4e 9a3d 8c7e 213c 9ccd 853d 33a5 503d
000003d0: 3e72 303c c788 cf3d 7611 bb3d f9e8 de3d
000003e0: bc64 bf3b a5bb 853c 54fe a83d 593e 2abd
000003f0: da74 023d b94f 9f3c 5254 ef3c a73b a33d
0.100588016 -0.052645817 0.08619904 -0.020330872 0.007447873 -0.011459118 0.044760853 0.07135056
0.062077764 0.013493362 -0.019943366 0.06162409 -0.035938907 -0.04065823 0.0033072382 0.09149944
-0.05992043 0.059665147 0.08998079 0.04371822 0.09728126 0.025458256 0.05378489 0.017032115
0.0142983245 -0.0023201397 0.084644265 0.0049085827 -0.010517878 0.07513245 -0.039498974 -0.0012527471
-0.04707278 -0.01594369 0.05547877 0.012700749 0.053251326 0.028543044 -0.05740359 0.0117245875
0.07877883 0.16335233 0.08211461 -0.022153625 0.04393002 -0.059262324 0.09163305 0.12907095
-0.046956006 0.0072622043 0.0011332835 -0.0498186 0.016450752 0.13243513 0.0812543 0.03707267
0.049580913 0.014629084 -0.010990155 -0.015155028 0.040978752 0.037448984 0.091908954 0.006250176
0.08818619 -0.013371632 0.064138755 0.0477263 -0.029673314 0.049599215 0.05567117 0.010832836
0.08086564 0.0573135 0.045751806 0.10816195 -0.006377207 -0.0018972246 -0.016795985 0.010149227
-0.021213908 -0.012780118 0.10748426 -0.053649597 -0.02552213 -0.04449874 0.047819 -0.0068375156
0.08261767 -0.024576703 0.0500491 0.06507834 0.12527734 0.086544745 0.0881166 -0.0342783
0.0013165942 0.023812737 0.098357044 0.047532633 -0.016316943 0.08638051 0.0768395 0.093471594
-0.03707727 -0.029620064 0.09143051 -0.034574423 0.085849 -0.0467746 0.028085059 0.065613575
0.095209405 0.026512137 0.07677665 0.048630323 0.090729736 0.08243201 -0.04668699 0.079290636
0.06247821 0.067629345 -0.022572532 0.013592647 0.036786377 -0.04914479 0.091217965 0.029775182
-0.03501869 -0.061963584 0.08212401 0.01991997 0.043401647 0.093579344 -0.04194034 -0.021845857
0.024351165 0.107463 0.044796612 0.053401217 -0.0645526 0.030423805 0.012925653 0.017482221
0.011857283 0.049564246 -0.031352304 0.10237853 0.06959574 -0.05520997 0.054667536 -0.023289459
0.034123775 -0.0734211 0.053300805 0.0049475594 0.053691566 0.09872331 0.11108286 0.10037003
0.04163869 0.07245828 0.10015406 0.010005044 0.077530935 -0.030693855 -0.02648884 -0.029121453
-0.044875152 0.1067989 -0.064412594 -0.03895847 0.10274062 0.00020214278 0.057449874 0.09258805
0.05851974 0.11334625 0.113880165 0.108988605 -0.032393638 0.103163764 0.071123526 0.10216648
-0.009252534 -0.017239906 -0.0129913865 -0.021712955 0.035828043 0.033745367 0.042218722 0.032443997
-0.0020655612 0.038527757 -0.043192483 -0.0027111545 0.10847282 0.043010645 -0.020972757 -0.033102475
-0.062286697 0.02553961 0.07000901 -0.042032342 0.0569023 -0.05520809 -0.03835131 0.07306785
0.12020734 -0.040268652 0.04015505 -0.0399083 -0.013855579 -0.035511218 0.061109014 0.024593476
0.07063136 0.076405376 0.050121304 0.08471842 0.0202792 -0.054348156 0.06377167 0.054948393
-0.053756617 0.07216932 0.023378344 0.0282414 0.09411943 0.041499693 0.05165711 0.087444246
0.110976115 0.0026852826 -0.014568648 0.13887057 0.123327926 0.02877147 -0.026713716 0.09247205
0.07534548 0.009856831 0.065333575 0.050938796 0.010769425 0.1013351 0.0913419 0.1088428
0.005840866 0.016324827 0.08251634 -0.041563366 0.03184972 0.019447194 0.029215012 0.07970362

lstm.bias_hh_l0 f4 [512]
00000000: 60d5 aa3d 9231 f13a ee02 123d 6d1b 28bd
00000010: c0e7 87bb 1be6 6bbd 8ca4 773d fd62 36bd
00000020: 1327 c63a c81a 8e3c 8803 0e3d a43a 43bd
00000030: 1fff 5d3d f451 cc3d b7ec 0b3d 03f5 1dbd
00000040: 9018 8d3d f357 7f3d 2619 cb3d 46c0 7bbc
00000050: 67ff 2f3c 5fa4 52bd 0074 0e3c 36a3 c93d
00000060: 3b58 1ebb 67d9 38bd 3e87 3f3d 4b0f 6e3d
00000070: c484 6f3d e082 223d c077 e83c 4670 aa3d
00000080: 18eb 18bd 5ffa 0dbb 234d bb3d 15b5 383c
00000090: 843c de3c 9466 b43d 7176 7d3d de02 9d3d
000000a0: 5260 b73d 0634 833d e054 ac3d e672 80bd
000000b0: 5711 813d 4d3f 8e3d ed0a 1a3d e760 2abb
000000c0: 95f1 2c3c 11fd 533d 89e2 f23d a11c 13bd
000000d0: 3ee2 623d 0956 243e 7d19 6fbc 160f 443d
000000e0: 6498 b5bb 8dc9 acbc 50ed f0bb 5f61 033e
000000f0: e6e4 8b3d 1f95 313d 95ba 8bbd 9d4d c23d
00000100: 0638 133d 7ca3 e5bc 743b 933c 268b dc3d
00000110: b4d8 9c3d 67e5 ae3c aa18 19bd b3e0 1abd
00000120: fa9c 063d 0b43 f23c 9fe0 983d 1e8d f03b
00000130: 66e9 883d 0e54 babc 0a54 7ebc db1e 92bd
00000140: b318 9a3d 3734 2abd aebf eb3c 4553 f03c
00000150: bdb4 053e 83ba f03d 5a84 813d 4118 cebc
00000160: 94d2 873d 57f5 d83d e156 213b e9c9 653d
00000170: b861 e8bc 8abc e13d 04b9 22bd 5313 1f3d
00000180: 064d a63b 1ba6 82bc 137a cf3d 35ee d73d
00000190: 1db7 df3d c604 48bd 6138 86bd 0ad1 153c
000001a0: ba6f 1ebc 292b c03c 8ba1 963d 136c e0bc
000001b0: ad83 0fbd 0d5f 263d cdf9 1e3d f47a d63d
000001c0: 6441 ff3c df1e 5bbd 1603 673d 220e 5d3d
000001d0: 7995 353d ecac cfbc ab5f ecbc 254d db3d
000001e0: c620 5ebc 4001 df3c 71e8 14bd 87c3 373d
000001f0: ca99 833b 7605 6a3d 3535 2dbb e50c 43bd
00000200: 71f2 edbb d23f 913d 7b15 96bb 0aaa e13d
00000210: 589c 62bd 43f1 c83d dff3 0abd b65f 093d
00000220: 33f2 3dbc bd5a ab3d dd10 c33d 1a1a 92bb
00000230: 3501 33bc d666 9dbb 5925 89bc a4d6 b43b
00000240: e02a 8e3d c570 e33d 3f68 7fbd 8c9e 843d
00000250: c7cc 073d 9675 9e3c 84b5 b43d 6944 25bd
00000260: d99f 3fbd 5cfd 46bd 456b 893b d7c3 b03d
00000270: b088 d03d 5c34 453d 13ee 033e 9d6e a23c
00000280: 3a75 723d 5a5c 30bd ae2f 273c 8604 f83b
00000290: 4165 c63c 2a5f d63c a514 53bc 3271 b33d
000002a0: 5183 b43c 3242 ad3d a74a d23c c665 c83c
000002b0: a5ca 88bd e5f4 29bd 388e 46bd de5a 803c
000002c0: b7d1 023d 7d51 f03c 611c d13c 872e 2e3c
000002d0: 2e14 5d3d eecc 01bb 8249 d63c 239b 28bc
000002e0: 1ba9 983d 2c93 a73d 8d8a 96bb e120 103d
000002f0: 2c6a 883d e433 b63c e9f7 4c3d 8dc0 07bc
00000300: e370 763d 9ca7 b53d d0cd 79bd 38a8 273d
00000310: 89c4 2cbd 56bf 093d 02ad 3b3d dc3a c13d
00000320: d03d a3bc 02fd b33d 740a 85bc f09f 84bb
00000330: 2e4b 953d c199 433d 87fd a03d 1809 2dbd
00000340: 4b7c d8bc 3897 af3d 4475 9b3d de1e 93bc
00000350: 911b d43d f5bd bc3c f86c e5bc d8b7 8b3c
00000360: 8906 653d 1eb3 773d edab 683d dacf a9bc
00000370: ad2a cc3d 9a35 79bd dfd6 d8bc 7f64 84bd
00000380: 5844 27bc 6c4b 763d b635 623d 389c 973d
00000390: 05b5 d93d 629d c83d 798d 943d d505 a73d
000003a0: 5a26 873d d80c a53d dd01 9d3d 13b5 bfbc
000003b0: d2dc b53d ddda af3c 3a51 be3d 1711 21bd
000003c0: 6815 8f3d 72b1 bdbb 8774 443d 6da4 a4bb
000003d0: 3dff 383c 3878 59bd 1102 51bd 5f0b ae3c
000003e0: 4d27 bf3a 8e5d 783d 1ba7 2b3d 9631 77bd
000003f0: 7a5e 09bd 0364 86bc 1e40 8d3c 1a98 35bc
0.08341479 0.0018401614 0.035647325 -0.04104178 -0.0041475 -0.057592493 0.06045966 -0.044527996
0.0015117846 0.017346755 0.034671336 -0.047663346 0.05419838 0.09976569 0.034161296 -0.03856374
0.068894506 0.062339734 0.09916906 -0.015365666 0.010742045 -0.051426288 0.008694649 0.09845583
-0.0024161476 -0.045129206 0.046759836 0.058120053 0.058476225 0.039675593 0.028377414 0.08322196
-0.037333578 -0.0021664125 0.09145572 0.011273642 0.027128465 0.08808628 0.061880533 0.076665625
0.089539185 0.06406407 0.08414626 -0.06271915 0.063021354 0.069456674 0.037608076 -0.00259977
0.0105556445 0.051755015 0.118596144 -0.035915975 0.055391543 0.16048445 -0.014593479 0.04786595
-0.005541848 -0.0210922 -0.0073525086 0.12830113 0.06830768 0.043355104 -0.06822697 0.0948746
0.0359421 -0.028032057 0.017972685 0.10768728 0.0765852 0.021349622 -0.037377037 -0.037811946
0.03286455 0.029572984 0.07464718 0.007341041 0.06685142 -0.022745159 -0.015522966 -0.071347915
0.07524242 -0.041553702 0.028777923 0.029336581 0.13057227 0.11754324 0.06324072 -0.02515805
0.066319615 0.1059367 0.0024618434 0.05610076 -0.028366908 0.11022289 -0.039727226 0.03883679
0.0050751 -0.015948346 0.10130706 0.10543481 0.10923598 -0.048832677 -0.06553722 0.009144077
-0.009670192 0.02345808 0.073550306 -0.027395284 -0.035037685 0.04061799 0.038812447 0.1047267
0.03115911 -0.053496238 0.056399427 0.053968556 0.044332 -0.02535101 -0.028854212 0.107080735
-0.0135576185 0.027222276 -0.036354486 0.044864204 0.004016136 0.057134114 -0.002642942 -0.04761972
-0.0072615673 0.07092251 -0.0045801974 0.110187605 -0.055324882 0.09811642 -0.03392398 0.033538543
-0.011593389 0.08366916 0.09524701 -0.004458678 -0.010925581 -0.0048035188 -0.016741442 0.005518751
0.069417715 0.111054935 -0.062355276 0.06475553 0.033154275 0.019343179 0.08823684 -0.040348444
-0.046783302 -0.048581466 0.0041936957 0.086311035 0.10182321 0.048145637 0.12883787 0.019828135
0.059193827 -0.043056823 0.010204239 0.0075688986 0.024218203 0.026168425 -0.01288334 0.08761825
0.022035273 0.084598914 0.025670363 0.024462592 -0.066792764 -0.041493315 -0.048475474 0.015668329
0.03193828 0.029335732 0.025526227 0.01063121 0.053974323 -0.0019805986 0.026158098 -0.010290894
0.07454129 0.08182368 -0.0045941533 0.035187606 0.06660876 0.02224154 0.050041113 -0.008285654
0.06016625 0.088698596 -0.060987294 0.04093191 -0.042179618 0.033629738 0.04581929 0.09435055
-0.019926935 0.08788492 -0.016240336 -0.0040473863 0.0728973 0.047754053 0.078608565 -0.042245
-0.026426455 0.085737646 0.07590726 -0.017959055 0.103568204 0.023039797 -0.028006062 0.017055437
0.055914436 0.060473554 0.056804586 -0.020728994 0.09969077 -0.060842134 -0.026469646 -0.064644806
-0.0102091655 0.06013052 0.055227004 0.07402843 0.1063023 0.097956434 0.07253546 0.08155409
0.06599112 0.080590904 0.07666371 -0.023401773 0.08880009 0.021466667 0.092928365 -0.03932294
0.06986505 -0.0057889754 0.04796269 -0.005024484 0.011291322 -0.053093165 -0.05102736 0.021245657
0.0014583856 0.060636096 0.04190741 -0.060350023 -0.033537365 -0.016405111 0.017242488 -0.011083627

lstm.weight_ih_l1 f4 [512, 128]
00000000: 968f 7a3d 9b7b 6fbc 3f9e 9c3d 0fb7 44bd
00000010: c18e 803d 07a2 133c 8adc 43bd 1484 09bd
00000020: 2f7b 8c3d ecab 8c3d f3c5 053c 2c65 183d
00000030: efa4 b43b f392 a5bd 5b09 ba3c b91c 353d
00000040: 88e0 22bd 7980 3dbd 8884 a9bc 965e 07bc
00000050: a8d1 41bd da38 b2bd f4eb b83d 1eb3 9e3d
00000060: ef2e 513c 5140 47bc 8575 49bc 1887 3f3d
00000070: 853b a93c aae1 f43c e262 15bd a574 643d
00000080: 328b 2f3d 349d 18bb 4b15 1b3d c74f d73c
00000090: ca8d 5f3b 206b a3bc 6366 18bc 0ad2 8c3d
000000a0: 36d5 153d 2b89 94bd 878a 46bb 7662 a3bd
000000b0: 273f 743d 6df4 b2bd b43b 78bd ad21 8cbd
000000c0: 4b68 22bd 5445 1ebc f47f c6bc e575 c43b
000000d0: caa3 98bd 3739 6cbd 6d74 ba3c 582a cebc
000000e0: f086 c13d 4d5b fe3c 1df0 52bd 4b76 98bd
000000f0: e6ab 51bd 4093 e5bc 84a3 ecba 52c7 5b3c
00000100: 5507 88bd a5bf 54bd c060 25bd 4b59 8cbd
00000110: 69b9 ec3b 2cae e036 e4c1 8ebd 8023 303d
00000120: 5671 a13d 9485 3d3d 330e 48bd 4511 d93c
00000130: af75 aabc 270b ccbd b797 0dbd 8e3a 243d
00000140: 1704 433d 7a91 fa3b 80f1 493c 9282 09bd
00000150: 2cec 683d 3552 8ebc 194a 6c3d 5348 063d
00000160: 13b0 483d aba7 04bc 75f0 7f3d f025 643d
00000170: c12a 51bc 4a91 aa3d 0ab5 79bc af66 a0bd
00000180: 1078 57bd 5bea 24bd 6dbf 2c3c 8f16 d03c
00000190: 12c8 41bd b929 41bd fea6 7bbd de03 56bd
000001a0: bf39 bdbd 65d3 d7bd 29c9 21bd 141e 923d
000001b0: fc87 97bc bc87 e73d f106 00be 23d7 ac3d
000001c0: 2bb9 753c e5ff 06bc a74f 6cbd f79a 8bbc
000001d0: dd30 bd3c b167 b2bd 99c4 433b 6e99 08bb
000001e0: 98d1 2fbd 60e5 06ba a8d9 303c 11fd dfbd
000001f0: 5315 913d 6573 003c b0db 8cbd a38f d8bc
00000200: 33c7 663d 931b e8bc 6422 1a3d ced9 a7ba
00000210: 5d92 36bd cf7b afbc d25a aa3d 4f7d b53d
00000220: 31b5 23bb 6cb9 ff3c f3f2 07bd f148 abbc
00000230: 51bd 463d 97e4 92bd 6c3c a33d fca5 98bd
00000240: f5c2 8e3d 7d16 b03c a862 283d 72cb 95bd
00000250: 4d4e 183a 7001 52bd e02c 90bd 906d 85bb
00000260: 77e1 fcbc e603 25bd 57d3 c43d ab6b 933d
00000270: 67d0 123d b2f5 ef3c faaf c6bc a262 373d
00000280: 01ad 183d c949 33bc 457b 06bd 69b1 c53c
00000290: 7554 80bc 1618 1cbb fc87 acbd beaa 4f3d
000002a0: d6a0 323c e3f8 2abd 58b7 1f3d 4442 d0bd
000002b0: de32 86bd ac9e db3b 2b0a b23c f64b 753d
000002c0: 5520 793d 0be4 8b3d 54ed fb3c 7c0e 0f3d
000002d0: 3d8b 38bd a132 4b3b 0c5a aabc cdae 43bc
000002e0: 9856 393d 6c81 64bc d4e0 283d 982b 843d
000002f0: 9ed6 183c e987 8b3d 8bf3 19bd e0d8 3c3b
00000300: ea5e 8abd 95c6 aebd 373c c73c 5f2b b7bc
00000310: ea89 063d 3c68 d13c 34c6 6fbd 0b12 88bd
00000320: 84c2 71bd 8efd ab3d 9fec 1ebd b344 30bd
00000330: e418 793d 7a51 1bbd f6ae 9cbd ab64 80bd
00000340: 6207 32bc 0dfe a9bd 2f7f 413d d83a 943d
00000350: cfbc cabc a1bb 163d 0fec 9abc aa01 96bd
00000360: faf1 493d 26a7 aa3c 7da0 223c 20f9 7bbd
00000370: e31f ce3c 6e60 b43d 657c 263d 2e6b 39bd
00000380: 8b22 6cbd 7855 bb3d 4f75 8a3d cbbe 14bd
00000390: 6f48 e7bb fa8e 11bd ace2 973d 3fce bc3b
000003a0: 77a7 01bc 02f5 a13d 6b67 633d 6e58 cebb
000003b0: 78d6 0bbc d485 7b3d 7cfc f93c 9d0d 7dbd
000003c0: e1df 6e39 11fb 5ebc fc3f 8f3d 12f4 d53d
000003d0: 000d a43d d946 be3d 0e34 28bd eed5 98bd
000003e0: 2336 1d3d 63c6 40bd d643 5bbb 9ff6 b73d
000003f0: 9d11 1d3b b76e c8bc 1670 29bd bdea 73bb
0.06117209 -0.014616872 0.076473705 -0.04802614 0.06277228 0.009010798 -0.047817744 -0.033573225
0.06859433 0.06868729 0.008164871 0.03720586 0.0055128257 -0.08084669 0.02270954 0.044216845
-0.03976491 -0.0462651 -0.020693079 -0.008262297 -0.047319084 -0.0870225 0.090293795 0.07749008
0.0127675375 -0.01216133 -0.012296085 0.046759695 0.020658264 0.029892761 -0.036471255 0.055775303
0.042857356 -0.002328706 0.037862103 0.026283158 0.0034111612 -0.019948542 -0.009301755 0.06875999
0.036580287 -0.07252725 -0.003029497 -0.07977764 0.05963054 -0.08738027 -0.060603812 -0.06842361
-0.039650243 -0.009660084 -0.024230935 0.0059954994 -0.07453115 -0.05767175 0.022760594 -0.025166675
0.094495654 0.031049395 -0.05149852 -0.074444376 -0.051189326 -0.028024316 -0.0018054103 0.013414221
-0.066420235 -0.05194058 -0.04037547 -0.06852969 0.007224251 6.6959965e-06 -0.069705755 0.043002605
0.07882945 0.04626997 -0.048841666 0.026497493 -0.020808069 -0.09963065 -0.034568515 0.040094905
0.047611322 0.0076467367 0.0123256445 -0.033571787 0.056865856 -0.017373184 0.057687853 0.032783817
0.048996042 -0.008096616 0.062485177 0.055700243 -0.012766541 0.08328493 -0.015240917 -0.07832085
-0.052604735 -0.04026256 0.010543686 0.025401382 -0.047309943 -0.04715893 -0.061438553 -0.05224978
-0.0923953 -0.10538367 -0.039498482 0.07134643 -0.01849746 0.11305186 -0.12502648 0.084394716
0.014997761 -0.008239721 -0.05769315 -0.017041666 0.023094589 -0.08711184 0.002987182 -0.0020843404
-0.042924494 -0.0005145874 0.010794081 -0.109369405 0.070841454 0.007840012 -0.068778396 -0.026435679
0.056342315 -0.02833346 0.037630454 -0.0012806 -0.044573177 -0.021421341 0.08318104 0.08861791
-0.0024979825 0.031216346 -0.03319068 -0.020908805 0.04852039 -0.07172506 0.07970509 -0.07453534
0.06970779 0.021495098 0.04110971 -0.07314195 0.00058100076 -0.051270902 -0.07039809 -0.0040718988
-0.030869229 -0.04028692 0.096106224 0.071982704 0.03584328 0.029291961 -0.024253834 0.044771798
0.037274364 -0.010942885 -0.032832403 0.024132447 -0.015665272 -0.0023818067 -0.084243745 0.05069994
0.010902604 -0.041741263 0.03899321 -0.10168889 -0.06552671 0.006702265 0.021733364 0.059886895
0.06082185 0.06830605 0.030752815 0.034925923 -0.045054663 0.003100552 -0.02079489 -0.011943531
0.045248598 -0.013946872 0.041230038 0.06453627 0.0093285125 0.06813032 -0.037585776 0.002881579
-0.06756385 -0.0853397 0.024320705 -0.022359548 0.03284637 0.025562398 -0.05853863 -0.066440664
-0.059023395 0.08397971 -0.03879988 -0.043034267 0.060814753 -0.0379195 -0.07650559 -0.06269201
-0.010866018 -0.083004095 0.047240432 0.07237786 -0.024748234 0.03680003 -0.01891139 -0.07324536
0.049303032 0.020831656 0.009925959 -0.06151688 0.02516169 0.08807455 0.040645976 -0.04526823
-0.05765013 0.09147161 0.06760656 -0.036314767 -0.0070581953 -0.035536744 0.07416281 0.005761891
-0.007913462 0.0790806 0.05551855 -0.0062971627 -0.00853502 0.061406925 0.030515902 -0.06178056
0.0002278085 -0.013609664 0.06994626 0.10446943 0.08010292 0.09290857 -0.04106527 -0.07462679
0.038381707 -0.047064196 -0.0033457181 0.08982586 0.0023966797 -0.024466855 -0.04136666 -0.0037218772

lstm.weight_hh_l1 f4 [512, 128]
00000000: 697c a1bd 212a a33d ec04 2f3d be9e 63bd
00000010: 9e64 8dbd 3db4 373d 3d09 233d 4ce3 08bd
00000020: 387a 4dbd 11f9 9d3d f43d 2f3d 1838 913d
00000030: 4a2d 823d 7fa8 f2bc eb90 763c 15a3 64bd
00000040: 2fe4 fd3c e534 1f3d a983 833d 5c22 7cbd
00000050: 0953 033d 6622 593d 83d2 8ebd e211 5f3c
00000060: ad0a 913d 5874 74bd c26f 75bb 6c13 46bd
00000070: 4ab3 3c3c 4dab 5b3c 14ef a43c 9799 6f3d
00000080: 0d62 b0bc 51df 773d fdbb c5bb dcf1 64bd
00000090: 7740 393d 05df b43c d099 b33d 286a b1bc
000000a0: cb56 273d ab79 e33b 7e11 54bd 6df2 f9bc
000000b0: 051f 863d 8de8 37bc ef34 31bd 7988 98bd
000000c0: fef9 e4bb db65 953d 7532 bebc aa57 99bd
000000d0: 2415 84bd 2b93 99bc b656 5cbd eeba 933c
000000e0: 45c7 533c d6d0 98bd 3446 a7bd ce39 86bd
000000f0: a211 28bc 4eb0 04bd 0372 96bc dd0b 45bd
00000100: e1e9 8b3d c56c 5e3d a179 093d f451 cfbc
00000110: 522c c8bb c3d1 db3c 24b8 97bd 0362 07bd
00000120: 569d 113d d3c7 97bd 6e01 113d 8ed3 e33d
00000130: 3340 87bd b388 6e3b c6ab 753d 490f 57bd
00000140: 01ac 81bd 1cda 12bd 3857 0d3d 1039 2c3c
00000150: 6622 f13c f292 f03b 5013 70bb 0549 983d
00000160: a093 bebc 38c7 61bd 3a77 61bd 01f1 0e3d
00000170: d006 dcbd 9297 74bd bc6b 6abd 8a20 31bc
00000180: caea 213d af76 1a3d 9b85 7fbd 91f2 b63d
00000190: 49f6 6ebd 6fdb 61bc 0dc3 6e3d 1d25 90bc
000001a0: 252a cabb c4be f03c ba11 21bd 2c77 dc3c
000001b0: cb06 4e3c 251a 2ebd 3587 b53d 7ebe 773d
000001c0: 6289 323d 57a0 39bd c02d 91bd 1aa1 c6bc
000001d0: 02b9 713d 66c2 02bd 60d3 85bd 970a fc3c
000001e0: 47f0 823b e600 b1bb 182e 26bd bf12 613d
000001f0: 53b0 a23d f1b7 63bd 774a 993d 6ea8 74bc
00000200: 9b85 f3bc 2dda 783d a0d9 f2bc 9a55 9abd
00000210: 2811 913d 2ce5 bbbd ab3f 6ebc 4a25 09bd
00000220: 39b5 78bd 7657 1f3c b8c7 a4bd f9cf 2dbd
00000230: b92d 063d 6b34 a2bd b277 c0bc 1e04 02bc
00000240: 8763 403d 3cac 173d 8fe7 fbbc 200d 0a3c
00000250: 6942 493d 0cde a4bd 5788 0d3d 3b05 823d
00000260: df64 a43c 14b4 cd3c ac01 80bd e0b7 623d
00000270: dfe1 e3bc 0006 27bd fd08 66bd e2d5 9a3c
00000280: f005 b0bc 1e63 21bd dc70 babc 4500 c9bd
00000290: d77d aebc 3fa6 86bd c63c 4dbc 2102 5ebd
000002a0: 0320 bb3d 78b2 b7bb d6ca 473c 186d 4c3d
000002b0: c14d 7ebd 02a2 72bd fd0c 943d a1d7 363d
000002c0: 8501 bf3d 09c8 a1bd 67fd b33c 071e 1fbd
000002d0: ae32 9e3d bc16 2ebd 4883 ed3c 0af1 7d3d
000002e0: 2c67 dbbc db9d 0cbd 77a9 8a3d 563f f83c
000002f0: 299e 03bd 1449 51bc a79f b7bc db25 863d
00000300: e148 5fbd f9d2 48bd e3e3 22bd 5670 3ebd
00000310: f442 2a3c 818a 123b 8495 94bd 97f6 e03c
00000320: a255 babc 7564 243d 9db8 a23d 38c1 b23d
00000330: 6879 963c 017d acbd ae7c 71bd d431 7d3d
00000340: 7d7c 04bd ca0e c2bc c2b8 1abd 9c75 823d
00000350: 14a8 17bd a466 3e3d 7c61 663c a402 d3bd
00000360: 8b2a 313d 5d81 61bd a134 433d 89ed 7b3b
00000370: c636 ccbc af6b 8ebd 6393 7338 5b0b 4dbd
00000380: d95c a63d 68c2 34bc b4fe b3bc d073 2fbd
00000390: 9448 95bc ed2e 723d 6165 2f3d f405 adbd
000003a0: faee 723d 4e33 b6bb 5bb5 8cbd ee8a 0bbb
000003b0: 54dd 9b3c 04ff 1cbd b630 0a3d d9c2 90bc
000003c0: 3d96 b73d ca24 56bc ed4f a93d e6f5 1dbc
000003d0: a433 d23a 78e7 4ebc 6e1e d9bb 1561 03bc
000003e0: 9e4a 4e3b 67b4 20bd ceb7 c0bd 48ff 943a
000003f0: 7b0d a83a 34aa a8bd 07f4 403d a3f8 903d
-0.078850575 0.0796702 0.042729303 -0.05557131 -0.06903957 0.044849623 0.039803732 -0.033419892
-0.050165385 0.07713521 0.042783692 0.07090777 0.063562945 -0.02962136 0.0150492 -0.05581959
0.030992595 0.038868804 0.064215966 -0.061556205 0.03206161 0.05301132 -0.06973746 0.013615103
0.07082114 -0.059681267 -0.0037450646 -0.048358366 0.011517355 0.0134075405 0.020133533 0.058496084
-0.02153113 0.060515705 -0.006034373 -0.055894718 0.045227494 0.022079 0.08769572 -0.021657065
0.040854257 0.006941994 -0.051774494 -0.030511105 0.06548885 -0.011224878 -0.043263372 -0.07447905
-0.006987809 0.07294818 -0.02321742 -0.07487424 -0.06449345 -0.018746933 -0.05379363 0.018033471
0.0129259275 -0.07461707 -0.08167687 -0.06553994 -0.01025811 -0.0323947 -0.018364912 -0.048107017
0.06831718 0.05430295 0.03356326 -0.025307633 -0.006108799 0.02683342 -0.07408169 -0.033052456
0.035550438 -0.0741116 0.035401754 0.11124335 -0.06604042 0.0036397397 0.05997827 -0.05250481
-0.06331635 -0.035852537 0.034507006 0.010511652 0.029435348 0.007341736 -0.0036632605 0.07435802
-0.023263752 -0.05512163 -0.055045344 0.034897808 -0.10743487 -0.05971486 -0.05723165 -0.010810981
0.039530553 0.03771084 -0.062383275 0.089329846 -0.058340345 -0.013785227 0.058291484 -0.017595822
-0.006169575 0.02938784 -0.039323546 0.026912294 0.012574862 -0.042505402 0.08863679 0.060484402
0.04358805 -0.045318928 -0.07088804 -0.024246741 0.059014328 -0.031923674 -0.06534457 0.030766768
0.0039959284 -0.0054017184 -0.040571302 0.05494952 0.079437874 -0.055595342 0.07484906 -0.014932735
-0.029726794 0.060754944 -0.029644787 -0.075358585 0.070833504 -0.091745704 -0.014541547 -0.033482827
-0.060719702 0.009725442 -0.08045906 -0.042434666 0.03275845 -0.07920154 -0.023494575 -0.007935552
0.046969917 0.03702949 -0.030750064 0.008425981 0.0491356 -0.080501646 0.034553852 0.06348654
0.02006763 0.025110282 -0.06250319 0.055351138 -0.027817665 -0.040777206 -0.056160916 0.018900815
-0.021487206 -0.039401166 -0.022758894 -0.098145045 -0.02130024 -0.06574678 -0.012526697 -0.05420125
0.09136965 -0.005605992 0.012194356 0.049908727 -0.06208587 -0.059236534 0.0722904 0.044639233
0.09326462 -0.07899482 0.021971418 -0.038846996 0.0772451 -0.04250215 0.028993264 0.06199745
-0.026782595 -0.03433023 0.06770604 0.030303638 -0.032133255 -0.012773771 -0.022414995 0.06550189
-0.054512862 -0.049029324 -0.03976811 -0.04649385 0.010391939 0.0022360387 -0.0725508 0.027461333
-0.022745911 0.040134866 0.079453684 0.0872826 0.018368438 -0.0842228 -0.058956794 0.061815098
-0.032345284 -0.023688693 -0.037773855 0.063700885 -0.037025526 0.046484604 0.014061328 -0.10303238
0.043253463 -0.05505501 0.047657613 0.0038441143 -0.024928462 -0.06954133 5.807298e-05 -0.050059658
0.08123178 -0.011032678 -0.021972038 -0.042835057 -0.018223085 0.059126783 0.04282129 -0.08448401
0.059309937 -0.005560315 -0.06870528 -0.0021292525 0.019026436 -0.03832914 0.03373786 -0.017671036
0.089642026 -0.013070295 0.08267198 -0.009641146 0.0016037119 -0.012628429 -0.006625942 -0.008018752
0.003147758 -0.039234545 -0.09410058 0.0011367584 0.00128214 -0.08235589 0.047107723 0.07078674

lstm.bias_ih_l1 f4 [512]
00000000: 8a27 68bc a736 d2bc bf53 d93c 5a5a 82bc
00000010: 5a97 63bd 0f97 8cbd aa61 48bc d11c b33d
00000020: 10e8 c73d 49ab 2d3d 9dbe 9c3c 21d5 0bbd
00000030: 3fea 4f3d 5527 b33d 3f0a 523d 5805 ad3c
00000040: 9871 cbbc 92ed 393d 86fa 4fbd 56ae 4ebd
00000050: ae24 813d 6cfa a0bd 7303 0f3c ed84 10bd
00000060: 0fb8 f5bc 94a8 163d 11d0 993d fbcf 393d
00000070: c832 10bc 7243 82bd 3030 843d d156 e1bc
00000080: 4fb6 313d 990d 04bd 5aee 7938 b13e ddbc
00000090: a5a6 493c 1ba8 69bd 2227 5fbd d5e2 21bd
000000a0: 97fe ccba 75b4 923d f8cc cebc 3193 e93c
000000b0: 1b31 4fbd bbf5 60bd 8f6f 95bc c84e f63c
000000c0: 5b88 713c 97a9 b83c afdf 073d c5dd 86bc
000000d0: 08d7 8ebd a771 9a3c f696 5c3c 6c76 293d
000000e0: 99bb ce3c 27d9 e13c 2c36 6e3d d5ce 4ebc
000000f0: 1b89 d1bc 578b 7e3d 9bd5 35bd 2766 85bd
00000100: 158e 823c cbca 7bbd 034b f5bc bd4b ad3d
00000110: 2567 67bc b9c8 bb3d 599e 503d ce2b 953d
00000120: ed35 c23d 27de 88bc 5295 ec3c a75d 06bc
00000130: 91d4 163d 2915 b63a 2f9f 993d 10fd 8e3d
00000140: a9c9 6e3d 3d14 083d d5f8 623d 7d9f 443d
00000150: 01a3 7b3d 809d af3d 221c 3ebd 19fa 913c
00000160: 52d0 073d 0b7a e63c ce14 a43d ee50 2b3d
00000170: 40c2 81bc 1ddc 2bbd 1f5c 683d cf79 cf3c
00000180: e1a1 8fbd 463a 4dbc f488 6d3c b88e 5f3d
00000190: b616 613d 4935 973d e4c4 ccbc f62c b03d
000001a0: f56f 3cbd bdef 5fbd fa99 c13d 8e3f 4c3c
000001b0: ec18 03bd 9978 b73d 41a8 9e3c 7d2d 7abc
000001c0: 7fc7 813d 9021 503d 358b b93d 4182 0dbb
000001d0: 7590 44bd 092d e93c 09ce 99bb f700 8cbd
000001e0: 635e 2ebd 5a0f 0dbd b366 53bd 35b1 a0bb
000001f0: bba5 a13d 2c6f 94bd aced 0dbd 7331 17bd
00000200: b046 c23d 0f64 8739 94c3 28bd 2590 783d
00000210: 24a8 2fbd d603 84bc 97e1 a33d 2729 213d
00000220: f764 323d 6173 953c 7f87 a63c 3f00 e1bc
00000230: 6026 8a3d bffd 66bd 1c29 86bd 971a cebc
00000240: 5a79 86bd 9e3e 9dbd 1e09 f63c 2061 5e3d
00000250: 1a63 1d3d c64a b13d fe01 a93c 6aec 28bd
00000260: 13b9 e43b 1ed3 14bc c116 423d 1aab af3d
00000270: e17e 6f3d 5e1f 863d 3e5f b23c cf32 cd3d
00000280: aedc 9dbd 1eb3 36bd d6d3 a43d c1b0 1dbd
00000290: 3dab 89bd b8c2 8e3d 1198 96bc ee35 cf3d
000002a0: 86e0 63bd 71dd 98bb 548c d1bc c2c3 153d
000002b0: 87f9 a83d 5e38 b03b d6a7 81bd a06e cc3d
000002c0: ea96 9d3d 7a7a be3c d8ed 913d 132a 573c
000002d0: 1744 c53d 615d afbd 53fc 233d 1e4f bd3d
000002e0: c599 b63d 40e4 a0bc 2a0d 5cbd bb0b 3b3c
000002f0: 99f0 d33c 352e 35bc 54c7 ee3c 83b2 8b3d
00000300: 3b75 773b 2bae 823d c9cf a93d 06b1 f5bb
00000310: a439 c23c 0d13 8a3d 51c0 60bb 9e89 1e3d
00000320: bc1c 5bbc ddaf efbc 57da 84bd d0ae 8c3d
00000330: 9ae2 ac3d 57be d93d de4e 9e3d ccac 70bd
00000340: 35fc b2bc 218c 07bd 2667 953d e601 4fbd
00000350: b45b 2abc c136 113d e57f 9d3c 34e3 063d
00000360: e9de 823d 4d2f 8bbd 0cba 803c 85fb 193c
00000370: b042 d13c cdf3 86bc 9ff2 8abb 4ac1 ce3c
00000380: f31f cb3d 00e4 973d 9002 ec3c c55f 753d
00000390: a08a 14bd 808a 993d 4b07 003e 8048 ebbc
000003a0: c27c 16bd 50e0 8e3d 5b38 11bd 6b3f 21bd
000003b0: c8a9 4abd 4bb8 f33b eead 573c b90b d7ba
000003c0: 4aa8 9e3c 1f97 ff3c d119 543d aff1 ca3d
000003d0: 4662 8dbb b140 1dbd cf13 b23d cdfc 8c3d
000003e0: faa0 96bc c837 e23c 471d bdbc 1221 c23c
000003f0: 2831 d53d ca6f 46bd dd73 753d 068b 673b
-0.014169583 -0.025660826 0.026529191 -0.015912224 -0.055564262 -0.0686475 -0.012230316 0.08745731
0.09761059 0.04239968 0.01913386 -0.034138802 0.050760504 0.08747736 0.051279303 0.021120712
-0.02483444 0.04539258 -0.050776027 -0.05045923 0.06305824 -0.07860264 0.00872885 -0.035283018
-0.029994993 0.036781862 0.07510389 0.04536436 -0.00880117 -0.063605204 0.064545035 -0.027507218
0.043386754 -0.03223953 5.958821e-05 -0.027007433 0.012307798 -0.057045083 -0.05448068 -0.039522965
-0.0015639839 0.07163326 -0.025244221 0.02851257 -0.05058394 -0.054921847 -0.018241672 0.030066863
0.014741982 0.022541804 0.033172306 -0.01646317 -0.06974608 0.018853022 0.013463726 0.0413727
0.025235938 0.027569367 0.05815713 -0.012622555 -0.025578072 0.062144604 -0.044393163 -0.06513625
0.01593689 -0.061472695 -0.029942995 0.084617116 -0.014123713 0.09169144 0.050932262 0.07283746
0.09482942 -0.016707493 0.028879795 -0.008201039 0.036823813 0.0013891804 0.07501065 0.069818616
0.058297787 0.033222426 0.055413086 0.048003662 0.06143475 0.085749626 -0.04641355 0.017819451
0.033157654 0.028134366 0.08011781 0.041825227 -0.015839696 -0.041957963 0.05672848 0.025326638
-0.07013298 -0.0125261005 0.014497984 0.054579467 0.0549533 0.0738321 -0.024996229 0.086023256
-0.046005208 -0.05467199 0.09453197 0.0124663245 -0.03200619 0.08958549 0.01936734 -0.015269634
0.06336879 0.050813258 0.09059755 -0.002159253 -0.047989327 0.028463857 -0.0046937508 -0.068361215
-0.042570483 -0.03443847 -0.051611613 -0.004903937 0.07892939 -0.07247767 -0.03465049 -0.036912393
0.09486139 0.00025823756 -0.041202143 0.060684342 -0.04288496 -0.01611511 0.08002012 0.039345887
0.04355332 0.018243494 0.020328281 -0.027465938 0.06745601 -0.056394335 -0.0655081 -0.025159163
-0.06566115 -0.07677959 0.030033644 0.054291844 0.03842459 0.0865684 0.020630833 -0.041241087
0.0069800704 -0.009083537 0.04738498 0.08577557 0.05847061 0.065489516 0.02177393 0.100194566
-0.07708107 -0.044604413 0.08048217 -0.038498644 -0.06722114 0.069707334 -0.018383058 0.10117708
-0.055634044 -0.0046650697 -0.025579609 0.036563642 0.082507186 0.0053778132 -0.0633084 0.099820375
0.076948 0.02325176 0.07125443 0.01313259 0.09632128 -0.085627325 0.040035557 0.09243606
0.08916048 -0.019640088 -0.05372349 0.011416371 0.025871562 -0.01105838 0.029147781 0.06821158
0.0037759084 0.06380876 0.08291585 -0.0074979095 0.023709126 0.06741915 -0.0034294317 0.03870546
-0.01337355 -0.029258663 -0.064869575 0.0686928 0.08441658 0.106320076 0.077298865 -0.058758542
-0.021848777 -0.03309262 0.07295065 -0.05053892 -0.01039784 0.035452608 0.019226024 0.03293152
0.06390173 -0.06796131 0.015713714 0.009398346 0.025544494 -0.016473675 -0.0042403485 0.025238652
0.09918203 0.074165344 0.028809816 0.059905786 -0.036265016 0.0749712 0.12502782 -0.028721094
-0.036740072 0.06976378 -0.035454135 -0.03936712 -0.049478322 0.007437741 0.013164027 -0.0016406692
0.019367356 0.03119999 0.051782433 0.09909379 -0.0043146936 -0.038391773 0.086951844 0.068841554
-0.018387306 0.02761449 -0.02308525 0.02369741 0.104097664 -0.048446454 0.05992495 0.0035330667
