Data/PredictionsData/AB17.pth (torch, 828430 bytes, 10 tensors)

lstm.weight_ih_l0 f4 [512, 13]
0.052952167 -0.052967448 0.026441012 -0.043441635 0.07135152 0.1347108 0.15740387 -0.101884186
-0.078185804 0.1335196 -0.07422567 0.054867808 0.06464784 -0.08627471 0.017796347 0.025893908
-0.07914128 0.024782173 -0.085641526 0.06108347 -0.015020567 0.01085646 0.02146458 -0.02692861
-0.04186612 -0.03569671 0.11769384 -0.034224942 -0.06561875 -0.030510519 -0.00010275766 0.01751836
-0.089091584 0.049680725 0.07907969 0.021331688 0.03504956 -0.0417503 -0.075047 0.086191446
-0.03543576 -0.03598719 0.11375482 0.11847195 0.010442386 0.03001431 -0.022354376 -0.02046058
0.06681331 0.027562177 -0.059032653 0.06769227 -0.034446314 -0.10101768 0.00036199877 0.029221013
-0.07153542 -0.09960845 -0.014389907 -0.04041336 -0.02307459 0.048885066 -0.0096538905 -0.02299055
-0.086850196 0.0037230959 0.06567628 0.07325665 -0.002919963 -0.023129031 0.08081649 -0.1652349
0.11387469 -0.008671942 0.12655821 -0.090956196 0.07668523 0.032413855 0.07440786 -0.026630541
-0.03354227 0.098063 0.052549362 0.11545059 -0.052930936 0.010990433 0.005952855 -0.031229315
0.09126758 0.10982166 -0.01568876 0.006938095 -0.0272829 0.02614724 -0.00035789958 -0.042065457
0.03223993 0.009663565 0.09465254 -0.024326557 0.056322 0.0006709929 0.011296716 -0.0045803315
0.03385761 -0.002040994 0.07014758 0.08123826 0.11935699 -0.068488024 0.07171617 -0.06679288
-0.07032174 0.06787323 0.029799378 0.026347492 -0.03662809 -0.04658351 -0.033580992 -0.017635107
-0.081841655 -0.0560455 -0.056367505 -0.019465305 0.04350557 -0.023140768 0.12891744 0.052812107
-0.04354779 0.031523526 -0.06765882 -0.09513475 -0.053876903 -0.03134643 0.028172294 -0.09618009
0.062132742 0.12338981 -0.03956282 -0.058375586 0.022994483 0.005425378 0.010014183 -0.07216173
-0.014562377 -0.082121804 -0.011832775 -0.042324483 0.02595615 -0.035846666 0.11811955 0.14039476
0.010226779 -0.06305399 0.08319747 -0.065789275 0.023692526 -0.057840418 -0.06960585 0.022701668
-0.07608524 0.06814192 0.004734218 0.0804994 0.045497566 0.04496087 0.08831768 -0.069227956
-0.016365303 0.049070746 -0.109124176 -0.09701479 -0.13029946 0.012192575 0.015202897 -0.033910464
-0.0173808 -0.00273361 0.070145175 -0.06392561 0.0571492 0.13001193 -0.05418308 0.016412577
-0.0649655 0.011043833 -0.03103777 0.07788593 -0.073803835 0.08507103 -0.14953324 0.025710752
0.12321126 -0.005421488 0.016141096 -0.007350381 -0.06461881 -0.06414084 0.027309591 0.012182306
-0.05223983 0.06426394 0.010692315 0.016897216 0.0538511 0.10182282 0.0027249488 -0.045132484
-0.10272218 0.012829952 -0.08044284 -0.082811356 -0.10101232 -0.0030295097 0.14562067 0.12722227
-0.07816991 -0.029280601 0.007815466 0.008521343 -0.009964728 -0.02916229 -0.03012042 -0.020802626
-0.07889297 0.017243426 -0.016793123 -0.13562457 -0.045476787 0.03775304 0.048504725 0.059372324
0.060212523 -0.0816447 0.017147627 -0.046498068 -0.13668366 0.0056661265 -0.04273946 -0.06305364
-0.07880175 -0.045548838 -0.103760324 -0.059095487 0.0053372453 0.08018799 0.014859802 -0.056778572
-0.08002469 -0.056267817 0.03436071 -0.020885421 0.008133986 0.106655076 0.014153503 0.06534365
00000000: 5fe4 583d 65f4 58bd d29a d83c dbef 31bd
00000010: bf20 923d a1f1 093e 7b2e 213e a8a8 d0bd
00000020: e11f a0bd 5db9 083e a103 98bd 11bd 603d
00000030: 1666 843d ccb0 b0bd a5c9 913c 761f d43c
00000040: d314 a2bd fc03 cb3c d364 afbd a932 7a3d
00000050: d318 76bc 4bdf 313c 7dd6 af3c 6399 dcbc
00000060: cf7b 2bbd b736 12bd 7809 f13d 742f 0cbd
00000070: 2063 86bd 32f1 f9bc 997f d7b8 aa82 8f3c
00000080: a675 b6bd 047e 4b3d 88f4 a13d cbbf ae3c
00000090: 2190 0f3d 5d02 2bbd 3eb2 99bd 2485 b03d
000000a0: 1625 11bd 4e67 13bd 49f8 e83d 6ca1 f23d
000000b0: 8b16 2b3c 92e0 f53c 8620 b7bc f29c a7bc
000000c0: 6bd5 883d 13ca e13c 39cc 71bd 3fa2 8a3d
000000d0: 9417 0dbd 5be2 cebd a7ca bd39 e860 ef3c
000000e0: 2a81 92bd 84ff cbbd a5c3 6bbc 7b88 25bd
000000f0: ec06 bdbc b53b 483d 5a2b 1ebc ae56 bcbc
00000100: 84de b1bd 2fff 733b 4981 863d 9507 963d
00000110: da5c 3fbb 1879 bdbc 1e83 a53d 5633 29be
00000120: 2237 e93d c314 0ebc 7a98 013e 3e47 babd
00000130: 250d 9d3d 64c4 043d 2663 983d 4b28 dabc
00000140: 9f63 09bd 41d5 c83d 003e 573d 5c71 ec3d
00000150: 1cce 58bd 3811 343c 2b10 c33b 9fd4 ffbc
00000160: 7fea ba3d 2eea e03d b785 80bc f658 e33b
00000170: 6380 dfbc bd32 d63c 78a4 bbb9 d44c 2cbd
00000180: 040e 043d ee53 1e3c 31d9 c13d 7d48 c7bc
00000190: e6b1 663d 92e5 2f3a dc15 393c 9b16 96bb
000001a0: 47ae 0a3d 32c2 05bb 89a9 8f3d 3f60 a63d
000001b0: 7071 f43d 7343 8cbd eddf 923d b5ca 88bd
000001c0: d804 90bd 1f01 8b3d d31d f43c b2d6 d73c
000001d0: 5607 16bd 5ace 3ebd 398c 09bd 8077 90bc
000001e0: 999c a7bd f78f 65bd 9de1 66bd b475 9fbc
000001f0: e632 323d b591 bdbc ef02 043e 8251 583d
00000200: 2b5f 32bd d01e 013d b590 8abd 02d6 c2bd
00000210: 07ae 5cbd 1d65 00bd 95c9 e63c 11fa c4bd
00000220: e77e 7e3d ccb3 fc3d a00c 22bd 3d1b 6fbd
00000230: ed5e bc3c 5fc7 b13b 8712 243c 87c9 93bd
00000240: 0997 6ebc 7a2f a8bd 41de 41bc 705c 2dbd
00000250: fea1 d43c f4d3 12bd aae8 f13d a5c3 0f3e
00000260: 388e 273c 7322 81bd 6f63 aa3d 87bc 86bd
00000270: d416 c23c 13ea 6cbd 838d 8ebd d9f8 b93c
00000280: 94d2 9bbd fe8d 8b3d 8021 9b3b dfdc a43d
00000290: a85b 3a3d e428 383d e6df b43d 63c7 8dbd
000002a0: 8710 86bc 68fe 483d 7f7c dfbd b1af c6bd
000002b0: 396d 05be 5ec3 473c 9215 793c b3e5 0abd
000002c0: 2e62 8ebc 5e26 33bb 46a8 8f3d 6eeb 82bd
000002d0: 4815 6a3d d921 053e 14ef 5dbd ab73 863c
000002e0: a20c 85bd 31f1 343c ec42 febc a982 9f3d
000002f0: 7726 97bd b839 ae3d 3e1f 19be 5b9f d23c
00000300: 2f56 fc3d bda6 b1bb 553a 843c 77db f0bb
00000310: de56 84bd 465c 83bd 5db8 df3c 4b98 473c
00000320: 6ff9 55bd d09c 833d d22e 2f3c 086c 8a3c
00000330: f992 5c3d 7c88 d03d 0e95 323b d7dc 38bd
00000340: 0260 d2bd b834 523c 37bf a4bd 0099 a9bd
00000350: 8cdf cebd bd8a 46bb 961d 153e 8e46 023e
00000360: 8c17 a0bd dfdd efbc 710c 003c 1a9d 0b3c
00000370: 1943 23bc c1e5 eebc 19bf f6bc 456a aabc
00000380: a392 a1bd 1642 8d3c bb91 89bc 2be1 0abe
00000390: de45 3abd efa2 1a3d e4ac 463d 6530 733d
000003a0: 68a1 763d 5635 a7bd 2e79 8c3c c274 3ebd
000003b0: cdf6 0bbe eaaa b93b 920f 2fbd 4422 81bd
000003c0: d062 a1bd 6b91 3abd 4b80 d4bd 1c0e 72bd
000003d0: 0fe4 ae3b 9a39 a43d 8776 733c a690 68bd
000003e0: fce3 a3bd 1579 66bd d1bd 0c3d e717 abbc
000003f0: 6944 053c fa6d da3d 18e4 673c e4d2 853d

lstm.weight_hh_l0 f4 [512, 128]
0.009597153 0.07908525 0.11366929 -0.0559518 0.003334438 -0.05503921 0.021587351 0.09696057
0.040846836 0.007749593 0.01833074 -0.07877212 0.015919227 0.018415386 0.06953982 -0.031315777
-0.07548661 0.08818326 0.03612875 -0.014173379 0.082736835 -0.07599929 -0.05612646 -0.06265924
-0.056596536 -0.04259294 -0.057919614 0.009275416 -0.10629686 -0.006157753 0.112650506 0.033309694
0.046266355 0.07204167 -0.045417283 0.05247437 -0.05450233 0.014333352 -0.018651072 0.017011372
0.015869578 -0.003116177 0.0077740853 0.102488145 0.045986976 -0.06529027 0.08979525 0.062860735
0.09862751 0.032528907 -0.12219163 -0.12785716 -0.08344287 -0.009426067 0.0011442287 -0.12627576
0.043583553 0.044348363 0.08048782 0.02761771 -0.11192267 -0.04149821 0.074277826 0.072404966
0.0226671 0.025922585 -0.11431719 0.05771965 0.030513665 0.12542745 0.02339294 0.049905125
0.016607678 0.038131468 -0.066667415 0.037956413 0.07833264 -0.032636173 -0.07637293 0.103001304
-0.04510708 -0.008988551 -0.01885572 0.031377293 0.08216829 0.0078081535 0.05017908 0.04952363
0.03140864 0.031641953 0.061328653 0.04679093 -0.06262074 -0.08434859 -0.041398346 0.010480876
0.022510396 -0.113438174 0.0016023562 0.00013991215 -0.014518009 0.0037991111 0.034456767 0.03848544
-0.016617786 0.12314241 -0.03487193 -0.04135176 0.0021374596 0.0013008394 0.029753413 -0.070477694
-0.047200385 0.079570025 0.017193586 -0.031023154 0.003270107 0.0641383 -0.041693132 0.031325858
0.062157333 -0.003002423 -0.059797533 -0.06647569 -0.05536918 0.007688706 0.11547446 0.013671353
0.060339186 0.04712706 -0.09228206 -0.06499718 0.029468166 -0.016163101 0.049400076 0.074766956
0.0123422565 -0.06653567 -0.0906938 -0.027123233 0.010507208 0.02300207 0.048162673 0.08393045
-0.100266054 -0.012774499 -0.019711614 0.059349965 0.059733216 -0.12538049 -0.016579106 0.113094315
-0.026179822 0.043325193 0.04951944 0.039715383 -0.031235283 0.0031868976 0.091176614 0.037560787
0.028298222 0.06660939 0.13053681 -0.025469258 -0.012778578 0.011399787 -0.023958879 0.07016045
0.070972696 -0.029084897 -0.12047674 -0.0709488 0.0047694887 -0.12555791 -0.011230853 0.034984104
0.024441253 0.0022695744 0.09284928 -0.14909886 0.0068741287 0.005777904 0.0048702992 -0.07255348
-0.098681584 -0.05235143 0.118232824 0.025562897 -0.006078678 0.02642851 -0.10589242 -0.043792404
-0.015236117 0.013055412 -0.012214722 0.035648726 -0.009284175 -0.001735584 -0.066087775 0.0803009
0.0744112 -0.05699262 0.050877243 -0.05144024 0.069134794 0.0040625352 -0.14048208 -0.03936453
0.100030944 0.06826042 -0.10640473 0.0043415413 -0.057653323 0.07781545 0.050906338 0.02074553
0.049062904 -0.09256392 0.026048744 0.042317837 -0.067154616 0.014701877 0.07501612 0.04046895
-0.09629486 -0.045535576 0.041034658 -0.011852221 0.04034417 -0.09888546 0.06557345 0.04137706
-0.07056294 -0.028210068 0.061709113 0.098240264 0.09661591 0.031169947 -0.043476984 0.021543723
0.0345629 0.07981892 0.023004482 -0.046479847 0.09312198 0.12985039 0.025039028 0.028285207
0.027779423 -0.06976087 0.093834005 0.030643143 -0.1098049 0.012061813 0.10436433 0.061821822
00000000: 613d 1d3c 73f7 a13d 72cb e83d b72d 65bd
00000010: 9686 5a3b cb70 61bd f5d7 b03c 4393 c63d
00000020: 034f 273d 4cf0 fd3b 592a 963c 4753 a1bd
00000030: 0a69 823c dddb 963c e56a 8e3d f944 00bd
00000040: b998 9abd 6d99 b43d bdfb 133d 7637 68bc
00000050: ee71 a93d 84a5 9bbd dce4 65bd 7d53 80bd
00000060: c5d1 67bd ef75 2ebd 1e3d 6dbd eaf7 173c
00000070: 2bb2 d9bd fac6 c9bb 4fb5 e63d bf6f 083d
00000080: ca81 3d3d 958a 933d 7907 3abd 5def 563d
00000090: d63d 5fbd 70d6 6a3c 22ca 98bc 6f5b 8b3c
000000a0: eb00 823c c638 4cbb c1bd fe3b 4ee5 d13d
000000b0: d75c 3c3d e8b6 85bd 92e6 b73d 21bd 803d
000000c0: 38fd c93d 083d 053d 9b3f fabd fdec 02be
000000d0: 18e4 aabd ca6f 1abc f2f9 953a 6f4e 01be
000000e0: ab84 323d a1a6 353d ccd6 a43d 893e e23c
000000f0: b637 e5bd 07fa 29bd f91e 983d 0e49 943d
00000100: 5bb0 b93c 9a5b d43c 221f eabd 716b 6c3d
00000110: cbf7 f93c 0e70 003e 8da2 bf3c 5169 4c3d
00000120: d30c 883c be2f 1c3d ed88 88bd 2f78 1b3d
00000130: dd6c a03d 82ad 05bd 6969 9cbd 59f2 d23d
00000140: 34c2 38bd b744 13bc 5077 9abc 7a85 003d
00000150: d947 a83d 8adb ff3b 9488 4d3d 4ad9 4a3d
00000160: 59a6 003d fe9a 013d c133 7b3d d9a7 3f3d
00000170: 4d3f 80bd f4be acbd 5091 29bd fbb7 2b3c
00000180: b967 b83c 4652 e8bd 2706 d23a 62b5 1239
00000190: f1dc 6dbc 82fa 783b 8a22 0d3d e9a2 1d3d
000001a0: 0622 88bc 1632 fc3d ded5 0ebd 7760 29bd
000001b0: 9f14 0c3b ed80 aa3a 6ebd f33c 9c56 90bd
000001c0: 3155 41bd 9cf5 a23d 90d9 8c3c 4524 febc
000001d0: 4b4f 563b f15a 833d 6bc6 2abd 8b4f 003d
000001e0: b098 7e3d 4dc4 44bb 42ee 74bd 6824 88bd
000001f0: cbca 62bd 8af1 fb3b e07d ec3d d0fd 5f3c
00000200: 3926 773d 4e08 413d 60fe bcbd 3e1d 85bd
00000210: 3967 f13c 7b68 84bc bc57 4a3d 6b1f 993d
00000220: 2d37 4a3c da43 88bd acbd b9bd 8b31 debc
00000230: 6d26 2c3c d66e bc3c 3946 453d bae3 ab3d
00000240: 4a58 cdbd 224c 51bc 407a a1bc f318 733d
00000250: d1aa 743d be63 00be e8d0 87bc fe9d e73d
00000260: 1177 d6bc c275 313d e5d4 4a3d 99ac 223d
00000270: 23e1 ffbc 45db 503b ceba ba3d 57d9 193d
00000280: acd1 e73c 816a 883d 71ab 053e e8a4 d0bc
00000290: 3e5d 51bc 2cc6 3a3c 6945 c4bc 48b0 8f3d
000002a0: 225a 913d 7343 eebc 82bc f6bd 9b4d 91bd
000002b0: 5f49 9c3b 4192 00be 9d01 38bc 7e4b 0f3d
000002c0: 0639 c83c 24bd 143b c327 be3d 5fad 18be
000002d0: 5f40 e13b 9254 bd3b 0897 9f3b eb96 94bd
000002e0: 9219 cabd 746e 56bd 0d24 f23d 4869 d13c
000002f0: a62f c7bb 9a80 d83c 20de d8bd aa5f 33bd
00000300: e8a0 79bc 5ee6 553c 4220 48bc 6604 123d
00000310: a71c 18bc 897c e3ba 0759 87bd cc74 a43d
00000320: e664 983d 1871 69bd a864 503d 00b3 52bd
00000330: 8b96 8d3d 041f 853b 89da 0fbe b43c 21bd
00000340: 06dd cc3d 1ecc 8b3d b9ea d9bd 7d43 8e3b
00000350: e425 6cbd b55d 9f3d 2a83 503d 88f2 a93c
00000360: 2ff6 483d 2792 bdbd 2d64 d53c 7855 2d3d
00000370: 5c88 89bd 24e0 703c 0da2 993d c5c2 253d
00000380: 3d36 c5bd 8383 3abd f513 283d d12f 42bc
00000390: ee3f 253d 7684 cabd 5f4b 863d fe7a 293d
000003a0: 4d83 90bd cd18 e7bc b2c2 7c3d 3132 c93d
000003b0: 90de c53d 1e58 ff3c ec14 32bd 767c b03c
000003c0: d491 0d3d 1a78 a33d e573 bc3c a761 3ebd
000003d0: bdb6 be3d 80f7 043e a61e cd3c 61b6 e73c
000003e0: ac91 e33c c9de 8ebd 0b2c c03d 5407 fb3c
000003f0: 64e1 e0bd e99e 453c f7bc d53d e138 7d3d

lstm.bias_ih_l0 f4 [512]
-0.018183662 0.037735097 0.1141068 0.014011756 -0.02672378 0.08511525 0.0533887 0.08813294
0.010271836 -0.058701865 -0.045480393 0.02322223 0.08221518 0.0072580636 -0.0311716 0.07430568
0.039571453 0.030435527 0.09594513 0.07411737 0.055272523 -0.0632021 0.08222302 0.010692884
-0.01998249 -0.024322832 -0.012254402 -0.06555511 0.013705678 -0.036627147 -0.043327283 0.054472186
-0.008344111 0.058406543 0.08355976 0.025886275 -0.03955518 -0.038925823 -0.033713415 0.03067806
0.12266858 0.008462777 0.076640695 -0.010482378 0.09971127 -0.04357237 0.058007173 0.090409994
0.040508408 0.081059225 0.052441213 0.02189492 0.05808842 0.0031022392 0.09051313 -0.02028079
0.10741355 0.10162017 -0.0036739612 0.13825664 -0.022576738 0.040012788 0.03397129 0.085884325
0.11095064 -0.0044323527 0.001097329 -0.029616278 -0.021118816 0.049694348 0.1080772 0.09901699
0.035437364 -0.026560197 0.04148207 0.106412925 0.10891114 0.14391562 -0.011596803 -0.028999232
-0.00065568386 0.038896102 0.08350398 0.01227747 0.08997886 -0.048324563 0.033384275 0.02109371
0.10574357 0.0966339 0.11791389 0.053936828 -0.017426366 0.04814105 0.029513253 0.031450167
-0.024777066 0.0691413 -0.020977065 0.019571451 -0.07289708 0.08406226 -0.027224481 0.09179686
0.047655538 -0.009490791 0.08183073 -0.021472579 -0.04870929 0.0611134 0.014508486 -0.017463384
-0.070938155 0.016727846 0.03283422 0.055800345 -0.034566607 0.09256482 -0.024380015 0.016894478
0.04559361 0.05554471 0.023069728 0.10383626 -0.025425186 0.04048922 0.100690134 0.0419538
0.061640143 0.09245778 0.108533725 0.13094345 0.04608392 -0.041510757 0.09324382 0.09043576
0.018376699 0.03506753 -0.0014864871 -0.014662318 -0.017644957 0.08714255 0.075488 0.012406309
0.08747007 0.094677925 0.09572751 -0.06251139 0.06727195 -0.029871663 0.09820537 0.09361437
-0.06637305 -0.035350334 0.05521758 0.09598847 0.05612412 0.02389355 0.13532996 0.06942383
0.074912295 -0.028766144 -0.012993582 0.04066491 0.10643972 0.11154344 -0.032579884 0.097643755
0.09625777 0.020632705 -0.06316053 0.030139519 0.07487736 -0.02393377 0.038436327 0.05854263
0.058018107 0.07701556 0.1162768 0.11196462 0.112794936 0.028947026 -0.040081367 -0.0023618743
-0.02584147 0.02962746 0.059153445 -0.002028819 0.09288651 -0.013491915 0.046433635 0.0044108275
-0.015067129 0.05764461 0.047956597 0.014735901 -0.01847748 0.071866505 -0.0073601683 0.09465358
-0.03735201 0.025202302 0.05694614 0.031459782 -0.013649706 0.08432103 0.028598633 0.0024601952
-0.027935203 0.10155262 0.049540833 0.004829738 0.052932337 -0.049781486 0.038321074 0.030776953
0.048838697 -0.03515652 -0.030790467 0.12856731 0.01075867 -0.014231896 0.010670286 0.066906676
0.05491282 -0.00477201 0.08569503 0.009795692 0.09256301 0.03798114 0.04436943 0.026101334
0.06552245 0.016312262 -0.0053329626 -0.005635928 -0.05827382 -0.032418795 0.07259624 -0.010647925
0.027240394 0.07311426 0.08269766 0.03381041 0.0367963 0.07787883 -0.017269181 0.007819454
-0.03577024 -0.029876538 0.079006664 0.08851148 -0.01583439 0.09694642 0.026590135 0.10033828
00000000: e7f5 94bc 1e90 1a3d d3b0 e93d 9091 653c
00000010: d4eb dabc e750 ae3d 1cae 5a3d 0b7f b43d
00000020: 344b 283c 5e71 70bd a649 3abd 8c3c be3c
00000030: 6f60 a83d 0dd5 ed3b 955b ffbc 942d 983d
00000040: ad15 223d ed53 f93c e17e c43d d9ca 973d
00000050: 7165 623d 1a70 81bd 8b64 a83d 3531 2f3c
00000060: 52b2 a3bc ad40 c7bc b0c6 48bc c241 86bd
00000070: c88d 603c 5906 16bd f377 31bd 3a1e 5f3d
00000080: bdb5 08bc b33b 6f3d 6121 ab3d 740f d43c
00000090: 9d04 22bd af70 1fbd 1417 0abd 8e50 fb3c
000000a0: aa39 fb3d 76a7 0a3c ccf5 9c3d 48be 2bbc
000000b0: 6c35 cc3d f178 32bd ee98 6d3d e028 b93d
000000c0: 25ec 253d 6102 a63d 99cc 563d fa5c b33c
000000d0: 20ee 6d3d f04e 4b3b f35e b93d e623 a6bc
000000e0: a3fb db3d 3c1e d03d d7c6 70bb 2693 0d3e
000000f0: daf2 b8bc 73e4 233d 7b25 0b3d 1fe4 af3d
00000100: 173a e33d 453d 91bb 40d4 8f3a d69d f2bc
00000110: 5e01 adbc 4d8c 4b3d 9457 dd3d 6bc9 ca3d
00000120: c526 113d c594 d9bc 1ae9 293d 05ef d93d
00000130: ce0c df3d 9e5e 133e 8400 3ebc cc8f edbc
00000140: 33e2 2bba 8551 1f3d 2204 ab3d 7127 493c
00000150: d646 b83d faef 45bd f3bd 083d b7cc ac3c
00000160: 1690 d83d ffe7 c53d d67c f13d ddec 5c3d
00000170: bdc1 8ebc 8d2f 453d c7c5 f13c e4d1 003d
00000180: 46f9 cabc f499 8d3d 18d8 abbc 4f54 a03c
00000190: 104b 95bd d628 ac3d e005 dfbc feff bb3d
000001a0: 7432 433d 437f 1bbc df96 a73d 43e7 afbc
000001b0: 6483 47bd 0b52 7a3d 00b5 6d3c 5f0f 8fbc
000001c0: 0648 91bd d608 893c 2d7d 063d e78e 643d
000001d0: b795 0dbd a092 bd3d 99b8 c7bc 4a66 8a3c
000001e0: 5dc0 3a3d da82 633d bafc bc3c 1ba8 d43d
000001f0: 7b48 d0bc 06d8 253d a136 ce3d bfd7 2b3d
00000200: 607a 7c3d 815a bd3d ee46 de3d 0a16 063e
00000210: 7ec2 3c3d 2f07 2abd 9ef6 be3d 6236 b93d
00000220: bb8a 963c f8a2 0f3d 3bd6 c2ba 383a 70bc
00000230: 288c 90bc cb77 b23d 7499 9a3d d543 4b3c
00000240: 8223 b33d 80e6 c13d c90c c43d f905 80bd
00000250: e0c5 893d 6bb5 f4bc e61f c93d e4b8 bf3d
00000260: 98ee 87bd 83cb 10bd d42b 623d 9a95 c43d
00000270: 68e2 653d 68bc c33c f093 0a3e 152e 8e3d
00000280: 9e6b 993d faa6 ebbc 08e3 54bc 4090 263d
00000290: 11fd d93d e370 e43d 7c72 05bd 73f9 c73d
000002a0: cb22 c53d eb05 a93c 4f5a 81bd 27e7 f63c
000002b0: 4d59 993d c110 c4bc 696f 1d3d 66ca 6f3d
000002c0: 65a4 6d3d 55ba 9d3d 8822 ee3d b54d e53d
000002d0: 0801 e73d 5022 ed3c 5c2c 24bd adc9 1abb
000002e0: 7eb1 d3bc 49b5 f23c e24a 723d eff5 04bb
000002f0: 483b be3d 310d 5dbc 3231 3e3d b488 903b
00000300: 1fdc 76bc c11c 6c3d 236e 443d d96e 713c
00000310: 165e 97bc bf2e 933d 912d f1bb bcd9 c13d
00000320: 6cfe 18bd 0f75 ce3c 5b40 693d f9db 003d
00000330: 04a3 5fbc 81b0 ac3d ae47 ea3c 3a3b 213b
00000340: 5ed8 e4bc d2fa cf3d 54eb 4a3d c742 9e3b
00000350: 94cf 583d ace7 4bbd 8ff6 1c3d f31f fc3c
00000360: 160b 483d 4800 10bd 4a3c fcbc 26a7 033e
00000370: 2245 303c e62c 69bc 6cd2 2e3c 5e06 893d
00000380: 44ec 603d 855e 9cbb e080 af3d 1c7e 203c
00000390: ad91 bd3d 1d92 1b3d b8bc 353d 77d2 d53c
000003a0: a230 863d 4ba1 853c 22c0 aebb 97ad b8bb
000003b0: 87b0 6ebd 92c9 04bd 56ad 943d a274 2ebc
000003c0: 3f27 df3c eebc 953d 645d a93d c97c 0a3d
000003d0: b8b7 163d f07e 9f3d 1978 8dbc 2b1d 003c
000003e0: d183 12bd a4bf f4bc 3fce a13d 8245 b53d
000003f0: 1fb7 81bc d88b c63d 8ed3 d93c 287e cd3d

lstm.bias_hh_l0 f4 [512]
-0.044410814 0.116352946 -0.0069081243 0.029603412 -0.03155614 0.06443551 0.051135812 -0.009766448
-0.040659845 0.021148354 0.08240993 0.056146316 0.014776548 0.09389244 0.04117596 0.07166444
-0.022462117 0.0824828 0.09965373 0.03426227 0.006701299 0.034761492 0.08713447 -0.042825047
0.0428343 0.12705798 -0.014454056 -0.054271713 0.034229357 0.0036976656 -0.04179762 0.08791414
0.10565875 -0.01382732 0.11163053 0.030580131 -0.03540121 0.062919825 0.025797768 0.07302042
0.06902127 0.07952009 -0.02443115 0.035000317 -0.021909192 0.08262734 0.022421733 -0.044015083
0.016525086 0.028729985 0.08656304 -0.019915974 0.1193634 -0.03255351 -0.0013258558 0.08799404
-0.06746769 0.05023251 0.06602807 0.13534285 0.006541905 -0.0224742 0.08025283 0.047195453
0.06641127 0.13318032 0.091758125 0.04544309 -0.0109017035 -0.013408424 0.015299285 -0.050396606
0.035162713 0.02546287 0.07840797 0.052974053 -0.012777278 0.05659894 0.07034635 0.070881814
0.003382975 -0.0062028323 0.080776386 -0.05775623 -0.022149531 0.065085515 -0.031783253 0.09660984
0.05312023 0.024771018 0.0275264 -0.022935709 -0.013610836 0.07111217 0.03758049 0.054168288
0.072510965 0.08362611 0.044738792 -0.054047085 0.013761567 -0.023012487 0.057177633 0.080590725
0.031423174 0.09112932 0.053630333 0.11035815 -0.02842362 0.033991706 0.08924217 0.056967914
-0.053656507 0.029977243 -0.027012715 -0.021334454 -0.010826932 0.036257174 0.009256132 0.00024199678
0.0055825263 0.10237637 0.04194426 0.07293015 -0.037125126 0.115733795 -0.042962726 0.056016207
0.11508891 0.15151376 0.08541973 0.048231028 0.108717866 0.06397317 0.095012456 0.035840817
-0.019805571 0.0137613695 0.012729877 0.034073304 -0.021147132 0.0053400276 -0.015454474 0.09584293
0.041776508 -0.038223807 -0.047123875 0.06850474 0.05681737 -0.0025135602 0.11518635 -0.019336797
0.08943416 0.10246875 0.078200266 0.1087483 0.051988482 -0.009566514 -0.025513202 0.10236758
0.0913638 0.10344832 0.10655892 -0.0083817085 0.016311053 0.12582143 0.03750644 0.09700601
-0.024783773 0.006005072 0.020832587 0.01960368 0.046357542 -0.009018813 -0.03560325 0.06532905
0.1253322 -0.025989326 0.06970216 -0.02724648 -0.04230619 0.0008155028 -0.029976852 0.10259553
0.019815736 0.03193385 0.114471324 0.05514541 0.0081691565 0.016388208 0.09341809 0.008086812
-0.020714039 0.08577204 0.022206463 0.09434355 -0.020261073 -0.0051445025 0.03860618 0.053193904
0.012997779 -0.048415802 0.03625507 0.006174862 0.1011745 -0.0038930092 -0.028022163 0.0038136274
0.014646873 0.038820207 0.012559624 0.024002342 0.02955913 0.0622854 0.1165589 0.029484842
0.03935206 0.047446396 0.08398097 0.0017381794 0.06935551 0.044193108 -0.060620625 -0.0126436865
0.04878623 -0.03768009 -0.047156677 0.064871855 0.09674864 0.11520691 0.012552726 0.08388637
0.0037070913 0.10568321 -0.033836808 -0.040517367 0.0464371 -0.0032532995 0.076336734 0.095450394
-0.001511289 0.082981974 0.10444902 0.08492257 -0.06447437 0.050894447 0.08331644 0.09540787
0.07782289 -0.014477055 0.08423182 0.057356402 0.008358236 0.05563456 -0.02441673 0.037722968
00000000: 1de8 35bd 744a ee3d 8c5d e2bb db82 f23c
00000010: 0341 01bd c4f6 833d c973 513d 7403 20bc
00000020: f08a 26bd 503f ad3c 8ac6 a83d aef9 653d
00000030: 5619 723c ae4a c03d 20a8 283d cec4 923d
00000040: 7902 b8bc beec a83d 4117 cc3d 9856 0c3d
00000050: 9296 db3b 1162 0e3d 8f73 b23d 5169 2fbd
00000060: 0573 2f3d 7d1b 023e b4d0 6cbc 044c 5ebd
00000070: 1534 0c3d 8954 723b fb33 2bbd 540c b43d
00000080: 9d63 d83d fc8b 62bc 8c9e e43d 2f83 fa3c
00000090: dc00 11bd 1cdc 803d d755 d33c bb8b 953d
000000a0: 065b 8d3d 6edb a23d d623 c8bc 7e5c 0f3d
000000b0: e87a b3bc 8638 a93d c8ad b73c 2949 34bd
000000c0: 9e5f 873c 255b eb3c f747 b13d d326 a3bc
000000d0: cc74 f43d d456 05bd 57c8 adba 3836 b43d
000000e0: 802c 8abd 9bc0 4d3d ba39 873d 5197 0a3e
000000f0: 7a5d d63b d01b b8bc 995b a43d 0550 413d
00000100: a202 883d 6c60 083e afeb bb3d 8922 3a3d
00000110: 0f9d 32bc 02af 5bbc daa9 7a3c ac6c 4ebd
00000120: c706 103d 8297 d03c 5c94 a03d 52fb 583d
00000130: ca57 51bc 4ad4 673d bf11 903d 7c2a 913d
00000140: e7b4 5d3b 2141 cbbb 176e a53d cc91 6cbd
00000150: ef72 b5bc 8e4b 853d 282f 02bd 61db c53d
00000160: 9994 593d 97ec ca3c 0b7f e13c abe3 bbbc
00000170: fcff 5ebc 42a3 913d 00ee 193d 91df 5d3d
00000180: a180 943d 2a44 ab3d 0640 373d 7a60 5dbd
00000190: 3278 613c af84 bcbc 1833 6a3d c00c a53d
000001a0: 96b5 003d 02a2 ba3d 7bab 5b3d 7403 e23d
000001b0: a7d8 e8bc e33a 0b3d 99c4 b63d 3057 693d
000001c0: edc6 5bbd d692 f53c c549 ddbc 98c5 aebc
000001d0: 7263 31bc 6782 143d 08a7 173c 84c0 7d39
000001e0: a0ed b63b b4aa d13d bfcd 2b3d 675c 953d
000001f0: 8410 18bd d705 ed3d aff9 2fbd 4071 653d
00000200: bcb3 eb3d 6c26 1b3e 8af0 ae3d e68d 453d
00000210: 79a7 de3d 5e04 833d e495 c23d d2cd 123d
00000220: 4b3f a2bc 5e77 613c f990 503c 7390 0b3d
00000230: c03c adbc 66fb ae3b c334 7dbc 4c49 c43d
00000240: d81d 2b3d 9190 1cbd f704 41bd 374c 8c3d
00000250: 55b9 683d 8bba 24bb d2e6 eb3d 3468 9ebc
00000260: 4229 b73d 23db d13d 7627 a03d 6eb7 de3d
00000270: e0f1 543d debc 1cbc 1001 d1bc 18a6 d13d
00000280: f21c bb3d b6dc d33d 903b da3d 6f53 09bc
00000290: c29e 853c 55d7 003e 5aa0 193d 16ab c63d
000002a0: 5707 cbbc 32c6 c43b 1aa9 aa3c e697 a03c
000002b0: 68e1 3d3d a5c3 13bc b7d4 11bd 3dcb 853d
000002c0: 1657 003e 91e7 d4bc 02c0 8e3d 0334 dfbc
000002d0: 4149 2dbd 77c7 553a 0492 f5bc 9b1d d23d
000002e0: 9c54 a23c 12cd 023d f16f ea3d 27e0 613d
000002f0: edd7 053c 9040 863c fc51 bf3d 8c7e 043c
00000300: 7db0 a9bc 40a9 af3d 54ea b53c 3137 c13d
00000310: 8dfa a5bc 3793 a8bb 8421 1e3d dae1 593d
00000320: a3f4 543c a64f 46bd 3280 143d 7f56 ca3b
00000330: 9434 cf3d db21 7fbb bc8e e5bc 0dee 793b
00000340: 70f9 6f3c f001 1f3d e2c6 4d3c 8fa0 c43c
00000350: fd25 f23c fa1e 7f3d 6fb6 ee3d 328a f13c
00000360: a02f 213d 2757 423d 37fe ab3d 9fd3 e33a
00000370: 430a 8e3d d503 353d 554d 78bd 7727 4fbc
00000380: 12d4 473d 7056 1abd 5c27 41bd 89db 843d
00000390: 2724 c63d 9af1 eb3d f3a9 4d3c 9ecc ab3d
000003a0: acf2 723b 7070 d83d 7798 0abd 8af5 25bd
000003b0: d434 3e3d 4f35 55bb 6f56 9c3d 7f7b c33d
000003c0: 7216 c6ba 74f2 a93d 5ee9 d53d e2eb ad3d
000003d0: 230b 84bd b276 503d cfa1 aa3d 3465 c33d
000003e0: 9b61 9f3d 2b31 6dbc bc81 ac3d 8cee 6a3d
000003f0: fcf0 083c 10e1 633d 9805 c8bc 6683 1a3d

lstm.weight_ih_l1 f4 [512, 128]
0.0061273854 -0.059752814 -0.028307298 0.11004037 -0.045349125 0.034661483 -0.059341636 -0.03892061
-0.035242535 0.0070306496 0.04352126 -0.012454103 -0.04650943 0.02565508 0.01137575 -0.07315092
-0.049475454 0.06362357 0.02038011 -0.048191782 0.065253 0.0695706 -0.03726056 -0.055859108
-0.02627218 0.04578381 -0.02658114 0.059301686 -0.027232243 -0.013027339 0.07789152 0.06267426
-0.010022484 0.099777356 0.016145496 -0.07642734 0.036000375 -0.014133315 0.02631336 -0.0654588
-0.027945293 -0.061931077 -0.09421536 -0.091327086 0.088625066 0.023529554 -0.054102764 0.04180034
-0.009511352 -0.047697764 -0.051227212 -0.01630544 -0.043278612 -0.018602315 -0.009941794 -0.11725569
0.052555688 0.037779544 0.019511478 -0.058736548 -0.001681182 0.08011549 -0.01012761 -0.088757634
0.021529477 0.07981554 0.047059167 0.03301102 0.069140665 0.0121995015 -0.108130194 -0.06394288
-0.042944197 -0.058552172 0.048929024 -0.03162129 -0.0483772 -0.052457374 0.062531814 0.01291983
0.07723762 0.010716237 -0.056542832 0.02398671 0.029021963 0.089027695 0.043845553 -0.024116952
0.0140709765 0.08107493 -0.061900765 0.024776408 0.0009080279 -0.0009095421 0.06592579 -0.0056785718
0.005758137 0.02852544 -0.026699131 -0.013674396 -0.039483827 -0.07195218 -0.005835332 0.08521062
0.05011227 -0.07408198 0.070590466 -0.0148164295 0.009669881 0.0064052898 0.05795013 0.007999736
-0.017979449 0.07580384 0.060562737 -0.09285985 0.07668219 0.037901714 -0.0687738 -0.009204024
0.08412891 -0.011589192 -0.074069045 -0.036258228 -0.051385522 -0.054139707 0.043020952 -0.027996438
-0.007312186 0.0531575 -0.069300696 -0.035024516 0.018800264 0.079549864 -0.06687194 0.07166204
-0.02555581 0.010368882 0.043246478 -0.02215191 -0.07028207 0.058670294 0.044661395 -0.012610464
0.06647483 -0.04509554 -0.04651904 -0.009986309 0.082239665 0.062326223 0.037095975 0.0038308804
-0.013124836 0.029593272 0.06846926 -0.0686514 0.08651765 -0.0061954446 -0.046373732 -0.025782919
-0.10753311 0.01591915 0.06580442 0.09092252 -0.026985329 -0.0718076 -0.007612454 0.035831053
0.031115867 -0.092198014 -0.04849875 -0.04087486 -0.07678097 -0.09371675 -0.0013856645 -0.044727378
0.042746257 0.037005167 0.099305935 -0.04387024 -0.041932177 0.045336243 -0.028620189 -0.1047182
-0.048797786 0.010654597 0.010668915 -0.06578107 -0.012836426 0.061535046 0.013474482 -0.073285595
-0.065343566 0.027044984 0.034009703 -0.061174605 0.04497256 0.045393035 -0.06517281 0.030005053
-0.026217464 -0.08424616 -0.028362809 0.046852034 0.0840789 0.07170717 0.022269418 0.08393491
-0.063699424 -0.056931682 0.05805895 -0.06486357 0.044178214 -0.020887244 0.052339826 0.005321087
-0.06705746 -0.015023461 0.046517856 -0.08220458 -0.07491441 0.08872313 -0.00968032 -0.0155576
-0.003489833 -0.030774375 -0.09276663 0.0328068 0.054000016 -0.066561215 0.056679253 -0.01636179
-0.012075447 -0.0071928063 0.055932276 -0.08930068 -0.040321913 0.025158925 0.023587229 -0.031256687
0.07791678 0.04429816 -0.049382597 0.020302221 0.094409 0.0067855883 0.004303069 0.056597922
-0.04248992 -0.0067671426 0.09191183 0.07949082 -0.061728336 -0.07397616 -0.050799526 0.0895537
00000000: 3cc8 c83b 5ebf 74bd b5e4 e7bc d85c e13d
00000010: 01c0 39bd 33f9 0d3d 3710 73bd 386b 1fbd
00000020: 7a5a 10bd 5d61 e63b 5943 323d 4b0c 4cbc
00000030: ac80 3ebd 9a2a d23c 5b61 3a3c 26d0 95bd
00000040: c6a6 4abd 134d 823d 30f4 a63c bf64 45bd
00000050: 5da3 853d 087b 8e3d 879e 18bd 85cc 64bd
00000060: c138 d7bc ce87 3b3d b1c0 d9bc 53e6 723d
00000070: 2716 dfbc 9f70 55bc 9785 9f3d 5d5b 803d
00000080: 5835 24bc 1258 cc3d 8f43 843c f085 9cbd
00000090: 2175 133d 6b8f 67bc 1e8f d73c 430f 86bd
000000a0: 87ed e4bc 71ab 7dbd fcf3 c0bd b209 bbbd
000000b0: 0f81 b53d 0dc1 c03c dc9a 5dbd d536 2b3d
000000c0: 80d5 1bbc bb5e 43bd a0d3 51bd fc92 85bc
000000d0: ea44 31bd e263 98bc e8e2 22bc c023 f0bd
000000e0: a244 573d b9be 1a3d 89d6 9f3c bc95 70bd
000000f0: 1b5b dcba 9713 a43d 46ee 25bc 90c6 b5bd
00000100: 965e b03c 5476 a33d 1dc1 403d 9036 073d
00000110: 9f99 8d3d 6be0 473c 5d73 ddbd 7cf4 82bd
00000120: 41e6 2fbd 67d4 6fbd cd69 483d 5385 01bd
00000130: 2c27 46bd 8bdd 56bd ae10 803d b2ad 533c
00000140: c22e 9e3d 2893 2f3c 7599 67bd c77f c43c
00000150: 78bf ed3c 2754 b63d 6597 333d ea90 c5bc
00000160: f489 663c 9d0a a63d a88b 7dbd e5f7 ca3c
00000170: b908 6e3a 566e 6eba 1a04 873d 5013 babb
00000180: c1ae bc3b 2fae e93c 23b8 dabc 930a 60bc
00000190: cbb9 21bd aa5b 93bd 5036 bfbb e882 ae3d
000001a0: 8642 4d3d 4bb8 97bd bc91 903d 9cc0 72bc
000001b0: 6c6e 1e3c 77e3 d13b 1e5d 6d3d 5311 033c
000001c0: a349 93bc 0b3f 9b3d a210 783d 4e2d bebd
000001d0: 8d0b 9d3d d43e 1b3d 47d9 8cbd 7acc 16bc
000001e0: c74b ac3d 98e0 3dbc 83b1 97bd 8283 14bd
000001f0: a079 52bd 99c1 5dbd bd36 303d c958 e5bc
00000200: 109b efbb aebb 593d 86ed 8dbd de75 0fbd
00000210: 0303 9a3c 0aeb a23d 28f4 88bd 8cc3 923d
00000220: 6b5a d1bc 3ee2 293c 3823 313d ec77 b5bc
00000230: 0cf0 8fbd 4350 703d deee 363d 1f9c 4ebc
00000240: f523 883d 1ab6 38bd c08a 3ebd 9e9d 23bc
00000250: 456d a83d c849 7f3d f3f1 173d 820f 7b3b
00000260: 8d09 57bc 976d f23c 9d39 8c3d 1b99 8cbd
00000270: 2a30 b13d 2803 cbbb 62f2 3dbd b336 d3bc
00000280: 523a dcbd e168 823c 78c4 863d 9635 ba3d
00000290: 5610 ddbc dd0f 93bd e471 f9bb 95c3 123d
000002a0: b4e6 fe3c 50d2 bcbd a0a6 46bd 666c 27bd
000002b0: 573f 9dbd 91ee bfbd 2f9f b5ba 0e34 37bd
000002c0: b316 2f3d bb92 173d e960 cb3d 48b1 33bd
000002d0: 13c1 2bbd 7fb2 393d e374 eabc 7f76 d6bd
000002e0: 30e0 47bd 9e90 2e3c accc 2e3c 3ab8 86bd
000002f0: df4f 52bc 2c0c 7c3d 13c4 5c3c c216 96bd
00000300: d9d2 85bd 718d dd3c c24d 0b3d 3992 7abd
00000310: 2635 383d 0cee 393d 5279 85bd 28cd f53c
00000320: 02c6 d6bc 4089 acbd 1f59 e8bc ebe7 3f3d
00000330: 8f31 ac3d 35db 923d 5b6e b63c 11e6 ab3d
00000340: d874 82bd 3231 69bd 39cf 6d3d 31d7 84bd
00000350: 37f4 343d ba1b abbc 4962 563d 835c ae3b
00000360: 6c55 89bd f624 76bc 8289 3e3d e05a a8bd
00000370: ba6c 99bd 79b4 b53d 349a 1ebc 4ee5 7ebc
00000380: afb5 64bb 8b1a fcbc 6efc bdbd 6c60 063d
00000390: 1f2f 5d3d 3f51 88bd 8128 683d 2909 86bc
000003a0: 18d8 45bc a2b1 ebbb 3e19 653d 46e3 b6bd
000003b0: 9728 25bd 171a ce3c 013a c13c 0307 00bd
000003c0: d592 9f3d fd71 353d 6845 4abd d850 a63c
000003d0: 8159 c13d a459 de3b c200 8d3b 39d3 673d
000003e0: e909 2ebd e8be ddbb 453c bc3d 15cc a23d
000003f0: dad6 7cbd d080 97bd 2a13 50bd ee67 b73d

lstm.weight_hh_l1 f4 [512, 128]
-0.06497973 0.07450527 0.0071307826 -0.04378249 0.045725845 0.025496768 0.03598882 0.013932077
0.015235639 -0.08767327 -0.02842782 -0.009986907 0.039423686 0.022017965 -0.06494719 -0.06720126
0.005846536 0.01906939 -0.0008516489 -0.061263684 -0.04280405 -0.030319562 0.050940365 -0.051692646
0.05862132 0.057387568 0.07745959 0.0126355775 -0.0251969 -0.056026023 -0.03543885 -0.08182585
0.014385996 0.07722354 0.044112455 -0.040473625 -0.11180054 -0.07822455 0.051487498 0.037570257
0.07104508 -0.09401974 -0.06306029 -0.058975324 0.061550673 -0.11553585 -0.08168734 0.06716762
-0.014783887 0.0060720756 0.046881787 -0.012517217 -0.0829413 0.013301734 0.028413795 -0.018270334
-0.09034416 -0.02565568 0.030130187 -0.05197619 -0.024666598 -0.072428554 -0.013927055 -0.03756601
-0.09385608 -0.019837467 0.06514817 0.016961776 0.005448917 -0.06383749 -0.0586271 -0.022839094
0.024331152 0.021578152 0.019145139 0.0823123 0.061637606 0.044937696 0.07109159 -0.026859537
0.051195588 -0.042552512 0.0054577985 -0.084954605 0.048746753 -0.061395925 -0.0016009307 -0.060509287
0.085000224 0.08793784 0.020348517 0.019508554 -0.023312304 0.0730671 -0.08091529 -0.019020755
-0.03944253 0.05665561 -0.09055165 -0.06258247 -0.07908255 -0.00035262184 -0.0049415305 0.07266415
0.012825146 -0.060193043 -0.053549793 0.0031405918 0.09735218 0.013022127 0.07724247 -0.06584002
-0.0091764005 0.004174903 -0.00013956391 -0.030115835 0.007350863 0.058144115 -0.018457158 -0.05719211
-0.018909223 0.0064057065 0.023966018 -0.10130609 -0.060356114 -0.083519325 -0.075817324 -0.05871358
0.026664656 0.058243223 -0.0033209475 -0.02613824 -0.044246018 -0.040136304 0.05572147 -0.031958453
0.061605457 -0.015212731 -0.050325517 0.011589114 -0.1036778 0.00858481 -0.09269489 0.004499745
0.06788443 0.042590674 -0.017369956 -0.028230883 -0.0012990197 -0.06199299 0.046680078 0.055028636
-0.056700163 -0.06445421 0.02038448 -0.082663074 0.022602081 -0.050390795 0.0077399714 0.013496654
0.06126765 -0.082108624 -0.038092922 0.023908218 -0.084519096 0.0010103942 0.03666362 0.03388867
-0.0057662902 -0.034696992 -0.08508977 -0.01709645 0.024491362 0.050788574 -0.015025669 -0.021699613
-0.008553952 -0.017459886 0.024207592 -0.02824489 -0.05012071 -0.0060116067 0.06619068 0.052967623
0.02548462 0.023370445 0.03263294 -0.06707727 -0.06670216 -0.026287211 -0.06584709 0.02362485
0.032434102 -0.04072215 0.062272765 0.052921314 -0.025572853 0.058006413 0.03996249 -0.054126207
-0.00910407 0.015050078 0.030537952 -0.0316425 -0.041029245 0.003781154 0.07276655 0.05695294
0.004380999 -0.040763173 -0.049959257 0.017741898 -0.035357364 0.10467431 -0.006803465 -0.073345274
-0.069589786 0.091472894 -0.071804315 0.06425838 0.0030931788 -0.068947546 0.0249206 0.0012015897
0.09847409 0.036067374 0.032478075 0.09056526 -0.043134823 0.10152578 0.029117525 -0.030368865
-0.10458606 -0.068981685 -0.061006017 0.0106860185 -0.011495199 0.089726135 0.07225965 -0.00912815
0.08137297 0.024646472 0.06539056 0.058281887 -0.05552532 -0.06025487 0.005060552 0.061292257
0.055744465 0.07032685 -0.06794044 0.049279377 0.055793338 -0.056541856 0.017787358 -0.0553475
00000000: 1814 85bd 3896 983d 57a9 e93b 4555 33bd
00000010: 064b 3b3d 99de d03c 0369 133d 5e43 643c
00000020: e79e 793c 0b8e b3bd 76e1 e8bc 20a0 23bc
00000030: bb7a 213d 055f b43c 0803 85bd d0a0 89bd
00000040: 4c94 bf3b 6937 9c3c 3141 5fba a1ef 7abd
00000050: 4d53 2fbd bb60 f8bc d8a6 503d abbb 53bd
00000060: e91c 703d 3a0f 6b3d 22a3 9e3d 7405 4f3c
00000070: bb69 cebc 8b7b 65bd 5428 11bd 5094 a7bd
00000080: 3eb3 6b3c 6027 9e3d 43af 343d acc7 25bd
00000090: aef7 e4bd 3134 a0bd 8ee4 523d 45e3 193d
000000a0: 1580 913d 6c8d c0bd c125 81bd 1c90 71bd
000000b0: 8f1c 7c3d 0f9e ecbd b14b a7bd 2d8f 893d
000000c0: 1e38 72bc 43f8 c63b 1e07 403d 0315 4dbc
000000d0: 21dd a9bd 84ef 593c 0cc4 e83c abab 95bc
000000e0: 5c06 b9bd dc2b d2bc 95d3 f63c fce4 54bd
000000f0: 9b11 cabc 6c55 94bd 4d2e 64bc d1de 19bd
00000100: 9e37 c0bd 2f82 a2bc 676c 853d 6cf3 8a3c
00000110: d48c b23b 3bbd 82bd f822 70bd 0d19 bbbc
00000120: 2052 c73c aac4 b03c 44d6 9c3c 5a93 a83d
00000130: b777 7c3d 9710 383d 7898 913d 8808 dcbc
00000140: 77b2 513d 8b4b 2ebd 55d7 b23b aefc adbd
00000150: adaa 473d 4b7a 7bbd 52d6 d1ba 96d8 77bd
00000160: 9914 ae3d c118 b43d efb1 a63c 67d0 9f3c
00000170: 72f9 bebc 34a4 953d eab6 a5bd 6ad1 9bbc
00000180: 7e8e 21bd b70f 683d 2573 b9bd 3d2b 80bd
00000190: 08f6 a1bd 1ae0 b8b9 90ec a1bb f1d0 943d
000001a0: 9020 523c fb8c 76bd 0757 5bbd 63d2 4d3b
000001b0: 9460 c73d c25a 553c 4d31 9e3d 22d7 86bd
000001c0: 9d58 16bc a0cd 883b e757 12b9 7cb5 f6bc
000001d0: 82df f03b 8628 6e3d 7733 97bc 4642 6abd
000001e0: 84e7 9abc f6e6 d13b 6254 c43c 9179 cfbd
000001f0: f937 77bd 2e0c abbd 1d46 9bbd a77d 70bd
00000200: d66f da3c 7290 6e3d 41a4 59bb dd1f d6bc
00000210: 503b 35bd f765 24bd 323c 643d dee6 02bd
00000220: 0156 7c3d d23e 79bc 2122 4ebd 44e0 3d3c
00000230: 0755 d4bd 4ea7 0c3c d2d6 bdbd 9972 933b
00000240: fe06 8b3d 8f73 2e3d 704b 8ebc 7444 e7bc
00000250: de43 aaba 5dec 7dbd 9c33 3f3d b565 613d
00000260: 6e3e 68bd 9200 84bd 5afd a63c 424b a9bd
00000270: 0028 b93c 9466 4ebd 969f fd3b 1221 5d3c
00000280: caf3 7a3d 9128 a8bd 5307 1cbd 2bdb c33c
00000290: 5918 adbd 346f 843a 982c 163d d9ce 0a3d
000002a0: 26f3 bcbb 6f1e 0ebd 8c43 aebd db0d 8cbc
000002b0: 1ca2 c83c ae07 503d 392e 76bc 63c3 b1bc
000002c0: e025 0cbc 0908 8fbc 004f c63c d461 e7bc
000002d0: 604b 4dbd 03fd c4bb fb8e 873d 94f4 583d
000002e0: 1fc5 d03c 6073 bf3c 1eaa 053d cf5f 89bd
000002f0: 249b 88bd 4758 d7bc d7da 86bd e788 c13c
00000300: 9fd9 043d 45cc 26bd ba11 7f3d 05c4 583d
00000310: 297e d1bc 2298 6d3d b5af 233d 71b3 5dbd
00000320: 3d29 15bc 9a94 763c ba2a fa3c 919b 01bd
00000330: 480e 28bd 3dcd 773b a106 953d 7c47 693d
00000340: 7c8e 8f3b 49f7 26bd 14a2 4cbd 7557 913c
00000350: e2d2 10bd 7c5f d63d 9aef debb 0c36 96bd
00000360: 1785 8ebd 2456 bb3d 240e 93bd e699 833d
00000370: eeb6 4a3b 5f34 8dbd 4926 cc3c a97e 9d3a
00000380: c9ac c93d 62bb 133d bb07 053d 477a b93d
00000390: 24ae 30bd c0ec cf3d e087 ee3c 20c8 f8bc
000003a0: 3731 d6bd 4546 8dbd 72e1 79bd 6914 2f3c
000003b0: 5c56 3cbc 56c2 b73d defc 933d 3c8e 15bc
000003c0: dfa6 a63d 66e7 c93c 7ceb 853d fdb8 6e3d
000003d0: 856e 63bd d0cd 76bd fdd2 a53b 970d 7b3d
000003e0: 4f54 643d 8607 903d 5b24 8bbd 2cd9 493d
000003f0: 8e87 643d 6f98 67bd cbb6 913c 0fb4 62bd

lstm.bias_ih_l1 f4 [512]
0.037600007 -0.025611613 -0.06161757 0.046916824 0.01926164 0.0041797115 0.071834736 0.036144964
0.022452189 0.09495659 0.06438472 -0.069413155 0.08851639 0.06355539 0.043702733 0.049426656
0.056788795 -0.05794361 -0.06868272 0.08702703 -0.06318266 0.060402013 -0.02789041 0.083598986
-0.013933059 0.050250717 0.02448118 0.033218145 -0.037807617 0.06932488 0.042637955 -0.03620111
0.07023686 0.076017775 -0.012605558 0.019817209 -0.027704274 -0.0021293631 0.028581977 0.008387738
-0.030979188 0.054832604 -0.00904019 0.029108025 0.06450978 -0.083148465 0.029442618 -0.05700536
0.09175503 -0.031234937 0.05033116 0.042557783 -0.062406026 -0.040706795 0.028120212 0.109268695
0.029181065 -0.02254811 0.071687594 0.0009240078 0.0065052393 0.0011102126 0.052224718 0.0856093
0.11999525 -0.037962176 -0.01838341 0.06494735 -0.06776294 -0.08651095 0.06406632 -0.049967293
-0.0068700635 0.025753768 -0.06341637 -0.06531067 -0.06050008 -0.070750974 0.10222233 0.07142715
-0.043705665 0.029902253 -0.0039427103 -0.03638173 -0.008673857 0.021041475 0.021298468 0.0115359
0.02577277 0.066327184 0.06959865 0.09088163 0.04217657 0.06007571 0.05160699 -0.036251068
0.073121995 -0.06441201 0.055533417 -0.043319974 -0.05587608 -0.031308312 -0.046759516 -0.01299841
0.022334047 -0.08113864 0.046171177 -0.048516687 -0.020756904 -0.059037 -0.031024167 0.09751043
0.067910925 -0.0011471565 -0.07534925 0.029215036 0.019312821 -0.028063621 0.048915714 -0.060951408
0.049569797 0.0081068 -0.016817547 -0.045106128 0.02719861 -0.061723918 0.009685273 0.030307148
-0.018713579 -0.008597474 0.040371526 0.08592688 0.08203345 -0.009328813 0.061430655 -0.010594307
0.07961977 0.055917528 -0.054912187 -0.04297848 0.036186084 0.033642046 0.012119922 0.07385735
-0.07097791 0.07835081 -0.029804124 -0.028920373 0.07521889 -0.060647663 0.06505886 0.02973348
0.017815532 0.04396666 -0.038190868 -0.016567929 -0.012734681 -0.06036581 -0.0030167918 0.06727262
-0.033858575 -0.018272584 0.072077975 0.12096002 0.0058967425 0.042543706 -0.04543056 0.007390375
-0.050279733 0.044717606 -0.06921313 0.0850766 -0.05135403 0.072363175 -0.03879231 0.015202106
0.09128339 -0.0015959735 -0.07882292 0.09048889 0.07216937 -0.009550874 0.044140182 -0.025875667
0.07987069 0.052287385 0.023020327 0.025726983 0.06307903 -0.052501928 -0.029935976 0.052854013
0.11304294 -0.0468166 0.037437882 0.10384836 0.03944307 0.03513164 -0.026894424 0.11480699
-0.036188334 0.096346356 0.09041939 -0.05158632 0.07387302 0.07676753 0.09511732 0.029552363
0.08418234 0.052317593 0.015432717 -0.050617132 -0.0010695036 0.031266425 -0.007865077 0.048740212
-0.054902397 0.017994737 -0.053063143 0.017400486 0.10173945 -0.032465063 0.087022334 -0.048001505
-0.010124394 0.017935375 0.016213706 0.05526871 0.016718855 -0.024631932 -0.049094945 0.049388666
0.04396141 0.07591863 0.008399684 0.09489071 -0.056408253 0.00087538554 -0.030407665 -0.008485091
-0.067213684 0.036914397 0.00032519305 0.089928895 0.051877238 0.08496507 0.021787703 0.010109289
0.00025891757 -0.022041926 -0.039552275 0.026140055 0.008719543 -0.02139508 -0.028724354 0.07197618
00000000: 7702 1a3d 72cf d1bc b562 7cbd db2b 403d
00000010: 96ca 9d3c f6f5 883b 171e 933d be0c 143d
00000020: a7ed b73c 9a78 c23d 23dc 833d 7c28 8ebd
00000030: 1548 b53d 5429 823d a301 333d 9b73 4a3d
00000040: 5e9b 683d 4756 6dbd 87a9 8cbd 3a3b b23d
00000050: e965 81bd 1a68 773d 6e7a e4bc f235 ab3d
00000060: 7c47 64bc b2d3 4d3d c18c c83c c00f 083d
00000070: 29dc 1abd 34fa 8d3d 23a5 2e3d 9d47 14bd
00000080: 58d8 8f3d 35af 9b3d 8b87 4ebc b357 a23c
00000090: 13f4 e2bc c98c 0bbb c024 ea3c b96c 093c
000000a0: 11c8 fdbc 2798 603d 4e1d 14bc f473 ee3c
000000b0: b41d 843d be49 aabd a531 f13c 747e 69bd
000000c0: 10ea bb3d 69e0 ffbc 0c28 4e3d 1251 2e3d
000000d0: 769d 7fbd 2bbc 26bd 5c5c e63c 44c8 df3d
000000e0: 210d ef3c d0b6 b8bc f2d0 923d 1d39 723a
000000f0: e729 d53b 8e84 913a 96e9 553d ee53 af3d
00000100: 12c0 f53d 3a7e 1bbd ce98 96bc 1e03 853d
00000110: 4cc7 8abd a72c b1bd 3435 833d 81aa 4cbd
00000120: 451e e1bb 91f9 d23c 71e0 81bd 9ac1 85bd
00000130: efce 77bd e3e5 90bd f159 d13d 6648 923d
00000140: b604 33bd 92f5 f43c da31 81bb 0205 15bd
00000150: cb1c 0ebc 2c5f ac3c 207a ae3c 1201 3d3c
00000160: 6b21 d33c 8cd6 873d bd89 8e3d 2620 ba3d
00000170: 57c1 2c3d f311 763d da61 533d 007c 14bd
00000180: fcc0 953d 72ea 83bd 0277 633d 4970 31bd
00000190: 51de 64bd 253d 00bd e886 3fbd 48f7 54bc
000001a0: e4f5 b63c 042c a6bd fd1d 3d3d 6fb9 46bd
000001b0: 620a aabc c8d0 71bd 6526 febc 8cb3 c73d
000001c0: e214 8b3d 2f5c 96ba b550 9abd 5f54 ef3c
000001d0: ec35 9e3c aee5 e5bc d85b 483d 2fa8 79bd
000001e0: b309 4b3d 62d2 043c f4c4 89bc 34c1 38bd
000001f0: 9fcf de3c 38d2 7cbd fbae 1e3c b246 f83c
00000200: 384d 99bc 6bdc 0cbc 9d5c 253d 6ffa af3d
00000210: 2701 a83d e1d7 18bc b69e 7b3d bf93 2dbc
00000220: b10f a33d c709 653d 9aeb 60bd 340a 30bd
00000230: dc37 143d 3ecc 093d a392 463c 8642 973d
00000240: de5c 91bd 6476 a03d c727 f4bc 6bea ecbc
00000250: 5d0c 9a3d af69 78bd 943d 853d a193 f33c
00000260: e1f1 913c 6216 343d 076e 1cbd 77b9 87bc
00000270: 20a5 50bc 2442 77bd 5eb5 45bb 3ac6 893d
00000280: 4aaf 0abd 63b0 95bc 9e9d 933d e3b9 f73d
00000290: 7639 c13b 4f42 2e3d 6515 3abd f52a f23b
000002a0: 1ff2 4dbd cf29 373d 9dbf 8dbd a43c ae3d
000002b0: 9a58 52bd 2533 943d afe4 1ebd 4112 793c
000002c0: c9f2 ba3d fc2f d1ba e96d a1bd 3d52 b93d
000002d0: 89cd 933d 457b 1cbc 56cc 343d 35f9 d3bc
000002e0: 3f93 a33d 4c2b 563d 2095 bc3c 65c1 d23c
000002f0: 942f 813d 430c 57bd 4b3c f5bc 737d 583d
00000300: 0f83 e73d c3c2 3fbd 7758 193d 73ae d43d
00000310: 0e8f 213d 32e6 0f3d b251 dcbc ed1f eb3d
00000320: 383a 14bd 3d51 c53d cd2d b93d 2d4c 53bd
00000330: bd4a 973d 4b38 9d3d dfcc c23d cc17 f23c
00000340: ca67 ac3d f94a 563d 82d9 7c3c e953 4fbd
00000350: 962e 8cba 3911 003d 86dc 00bc d1a3 473d
00000360: 56e1 60bd b369 933c bd58 59bd 778b 8e3c
00000370: c65c d03d 16fa 04bd c438 b23d 3a9d 44bd
00000380: c9e0 25bc 35ed 923c 9bd2 843c 7161 623d
00000390: fbf5 883c e8c8 c9bc c817 49bd c54b 4a3d
000003a0: e110 343d 3a7b 9b3d d49e 093c 1056 c23d
000003b0: 570c 67bd 217a 653a 7f19 f9bc 0d05 0bbc
000003c0: 54a7 89bd 8d33 173d ac7e aa39 a42c b83d
000003d0: 3a7d 543d 2b02 ae3d 207c b23c 6ea1 253c
000003e0: 54bf 8739 4591 b4bc 9101 22bd ab23 d63c
000003f0: 6adc 0e3c bc44 afbc 564f ebbc 3f68 933d
