Data/PredictionsData/AB18.pth (torch, 828430 bytes, 10 tensors)

lstm.weight_ih_l0 f4 [512, 13]
0.062004805 -0.021186419 -0.045508098 0.06282736 0.010618242 -0.112627424 -0.120016575 0.01680824
0.052403577 -0.055164862 -0.05308235 0.07325857 0.04751122 -0.013683121 0.03604437 0.046323657
-0.106384195 -0.07445348 0.12124166 -0.004764351 0.06076421 -0.114373155 -0.09781736 0.0067027253
-0.06794938 0.014720684 0.019973315 0.012646219 -0.124320656 -0.06350049 -0.033115823 -0.101061754
0.114321806 -0.16231225 0.060005967 0.15158463 -0.04218969 -0.021992404 -0.114635974 -0.03962896
-0.030763563 0.015628085 -0.124923326 -0.06596757 -0.1456525 -0.14264007 0.073565125 0.018335443
-0.030314082 -0.120483376 -0.032211598 -0.062499348 -0.102548935 -0.056677856 -0.09579179 0.06460254
-0.09006627 -0.05648784 0.07976832 0.029377751 0.08010979 -0.0137223555 -0.010237742 0.07472187
0.076768175 -0.036598526 -0.0731575 -0.09788001 -0.015204414 0.12345455 0.05826333 -0.04024151
0.05806706 0.025824899 0.07244445 0.014468694 0.05096729 0.16054906 0.08081554 -0.037963245
-0.0064838026 -0.021496529 0.057049688 0.03622739 -0.046709422 -0.0565792 0.0773227 -0.07479266
0.051479865 0.11025517 -0.082287416 0.05426088 -0.06409224 -0.010881455 -0.07831172 -0.01323033
-0.07892756 -0.05130206 -0.049566653 0.11365849 0.083085656 -0.097240716 -0.005112492 0.0022577688
0.0061686905 0.003950817 -0.03639665 0.044093784 -0.06651441 0.08311873 -0.06813362 -0.069950156
0.012519272 -0.059963603 -0.025565669 0.010753232 -0.035635125 0.03356589 -0.019851092 -0.08163585
0.00607579 0.08210858 -0.0008810615 -0.035199184 -0.046644047 0.09681675 0.040406603 0.053530987
-0.021483682 0.0799405 0.07723251 0.009938706 -0.0036298267 -0.004796071 -0.099097244 -0.066729225
0.087762825 -0.105551265 -0.013962326 0.0010885777 0.004147861 0.03996439 0.076052345 -0.06216349
0.04992137 0.041637 0.056648135 -0.026286094 -0.017570812 -0.039409865 -0.09622473 -0.03021073
0.012350642 0.02389916 0.08436435 -0.056883644 -0.050047755 0.10908813 -0.022559093 0.0686749
0.09509524 0.06675 -0.044271562 0.023083108 0.0037049032 -0.05218785 0.018046336 -0.025803812
0.07527537 0.07429766 -0.045059193 -0.052468833 -0.05611324 0.049109668 -0.011162479 -0.05029095
-0.021508962 -0.07674071 0.06499505 0.028596524 0.08845764 -0.014916746 -0.088838495 0.04913384
-0.043289337 -0.0064974753 0.015633166 -0.03623953 -0.07582505 -0.013040026 -0.076346405 -0.09311091
0.044623442 0.10999748 -0.051553894 -0.095142014 -0.039932754 -0.06655494 0.04393746 -0.08020688
0.079514675 0.031069988 0.02769562 -0.046241637 -0.061233558 -0.024789272 -0.022539288 -0.035204884
0.011449918 -0.09440072 0.028580211 0.087291926 0.011344055 0.1024908 -0.058644608 0.08999778
0.01399311 -0.043486446 -0.10464223 0.081962846 0.033991713 0.0005277955 -0.036962442 -0.046242855
-0.019971907 -0.0038301626 -0.034296025 0.04150373 0.17004503 -0.06927946 -0.017236173 -0.03500567
-0.0112717915 0.14531527 -0.07825462 -0.0896667 -0.037119046 0.00217561 -0.063303195 0.08608496
-0.02344955 0.03798624 0.016332176 0.0018183189 -0.08896727 -0.112126425 -0.08732012 0.013917217
-0.095819145 0.00927136 -0.047367275 0.0652755 -0.1122467 -0.016429985 -0.073394455 0.064395376
00000000: c0f8 7d3d 248f adbc b366 3abd a2ab 803d
00000010: 23f8 2d3c 35a9 e6bd 40cb f5bd 6fb1 893c
00000020: 22a5 563d 8df4 61bd e16c 59bd 9708 963d
00000030: 209b 423d 2b2f 60bc 43a3 133d e0bd 3d3d
00000040: f5df d9bd 117b 98bd 8c4d f83d 461e 9cbb
00000050: e4e3 783d 793c eabd 7854 c8bd 89a2 db3b
00000060: 0b29 8bbd 062f 713c 149f a33c 1632 4f3c
00000070: d49b febd 8b0c 82bd 75a4 07bd 77f9 cebd
00000080: 8d21 ea3d 2f35 26be d1c8 753d 0039 1b3e
00000090: 19cf 2cbd 6a29 b4bc 44c6 eabd fa51 22bd
000000a0: de03 fcbc 7806 803c cdd7 ffbd 011a 87bd
000000b0: ee25 15be 3d10 12be 50a9 963d 3634 963c
000000c0: 3d55 f8bc fdbf f6bd 4ff0 03bd 51ff 7fbd
000000d0: 2d05 d2bd 0a27 68bd 7c2e c4bd 564e 843d
000000e0: aa74 b8bd cb5f 67bd 935d a33d 9ca9 f03c
000000f0: 9a10 a43d bbd3 60bc 34bc 27bc c807 993d
00000100: a238 9d3d 56e8 15bd 99d3 95bd 5175 c8bd
00000110: ef1b 79bc bdd5 fc3d 88a5 6e3d 48d4 24bd
00000120: bad7 6d3d bd8e d33c c15d 943d 1a0e 6d3c
00000130: 14c3 503d f966 243e 9e82 a53d 597f 1bbd
00000140: 1476 d4bb 7d19 b0bc efac 693d 2c63 143d
00000150: 6152 3fbd 97bf 67bd 5d5b 9e3d e52c 99bd
00000160: 8ddc 523d 76cd e13d 4e86 a8bd a840 5e3d
00000170: cb42 83bd 2148 32bc e561 a0bd 07c4 58bc
00000180: c6a4 a1bd 1c22 52bd 6706 4bbd c8c5 e83d
00000190: d028 aa3d 2426 c7bd b186 a7bb 13f7 133b
000001a0: ba22 ca3b db75 813b a714 15bd af9b 343d
000001b0: b538 88bd 273a aa3d a489 8bbd 0742 8fbd
000001c0: a21d 4d3c 659c 75bd 186f d1bc 532e 303c
000001d0: 23f6 11bd 637c 093d c29e a2bc b230 a7bd
000001e0: 6c17 c73b 8b28 a83d 09f7 66ba 052d 10bd
000001f0: d40d 3fbd dc47 c63d 6581 253d 4f43 5b3d
00000200: 8cfe afbc d8b7 a33d 142c 9e3d f4d5 223c
00000210: 63e2 6dbb 5c28 9dbb 7ff3 cabd 55a9 88bd
00000220: ffbc b33d 432b d8bd 3dc2 64bc 9bae 8e3a
00000230: c8ea 873b b3b1 233d 55c1 9b3d 259f 7ebd
00000240: 5a7a 4c3d 8f8b 2a3d e007 683d ef55 d7bc
00000250: aaf0 8fbc 3d6c 21bd 7911 c5bd 7e7c f7bc
00000260: 595a 4a3c 2cc8 c33c 37c7 ac3d d3fe 68bd
00000270: e0fe 4cbd 9969 df3d d9cd b8bc 6da5 8c3d
00000280: 4bc1 c23d 39b4 883d 1956 35bd c918 bd3c
00000290: f6cd 723b edc2 55bd e9d5 933c 8462 d3bc
000002a0: f929 9a3d 5f29 983d fd8f 38bd 8fe9 56bd
000002b0: ffd6 65bd 3827 493d d5e2 36bc e2fd 4dbd
000002c0: 9033 b0bc 3c2a 9dbd 201c 853d 4243 ea3c
000002d0: 4729 b53d 5e65 74bc f5f0 b5bd 9140 493d
000002e0: 2950 31bd c6e8 d4bb 2011 803c e76f 14bd
000002f0: 2a4a 9bbd d5a5 55bc 815b 9cbd efb0 bebd
00000300: 12c7 363d 5c46 e13d 2d2a 53bd d1d9 c2bd
00000310: 8790 23bd f54d 88bd c4f7 333d 8143 a4bd
00000320: 97d8 a23d 7d86 fe3c ede1 e23c df67 3dbd
00000330: 0ad0 7abd df12 cbbc 50a4 b8bc ff32 10bd
00000340: 7098 3b3c 2a55 c1bd 0c21 ea3c 1cc6 b23d
00000350: 6adc 393c b2e6 d13d 5435 70bd c250 b83d
00000360: 5b43 653c d81e 32bd aa4e d6bd 23dc a73d
00000370: e53a 0b3d c25b 0a3a ee65 17bd 2669 3dbd
00000380: 209c a3bc 7703 7bbb fd79 0cbd d1ff 293d
00000390: 4920 2e3e 64e2 8dbd e032 8dbc 1b62 0fbd
000003a0: 52ad 38bc 87cd 143e f543 a0bd 2da3 b7bd
000003b0: 240a 18bd ae94 0e3b 1ba5 81bd 504d b03d
000003c0: 4519 c0bc 7697 1b3d 0ecb 853c a854 ee3a
000003d0: 7934 b6bd 8aa2 e5bd e4d4 b2bd 0a05 643c
000003e0: d43c c4bd e7e6 173c 3004 42bd 29af 853d
000003f0: 99e1 e5bd 2d98 86bc d54f 96bd b9e1 833d

lstm.weight_hh_l0 f4 [512, 128]
-0.089141645 -0.03847974 -0.035589177 0.02156417 -0.056514375 0.05066876 -0.041844822 0.059228953
-0.0969445 -0.034877017 0.061688814 -0.08758953 -0.07692576 -0.042708527 -0.04464992 -0.021969428
-0.049313292 -0.068326816 -0.05114072 0.052605882 -0.11888599 -0.06360863 -0.014150087 0.029412808
-0.101769395 0.057687454 -0.05532893 -0.060353775 -0.07542915 -0.025597224 -0.049913973 -0.07343427
-0.051476195 0.041445374 0.0686154 0.06533254 -0.030769965 0.111817695 0.035856932 -0.09955683
-0.068658784 -0.085265756 0.013811057 -5.5762335e-05 0.068072304 0.021998113 -0.03414447 0.009902209
-0.0068616974 0.08161683 0.036626626 0.033461425 0.0596133 -0.0004332897 -0.12881602 0.059263777
-0.076368965 -0.058485754 0.092383854 0.0041994266 0.020821368 -0.054182254 -0.0020034544 0.1042184
0.1224497 0.098754235 -0.033828333 -0.006993771 0.005680316 -0.054202583 -0.04946455 -0.016675387
0.030966982 0.013226587 -0.10781757 -0.021237977 -0.059084155 -0.10094447 -0.041298766 -0.05853172
-0.048705194 -0.10009366 0.014860017 -0.031068752 0.047297046 0.041056678 0.02934569 -0.02658032
0.0218271 0.085061945 -0.009904786 0.03811268 -0.01960695 -0.024933465 0.00096134987 -0.0654334
-0.054431606 -0.056358848 -0.004992636 0.020676812 -0.04117475 8.040487e-05 0.042990603 0.103183284
-0.09618881 -0.016777042 -0.012551811 0.09328008 -0.10299806 -0.05096342 0.01756129 0.07637845
-0.06297186 -0.06696642 -0.032865603 0.07589761 -0.0658279 0.010121598 -0.05110098 0.047813885
0.01928548 0.047558367 -0.023312904 0.09826321 -0.03223188 0.0068906373 0.053964972 -0.018573051
0.018711949 0.055355195 0.021229265 0.05333761 -0.03568669 -0.031360254 -0.015719365 -0.057683054
-0.04349968 0.05492727 0.033081215 0.042277776 0.047574323 0.08963418 -0.042125072 0.029934749
-0.107972965 0.020605408 0.057916466 -0.014594436 -0.097015575 -0.0124764815 0.054982267 -0.029015236
-0.08223667 0.009741293 -0.046853606 -0.06987199 0.011359214 0.12655066 0.065211765 0.059161533
-0.11294087 -0.062270366 0.014324995 0.108723275 -0.036808055 -0.04708123 0.03927497 -0.038563643
-0.059996 -0.10396362 0.10261675 -0.0026366145 -0.0043250164 -0.03904098 0.05587639 -0.034704354
0.05576791 -0.012035076 0.008407217 -0.024624322 -0.05144838 -0.07478425 -0.021101754 -0.04586028
-0.07036665 0.08445564 0.018137373 -0.017267093 0.044570826 0.0697918 0.15537238 -0.046144385
-0.016145894 0.08321038 -0.026139442 0.04862365 0.037107393 -0.07818174 0.04207487 -0.029179055
-0.017850058 0.081991635 -0.0371503 -0.002861824 -0.03880823 -0.029253097 0.028857484 -0.06258515
-0.0008855186 -0.059378702 -0.049198464 -0.0627139 -0.0035214669 0.039516713 -0.036420494 0.03393725
0.004285408 -0.08056875 0.029496837 0.011238336 0.038156517 0.09706754 -0.0150753725 -0.015214865
-0.11637029 -0.05103088 -0.10043101 0.023214784 -0.06790546 0.08529676 -0.0855636 0.066510685
-0.037368387 0.011159323 -0.06683466 -0.01837312 0.0650636 0.112411916 -0.072262816 -0.07947241
-0.013926548 0.04890203 -0.09841583 -0.061794497 -0.050550207 -0.12775558 0.022253301 -0.057333317
-0.025167018 0.026201438 0.06886319 -0.07823148 0.033261918 0.057532065 -0.0833925 -0.025044847
00000000: e58f b6bd ef9c 1dbd f5c5 11bd 58a7 b03c
00000010: 9e7b 67bd 0c8a 4f3d 7a65 2bbd 0f9a 723d
00000020: d78a c6bd 34db 0ebd 69ad 7c3d 2462 b3bd
00000030: 418b 9dbd 23ef 2ebd d6e2 36bd 3bf9 b3bc
00000040: bcfc 49bd eeee 8bbd ee78 51bd 4479 573d
00000050: 7f7a f3bd 3e45 82bd c4d5 67bc 21f3 f03c
00000060: 796c d0bd ae49 6c3d 97a0 62bd 8535 77bd
00000070: 997a 9abd 45b1 d1bc 9872 4cbd b564 96bd
00000080: b4d8 52bd a0c2 293d 3b86 8c3d 11cd 853d
00000090: 4b11 fcbc ad00 e53d b8de 123d 74e4 cbbd
000000a0: fa9c 8cbd d09f aebd c647 623c 5ae2 69b8
000000b0: 7e69 8b3d 6335 b43c 12db 0bbd e03c 223c
000000c0: 17d8 e0bb b926 a73d cd05 163d d90e 093d
000000d0: 132d 743d 292b e3b9 59e8 03be 93be 723d
000000e0: 5567 9cbd c28e 6fbd bf33 bd3d 589b 893b
000000f0: 9391 aa3c 36ee 5dbd 634c 03bb 7570 d53d
00000100: e9c6 fa3d a93f ca3d 948f 0abd 012c e5bb
00000110: f221 ba3b 8703 5ebd 579b 4abd d29a 88bc
00000120: 78ae fd3c 54b4 583c 75cf dcbd 44fb adbc
00000130: 3a02 72bd f9bb cebd e528 29bd f5be 6fbd
00000140: 197f 47bd e8fd ccbd 6e77 733c e583 febc
00000150: 8cba 413d 0c2b 283d 5f66 f03c f9be d9bc
00000160: bfce b23c f534 ae3d af47 22bc 0b1c 1c3d
00000170: c19e a0bc 4441 ccbc 1903 7c3a f201 86bd
00000180: adf3 5ebd 89d8 66bd 4499 a3bb 6b62 a93c
00000190: dba6 28bd 099f a838 ea16 303d c251 d33d
000001a0: a4fe c4bd 0270 89bc 1ca6 4dbc a009 bf3d
000001b0: a6f0 d2bd 05bf 50bd b2dc 8f3c 4e6c 9c3d
000001c0: 64f7 80bd b125 89bd 159e 06bd 3570 9b3d
000001d0: c7d0 86bd 0fd5 253c 434f 51bd 7ed8 433d
000001e0: 95fc 9d3c 90cc 423d b4fa bebc 393e c93d
000001f0: 9305 04bd dbca e13b 600a 5d3d 8326 98bc
00000200: cd49 993c 21bc 623d ffe8 ad3c 8a78 5a3d
00000210: 352c 12bd 9c73 00bd e6c5 80bc 1145 6cbd
00000220: b82c 32bd 6bfb 603d 2b80 073d 762b 2d3d
00000230: 4bdd 423d 2092 b73d 578b 2cbd b839 f53c
00000240: ee20 ddbd accc a83c d139 6d3d 801d 6fbc
00000250: 1ab0 c6bd 286a 4cbc 1635 613d 5cb1 edbc
00000260: b36b a8bd f299 1f3c 91e9 3fbd 0c19 8fbd
00000270: ff1b 3a3c 7f96 013e bf8d 853d 5d53 723d
00000280: 8b4d e7bd 360f 7fbd 62b3 6a3c 4faa de3d
00000290: 0bc4 16bd 3fd8 40bd cade 203d e9f4 1dbd
000002a0: 5ebe 75bd e1ea d4bd bb28 d23d 0dcb 2cbb
000002b0: deb8 8dbb 6fe9 1fbd a4de 643d 2726 0ebd
000002c0: e46c 643d c42e 45bc 6dbe 093c f2b8 c9bc
000002d0: 89bb 52bd 7c28 99bd 96dd acbc fdd7 3bbd
000002e0: 641c 90bd 14f7 ac3d d494 943c b873 8dbc
000002f0: e68f 363d 01ef 8e3d f019 1f3e e501 3dbd
00000300: 6544 84bc 346a aa3d 6222 d6bc 9829 473d
00000310: ecfd 173d c01d a0bd b356 2c3d ea08 efbc
00000320: 493a 92bc 3beb a73d ea2a 18bd 708d 3bbb
00000330: 61f5 1ebd 31a4 efbc 8866 ec3c a52c 80bd
00000340: 2622 68ba 1537 73bd 5484 49bd 2570 80bd
00000350: 69c8 66bb 47dc 213d a82d 15bd c901 0b3d
00000360: 9c6c 8c3b 3b01 a5bd 5aa3 f13c ff20 383c
00000370: 024a 1c3d 59cb c63d b2fe 76bc c547 79bc
00000380: 8c53 eebd c205 51bd c6ae cdbd ee2c be3c
00000390: 0512 8bbd 11b0 ae3d f83b afbd c136 883d
000003a0: 980f 19bd 98d5 363c 9ce0 88bd 3a83 96bc
000003b0: 1140 853d 3838 e63d 87fe 93bd 6ec2 a2bd
000003c0: 2d2c 64bc 7f4d 483d 3d8e c9bd 3a1c 7dbd
000003d0: bc0d 4fbd 5cd2 02be 8e4c b63c 57d6 6abd
000003e0: 102b cebc 66a4 d63c 2508 8d3d d437 a0bd
000003f0: a63d 083d bea6 6b3d b0c9 aabd da2a cdbc

lstm.bias_ih_l0 f4 [512]
-0.0014484855 -0.007919591 -0.008100457 0.09847393 0.003244375 0.05688165 -0.011287955 0.012349583
0.07933711 -0.038012676 0.09708308 0.098918706 0.043125894 0.047462735 0.04929959 -0.05378568
0.0076529006 0.08437227 0.09467784 0.096108265 -0.055336706 0.07310417 0.036446493 0.06873723
-0.02629268 -0.046659924 0.084909484 -0.035718523 0.09959627 0.08763259 0.071289234 -0.016444532
0.09354745 0.11378492 -0.03985492 -0.011362377 -0.03642798 -0.03696134 0.09378644 0.074725635
0.08425347 0.035901822 -0.033100255 0.08026403 0.003915836 0.0922294 -0.02907084 0.023909654
-0.020512417 0.02864305 -0.015834808 -0.007818696 -0.0048166933 0.094820194 0.16432877 0.07643542
0.020190509 0.061828703 0.058128837 0.109247 -0.0011957586 -0.0013659473 0.08595202 0.1324331
-0.0025796809 -0.049265467 0.034493905 -0.008149684 0.06347609 -0.023184825 -0.0505456 0.084877744
0.014493077 -0.009405394 0.06801349 0.056850236 -0.04406908 0.12072646 0.048822828 -0.059445307
0.0655522 -0.013519428 0.011976674 0.015036109 0.054893713 0.011950737 -0.01415542 -0.04789384
0.13937642 0.089113675 0.1011459 0.0778238 0.0034141175 0.074054986 -0.030412674 0.03543911
-0.008184631 0.072613254 0.064316496 0.03866647 -0.01223152 0.07392744 -0.014811363 -0.031922515
-0.0051477794 -0.0035332935 -0.010083259 0.02228729 0.057964955 0.11270696 0.056100436 0.07812608
-0.05813969 0.037531108 -0.01464681 -0.030336844 0.079924904 -0.045108568 0.11603255 0.042726953
0.053953625 0.07900607 0.098035984 0.03335362 0.033858556 -0.0047208187 0.0009335008 0.08867472
0.010911314 -0.06696566 0.08703813 0.029321115 0.07500572 0.13184455 0.05327193 0.019957306
0.10516057 0.02789944 0.08896934 0.13248843 -0.0011034164 0.10292951 0.082018055 -0.030780112
0.07077903 -0.0052690585 0.10785801 0.11943396 0.00863794 0.045507293 0.09469116 -0.02603162
0.09155297 -0.014762049 -0.054111645 0.10079089 0.13272265 0.08431579 -0.023679907 0.08791299
0.013887037 0.009413071 0.072297305 0.07877736 0.09915909 0.10775858 0.01595912 0.048607104
-0.03898631 0.028621623 -0.023697313 -0.0022193 0.08122473 0.030911181 -0.030787587 -0.021238904
0.08238535 -0.020231644 -0.021604903 0.1367037 0.06517658 -0.0044452837 0.08976866 -0.061367497
0.054849137 0.106072925 -0.056163084 -0.0008058773 -0.0210774 -0.039846525 0.10241918 0.084962584
0.059509937 0.07143974 0.1331105 -0.055275474 0.08290017 0.07967653 0.02634197 0.064317286
0.017168842 -0.010061522 -0.053605553 0.112642705 0.1157582 0.08361209 -0.05515744 0.09539082
0.02927264 -0.0008999116 0.0845827 0.046241615 -0.049559716 0.09027119 0.049994174 -0.028193539
-0.026771137 -0.043626964 0.08186019 0.07975226 0.029194463 0.0140743395 0.07388611 0.0726905
0.031450823 0.0699739 0.035631195 0.065461345 0.086790904 0.02507011 0.026411533 -0.041951086
0.07204589 0.09993718 -0.0016972488 0.0018089085 0.044234622 0.003358255 0.07537737 0.027962277
0.0054211603 -0.02643946 0.079657435 -0.07484712 -0.018752985 0.07088856 0.12631029 0.10754953
0.10783682 0.109179765 0.07850761 0.029228471 0.03383198 0.04361744 0.09483191 -0.04425906
00000000: 1cdb bdba 2cc1 01bc c7b7 04bc b3ac c93d
00000010: 959f 543b bcfc 683d 1df1 38bc e855 4a3c
00000020: 7f7b a23d 2eb3 1bbd 7ed3 c63d e495 ca3d
00000030: c7a4 303d 4968 423d 5eee 493d 604e 5cbd
00000040: 2fc5 fa3b 5ecb ac3d 75e6 c13d 69d4 c43d
00000050: bea8 62bd a4b7 953d eb48 153d 1bc6 8c3d
00000060: bf63 d7bc 7a1e 3fbd 06e5 ad3d 964d 12bd
00000070: 21f9 cb3d b778 b33d 1700 923d afb6 86bc
00000080: ce95 bf3d 1108 e93d ea3e 23bd 4329 3abc
00000090: 8135 15bd c664 17bd 1b13 c03d c109 993d
000000a0: 158d ac3d ca0d 133d 2294 07bd 7861 a43d
000000b0: 6a50 803b c5e2 bc3d f825 eebc 2ede c33c
000000c0: a809 a8bc d4a4 ea3c 00b8 81bc fd19 00bc
000000d0: 5ad5 9dbb 1731 c23d cd45 283e 2c8a 9c3d
000000e0: 9166 a53c 1840 7d3d 8118 6e3d e4bc df3d
000000f0: 00bb 9cba 9609 b3ba 9d07 b03d 8b9c 073e
00000100: dd0f 29bb 96ca 49bd 7b49 0d3d 4186 05bc
00000110: c1ff 813d 1aee bdbc e708 4fbd 62d4 ad3d
00000120: 5f74 6d3c 1519 1abc a84a 8b3d cbdb 683d
00000130: c881 34bd 6f3f f73d 72fa 473d ec7c 73bd
00000140: 3b40 863d 9780 5dbc d039 443c 035a 763c
00000150: 3bd8 603d 06cd 433c 22ec 67bc 552c 44bd
00000160: b1b8 0e3e 3b81 b63d 9525 cf3d 1662 9f3d
00000170: 63bf 5f3b 24aa 973d 0024 f9bc 9a28 113d
00000180: d518 06bc 42b6 943d 5eb8 833d bc60 1e3d
00000190: b766 48bc 4567 973d 5cab 72bc 2fc1 02bd
000001a0: b4ae a8bb d48e 67bb 4134 25bc d693 b63c
000001b0: a96c 6d3d e8d2 e63d 92c9 653d 9100 a03d
000001c0: e223 6ebd 38ba 193d 2cf9 6fbc f984 f8bc
000001d0: abaf a33d c3c3 38bd 79a2 ed3d 7502 2f3d
000001e0: 7afe 5c3d efcd a13d 17c7 c83d ce9d 083d
000001f0: 45af 0a3d 19b1 9abb 2eb6 743a 179b b53d
00000200: 5ec5 323c 4b25 89bd 0c41 b23d d632 f03c
00000210: 999c 993d 4202 073e ab33 5a3d 817d a33c
00000220: 6d5e d73d 5e8d e43c 8f35 b63d 0cab 073e
00000230: 83a0 90ba b5cc d23d 15f9 a73d 9326 fcbc
00000240: 99f4 903d 11a8 acbb a9e4 dc3d cb99 f43d
00000250: 2586 0d3c db65 3a3d 70ed c13d 4440 d5bc
00000260: 2080 bb3d 85dc 71bc 2ca4 5dbd 746b ce3d
00000270: 72e8 073e c2ad ac3d 5dfc c1bc ba0b b43d
00000280: 7486 633c 4839 1a3c 9c10 943d 0656 a13d
00000290: ec13 cb3d 88b0 dc3d b3bc 823c 3e18 473d
000002a0: 1cb0 1fbd e577 ea3c de20 c2bc ad71 11bb
000002b0: 2759 a63d 7239 fd3c 4036 fcbc 36fd adbc
000002c0: a6b9 a83d d5bc a5bc c4fc b0bc 0efc 0b3e
000002d0: 4c7b 853d bea9 91bb a2d8 b73d 7c5c 7bbd
000002e0: 7da9 603d c33c d93d 430b 66bd 8341 53ba
000002f0: 83aa acbc 1c36 23bd 26c1 d13d dd00 ae3d
00000300: b1c0 733d 004f 923d 1e4e 083e 8968 62bd
00000310: 90c7 a93d 732d a33d 1dcb d73c c8b8 833d
00000320: aca5 8c3c 15d9 24bc 7f91 5bbd 38b1 e63d
00000330: a312 ed3d d13c ab3d c5ec 61bd 435c c33d
00000340: 2dcd ef3c 0ce8 6bba b239 ad3d d967 3d3d
00000350: 21ff 4abd 1ae0 b83d b1c6 4c3d 23f6 e6bc
00000360: 254f dbbc 30b2 32bd 51a6 a73d 2755 a33d
00000370: 3a29 ef3c 0f98 663c 9a51 973d c2de 943d
00000380: 94d2 003d 7a4e 8f3d 04f2 113d 9910 863d
00000390: 6ebf b13d d55f cd3c 005d d83c e7d4 2bbd
000003a0: cc8c 933d ddab cc3d 3876 deba e618 ed3a
000003b0: 5d2f 353d 2b16 5c3b 735f 9a3d 2511 e53c
000003c0: fda3 b13b 9197 d8bc 7023 a33d 7249 99bd
000003d0: dc9f 99bc 052e 913d 7c57 013e ee42 dc3d
000003e0: 8dd9 dc3d a499 df3d 99c8 a03d 8c70 ef3c
000003f0: 6793 0a3d 33a8 323d 3c37 c23d fd48 35bd

lstm.bias_hh_l0 f4 [512]
-0.041161552 0.052240476 0.009556567 0.09193688 0.09827893 0.03963593 0.046985 0.09608675
-0.020376848 -0.0170326 0.040745888 -0.043231767 0.02345339 0.070844375 0.08077461 0.07095742
0.037578646 0.059088454 -0.022685383 -0.04016056 -0.03730087 0.015029239 -0.059394974 -0.015537001
0.036267303 0.07380092 0.11201213 -0.0030503797 -0.02792193 0.02335886 -0.02161488 0.028591607
0.0603213 0.012546089 -0.015460092 0.07814089 -0.009550092 0.047419913 -0.05460077 -0.04033459
0.042423934 -0.057638913 0.025288496 0.0507539 0.07326061 0.072729655 -0.008042323 -0.04619431
0.01950527 0.01592948 0.02268747 0.0021327299 0.053256895 0.010640731 -0.0061073233 -0.0067527825
0.07933926 -0.0006466989 -0.0051550264 -0.02237303 -0.022114338 0.025344744 0.10285529 -0.019383926
0.053468574 -0.04362302 0.040408134 -0.009517003 -0.057624992 0.048876576 -0.02912784 0.0975005
-0.026115652 0.0063915523 -0.037754912 -0.013959285 0.106913224 0.0946431 -0.0020250785 0.028033085
-0.043617483 0.027617984 0.02334459 0.07248197 0.054238833 0.035055354 -0.0046933424 -0.07070135
0.041988865 0.0858901 0.0917039 -0.03327487 -0.03739852 0.11384165 0.022022525 0.0029968394
0.061130162 0.05390016 0.117181025 0.03336214 0.02169536 -0.06427812 0.11729287 -0.05578087
-0.06228662 0.09507097 0.06877417 -0.040943272 0.07743624 -0.03735644 -0.05927826 0.04654369
-0.021364793 -0.05270906 0.08954585 0.029335262 0.046895947 -0.029776003 0.09738372 0.08136788
-0.024228474 -0.0016343386 0.016608836 0.12840044 -0.017684361 -0.03868289 0.08881077 0.08476276
0.043835733 0.023238646 0.12175467 0.037116766 0.034826394 0.085029736 0.11185706 -0.012781571
0.08505408 0.05778398 0.00576751 0.12950495 0.03751743 0.021740085 0.085972846 -0.039351646
0.01510128 0.118501686 0.07833277 0.051881388 0.06269027 0.10686753 -0.00984467 0.04382953
0.0040735477 0.060964745 0.0711693 0.054728057 0.06380231 0.12612937 -0.04737627 0.052516766
-0.041616917 -0.007443189 0.11355586 0.09402106 0.054669775 0.04209778 0.07698335 0.07971698
-0.032263998 -0.031003946 0.11072376 0.086021625 0.043033715 0.088801526 -0.02078157 -0.013192311
0.09742915 0.085941814 0.01670212 0.013788795 -0.034726165 0.006528185 0.038291067 0.05308513
0.12769638 0.064640924 -0.03340227 0.028811555 0.04116951 0.08492609 0.12135958 0.12300186
-0.049882427 0.0030205403 0.12813973 0.048572972 0.01689135 0.03415173 -0.030118262 -0.03682604
0.082095 0.102911524 -7.3142684e-05 -0.009929614 0.12471552 -0.033624403 -0.059357274 0.105943285
0.10759702 0.076732054 0.07994597 0.07350888 0.08996089 0.09324674 0.112745516 -0.043975126
0.033329207 -0.03711707 -0.05049891 -0.013533714 -0.0036219682 -0.05604952 0.08485383 -0.0029070172
0.083044715 0.04805034 0.019325728 -0.023062501 -0.040834237 0.10718698 0.14820606 -0.046837255
-0.031913664 0.084962875 -0.0018325325 -0.03438583 0.011304549 0.025422517 0.0011326615 -0.041413706
-0.0035351478 0.03361934 0.10435735 0.027869 0.013544566 0.038334705 0.037873637 0.11761248
0.025621818 -0.009274338 0.04938202 0.08843447 -0.08102491 -0.038298894 0.114220135 -0.0120879365
00000000: 0499 28bd 1cfa 553d 2693 1c3c 6749 bc3d
00000010: 7746 c93d 4959 223d 5873 403d 21c9 c43d
00000020: 59ed a6bc f387 8bbc 29e5 263d cb13 31bd
00000030: 5321 c03c db16 913d 296d a53d 2052 913d
00000040: 11ec 193d bc06 723d b2d6 b9bc 667f 24bd
00000050: ccc8 18bd 323d 763c 2548 73bd e88e 7ebc
00000060: 068d 143d f024 973d 9e66 e53d e1e8 47bb
00000070: 88bc e4bc 145b bf3c b011 b1bc f238 ea3c
00000080: 7813 773d 1c8e 4d3c 534c 7dbc 5508 a03d
00000090: fd77 1cbc 623b 423d 0fa5 5fbd e235 25bd
000000a0: b8c4 2d3d c816 6cbd d229 cf3c 52e3 4f3d
000000b0: a909 963d 49f3 943d f3c3 03bc 3f36 3dbd
000000c0: 84c9 9f3c 8a7e 823c 13db b93c 45c5 0b3b
000000d0: e723 5a3d 7656 2e3c f11f c8bb 7246 ddbb
000000e0: 9f7c a23d 3b87 29ba 7feb a8bb a547 b7bc
000000f0: 2129 b5bc c89f cf3c cba5 d23d 0acb 9ebc
00000100: dd01 5b3d 0dae 32bd 0083 253d 34ed 1bbc
00000110: 2f08 6cbd ce32 483d 829d eebc 58ae c73d
00000120: 7ef0 d5bc 3a70 d13b e5a4 1abd 7cb5 64bc
00000130: 52f5 da3d 3ed4 c13d 2eb7 04bb a4a5 e53c
00000140: 3fa8 32bd 1c3f e23c 273d bf3c 6d71 943d
00000150: 8a29 5e3d 3496 0f3d 9cca 99bb dfcb 90bd
00000160: 84fc 2b3d 26e7 af3d 41cf bb3d 3b4b 08bd
00000170: 312f 19bd d025 e93d 9568 b43c 9f66 443b
00000180: 9f63 7a3d 6ac6 5c3d 9bfc ef3d bda6 083d
00000190: 78ba b13c 3fa4 83bd 3f37 f03d 7b7a 64bd
000001a0: 4120 7fbd 92b4 c23d 79d9 8c3d 22b4 27bd
000001b0: e496 9e3d 1103 19bd c3cd 72bd 99a4 3e3d
000001c0: 3805 afbc 75e5 57bd d163 b73d 8150 f03c
000001d0: f715 403d ceec f3bc 1e71 c73d 34a4 a63d
000001e0: cb7a c6bc 4e37 d6ba 410f 883c 687b 033e
000001f0: cbde 90bc f371 1ebd 6ce2 b53d 1998 ad3d
00000200: 198d 333d f95e be3c 835a f93d c007 183d
00000210: 1fa6 0e3d 1224 ae3d 5015 e53d cb69 51bc
00000220: d530 ae3d e5ae 6c3d 61fd bc3b f29c 043e
00000230: e0ab 193d 4318 b23c 8812 b03d 312f 21bd
00000240: 5c6b 773c 03b1 f23d ee6c a03d 9481 543d
00000250: c263 803d 5ddd da3d 8a4b 21bc 9886 333d
00000260: 657b 853b 2bb6 793d 36c1 913d 872a 603d
00000270: c9aa 823d 0f28 013e 9f0d 42bd d21b 573d
00000280: 8076 2abd ffe5 f3bb fa8f e83d 1d8e c03d
00000290: 6aed 5f3d b96e 2c3d 72a9 9d3d a842 a33d
000002a0: 4127 04bd fdfb fdbc 24c3 e23d 1b2c b03d
000002b0: 1f44 303d 93dd b53d 1c3e aabc 9024 58bc
000002c0: ef88 c73d 4302 b03d e2d2 883c 66ea 613c
000002d0: 063d 0ebd 63ea d53b 18d7 1c3d cb6f 593d
000002e0: d7c2 023e 7662 843d d2d0 08bd 3606 ec3c
000002f0: 5ca1 283d bbed ad3d 5f8b f83d 66e8 fb3d
00000300: 8451 4cbd 42f4 453b 1037 033e 74f4 463d
00000310: ba5f 8a3c afe2 0b3d 93ba f6bc e7d6 16bd
00000320: 6c21 a83d 47c3 d23d 2e64 99b8 d2af 22bc
00000330: da6a ff3d beb9 09bd 9d20 73bd cbf8 d83d
00000340: d45b dc3d b225 9d3d b6ba a33d d38b 963d
00000350: 6a3d b83d 26f8 be3d 1fe7 e63d 431f 34bd
00000360: 3584 083d 1208 18bd f2d7 4ebd 83bc 5dbc
00000370: 8b5e 6dbb 2e94 65bd d8c7 ad3d a883 3ebb
00000380: 5913 aa3d 6fd0 443d fd50 9e3c 92ed bcbc
00000390: cd41 27bd d984 db3d 54c3 173e 6cd8 3fbd
000003a0: e7b7 02bd 0401 ae3d 9631 f0ba 28d8 0cbd
000003b0: b736 393c e242 d03c d075 943a 6ba1 29bd
000003c0: f0ad 67bb 6fb4 093d 4eb9 d53d 874d e43c
000003d0: 07ea 5d3c da04 1d3d 6321 1b3d d0de f03d
000003e0: d9e4 d13c 65f3 17bc cd44 4a3d 221d b53d
000003f0: 63f0 a5bd 4ddf 1cbd 3fec e93d 7b0c 46bc

lstm.weight_ih_l1 f4 [512, 128]
0.050371453 -0.034227666 0.12315827 0.11753705 0.05756746 -0.079055056 0.06723908 -0.047980804
0.03458 0.016951336 0.08006381 0.07874582 0.058663186 -0.031028787 -0.065865465 0.10409079
-0.051620107 0.023152763 -0.08591836 -0.0729699 0.016955025 -0.022860697 -0.07197426 -0.07513969
0.015014855 -0.0010741046 -0.10939808 0.07293003 0.030914653 0.12801763 -0.006122281 -0.013586386
0.059823062 0.08987943 -0.058775786 0.079164095 0.06739627 -0.035786483 -0.08141443 -0.06832399
0.038144007 0.0121076275 0.03606744 0.107028715 -0.07800214 -0.07733174 -0.0338561 -0.019640705
0.026865972 -0.093120925 0.09865293 0.05169374 0.06624251 -0.0024228622 -0.02242138 -0.03473092
-0.03422533 0.09868122 0.061634853 -0.107433416 -0.035025157 0.0014224708 -0.035984088 0.07560166
0.051998354 0.051450375 0.041798983 -0.05826202 -0.02183697 0.018738389 0.1321918 0.04274497
0.066728026 0.023999428 -0.04500802 0.003910576 0.026779447 -0.018927302 -0.03265385 -0.11862637
-0.0671009 0.006856001 -0.02756843 0.077189155 0.025400568 0.06651277 0.032101654 0.07343214
0.049268104 -0.0005024321 0.040549837 0.08077925 -0.093575 0.10753555 0.011675728 0.019317739
-0.10608411 0.13671274 -0.14764062 0.057814036 0.03333644 -0.01765479 -0.047806658 -0.02244189
0.0019240686 -0.019708678 0.048172947 -0.04115931 0.050763324 -0.021676898 0.01270009 0.08325169
-0.024575168 0.06908579 -0.01744038 0.090058 -0.043510113 -0.06492325 -0.035744302 0.031370107
0.014393746 -0.018338505 -0.04734257 -0.071287334 -0.008400244 -0.091347836 -0.061940793 0.010460101
0.029751116 0.054717094 0.0054386305 0.014587341 0.08658375 0.076215625 0.025915334 -0.083234124
-0.08341338 0.020592954 0.0011093117 0.091238864 -0.06559113 -0.014004842 -0.07285926 0.04320911
-0.04286739 0.06546177 -0.074032955 -0.032783255 0.0734846 -0.046178717 0.048854023 0.057288855
-0.083955325 0.0637499 -0.027421512 0.07652585 -0.061565682 0.08396587 -0.025275145 0.09124694
0.0745913 0.050481264 -0.047006384 0.005147065 0.007725547 -0.10525886 -0.022053137 -0.06278111
-0.039006054 -0.015139496 0.04567422 0.055145558 -0.08840563 -0.051475957 0.059670236 -0.08746212
0.04025694 -0.017151771 -0.058217913 0.018367222 0.038213704 0.020713933 0.1065894 -0.030970564
-0.04593583 0.021574082 0.056794938 0.015239841 -0.108943895 -0.07372666 -0.017790219 -0.01957481
-0.034114424 -0.009721071 0.091311604 0.022953276 -0.011850045 -0.010661576 0.008177363 -0.074120946
-0.03891878 0.07899537 -0.030590802 -0.018095475 0.013510762 -0.02802931 -0.014869585 0.047748785
0.045763943 -0.0035781048 0.03545208 0.040377248 0.0025142266 -0.044414718 0.102537446 -0.047709856
0.10028856 0.033112537 0.023212 -0.021722997 0.045989476 0.087851845 0.021478541 0.005732162
-0.0075438055 0.037414335 -0.040764503 0.08727949 0.04930469 0.032692507 0.0007377612 0.08942793
0.0094205495 -0.088681 -0.03975084 0.041780964 -0.0020052146 -0.07275709 -0.061374832 -0.079996444
0.0489108 0.06394883 0.031904493 -0.0408367 0.014511284 -0.03897506 0.011348752 -0.05349481
-0.0176952 0.02616576 -0.05997706 -0.07612784 0.062346503 0.029412324 -0.10883112 -0.04755098
00000000: 4c52 4e3d 4f32 0cbd 673a fc3d 44b7 f03d
00000010: dbcb 6b3d 9ee7 a1bd a5b4 893d 8587 44bd
00000020: c2a3 0d3d 87dd 8a3c 7ff8 a33d 7d45 a13d
00000030: cf48 703d 1530 febc 79e4 86bd 8d2d d53d
00000040: 9b6f 53bd ddaa bd3c f7f5 afbd 3e71 95bd
00000050: 44e5 8a3c 5b46 bbbc 3e67 93bd d6e2 99bd
00000060: de00 763c f8c8 8cba 1a0c e0bd 575c 953d
00000070: ba40 fd3c 0e17 033e 6a9d c8bb 6f99 5ebc
00000080: 0709 753d b512 b83d e1be 70bd c920 a23d
00000090: 0e07 8a3d d994 12bd 9cbc a6bd 73ed 8bbd
000000a0: e43c 1c3d 125f 463c 74bb 133d df31 db3d
000000b0: 96bf 9fbd 1a60 9ebd b2ac 0abd 8be5 a0bc
000000c0: 0716 dc3c 2fb6 bebd 8c0a ca3d d1bc 533d
000000d0: 27aa 873d e2c8 1ebb 0bad b7bc 0242 0ebd
000000e0: dc2f 0cbd 6119 ca3d d474 7c3d 0d06 dcbd
000000f0: 8a76 0fbd 3372 ba3a 0d64 13bd 0bd5 9a3d
00000100: 3afc 543d a1bd 523d 6935 2b3d 28a4 6ebd
00000110: 72e3 b2bc 4081 993c 4a5d 073e 5a15 2f3d
00000120: b4a8 883d 739a c43c 545a 38bd 4a24 803b
00000130: 9260 db3c 6e0d 9bbc 0bc0 05bd 62f2 f2bd
00000140: 326c 89bd 4ea8 e03b 30d7 e1bc 5915 9e3d
00000150: da14 d03c d937 883d 067d 033d 9763 963d
00000160: 5acd 493d a6b5 03ba 9617 263d 976f a53d
00000170: 40a4 bfbd 993b dc3d 8d4b 3f3c 3c40 9e3c
00000180: a042 d9bd 6dfe 0b3e 1a2f 17be 69ce 6c3d
00000190: ca8b 083d c7a0 90bc ead0 43bd 0ed8 b7bc
000001a0: 0731 fc3a 1874 a1bc ff50 453d aa96 28bd
000001b0: 34ed 4f3d c093 b1bc 0a14 503c dd7f aa3d
000001c0: dd51 c9bc da7c 8d3d 21df 8ebc 5470 b83d
000001d0: a937 32bd 7bf6 84bd 9e68 12bd f17d 003d
000001e0: bfd3 6b3c a23a 96bc 48ea 41bd 18ff 91bd
000001f0: 2da1 09bc 9314 bbbd a1b5 7dbd d860 2b3c
00000200: 9db8 f33c 081f 603d 8a36 b23b beff 6e3c
00000210: d252 b13d f016 9c3d 654c d43c a776 aabd
00000220: a2d4 aabd 8eb2 a83c 5366 913a 71db ba3d
00000230: a454 86bd 9174 65bc 3c37 95bd 09fc 303d
00000240: b795 2fbd d210 863d 979e 97bd bc47 06bd
00000250: 187f 963d e525 3dbd 281b 483d b8a7 6a3d
00000260: c5f0 abbd 4f8f 823d 14a3 e0bc 96b9 9c3d
00000270: 4c2c 7cbd 4cf6 ab3d d20d cfbc addf ba3d
00000280: 53c3 983d 71c5 4e3d c489 40bd b6a8 a83b
00000290: 9626 fd3b f591 d7bd c8a8 b4bc 6293 80bd
000002a0: d0c4 1fbd a60b 78bc e414 3b3d 4fe0 613d
000002b0: 030e b5bd 74d8 52bd c768 743d 571f b3bd
000002c0: 76e4 243d df81 8cbc e875 6ebd db76 963c
000002d0: f985 1c3d 44b0 a93c 8b4b da3d fbb5 fdbc
000002e0: 3527 3cbd 21bc b03c cfa1 683d 87b0 793c
000002f0: fa1d dfbd 01fe 96bd cbbc 91bc 5a5b a0bc
00000300: 91bb 0bbd 2145 1fbc 9401 bb3d 8208 bc3c
00000310: b126 42bc e4ad 2ebc 59fa 053c b9cc 97bd
00000320: 4c69 1fbd 53c8 a13d 9099 fabc f63c 94bc
00000330: 3e5c 5d3c b99d e5bc 8f9f 73bc 3b94 433d
00000340: f972 3b3d a37e 6abb 3336 113d 9d62 253d
00000350: b9c5 243b 35ec 35bd 27ff d13d 696b 43bd
00000360: 1764 cd3d 03a1 073d 1827 be3c 6df4 b1bc
00000370: 765f 3c3d abeb b33d c4f3 af3c dcd4 bb3b
00000380: 0732 f7bb c63f 193d aef8 26bd 97bf b23d
00000390: b7f3 493d 94e8 053d 5166 413a fe25 b73d
000003a0: a658 1a3c 629e b5bd c7d1 22bd 8422 2b3d
000003b0: eb69 03bb ab01 95bd 2d64 7bbd 2dd5 a3bd
000003c0: b156 483d 9bf7 823d 49ae 023d 6244 27bd
000003d0: bdc0 6d3c 50a4 1fbd 1ef0 393c 601d 5bbd
000003e0: 86f5 90bc 9359 d63c 81aa 75bd eae8 9bbd
000003f0: 0c5f 7f3d 1df2 f03c dae2 debd d1c4 42bd

lstm.weight_hh_l1 f4 [512, 128]
-0.039540835 -0.04757694 0.025407545 -0.095269345 0.023643486 -0.0130604 -0.009672586 0.053318616
-0.09043378 -0.07032261 0.05043899 0.0035556653 0.09739437 -0.044375837 -0.09800804 -0.065470345
-0.0030221515 -0.061751463 0.0010766381 -0.0116992835 -0.014146122 0.074949585 0.07353645 -0.054383766
-0.036316715 0.051754836 -0.10405292 0.08841693 0.048329327 -0.017713735 -0.034797303 0.032527156
0.12164485 -0.0012853834 -0.041284043 -0.053695958 -0.08278465 0.07169427 0.032462776 0.03730001
-0.02002368 0.0717987 -0.015165429 -0.01884634 0.016539225 0.035927568 0.084961876 -0.06449606
0.033543363 -0.022888541 0.011032472 0.026640832 0.057910066 -0.11002604 -0.056625947 0.024863025
0.025782945 0.04359456 0.08938894 -0.066671245 0.036492858 0.00175276 0.022121454 -0.055944312
0.009360223 -0.0835258 -0.00066534325 0.016121931 -0.055768326 -0.09084575 -0.034840215 -0.113075905
-5.8749243e-05 0.059275705 -0.0128222015 0.051065516 -0.076596096 -0.053890355 -0.070406735 0.12029409
-0.0041491366 0.024166245 -0.021971744 -0.07644541 -0.052152004 0.08637863 0.045798942 0.0844726
0.016372958 -0.076014064 0.058908354 0.02043875 0.06414768 0.070574716 0.07196403 0.008462569
-0.12052631 0.07480003 -0.07415118 0.0032283065 -0.043996487 0.005725967 0.0677145 -0.07764987
0.09794766 -0.0861342 -0.07928145 -0.015989585 0.052788347 -0.027770294 -0.08285769 -0.022052936
0.12532972 0.087700464 0.041236337 -0.10297796 -0.02509479 -0.09962195 0.08486318 -0.035870623
0.07421282 0.012482572 -0.03879964 0.013523015 0.014864374 -0.012663072 0.100956276 -0.07375826
-0.032253176 0.010460104 -0.06932512 -0.015870553 -0.074292794 -0.08564326 -0.057784896 -0.008382861
-0.044134803 -0.064305596 0.023116082 -0.022809114 0.06585589 0.025404664 0.042922586 -0.05073675
0.0680278 -0.059395887 -0.020805966 -0.053706218 -0.01782959 -0.0091069555 -0.038825896 0.051149126
-0.06435713 -0.051334072 -0.0515164 0.056402363 -0.07479304 -0.03190633 0.014686301 0.06720783
-0.049217008 -0.04015911 0.027474128 -0.033387505 -0.07333946 -0.04460585 0.012311956 -0.06902387
-0.064771295 -0.037619967 0.010963142 0.07276752 -0.044360254 0.08200068 -0.075934075 -0.021447374
0.019226577 -0.00992006 -0.04228443 -0.0054750964 0.013032191 0.01582594 -0.011920325 0.07166227
0.08223038 -0.06775248 -0.04412503 0.0006116383 0.032283265 -0.002531196 0.06584208 -0.014447674
-0.08043365 0.028075935 -0.038921155 -0.012657958 0.034032863 -0.020467054 0.0009208387 0.06534328
-0.012262949 0.011375003 -0.07732094 0.038977157 0.080347285 0.03905187 0.01137973 0.10828725
0.0058594337 -0.08731326 -0.091275804 -0.053260982 0.008716097 -0.052560195 0.0065685916 0.03289917
0.10734703 -0.06085606 0.042582426 0.034498483 -0.008543439 0.099193454 -0.015091235 0.07894899
0.04946789 0.119782165 0.06645377 -0.036698036 -0.048872743 0.025369281 0.0035432347 -0.042047493
-0.021476042 0.02933085 -0.105271466 0.046915263 -0.029966595 -0.013866816 0.037615865 0.067785434
-0.011265982 -0.009657124 0.032957934 -0.019872796 0.031306148 -0.06345108 0.06650959 0.09751742
-0.015383215 -0.010317263 0.028866868 -0.021158015 0.029420933 0.07324873 -0.039051317 0.053180303
00000000: 92f5 21bd 0ae0 42bd 7c23 d03c 931c c3bd
00000010: fcaf c13c 4afb 55bc c479 1ebc 9f64 5a3d
00000020: 5835 b9bd 4d05 90bd 1d99 4e3d 2a06 693b
00000030: b376 c73d 70c3 35bd 70b8 c8bd 5115 86bd
00000040: 4a0f 46bb 1aef 7cbd fb1d 8d3a 5aae 3fbc
00000050: 23c5 67bc 2b7f 993d 479a 963d 83c1 5ebd
00000060: d6c0 14bd e1fc 533d b319 d5bd ef13 b53d
00000070: f9f4 453d 651c 91bc 9e87 0ebd 323b 053d
00000080: ef20 f93d 4f7a a8ba 7519 29bd 4bf0 5bbd
00000090: 008b a9bd 72d4 923d b0f7 043d e5c7 183d
000000a0: b308 a4bc 320b 933d 6b78 78bc a463 9abc
000000b0: 457d 873c c928 133d 7e00 ae3d 8316 84bd
000000c0: c464 093d c080 bbbc 8bc1 343c e03d da3c
000000d0: 1b33 6d3d 5555 e1bd 9cf0 67bd 8bad cb3c
000000e0: c136 d33c 3690 323d 8c11 b73d ef8a 88bd
000000f0: 8979 153d debc e53a 0d38 b53c dd25 65bd
00000100: 9f5b 193c 930f abbd 6e6a 2eba 2412 843c
00000110: 546d 64bd 560d babd 9db4 0ebd 5794 e7bd
00000120: 8569 76b8 15cb 723d 3614 52bc 132a 513d
00000130: 6ade 9cbd 22bc 5cbd 6831 90bd bf5c f63d
00000140: 7bf5 87bb 4af8 c53c 16fe b3bc 698f 9cbd
00000150: 579d 55bd 47e7 b03d ac97 3b3d f8ff ac3d
00000160: 9520 863c 43ad 9bbd e349 713d 2a6f a73c
00000170: dc5f 833d 7a89 903d e161 933d 96a6 0a3c
00000180: 7fd6 f6bd c230 993d 93dc 97bd ff91 533b
00000190: a935 34bd e5a0 bb3b e6ad 8a3d e506 9fbd
000001a0: c898 c83d 2167 b0bd 505e a2bd 97fc 82bc
000001b0: 9838 583d 877e e3bc 4bb1 a9bd 5ca8 b4bc
000001c0: 6f56 003e 4d9c b33d 6fe7 283d 1ce6 d2bd
000001d0: 9793 cdbc 9806 ccbd bfcc ad3d 13ed 12bd
000001e0: e4fc 973d b483 4c3c 5fec 1ebd a38f 5d3c
000001f0: b489 733c c678 4fbc 2ac2 ce3d 920e 97bd
00000200: e81b 04bd db60 2b3c 54fa 8dbd f602 82bc
00000210: d226 98bd bc65 afbd dbaf 6cbd 4458 09bc
00000220: b2c6 34bd a7b2 83bd f05d bd3c 2eda babc
00000230: 74df 863d 711d d03c 98cf 2f3d 57d1 4fbd
00000240: 2952 8b3d 1a49 73bd 4671 aabc 0dfb 5bbd
00000250: 5c0f 92bc 5735 15bc e707 1fbd bf81 513d
00000260: accd 83bd ad43 52bd dc02 53bd 2a06 673d
00000270: 182d 99bd 36b0 02bd d09e 703c 42a4 893d
00000280: c697 49bd e17d 24bd 6c11 e13c 56c1 08bd
00000290: 0033 96bd a0b4 36bd 16b8 493c 635c 8dbd
000002a0: d0a6 84bd 6517 1abd c09e 333c 2307 953d
000002b0: 19b3 35bd f9ef a73d 5383 9bbd 67b2 afbc
000002c0: 0e81 9d3c bf87 22bc 7032 2dbd 7068 b3bb
000002d0: f984 553c 67a5 813c 784d 43bc abc3 923d
000002e0: 6768 a83d d0c1 8abd 73bc 34bd 5a56 203a
000002f0: 753b 043d 6ce2 25bb 36d8 863d f0b5 6cbc
00000300: 66ba a4bd 81ff e53c ca6b 1fbd 5363 4fbc
00000310: 0b66 0b3d 86aa a7bc 7064 713a b3d2 853d
00000320: 89ea 48bc 385e 3a3c 715a 9ebd 83a6 1f3d
00000330: 1e8d a43d dbf4 1f3d 0c72 3a3c b5c5 dd3d
00000340: 7e00 c03b 4bd1 b2bd cfee babd 3028 5abd
00000350: f6cd 0e3c 5c49 57bd 573d d73b 48c1 063d
00000360: c2d8 db3d 3444 79bd e96a 2e3d 484e 0d3d
00000370: c8f9 0bbc f025 cb3d 3a41 77bc 02b0 a13d
00000380: d89e 4a3d 5a50 f53d ea18 883d ae50 16bd
00000390: c92e 48bd 3dd3 cf3c 9d35 683b fe39 2cbd
000003a0: 86ee afbc 4047 f03c 9198 d7bd 382a 403d
000003b0: 817c f5bc a431 63bc 1813 1a3d 17d3 8a3d
000003c0: f494 38bc ea38 1ebc e6fe 063d 46cc a2bc
000003d0: e03a 003d a4f2 81bd 2e36 883d 37b7 c73d
000003e0: e109 7cbc bd09 29bc 367a ec3c 9353 adbc
000003f0: 2b04 f13c 6e03 963d 46f4 1fbd 97d3 593d

lstm.bias_ih_l1 f4 [512]
0.08520764 -0.03150936 -0.030910874 -0.01601648 -0.016957162 0.0013958392 -0.036824916 0.03664359
-0.05310495 0.027523577 -0.031826477 -0.014782421 -0.0049131084 -0.03926194 -0.038838033 0.09158328
0.043533064 0.0835063 0.013982405 -0.07701582 0.021605259 -0.052208137 0.0587736 0.07740953
-0.050424367 -0.033921532 -0.03220206 0.058751956 -0.009247275 0.027267888 -0.06533892 -0.062230162
-0.018580439 -0.009731386 0.07894814 -0.08051261 -0.033071253 -0.042374887 0.10430863 -0.06663399
-0.04015078 -0.06137354 -0.07374316 0.020952767 0.035583314 0.057630792 -0.06273021 0.05944491
0.10270928 -0.025591081 0.00847563 0.012072444 -0.063973956 0.048045233 0.076386385 -0.03319234
0.041570775 0.027282823 0.06113628 0.0829472 -0.013464657 0.008081488 -0.0026680476 -0.06367229
0.041635133 -0.055113472 0.045846984 -0.0011193013 -0.042195283 0.037119314 0.0073772226 0.0050023845
-0.010885948 -0.01781864 0.06245431 0.07666894 0.04966174 -0.042813163 0.079987176 0.016135959
0.044930432 0.056708075 0.00033275806 -0.018975481 0.062250294 0.05852158 -0.051543683 0.08263159
-0.024218718 -0.02713618 -0.014505356 0.028424399 -0.009229679 -0.005651297 0.059129126 0.059953805
0.0869112 0.09086634 -0.036413267 -0.083813235 -0.007286338 0.005713217 0.007719185 -0.0047673727
-0.02148108 -0.050026767 -0.03895434 -0.06897138 0.058103923 0.047718685 0.053161185 0.011443334
0.008410868 -0.01841112 0.05792639 0.006421474 -0.09362477 -0.023421045 0.019861145 0.0077969935
-0.028719522 0.026504302 0.034598116 0.045963224 0.044040628 -0.07050373 0.033471357 0.08632143
0.06268722 0.035095494 0.07954693 -0.015733855 0.024222216 0.01834933 0.015370642 0.045703344
0.08540741 -0.062328976 -0.080221504 -0.015315828 -0.0910775 -0.048460625 -0.013215959 0.08049498
0.07749982 0.02196885 -0.0046824636 -0.026347162 0.09129579 -0.019704912 -0.043361027 -0.02599077
0.055706225 0.0042897374 0.05826728 0.044786293 0.09030889 0.07132726 0.059649426 -0.05545443
0.049267735 -0.0139962435 0.01085028 0.010771661 -0.004601763 0.034980718 -0.008297818 0.033876803
0.09314037 0.06368102 0.047644775 -0.028194487 -0.049294174 0.08492693 -0.03063185 0.021087859
-0.042350747 0.022302488 -0.025428597 -0.03556824 -0.027092226 0.04822152 -0.052494094 0.077224255
-0.021578265 0.013899812 0.06814078 0.09065732 0.056087967 -0.019464966 0.0074270107 -0.030348297
0.06528803 0.037259758 0.06765458 -0.065071076 -0.0013936409 -0.055102844 0.08892349 0.0809389
-0.061721016 0.037941724 0.019444996 -0.010719548 -0.022351462 -0.017605452 0.061832037 -0.014922464
0.07004481 0.03774532 0.009634382 -0.016245753 -0.020037191 0.0146403415 0.08026162 0.03383433
-0.06742567 0.10365692 -0.033813808 0.017207056 -0.0046586203 0.042533472 0.03639717 0.0539576
-0.054744072 -0.02934321 0.01582633 -0.032889906 0.06247793 -0.014692856 -0.07079688 0.08056877
-0.06905454 0.07052453 -0.060728323 0.038189016 0.033446398 0.03310414 -0.029496476 0.008162191
0.0728761 -0.004870606 -0.018052673 0.020055573 0.058800355 -0.009021694 0.0065758717 0.034336567
0.053728398 0.013803542 0.03685858 -0.039067443 0.044490274 0.049194325 -0.032193556 -0.04901651
00000000: 5881 ae3d f50f 01bd cd38 fdbc fe34 83bc
00000010: bfe9 8abc 97f4 b63a b9d5 16bd 9717 163d
00000020: 9384 59bd 2079 e13c 7b5c 02bd f831 72bc
00000030: 24fe a0bb 21d1 20bd a114 1fbd 0490 bb3d
00000040: ba4f 323d 5a05 ab3d 7516 653c 78ba 9dbd
00000050: 83fd b03c 33d8 55bd 96bc 703d e388 9e3d
00000060: c889 4ebd 4ef1 0abd 4fe6 03bd e4a5 703d
00000070: e281 17bc e860 df3c 69d0 85bd 0ee5 7ebd
00000080: 0136 98bc 6470 1fbc 90af a13d cce3 a4bd
00000090: b975 07bd 4a91 2dbd c39f d53d 6777 88bd
000000a0: 2575 24bd d262 7bbd a706 97bd 23a5 ab3c
000000b0: cfbf 113d 440e 6c3d b278 80bd 827c 733d
000000c0: 3e59 d23d 63a4 d1bc 5edd 0a3c 80cb 453c
000000d0: c704 83bd 14cb 443d 7770 9c3d b1f4 07bd
000000e0: 1e46 2a3d 3a80 df3c 096a 7a3d 39e0 a93d
000000f0: dd9a 5cbc 3868 043c 69da 2ebb 9e66 82bd
00000100: 9a89 2a3d aabe 61bd 0cca 3b3d 85b5 92ba
00000110: f6d4 2cbd 6c0a 183d a1bc f13b 0beb a33b
00000120: fa5a 32bc 66f8 91bc 17d0 7f3d 9b04 9d3d
00000130: 1c6a 4b3d db5c 2fbd 51d0 a33d 8f2f 843c
00000140: f908 383d ba46 683d 0876 ae39 7872 9bbc
00000150: 2afa 7e3d 53b4 6f3d 781f 53bd c03a a93d
00000160: 5566 c6bc b24c debc dfa7 6dbc 49da e83c
00000170: 1438 17bc 842e b9bb 6231 723d 1f92 753d
00000180: 80fe b13d 2218 ba3d 1426 15bd 46a6 abbd
00000190: 3cc2 eebb f035 bb3b 38f1 fc3b 9f37 9cbb
000001a0: 17f9 afbc dee8 4cbd 968e 1fbd de40 8dbd
000001b0: 61fe 6d3d ab74 433d 8bbf 593d d27c 3b3c
000001c0: bdcd 093c ebd2 96bc 3944 6d3d 3a6b d23b
000001d0: 58be bfbd 7edd bfbc d7b3 a23c ec7d ff3b
000001e0: 3445 ebbc 8d1f d93c c1b6 0d3d ef43 3c3d
000001f0: f263 343d 4264 90bd 4319 093d 4ac9 b03d
00000200: 2862 803d 4bc0 0f3d 80e9 a23d 49e4 80bc
00000210: ab6d c63c 5651 963c 25d5 7b3c 6e33 3b3d
00000220: 15ea ae3d ab4c 7fbd 2c4b a4bd 3def 7abc
00000230: d786 babd a67e 46bd c087 58bc 8dda a43d
00000240: 3ab8 9e3d 05f8 b33c 5a6f 99bb 01d6 d7bc
00000250: 4af9 ba3d 326c a1bc 559b 31bd 98ea d4bc
00000260: 362c 643d ed90 8c3b aca9 6e3d d571 373d
00000270: def3 b83d 0714 923d f552 743d 2f24 63bd
00000280: f7cc 493d 8050 65bc 5fc5 313c 9f7b 303c
00000290: 63ca 96bb f147 0f3d 92f3 07bc 67c2 0a3d
000002a0: 61c0 be3d 326b 823d 2b27 433d 20f8 e6bc
000002b0: b0e8 49bd 2cee ad3d a5ef fabc 72c0 ac3c
000002c0: fa77 2dbd b5b3 b63c a24f d0bc 01b0 11bd
000002d0: 84f0 ddbc ee83 453d 0c04 57bd c027 9e3d
000002e0: e7c4 b0bc 09bc 633c 658d 8b3d 8caa b93d
000002f0: 7fbc 653d fe74 9fbc 485e f33b fe9c f8bc
00000300: bbb5 853d b09d 183d 7c8e 8a3d fc43 85bd
00000310: d4aa b6ba 85b3 61bd 851d b63d 4bc3 a53d
00000320: 2dcf 7cbd c868 1b3d 1d4b 9f3c 0ba1 2fbc
00000330: 6a1a b7bc 4f39 90bc 9743 7d3d 5a7d 74bc
00000340: a773 8f3d d69a 1a3d 87d9 1d3c d015 85bc
00000350: 0925 a4bc 0bde 6f3c 3460 a43d de95 0a3d
00000360: 7816 8abd 144a d43d 5980 0abd d0f5 8c3c
00000370: 57a7 98bb 9437 2e3d 3315 153d a502 5d3d
00000380: 523b 60bd 2c61 f0bc 38a6 813c 91b7 06bd
00000390: dce8 7f3d 4eba 70bc f4fd 90bd 3d01 a53d
000003a0: 776c 8dbd 2a6f 903d 43be 78bd 166c 1c3d
000003b0: 17ff 083d 3598 073d 98a2 f1bc b6ba 053c
000003c0: 1140 953d 9b99 9fbb 33e3 93bc 964b a43c
000003d0: a4d8 703d bacf 13bc 697a d73b 80a4 0c3d
000003e0: 4f12 5c3d 4028 623c 06f9 163d 2f05 20bd
000003f0: 6f3b 363d fd7f 493d 64dd 03bd 89c5 48bd
