Data/PredictionsData/AB19.pth (torch, 828430 bytes, 10 tensors)

lstm.weight_ih_l0 f4 [512, 13]
00000000: 5b9b 833d 7042 d93c 9b11 053d a38e d9bd
00000010: 2f6f cbba f63c c23b 40da 203d f833 fcbd
00000020: 1335 d9bc 9c2a e6bc 0145 8b3d 3eca fb3c
00000030: 551a 7abd d260 f73b 10ac 10bd 58d0 96bd
00000040: f429 b13d 6b32 49bd c08c 08bd 6f11 1cbc
00000050: 4d95 b63d 9df5 53bd 2c14 9abc 3e82 97bd
00000060: 61bb 723d 4ba5 47bc 4dc6 01bd ac85 bd3c
00000070: 809f 1bbd f225 2dbd 8fea 963b 0409 953d
00000080: b9d2 e8bd ed69 133c c2e3 b4bd d7b0 b53d
00000090: 746c d5bc b83a 5b3d 59ae 413d cc92 09bd
000000a0: c885 2c3d 0c77 3cbd b289 63bd 19ea 90bd
000000b0: 5e44 633c 3f32 043e 760f d13d 4883 aebd
000000c0: 1f40 453d dd5b 353d b745 48bd aba5 0ebc
000000d0: b3a3 d43d f501 00bd 5b8d 7a3c 8b70 94bd
000000e0: 2faf 703c 31be 5abd 6097 95bd f183 213d
000000f0: 96d3 9abd 9fb9 6fbd 109e 003d 892f 113c
00000100: 5393 2bbd 515d dbbc 5740 1dbc c142 4c3d
00000110: 4cc2 903c 76f4 2dbd b48f d73c 4048 453d
00000120: e34a b63d 6cf0 923d 4931 04be af70 d83d
00000130: 1ce9 a7bb a69d f93d e1ba 4fbd 48be efbc
00000140: 3cbc 0c3b 73f7 9abd e4b9 14bd 2ac3 1dbd
00000150: 091f 953d 8637 f03d e8d5 91bd 1adf fc3b
00000160: ed57 a73d 71d1 433d bad6 12bd 6878 6fbd
00000170: 813c c3bb 44ea e13b 7ce5 203d 480d 9dbd
00000180: 94e1 a8bd f0ea c73d 8d5a e53d 291c ce3d
00000190: d598 983d d4b9 89bc 98c1 7ebd fda0 e53d
000001a0: 8d13 4bbd 648d 363c d2e2 25bd 232d 17bd
000001b0: 58d9 25bd 37e8 d3bb 721c 8dbd 1992 e1bc
000001c0: 3e04 0ebd 3274 3c3c 872b 15bd d070 b2bd
000001d0: 5190 f8bb 9645 db3c 7303 643d 5631 67bd
000001e0: 586e 83bd 92b3 873d 7887 bebd 9736 d6bc
000001f0: 3108 b1bc 179a 06bc 2ac0 82bd 0b08 3f3d
00000200: b231 0ebb 2c77 9a3d abcd 233d 9699 a63d
00000210: 0d65 103e bff0 a4bc 3aec e5b9 6acf 64bc
00000220: c209 c2bc 4093 edbb 9df1 863d 63e2 afbd
00000230: 665b ac3d 27aa 423d fd2f 76bc 05dc 7a3d
00000240: 776b 733d 8559 37bd 91f8 f139 4639 023c
00000250: b87d 113d 0e37 9e3d df8b e4bc c8f6 86bd
00000260: 39f2 b03d 12e0 c9bd 9762 a0bd aee9 37bd
00000270: 6c77 903d 0c30 8c3d aa22 98bd bd38 a43d
00000280: b3a9 32bc 774e 88bd 0798 28bd 2db7 2e3d
00000290: 11cb 74bd d3e0 6e3c b2c6 97bd eb44 c9bd
000002a0: 21c8 a03d 169f 72bd 0eb8 38bd c544 d73d
000002b0: 32ff b73d 4822 88bd cff5 7b3c 71fc cc3d
000002c0: 14cb af3d 4223 233d 5931 77bd 5c68 42bd
000002d0: 111e 313b a9ad 7bbd 087d 3abc 0c9a 89bd
000002e0: 9534 c3bd 8efb af3c 88d4 b4bd 6f48 c2bd
000002f0: 0210 bc3d a073 22bd 7b9b b9bc f0f6 2b3b
00000300: 6c22 95bb 25ed d0bc 91a5 a53c 7ec3 1ebd
00000310: c7a3 d3bc e6b9 01bd fa9f 8bbd 803e 84bc
00000320: 0cb1 d93c c3ad a0bb 2b1f b13d d447 ba3d
00000330: 4642 043d c6b2 083e 37f1 54bb d611 90bc
00000340: 9c99 05be 7452 afbc 6273 13be 1e01 f8bd
00000350: 15c2 863d 9768 8b3d 9b29 83bc b044 febd
00000360: 8f8e cb3d ff09 4ebd 86f3 663d 4b95 7ebc
00000370: 6ed1 f13d 8fd4 773c 52d2 c03d b679 603d
00000380: 1dd0 55bd 6d10 4abc 1896 0ebc 8717 323c
00000390: 7809 dd3d 83d7 d5bd 60ca 723c 3020 113d
000003a0: a217 373d 395f 9abd 3faa 9b3d 5eda ac3d
000003b0: 8452 2f3d bf0e 49bd 544c e8bb 209c b9bb
000003c0: 2afc ecbc ac7e c03d 5b19 673c 8240 023d
000003d0: 1b31 69bc 439c 47bd 520d f03d 89e4 333d
000003e0: d8c9 293d ff6f c6bd 3de5 eabb c9e3 1c3e
000003f0: 3b8b c9bd d464 ddbd 6f3b e13c d699 ebbc
0.06426116 0.026520938 0.032487493 -0.10622909 -0.0015520806 0.0059276773 0.03927064 -0.123146
-0.026514566 -0.02809649 0.06800271 0.030736085 -0.06106027 0.0075493837 -0.03532034 -0.07363957
0.0865058 -0.049120348 -0.033337355 -0.009525641 0.089151956 -0.051747907 -0.018808447 -0.073978886
0.05926073 -0.012185405 -0.031683255 0.023135029 -0.037993908 -0.042272516 0.0046055983 0.0727711
-0.11368317 0.008997423 -0.08832504 0.0887162 -0.026052691 0.053522795 0.04728541 -0.033587262
0.04211977 -0.04601197 -0.05555124 -0.070759006 0.0138712805 0.12909792 0.10208027 -0.08521134
0.048156854 0.04427706 -0.04889461 -0.0087064905 0.10382786 -0.031251866 0.015292491 -0.07248028
0.0146902045 -0.053404037 -0.07304263 0.03943247 -0.07559888 -0.05852663 0.03140074 0.008861431
-0.041888546 -0.026777895 -0.009597859 0.04986835 0.017670773 -0.042469464 0.02631364 0.048164606
0.08901002 0.07174763 -0.12909426 0.10568368 -0.0051242243 0.12188272 -0.05071533 -0.029265538
0.00214745 -0.075667284 -0.03631009 -0.0385162 0.0728131 0.1172934 -0.071208775 0.0077170255
0.081710674 0.04780716 -0.03584931 -0.058464438 -0.0059581404 0.0068943817 0.039281353 -0.07668549
-0.082461506 0.09761608 0.11198912 0.10063965 0.074510254 -0.016812243 -0.062196344 0.11212347
-0.049579192 0.011142109 -0.040499516 -0.03690828 -0.04049048 -0.006466891 -0.06890191 -0.027535485
-0.034672014 0.0115023125 -0.036418464 -0.087129235 -0.007585563 0.02676658 0.055667352 -0.056443535
-0.06417531 0.06626047 -0.09303182 -0.026149077 -0.021610351 -0.008215449 -0.06384309 0.04663853
-0.0021697101 0.075422615 0.039991062 0.08134763 0.14101048 -0.020134328 -0.00043854286 -0.013965467
-0.023686294 -0.0072502196 0.06589053 -0.08588102 0.0841587 0.04752555 -0.01502609 0.061244983
0.05942866 -0.044763107 0.00046152298 0.007948225 0.035520285 0.077253446 -0.027898727 -0.065900385
0.0863995 -0.09857191 -0.078313045 -0.04490059 0.07054028 0.06845102 -0.07428487 0.080186345
-0.010904717 -0.06655591 -0.04116061 0.04265516 -0.05976397 0.014579969 -0.07410945 -0.09827598
0.078506716 -0.059233747 -0.045097403 0.105111636 0.089842215 -0.06647164 0.01537843 0.10009087
0.08583656 0.039828546 -0.060349796 -0.047462806 0.0027025978 -0.061444912 -0.011382349 -0.06718835
-0.095315136 0.021482255 -0.088295996 -0.09486472 0.09182741 -0.03966105 -0.022657147 0.0026239716
-0.0045512225 -0.025503704 0.02022055 -0.038760655 -0.025834931 -0.031671427 -0.068176225 -0.016143084
0.02657368 -0.0049035265 0.08648523 0.090957314 0.032289766 0.13349447 -0.0032492408 -0.01758663
-0.13046879 -0.021401621 -0.14399484 -0.12109588 0.06579987 0.06807058 -0.01601105 -0.12415445
0.099393 -0.0503025 0.056384586 -0.015538524 0.11807524 0.0151263615 0.094151154 0.054803573
-0.052200425 -0.012333018 -0.008702777 0.010869867 0.10792822 -0.10441496 0.014818758 0.035431087
0.044700272 -0.075376935 0.07600831 0.08440088 0.042803302 -0.04908633 -0.007089177 -0.0056643635
-0.028928835 0.09399161 0.014105166 0.0317998 -0.014232899 -0.048733007 0.11721291 0.04391912
0.04145226 -0.0968933 -0.0071684406 0.15321268 -0.09841009 -0.10810247 0.02749416 -0.028759878

lstm.weight_hh_l0 f4 [512, 128]
00000000: e038 83bd 2e66 d9bc f9ad a7bc f3e7 89bd
00000010: 88d2 edbd c339 6d3d fe9c 9cbd 4e04 343d
00000020: bd60 1f3b f4e2 39bd d1e5 d6bc ebc9 07bd
00000030: 4d63 20bd c6ea 493d f8d8 abbd cb24 d4bc
00000040: 3891 34bd 36bf cdbb d356 b9bd 30c6 143d
00000050: 99b3 373d 22e5 1ebc 5112 62bd db86 d2bd
00000060: 4315 8c3d 8769 58bd 5f06 afbd 06bd 85bc
00000070: 4989 13bd af1e a7bd bfdc 0e3d 8e9f 263d
00000080: b01a 753c 25c9 cf3d 7eb3 85bb d948 9cbd
00000090: e681 84bd 6977 07bd 6ada 03bd 9187 d43c
000000a0: ac05 9a3d 7fc3 66bc d43f 863d 5f7a 46bc
000000b0: 13ec 50bc ed53 a53d aa9f bb3d 268a 2d3d
000000c0: e501 333d ad43 003c d713 123e 4641 63b9
000000d0: 11b0 c63c 0884 bbbb f38a 7cbd b68c 6dbc
000000e0: a9d7 6d3d ad02 eebd 9bf4 6b3d 8808 bcbc
000000f0: 8684 eabd 4e8d 383d 80ef 6fbd 8ada 833c
00000100: a209 063c dcec f2bd b85d 90bd 8a1e e6bc
00000110: eaf9 583c 6951 babd 0296 43bc 0b7d debb
00000120: b581 babd 6454 c2bd 462f a1bd 2b3a ad3d
00000130: ab32 fc39 a3f9 f83c c554 3e3c aa1d 1ebd
00000140: 1fc2 babc 4363 243b 5a45 c63d 92a4 3ebd
00000150: d450 babd 7db8 19bd 65bc 0abd 14fa d43b
00000160: de82 ebbd a74a b2bc 2025 7bbd 3280 f03c
00000170: a6c4 6cbb 807a a03d 1e65 163d 794e 37bd
00000180: 363e 553d f5cc 73bc 6b1c 1cbd 893b 0fbe
00000190: c691 7c3c 7f27 e4bb e002 62bb 61ee 04bd
000001a0: 8c95 b2bc 9176 b33c c229 30bd 13fa bcbd
000001b0: 380b 1d3d f43f 903d c56d d7bd 1371 adbd
000001c0: 64b4 9139 6a5d 453c ac06 47bd 4eb6 723d
000001d0: 7fd1 ff3c c4bb 843d 5b10 a6bc 5856 0dbd
000001e0: 101e 403d 6e8a e6bc 2c55 b23d cfee 3fbd
000001f0: 17fe 7dbd 41d9 b33d d98c 853c dd10 99bc
00000200: 72cf 80bd 243f c3bd 3970 183d d1b5 1d3c
00000210: ea2a 2dbd 85be e2bc 9e8e a8bd 2f02 843d
00000220: 6ada 03bd fb00 90bc 5474 edbc 9961 123d
00000230: 2819 0fbd 2226 27bd e303 dd3b 0a73 873d
00000240: ef22 b7bd 6551 c3bd f659 4f3d 144d 91bc
00000250: 5a82 9a3d dac1 173d ae77 9bbc 87b5 e43d
00000260: 11c2 d43c dc0c 1abd cab9 59bd 14b0 9ebd
00000270: 5097 c3bb 056a ccbd 66a7 9dbb eacb e53a
00000280: 7348 cdbc ab06 3dbd 9a18 6a3d 5532 91bc
00000290: 0c2d 723d 55b8 b5bb ec29 933c 49da 66bd
000002a0: b301 e53d 5d1f 163d 2e7c 4ebd c65d 6c3d
000002b0: 2641 33bd 93ee a8bd 2df8 37bd ce99 77bd
000002c0: 142c f8bc e6d0 afbc 66f0 aabd 6559 6bbd
000002d0: ccdc 2a3c a72a afba 2f02 973c 2f3a 9e3c
000002e0: ea4a 9e3c f9d3 8b3c 0748 913d 9cf3 28bd
000002f0: 18ef b03b 1359 c33c 95c3 c1bd 77e6 cfbc
00000300: 8d52 5c3d c7fd f0bb f888 543d baec 37bc
00000310: 7f56 cdbd 75d0 68bc d718 21bd cd77 9fbc
00000320: e78b c9bd 8f10 f3bd 5e2d 103d af23 62bd
00000330: 89e3 da3d accf ddbb 3d3b d4bd beb9 02bc
00000340: 910c ca3c 8d84 ac3b 2a39 683c e3e0 53ba
00000350: 1708 9b3d 0e1a d33b d3f7 71bd de84 613c
00000360: 9c77 10be 0532 efbd 06ce fcbd dfd3 493d
00000370: 8901 0ebd 413a 16bd fccb de3c d614 583d
00000380: 9dba 26be 5d40 a9bd 126c 53bd 04d2 52bd
00000390: b511 48bd 8b05 853d d313 adbd bb2f 2abd
000003a0: 5d41 963d f709 b0bc 8feb 7e3d c2b4 b3bd
000003b0: f4c1 1f3d db70 ef39 fb76 8abd 3a4e 9cbc
000003c0: fef4 563d 78ad 263d c749 bfbd 7bc3 0abd
000003d0: a7d2 0b3d 817e 383d f6e0 4c3d 25a8 993c
000003e0: 80a5 d63d 61d5 c83c ba2e c2bd c18a d73d
000003f0: 0916 be3d bfc3 7d3d ce0a b6bc ced8 9cbd
-0.064073324 -0.02653798 -0.020468699 -0.06733694 -0.11612421 0.057916414 -0.076471314 0.043949418
0.0024319135 -0.045382455 -0.026232632 -0.03315155 -0.0391572 0.049296163 -0.08390993 -0.02589645
-0.044083804 -0.0062788976 -0.090497635 0.03632182 0.044849012 -0.009698184 -0.05519325 -0.10279628
0.06839993 -0.052835014 -0.08546137 -0.016325485 -0.036019597 -0.08160149 0.03487849 0.040679507
0.014959976 0.10145787 -0.004080235 -0.07631082 -0.06470089 -0.033072863 -0.032190718 0.02594355
0.07520613 -0.014084696 0.06555143 -0.0121141365 -0.012751597 0.08072648 0.09161313 0.042368077
0.04370298 0.007828635 0.14265381 -0.00021672723 0.024253877 -0.0057225265 -0.06165595 -0.01449888
0.058066998 -0.11621604 0.05760632 -0.022953287 -0.11451058 0.045056634 -0.058578014 0.016095418
0.008181008 -0.118615836 -0.070491254 -0.028090734 0.013243178 -0.09097559 -0.01193762 -0.0067898086
-0.09106771 -0.094887525 -0.07870345 0.0845836 0.00048102936 0.030392474 0.01161689 -0.03860251
-0.022797642 0.0025083579 0.096811965 -0.046543665 -0.09097448 -0.037529457 -0.033871073 0.006499538
-0.1149957 -0.021764113 -0.061314702 0.029358003 -0.0036127954 0.07835865 0.036717527 -0.04475257
0.052061282 -0.0148804085 -0.03811304 -0.13987555 0.0154156145 -0.006962716 -0.0034486577 -0.0324539
-0.021799825 0.021907123 -0.043008573 -0.09227385 0.038340777 0.07043448 -0.10518984 -0.08468833
0.00027790957 0.012046197 -0.048590347 0.05925589 0.031227825 0.06481126 -0.02027147 -0.034506172
0.04690367 -0.02814218 0.087076515 -0.046858605 -0.062009897 0.08781672 0.016302513 -0.018684799
-0.06289567 -0.095335275 0.0372164 0.009625868 -0.042277254 -0.027678737 -0.08230327 0.06445729
-0.032190718 -0.017578593 -0.028986134 0.035737608 -0.0349361 -0.04080785 0.006744848 0.06613739
-0.0894221 -0.09537009 0.050622903 -0.017736949 0.07544394 0.037050106 -0.018977966 0.11167436
0.025971444 -0.03760992 -0.053155698 -0.07748428 -0.0059689656 -0.09981159 -0.004811215 0.0017532085
-0.02505896 -0.046148937 0.057152368 -0.017724195 0.05912499 -0.0055456557 0.017964326 -0.056360517
0.11181965 0.036651004 -0.050411396 0.057706617 -0.043763302 -0.082486294 -0.044914413 -0.060449414
-0.030294456 -0.021461915 -0.083466336 -0.0574583 0.010428619 -0.0013364152 0.018433658 0.019314853
0.019322831 0.01706885 0.07093816 -0.04124795 0.005399596 0.023846185 -0.094611324 -0.025378449
0.053789664 -0.0073544714 0.051888436 -0.011225874 -0.100262634 -0.014209856 -0.03933033 -0.019466305
-0.098411374 -0.11868393 0.035199516 -0.05520981 0.1068793 -0.006769141 -0.10362861 -0.007978855
0.024664195 0.0052648247 0.014173785 -0.0008082522 0.075699024 0.006442315 -0.059074234 0.013764588
-0.14108127 -0.11679462 -0.12343983 0.04927432 -0.034669433 -0.03667665 0.027196877 0.052754246
-0.16282125 -0.082642294 -0.051616736 -0.051469818 -0.04884501 0.06495198 -0.08451047 -0.041549426
0.07336686 -0.021489127 0.062236365 -0.08774711 0.039003327 0.00045669716 -0.06760975 -0.01908027
0.052479737 0.040692776 -0.09340244 -0.03387783 0.03413644 0.04504252 0.050019227 0.018756935
0.10480785 0.02451581 -0.09481569 0.10524512 0.092815466 0.061954256 -0.022221949 -0.0765854

lstm.bias_ih_l0 f4 [512]
00000000: 66b5 ce3d 05d8 eabc ca28 423d 9fb3 223d
00000010: 028d 903d c2dd cfbc 7664 b33d 1998 0f3d
00000020: 63ac be3d 56e8 cbbb ab0a 46bd 83b8 12bd
00000030: 38d8 fc3b 3180 95bd 1ee2 903c 972f 58bd
00000040: 2006 c93d 9a1a 6e3d 49bb e83d c8eb 853d
00000050: afc1 973d 3fe5 a7bc 509f 8d3d 1117 74bc
00000060: 979a afbc 534f bf3d 548c 36bd 7f44 803d
00000070: 0816 313d aa89 283d 31aa 303d c4bf 603d
00000080: a580 ab3b a66a 95bb c8c5 cb3d e3f7 b93c
00000090: 054b 4f3d b1d3 b53d 1216 c1bc 86c6 c63c
000000a0: f040 eb3d fc49 e03d 094b 8dbc 0373 a83d
000000b0: 6245 c73d 97ba 963d aff4 b4bc 01b8 773d
000000c0: 04b2 783d df4e 0c3d 64e8 34bc a4e1 fd3c
000000d0: 4901 5cbd 723c 10bc f45d c63c 7216 a53d
000000e0: 90cf 2a3d 602c c43d 43c1 5ebd 7bc2 a63d
000000f0: 4ba9 0bbd 971a 523d cf87 823c 4455 983d
00000100: 3c79 9bb8 ccaf c13d 418d 8d3c a67e b93d
00000110: 1d79 963d 9fb0 ea3d e12c cc3d 93b9 20bd
00000120: 54da b33d 1e4f 8cbb 9fa0 223d bc56 973d
00000130: e677 65bd 7d91 13bd b920 223c e6cb d5bc
00000140: 15a6 953d b380 8b3b 26d8 b43d 8520 33bd
00000150: f082 f13d 2db4 50bc 2fd8 babc ee39 d9bc
00000160: 6009 003d 4390 123d 1826 a8bc 1e1c 2b3d
00000170: d055 8d3b 43e0 06bd b411 90ba 4a54 68bd
00000180: 09b1 c43d 2cf4 4e3d cf02 80bc 4315 d03d
00000190: 3062 343c 9bb0 883c 9338 3cbd 798d c33c
000001a0: ced4 48bd 5c78 fd3d aa42 54bd 884d 603d
000001b0: 5398 49bd 75fc ccbc 85ac 9bbc 9e9a ea3d
000001c0: 3ae0 9bbd bfc1 dcbc a2cd a13d 7c97 533c
000001d0: a040 cf3d 3de1 93bd 8095 273d edb9 8fbd
000001e0: 80bd cd3d 148d af3d 4173 8d3d 0a4d d13d
000001f0: fa90 bdbc 451a ff3d cef8 88bc 3bf9 ec3c
00000200: e021 73bd 5ba2 efba f8d2 b13d d114 3cbd
00000210: 50d3 3f36 3223 773c 9f4e 85bc 71c4 043c
00000220: d24a 923d f6b3 49bb 908a f03d ac65 e33d
00000230: f949 c13d 2e38 7a3d 8c96 e9bc 707a 013c
00000240: 31c8 893d 4554 993c 74b1 13bd b1fe 83bc
00000250: fbed e8bc a379 2a3d 14b0 373c 8569 ef3d
00000260: 10d6 a23d bda8 d23d 6bf7 0abd 96ad b53d
00000270: ab94 fbbc 5f36 0abd a43a 93bd bbf8 b0bc
00000280: 8130 e03d cc82 493d d9d6 66bd 1a76 903d
00000290: 1f19 d93c 8142 86bc 5f76 9d3d 3dde 37bd
000002a0: a9ed ee3d 6769 543d 17df dc3c 10cf 7b3d
000002b0: 254a b43c 0581 aebc e3d0 793d 11bd 7c3c
000002c0: b319 383c d7bc b23d ec85 b43c 3fd5 bc3c
000002d0: 7db9 23bd 5f8d 39bb cd5c 903d 7bec bc3d
000002e0: 2d16 3c3d 0697 523c 86e4 60bc 0ee0 a43d
000002f0: 1fc5 8f3c be91 573d b085 953d f4ba 253c
00000300: d1bf 0fbc 3b6f 343d 7283 e33d bc79 3c3d
00000310: 5cf7 58bd f870 8d3d f456 87bc 94b5 853d
00000320: 90ee 7e3c 3231 66bc 620a c13c 9c1e 6db7
00000330: 7b90 a0bc f238 a93d 8894 8d3d a73c 313d
00000340: 91fb 35bd dc34 553d 2a34 c53c 63ea b63d
00000350: 3e18 973d b0b8 f63d 5027 bd3d 1efa bbbb
00000360: fb72 c03d ed16 133a 3683 58bd 8b1a e83d
00000370: 4fbe e5bc f993 abbb c7dc e03d 0cab a23d
00000380: 1bb7 94ba 56d6 bf3c 57b7 89bd 3a9a bfbc
00000390: d6e2 003d e8fd f7bb 09a9 59bd dd42 14bc
000003a0: 4c51 ec3c 39ce 89bb 8b5e 403d 93cd 2b3c
000003b0: 62d3 003d 34b2 5bbc 1cd5 bbbc b558 d53d
000003c0: 2ad2 ae3d 6b96 873c 38b1 873d 393c c93d
000003d0: 8ae3 43bd afb4 29bd 9e5d 013e a24b f13c
000003e0: 9745 693d 7b65 8dbc b171 7a3c 496b 16bd
000003f0: ace2 193d b806 6c3d cdcd ba3d d822 a7bb
0.10093193 -0.02866746 0.04740218 0.03972208 0.07058145 -0.025374297 0.08759396 0.03505716
0.09310224 -0.006222765 -0.048350018 -0.035820495 0.007716205 -0.07299841 0.017685946 -0.05277976
0.098156214 0.058130838 0.11363847 0.06539112 0.07409989 -0.020495055 0.06915152 -0.014898078
-0.021436019 0.09341302 -0.04456742 0.062630646 0.0432339 0.04114691 0.043131057 0.054870382
0.0052338415 -0.0045598326 0.09949833 0.02270121 0.050608654 0.088782676 -0.023570094 0.024264585
0.11486995 0.109516114 -0.017247694 0.08225062 0.097300306 0.07359808 -0.02208933 0.060478214
0.060716644 0.034254905 -0.011041734 0.030991383 -0.053712163 -0.008803474 0.024214722 0.08060922
0.041701853 0.09578776 -0.054383527 0.08142563 -0.034096997 0.05129489 0.0159339 0.07438138
-7.4135576e-05 0.09457359 0.01727927 0.090573594 0.07347319 0.11459469 0.099694975 -0.039239477
0.08781877 -0.0042818924 0.03970396 0.0738959 -0.056022547 -0.03602742 0.009895497 -0.026098203
0.07307068 0.0042572855 0.088302895 -0.043732185 0.117925525 -0.01273827 -0.022808162 -0.02651688
0.03125894 0.03578211 -0.020525977 0.04177486 0.004313208 -0.032928716 -0.0010991604 -0.05672101
0.09604079 0.05052583 -0.01562634 0.10160305 0.011009738 0.016685775 -0.04595239 0.02387117
-0.04903107 0.12376472 -0.05182139 0.05476144 -0.049217533 -0.025022725 -0.019003162 0.11455272
-0.07611127 -0.026947854 0.079005495 0.012914535 0.10119748 -0.07220695 0.04091406 -0.070178844
0.1004591 0.085718304 0.069067486 0.10219772 -0.02314042 0.124561824 -0.016720202 0.028927436
-0.059358478 -0.0018282639 0.08682817 -0.04591829 2.8584218e-06 0.015084075 -0.016272841 0.008103476
0.07143177 -0.003077743 0.11745179 0.11103377 0.09437937 0.061088733 -0.02851417 0.0079027265
0.067276366 0.01871694 -0.036057904 -0.016112657 -0.02843379 0.041619908 0.011211414 0.11690048
0.079509854 0.102860905 -0.033927362 0.088709995 -0.030710539 -0.03374326 -0.07188919 -0.021602979
0.109467514 0.049197003 -0.05635724 0.07053776 0.026501236 -0.016389133 0.07688593 -0.044889677
0.11666424 0.051858332 0.026961846 0.061476767 0.022008011 -0.021301756 0.060990226 0.015425936
0.011236596 0.087274246 0.022036515 0.023050902 -0.039971817 -0.0028313024 0.0704895 0.092247926
0.045919586 0.01285339 -0.013726359 0.080505475 0.01755005 0.052629225 0.073008895 0.010115374
-0.00877376 0.04405139 0.111090556 0.046014532 -0.052970275 0.06906313 -0.016520955 0.06528774
0.015559807 -0.014049815 0.023564521 -1.4133428e-05 -0.019600144 0.082628146 0.06913096 0.043270733
-0.044429366 0.052052364 0.024072725 0.089314245 0.07377671 0.12046945 0.09236014 -0.0057366034
0.09396931 0.0005611021 -0.052859508 0.11333188 -0.028044848 -0.0052361456 0.1097961 0.07942781
-0.0011346074 0.023417633 -0.067244224 -0.02338897 0.031466328 -0.00756811 -0.05313972 -0.009049145
0.02884736 -0.004205492 0.046965163 0.010486024 0.03145159 -0.013409186 -0.022928767 0.1041731
0.08536179 0.016551217 0.06625599 0.0982594 -0.04782442 -0.04143208 0.12633368 0.02945501
0.05695113 -0.017260304 0.015285895 -0.03672341 0.037569687 0.057623595 0.09121285 -0.0051005892

lstm.bias_hh_l0 f4 [512]
00000000: cf16 063d 2032 8d3c abac bebc 5385 253d
00000010: 332e b8bc 82a2 e53d 3af8 49bd 6687 67bd
00000020: 06a9 2e3a 0233 c63d 98f9 ce3d dd48 d73d
00000030: 253b b23d fd4b dcbb ef8e 913d 5e7b 5d3d
00000040: 8e6b 15bc c65d a3bc e72a 06bd 8211 de3d
00000050: 3fcf 803d c482 bc3d 5ca1 8dbd f72b ce3d
00000060: ff02 913d 8e00 ba3d c2bf 883c dd0e 653b
00000070: 386d a13d 0cf9 50bd ddd0 563c d4b1 2ebd
00000080: 0f6d 353d f835 4e3d e615 b83d a320 8bbc
00000090: 44dd 393d a322 98bc 5eda 6abc f29d e73d
000000a0: ada9 a5bc 3f12 9c3b c0d2 093e 39ea e0bc
000000b0: 2c23 75bc f47d 05bd 6364 a03d cefc aebc
000000c0: 1f8e 803c 300f 983d ad91 ab3d 0eba db3d
000000d0: 1479 2dbd c3f3 c6bc 834e d53c 4e00 913d
000000e0: 3c58 31bd dee1 dc3d cb57 4ebd 9da9 923d
000000f0: c480 843c ba7d 1dbd 1bcb e7bb b1e7 923d
00000100: b75e 683d debc a93b 3425 4b3d 996d 303d
00000110: 93b2 d2bc 253b c3bc 098c 0abd 2c4b 4a3d
00000120: 6ede 66bb 589e 433d 97ed 91bd 1f94 cc3d
00000130: d8da ed3c 3a10 ce3d 9bcb 2fbd 116c ca3d
00000140: 0059 c2bc f686 d3bb 7788 8abd 368f 82bc
00000150: 7d77 e53d 80f0 1d3d a791 76bd ea79 d13d
00000160: 23e9 6fbc d2d4 81bd 061d c13d a6dc 9bbc
00000170: 4429 3cbd 7dce e63c 26fc 273d 832d bf3c
00000180: f471 b3bb be99 813d 0439 493d c7e6 0abc
00000190: 5c44 9d3d 43fe 7f3c f5dc 863d ed40 99bb
000001a0: cad8 8cbc 0b26 5bbb e63f ca3d 16d7 d93c
000001b0: cb03 02bd c1eb 26bd 4a0e 933d 230a e83d
000001c0: c123 edbc 7b1c 643d b4fe d1bc 8fbd e63c
000001d0: 61b3 d73d 3af6 873d 9586 b33d 5360 463d
000001e0: 3506 6e3d 881e 10bd d8c9 a83d b4c3 913d
000001f0: 3378 b23d 83bc 073c 3b15 59bc d730 be3d
00000200: 2eda 523d f12d 463d 2fe8 8e3d c512 a43d
00000210: 1b5e ef3d f039 d93d b8c3 143d 0096 313d
00000220: 7bab 31bc 45d5 93bc 1401 bc3d e61d 653d
00000230: 84b9 0e3d a70d 313d 5e65 0dbd 1ec7 483d
00000240: fb28 d53d 3848 97bd f358 05bd ec50 363d
00000250: 0de3 9e3d 408e bcba 012f 933d dd84 483d
00000260: e4e7 523d bf0e 00bc 5cd5 4bbd acd4 d4bc
00000270: 4613 0fbc 9252 dcbc 5d00 94bb 1263 18bd
00000280: da7b 1ebb bd42 a53d 42a7 713d 8324 d13d
00000290: 7128 bbbc 7c8f 5cbd 653d bbbc 8f9d 09bd
000002a0: 2b5d 003e 16f7 60bc 68c4 9f3d 545e a13d
000002b0: 2862 a73d b3ee 62bd 2ff2 edbc f464 9a3d
000002c0: 2c16 8abb 764d b83d cb97 00bd f230 f23d
000002d0: 4b99 d93d 75e1 153e 2f4e 75bc 1faa b63d
000002e0: cb9e af3c 9958 f23d 66de 5cbd 9e94 9dbd
000002f0: 6907 9ebc d854 cdbc 048c 45bd b4f8 ce3d
00000300: 1895 7f3c df4a 18bd a315 bf3d b7a0 ba3c
00000310: 4f17 dc3d 187c a03c 9f73 cb3c a214 26bb
00000320: a4e9 d03d a47c 883d adc9 a53d c222 61bd
00000330: d32c f33c 38fb aa3d 9374 c63d 4ec8 d43c
00000340: 5e51 90bd 9747 9e3d 2738 743d 389f 053c
00000350: e1fa 373d ebd7 debc d596 ee3c 0933 f63c
00000360: 4825 173d 8f47 7f3d 90c7 643c e643 9f3d
00000370: 7910 94bd e235 1a3d 41f6 f33c d8e6 193d
00000380: 65d1 29bd 17ca 993c 9da2 7dbc 07fe 583d
00000390: a7d9 343d aa58 85bd 9c32 913b 08a6 9db9
000003a0: 541a b43b 3f75 c83d ad09 783d 283f 003e
000003b0: f1d4 b2bc 79f8 0fbc 3e90 593d 3cde 9a3d
000003c0: c17d 9b3d 5d02 2c3c 3639 c03d 14a0 123b
000003d0: be1b 80bd fd6e bb3d 6bdb 943d f719 99bc
000003e0: 97b5 63bd eb7e 073d feb9 62bd 5c76 59bd
000003f0: 2ca2 683c 06bb 393d cbfd 28bd 56e5 cb3d
0.032736596 0.017235816 -0.023275694 0.04041035 -0.022482967 0.112126365 -0.049308993 -0.05652561
0.00066627597 0.09677698 0.101062 0.105119444 0.08702687 -0.0067229257 0.071073405 0.05407273
-0.009119881 -0.019942176 -0.03275576 0.10843183 0.06289529 0.09204629 -0.069155425 0.100669794
0.070806496 0.09082137 0.016693 0.0034951486 0.0788216 -0.05101876 0.01311132 -0.04265006
0.04429346 0.050344437 0.08988552 -0.016983336 0.04537703 -0.018571204 -0.014334289 0.113094226
-0.02022251 0.0047629173 0.13459301 -0.027455436 -0.014961999 -0.03259082 0.07831647 -0.021360781
0.015692769 0.07424772 0.08377395 0.107288465 -0.042351797 -0.024286157 0.026038414 0.07080136
-0.043297037 0.10785268 -0.050376695 0.071612574 0.016174681 -0.03844998 -0.0070737726 0.07173098
0.056730952 0.0051799854 0.049596027 0.04307327 -0.025719916 -0.023831913 -0.033824954 0.049388096
-0.0035227793 0.04775843 -0.07125395 0.09989189 0.029035017 0.10061689 -0.042918783 0.09883893
-0.02372408 -0.0064552976 -0.0676431 -0.015937429 0.11204431 0.038559437 -0.0601975 0.102283314
-0.0146429865 -0.063394204 0.09429364 -0.019026112 -0.04593779 0.028174633 0.041011952 0.023337131
-0.0054762308 0.06328152 0.04912664 -0.008477873 0.07679054 0.015624586 0.06585113 -0.004676929
-0.017193217 -0.0033439423 0.09875469 0.026591819 -0.0317419 -0.040752176 0.0718046 0.113300584
-0.028947713 0.055691224 -0.025634147 0.02816656 0.10532261 0.06638761 0.08765904 0.048431706
0.05811139 -0.035185367 0.08241624 0.071174055 0.087143324 0.008284691 -0.013249691 0.09286659
0.051477604 0.048383657 0.06977879 0.080113925 0.11687871 0.10606754 0.036319464 0.04335594
-0.010844107 -0.01804603 0.09179893 0.055936716 0.03484489 0.04322591 -0.0345205 0.049018018
0.10408207 -0.073868215 -0.03255553 0.044510767 0.0775815 -0.0014385656 0.071867 0.048954833
0.05149068 -0.007816016 -0.049764022 -0.025980316 -0.0087326225 -0.026894841 -0.004516645 -0.037203856
-0.0024182708 0.0806937 0.0589974 0.10212042 -0.022846432 -0.053847775 -0.022856424 -0.033597525
0.12535541 -0.013730785 0.078011334 0.0787932 0.08173019 -0.055403423 -0.029046146 0.075387865
-0.004214069 0.089991495 -0.03139476 0.11825742 0.106249414 0.14636786 -0.014972254 0.08919167
0.021438023 0.11833305 -0.053923033 -0.07694362 -0.019290643 -0.02506487 -0.048229232 0.1010603
0.015599512 -0.037180778 0.09330299 0.022781713 0.10746633 0.019590423 0.024835406 -0.0025341888
0.102008134 0.06664398 0.08095107 -0.05496479 0.02968446 0.083486974 0.096902035 0.025974419
-0.070467696 0.077284984 0.059623864 0.0081556365 0.04491699 -0.027202567 0.029124657 0.030053632
0.03690079 0.062324103 0.013963595 0.077766225 -0.072297044 0.037649043 0.029780509 0.037573665
-0.04145946 0.018773122 -0.015480665 0.052976634 0.044152882 -0.06511052 0.004431082 -0.00030069076
0.0054963026 0.09787988 0.060556103 0.12524092 -0.021830054 -0.008787268 0.053116076 0.07561919
0.07592345 0.01049861 0.09385912 0.0022373246 -0.062552914 0.09152029 0.07268413 -0.018689139
-0.0555931 0.033080023 -0.055353157 -0.053091392 0.014198821 0.045344375 -0.04125766 0.09955852

lstm.weight_ih_l1 f4 [512, 128]
00000000: 9094 86bd 7dd5 093d 06dc 303d 5aef 963d
00000010: 5a80 403c 75d0 853d 9e40 1b3d d8eb 923c
00000020: 85dc 74bd 5ea9 c8ba d3e3 6a3c e132 07bc
00000030: 44cc 013d 9223 4a3d 7219 a6bc 3aad a2bb
00000040: 5bdc a33c 08e7 2f3d f628 93bd 2130 7b3d
00000050: 4ebb 43bc 72d8 87bd 00f8 a5bd 837b 083d
00000060: 4b4a 153d 2f07 37bd a615 58bd 0920 aabc
00000070: c3b3 0fbc d167 6c3d 73d9 1e3d 080e 733c
00000080: 0774 87ba 526e 123c 6bab a43b 2ed2 40bd
00000090: 6e6a dd3d b02a a4bd 2fba 95bd 3797 a1bd
000000a0: 9e11 8fbd 3fa4 6dbd 070c a53d 55ec 833d
000000b0: 0f85 973d bc50 363d 8af2 f3bc 8a62 b63c
000000c0: 4ecd f53c 5ecc 023c fa52 8bbc d7cd 8cbd
000000d0: c912 9a3a 9dd0 28bd b788 00bd 0874 a9bd
000000e0: 789f 29bc b107 693d 0cc0 7f3c 46d0 57bb
000000f0: 86e8 913d 0656 59bd 56aa 7cbd 3aa8 b13d
00000100: 937b 44bd cb20 39bb 0ff3 11bd c6ed e13d
00000110: 601b 97bd 49d0 8e3d 9b35 a1bd ce29 53bc
00000120: 4fc3 163d a953 b2bd b2a6 cd3d f91a 3e3d
00000130: 3a02 703d 57c8 5c3d b934 063d 510a fcbc
00000140: e167 d13c b9e1 7abc 8383 82bc 2a30 fbbc
00000150: da81 21bd 207f 7b3d 1d9c 2d3d df91 df3c
00000160: 79dc 23bd 4794 80bc 568c 803d 7315 423d
00000170: 8b9f 3fbd 02c4 0b3d 6139 9f3d b1a8 8bbd
00000180: ab07 2cbc 7d0d 6bbd 0df0 c8bb 6cb3 a7bd
00000190: 7bf0 c0bd fd8a 76bd 849b aabd 2fa6 803d
000001a0: 3732 983d 86b8 ddbc 7ff5 5dbd fec2 6d3b
000001b0: b38a 60bd 8d9d 7a3c d351 0f3d 2e6c 2cbb
000001c0: 2f92 61bd 1ae3 8f3c 6c94 133d 497e 103d
000001d0: 88e3 cdbd e2d1 77ba c80c c43d 7aac aebc
000001e0: 1519 6ebc 771f 033c 7d78 523b 02a2 813d
000001f0: e329 7dbb db03 e23d d717 25bc 3aa4 9cbd
00000200: cba2 fe3b 50ea 193d a559 36bd 112e 32bd
00000210: 3786 47bd 525c 50bd 093c 983d 7129 27bd
00000220: 8ea2 a4bc 7c3f 613d eecc 32bd eddd b2bc
00000230: 7581 3b3d 77c8 5dbd 8151 4e3c a97f 5f3d
00000240: 154f 68bd b403 903c 549c 80bd a419 0abd
00000250: 6f7e d93c 69e5 49bd 421a 11bd ae50 bf3c
00000260: ab80 613d 8b1a 80bd da93 a63d 4232 4ebd
00000270: 9bef 353d a527 6e3d af73 c3bb 7f70 30bc
00000280: 109d c5bc df49 2fbc 12bd dcbc 9e5a b83c
00000290: d9da 883c 02b2 d9bc 9c96 df3d 409a 86bd
000002a0: 64fa ad3d cbf2 653d 5941 823c af7c e2bc
000002b0: cde5 0ebc 2b34 8bbc f39a 98bd 8581 74bd
000002c0: ec4d 9d3d c614 9f3d 4d8e d13d 16f5 77bd
000002d0: c3f7 b03d 14f0 19bd c61a f83b 5f98 103d
000002e0: 937b 89bd 2b85 c4bd 3f21 863d ace6 fa3b
000002f0: bdc4 73bd f42f c63d 9019 83bc affe a43d
00000300: 3488 243c 09d2 003d 76db bdbd 9d94 f23c
00000310: 9d27 08bd 3072 b73d 1920 d63d 6d1a 893d
00000320: 9e07 803d 96ca cabc c764 4dbd e48d c2bd
00000330: 0a65 3c3d 56d4 863b 27dd a5bb 9bb2 023d
00000340: 0577 17bd e876 753c 5c71 40bd 23f7 a5bc
00000350: 9720 ff3b b88f 54bd 0fd6 a73d 677e 063d
00000360: 1463 fcbd a900 6f3d 1d5f 20bc 255a 1e3d
00000370: c22c 0cbd 1948 2a3d aa8b a9bc e040 4a3c
00000380: 3367 f73c fba4 b8bd ee2e cfbc faf0 1abd
00000390: ed2c 8dbc 27bc 013b 2b63 b33c 686b c53d
000003a0: 53fd 993d e751 173d 1108 48bd 5f28 4c3b
000003b0: c6dd 963b f9de 993d c7de 98bc ea97 f63c
000003c0: 4c2d 9a3c dbe7 05bc c3d9 0f3d 19e0 5ebb
000003d0: 29ce 77bd d5af 42bd d22c dbbd 14cb 57bd
000003e0: 1725 963d 65ef e53c 09e8 d23c 6598 f2bc
000003f0: 40b3 7abd 237d d53c 059b e3bb 0d2c 0e3d
-0.06571305 0.033650864 0.04317858 0.073698714 0.011749351 0.06533901 0.03790342 0.017934725
-0.059780616 -0.0015309264 0.014336544 -0.008251877 0.031688944 0.04935033 -0.020275805 -0.004964498
0.020002535 0.042944938 -0.07185547 0.061325196 -0.011946512 -0.066330805 -0.08103943 0.033320915
0.036447804 -0.044684585 -0.05275502 -0.020767229 -0.008770886 0.057716195 0.038781594 0.014834888
-0.0010334261 0.008937435 0.0050253174 -0.047075443 0.108113155 -0.080159545 -0.07310902 -0.0789017
-0.06985782 -0.058017965 0.08058935 0.06441561 0.07398426 0.044510588 -0.029778738 0.022263784
0.030005123 0.007983295 -0.01700734 -0.06875198 0.0011754866 -0.041214574 -0.03138038 -0.08274084
-0.010352962 0.0568921 0.015609752 -0.0032930537 0.071244285 -0.053060554 -0.061685883 0.08674665
-0.047969412 -0.0028248306 -0.03563219 0.1103168 -0.07378268 0.06973321 -0.078715526 -0.012888385
0.036807355 -0.08707363 0.1004156 0.046412442 0.058595873 0.053901996 0.032765124 -0.030766638
0.025562229 -0.015312606 -0.01593185 -0.030662615 -0.039430477 0.061400533 0.04238521 0.027291236
-0.04000518 -0.015695704 0.06276767 0.047383737 -0.04678301 0.034122474 0.07774616 -0.06819285
-0.010499875 -0.05738591 -0.006132132 -0.08188519 -0.09420868 -0.060191143 -0.083304435 0.06281697
0.07431453 -0.027065527 -0.0541892 0.0036279554 -0.054819774 0.015296352 0.034990143 -0.0026309597
-0.055071052 0.017564345 0.036030218 0.035276685 -0.10053164 -0.0009453577 0.0957275 -0.021322478
-0.014532347 0.008003107 0.0032115274 0.06329729 -0.0038629703 0.110358916 -0.010076485 -0.07648511
0.0077708713 0.037576973 -0.044519085 -0.043500964 -0.04871198 -0.050869294 0.07433326 -0.040811006
-0.020097043 0.054992184 -0.043652467 -0.021834338 0.045777757 -0.054146256 0.012592674 0.054565106
-0.056716044 0.01757989 -0.06279817 -0.03371586 0.026549546 -0.04929105 -0.035425432 0.0233539
0.055054348 -0.06255063 0.08133669 -0.0503409 0.04441796 0.058143277 -0.0059647183 -0.010769009
-0.024122745 -0.010698765 -0.026945625 0.022504147 0.016705917 -0.026574139 0.10917398 -0.065723896
0.08495024 0.05613975 0.0159003 -0.027647344 -0.008721781 -0.016992649 -0.07451429 -0.059693832
0.07680878 0.07767634 0.1023222 -0.060536467 0.08641007 -0.037582472 0.007571551 0.035301562
-0.06713023 -0.09595712 0.0654931 0.0076568928 -0.059513796 0.09677115 -0.0160034 0.080563895
0.010042239 0.031450305 -0.092703745 0.02961188 -0.033240903 0.089573264 0.10455341 0.066944934
0.06251453 -0.024754804 -0.050144937 -0.0949972 0.045994796 0.004114668 -0.005061764 0.031908613
-0.03697874 0.014981963 -0.046983108 -0.020259446 0.0077858674 -0.051894873 0.08195125 0.03283539
-0.12323585 0.05835024 -0.009788302 0.038660187 -0.034222372 0.041572664 -0.02069648 0.012344569
0.030200576 -0.090158425 -0.025290933 -0.03782747 -0.017233336 0.0019795985 0.021897873 0.09639627
0.07519021 0.036943343 -0.048835818 0.0031151993 0.004604074 0.07513232 -0.018660916 0.030101735
0.018820427 -0.008172954 0.035119783 -0.0034008084 -0.060499344 -0.047530968 -0.10701908 -0.052683905
0.07331293 0.028068254 0.025745409 -0.029613683 -0.061206102 0.026060646 -0.00694597 0.03470998

lstm.weight_hh_l1 f4 [512, 128]
00000000: 082c 8cbd f848 87bd 1d63 9b3d 6ff3 c8bb
00000010: 26f6 743d 7643 9e3d a1cd 7ebd 4772 65bd
00000020: 9f17 2b3d 1cb4 103d 4753 0fbd 5fd1 8dbd
00000030: d75f 263c 9564 f9bc 9386 123b 2b3b 0b3d
00000040: 2b08 a93d d470 6a3d 90b5 90bd bc31 753d
00000050: f424 b1bd ade5 a5bd 1144 bf3d fda0 3ebd
00000060: eae5 b63d 4351 fabb 6976 a83d da16 d63d
00000070: 2dff 2b3d b406 4b3c e2a7 4c3d 78ee 06bd
00000080: 0d0c 3ebd 9f03 21bd bb20 363c 5567 2abd
00000090: 9f35 fe3b 42cc 123c 889a aebd 74df 4cbc
000000a0: dc43 12bc d521 813c ce94 f7bc 0ed2 a7bd
000000b0: 037f b4bc 1646 8b3c 5e50 693d d268 983d
000000c0: 3d7a 183d fbb0 55bd 299c 003d d573 ce3c
000000d0: 5a7d 03bc 557a 4abd 9a7a c5bc 070e d5bd
000000e0: ecfd b73b c215 b83c 95e6 6bbd 61c9 013d
000000f0: 6b4c a23d f4a6 9abd 6936 ba3d 8978 3f3b
00000100: df1d 9ebd c8c8 96bd fc2d b53d 13e5 f4bc
00000110: 1e6d 95bc b8b4 edbc 26e3 f6bc 4df6 8e3b
00000120: 70dd 65bd 6275 17bd b5ba 41bd 9cd1 54bd
00000130: 6733 843d cc8d 553d 9584 12bd cdd7 7d3d
00000140: f6a3 063c bba6 3f3d e6d8 75bd a18f e73c
00000150: 30af 46bd 55cf fd3a bc6e 193d 3d15 d0bc
00000160: 292f 5bbd 4643 8ebd 365a 093d d8ac eb3c
00000170: 6831 f0bc 02e1 543d d362 afbd d104 dc3c
00000180: 5a06 b2bc 5a6a efbd 75a0 8bbd b3fe 9c3d
00000190: fa91 043d 0986 4a3d bb21 d3bb b936 e8bc
000001a0: 9929 6abd 0a84 b53c 4a6b cd3c 0b3d 563d
000001b0: a71b 83bd ca3e 1f3d 39f0 6ebd beb7 6dbd
000001c0: 3902 803c aed1 8d3d 0b5a 8bbc 0afe 823d
000001d0: 2931 9ebd 2b49 0dbd 3307 463d 51bd 8e3b
000001e0: 2b7d 0e3d b9a6 273d bd1c 8c3d 929d 103d
000001f0: d4d3 59bc 8c39 913d d685 8bbc 42f0 5a3d
00000200: 1bbd 7bbd afba 85bd daa4 c23c 8f1e 6a3d
00000210: e14d 463d d08d 9f3d fe3c 463d cd25 0d3b
00000220: 9d87 513c 3fec 66bc 3a0c 04bc 0df0 8ebd
00000230: 3430 8c3d 00b3 e63c f050 92bd cfba 713c
00000240: 9a37 733d daa5 233c aa07 afbd 3816 cebc
00000250: be93 423d ca0e 94bd 81d4 01bd 1d90 f63d
00000260: 6caa e83a 2d16 243d d9eb f0bc d67b 523d
00000270: aa4f 1e3d 233f 683d 0ead ffbc 1575 d13c
00000280: 3b97 84bc 68ac d83c a1a8 79bd f60d 9f3d
00000290: 4ca4 e9bc b3a9 52bd 970a 203d 2784 42bc
000002a0: ad72 703d 8101 c73c deb1 8abc 0f3c 77bd
000002b0: ea60 e6bd 5ac1 94bc 1b63 023c b8a5 d63c
000002c0: 61d7 4bbc 8d1b 313d 389e 68bd c516 babd
000002d0: 76d2 e1bc 5f9a 613d 1489 8dbc 73b6 e93c
000002e0: 3394 21bd e8e3 213d bdf2 473d 83ab 02bd
000002f0: 4839 d6bb 58f0 b13c a7dd a0bd 0022 52bb
00000300: 5d9f 643d 3d07 043d 3db6 37bd 0719 d43c
00000310: dff1 b43c 1a47 583d 80a6 dc3d d1ea ef3c
00000320: 86ef 27bd 719c 463c 8f29 ff3c d3d7 8c3d
00000330: 161f 17bc 351d ccbd 6b99 91bc ebc6 1ebd
00000340: 44c3 45bd 3800 8e3d 0953 b93d 9d72 b23c
00000350: 7ce1 adbd be1c 9bbd 8d04 62bc 15dc 823b
00000360: 5322 55bd ddbc 1ebc 0326 013d f574 ffbb
00000370: ecdc 17bd 2a07 0b3d 4ffe 2e3d 083e a23b
00000380: fa37 a9bc b7e9 93bb 25fa 9fbd bb3a b4bb
00000390: 9d44 a93d 4bf5 94bd da97 68bd fb69 35bc
000003a0: 6574 7bbc 5d4b 033e 55cc 7ebd 7ec6 c63d
000003b0: 9985 6bbd b7ae a5bd 580b 9f3d 0cfe 54bd
000003c0: d176 133c c7b7 e2bd bd6d ec3c 8f50 123c
000003d0: 5dbb 8f3d 03c5 353d ca62 7fbc 29d8 d63c
000003e0: 8c4e 39bd 8097 45bd bc0f 7f3b e160 40bd
000003f0: 3128 1cbc b14b 45bd f9bf f7bc 8fed 3cbd
-0.06844336 -0.066057146 0.07587264 -0.006132535 0.059805058 0.07727711 -0.06220782 -0.056017186
0.041770574 0.035328016 -0.03499153 -0.069247 0.010154686 -0.030443469 0.0022358045 0.033991974
0.08253511 0.057236508 -0.0706588 0.059861884 -0.086496264 -0.08100448 0.093391545 -0.04654025
0.089305714 -0.0076390817 0.0822571 0.10453577 0.0419914 0.012391735 0.049964793 -0.032942265
-0.04639821 -0.039310094 0.011116202 -0.04160245 0.007757857 0.008959832 -0.08525568 -0.012504447
-0.008927312 0.015763203 -0.030222323 -0.081943616 -0.02203322 0.017001193 0.05696141 0.07441868
0.03722595 -0.052170735 0.031398926 0.025201717 -0.008025492 -0.04943307 -0.024106313 -0.10403066
0.0056149866 0.022471312 -0.057592947 0.03168619 0.07924732 -0.07551375 0.09092409 0.0029216132
-0.07720541 -0.07362515 0.088466614 -0.029894387 -0.018240508 -0.029016837 -0.03013761 0.0043628574
-0.056119382 -0.03697718 -0.0472972 -0.05195771 0.06455117 0.05213718 -0.03577097 0.06197338
0.008217802 0.046789866 -0.060021304 0.02826673 -0.048506916 0.0019364158 0.03745912 -0.025400752
-0.053511772 -0.06946425 0.033533297 0.028768942 -0.029320434 0.051972397 -0.08563771 0.026857765
-0.021731544 -0.11690207 -0.06817714 0.076657675 0.032365777 0.049444232 -0.00644323 -0.028346406
-0.057168577 0.022157688 0.025075573 0.05230431 -0.06401759 0.03887824 -0.058334563 -0.05803656
0.01562606 0.06924759 -0.01701071 0.0639611 -0.0772422 -0.034493607 0.04834671 0.0043560644
0.03478734 0.040930483 0.06841419 0.03530652 -0.013295133 0.07091054 -0.017031591 0.053451784
-0.061459642 -0.06529748 0.023760248 0.05715805 0.048414115 0.077907205 0.04839801 0.0021537424
0.01278868 -0.014094411 -0.008059556 -0.0697938 0.068451315 0.028161526 -0.07144344 0.014754011
0.059379198 0.009988273 -0.08546384 -0.02515708 0.04750418 -0.07229383 -0.0316968 0.12039206
0.0017750985 0.04006021 -0.029409336 0.05138763 0.038650192 0.056700837 -0.031210449 0.025568524
-0.016185394 0.026449397 -0.060951833 0.07766335 -0.028520726 -0.05143137 0.0390726 -0.011872328
0.058703113 0.02429271 -0.016930517 -0.06036001 -0.11248954 -0.018158603 0.007958199 0.026202068
-0.012441487 0.043239165 -0.056791514 -0.09086374 -0.027566176 0.05507886 -0.017277278 0.028529381
-0.039447974 0.03952399 0.048815478 -0.031901848 -0.00653759 0.02172105 -0.07854777 -0.0032063723
0.055816043 0.032233465 -0.04485153 0.02589084 0.02208799 0.052802183 0.10773945 0.029286774
-0.04099991 0.0121222595 0.031147746 0.06877103 -0.00922372 -0.09966508 -0.01777335 -0.03876392
-0.048281923 0.069336355 0.09049041 0.021783167 -0.08490273 -0.075738415 -0.01379503 0.003993521
-0.052034687 -0.009688583 0.03153039 -0.007795925 -0.037075922 0.03394238 0.042722996 0.0049512424
-0.020656575 -0.004513945 -0.07811383 -0.0055001653 0.0826504 -0.072733484 -0.056785442 -0.011072631
-0.015347575 0.12821718 -0.062206585 0.09705828 -0.057500456 -0.08089965 0.077658355 -0.05200009
0.009000496 -0.11070209 0.028860921 0.0089303395 0.070181586 0.04437734 -0.015587518 0.02622612
-0.045240924 -0.048240185 0.003891929 -0.04696739 -0.009531067 -0.048167888 -0.030242907 -0.04612499

lstm.bias_ih_l1 f4 [512]
00000000: c1fd 68bb 9ea6 a3bd 85c2 5dbd c57b 7e3d
00000010: 11f0 7dbd 7aac 923d c1f9 473c 9f84 153d
00000020: ddec 4a3d 5de9 77bd 5e8c a73d c117 f8bc
00000030: d259 9f3c 0a20 eabb 938b 4c3d fdb9 87bc
00000040: 8d44 2b3d f113 9a3c c3f7 ed3b cff9 a23d
00000050: 2814 93bd 8653 a0bd d911 a63d 14fb d3bc
00000060: f877 5ebc b555 38bc 5f6b 85bd 906e e53d
00000070: d015 f13c 21d3 22bd d72d 8b3d df73 b13d
00000080: 018c 203d 1720 c03d bb6f a13b e642 d93d
00000090: ec9d c73c bf1c 903c d1d6 8e3c c571 e93a
000000a0: 252b c0bc a03b 95bd 8eaf 4cbd 5f9b fdbc
000000b0: dbfd 323d d550 793c e79e 6e3d 54ec 4bbc
000000c0: 2ce9 ea3d 5d04 ab3d b2ba 823d 4a30 8b3d
000000d0: ac1e 7a3d 4bcf da3d ab7d b43b 838e d6bc
000000e0: 8e49 fa3c 6530 8b3d c31d 733d ecd0 e93c
000000f0: ef67 4f3d 144e 43bc 66a2 913b 5827 a73d
00000100: a2dd 843d 82a9 863d 489a 693d 4c49 a93d
00000110: fab0 9ebd b416 8d3c edac 763c 479d 8abc
00000120: c418 80bd 0f8c a5bd 917d 703b 2d70 823c
00000130: bb94 653d 2400 94bd 6cb3 92bc 0b4e 3fbd
00000140: ad4a b03d ced0 c63d a333 533d 3d65 933d
00000150: 059e d13c 3ac3 273d f7b3 32bc 9cae 98bd
00000160: 9388 ff3c e1a6 613d 8a05 27bb ed26 c4bc
00000170: 64b9 c33a d0e6 9f3d 0354 43bc 86c5 4d3d
00000180: 8665 723d a72d 0c3d 08e9 a2bb 0083 5e3d
00000190: 7709 913d 38ff 45bd 6aee 2e3d 786c e43d
000001a0: d5a0 833d 1422 9d3d c18c 753d a065 0d3d
000001b0: 5bfd 67bc 3398 00bc cb9e b33d b40b 443d
000001c0: 62c6 19bd f98a a8bb 5e25 6f3d e6ba 8a3d
000001d0: cebb 063c b728 ab3d ae98 c93d 93fb 913d
000001e0: 7a5a 213d b744 bd3d c9bb fbbb 1c00 ca3d
000001f0: b7df c03d 9ddf 833a c630 9e3d 19f0 433c
00000200: 917e 663d 530a cabc 7316 d4bb e56c 10bd
00000210: de9c 53bd 3f0d 6bbd cfd4 813d da0c 7e3d
00000220: a11f 6b3d bc08 af3d 4c7b de3c 5af3 8f3d
00000230: f349 8c3d c264 f0bc e83a 2e3d 1da5 5abd
00000240: bedb b73d d6fc d2bc 7630 72bd bb15 a5bc
00000250: fde4 eb3c 3c33 16bd 4cbe b93d 18fa 753d
00000260: 094e 6ebd 4b8c bf3d b9ba b23b 3a38 433d
00000270: ca98 39bd fea6 9cbd d0ac bf3d 3402 f5bc
00000280: b7b5 023d 37ab 5a3d 0249 29bd aa19 7ebc
00000290: 23f1 a4bc 310e fcbc 3da1 71bd 03c5 493d
000002a0: c533 a63d 2697 6dbd f572 2dbb c4e0 5d3d
000002b0: 9dd1 743d 2218 a3bd c01a 873d 958f 653c
000002c0: 3c98 783d 849f 713d bb44 5d3c 9c42 6bbd
000002d0: 068e e83d 365f d43b dbe4 42bd e7e7 dc3d
000002e0: 15fc 433c 48fa fb3b f8a7 0bbd c23f 2a3d
000002f0: 45b0 c73d 5ba2 b53d 3f1b 3f3d 88b9 533d
00000300: 251e e1bb 3ed9 febc b457 ba3d 292b 18bd
00000310: 085a 643d 5daf b53d ad9d 37bb 9fb7 573c
00000320: 65e9 753d 9921 8abd 2247 0ebc 485d 153d
00000330: dfab b9bb 7e7b 30bd f089 4a3d 4ffd 2b3d
00000340: 7b96 b53d f5ba 8a3d c453 cabb 25d7 84bd
00000350: be63 88bc 9b97 1cbb 66de d43b 7647 f83c
00000360: 4f29 41bd 1735 553d 2cb7 ce3d c5d4 9abd
00000370: 036d 7abd bc0e 6e3c 2c7c 2abd 2037 24bd
00000380: 9f9e 823d 8b27 59bb 8806 a13d 83dc cb3b
00000390: d68a 0e3d 6923 33bd 82c7 133d d30e 3a3d
000003a0: 3d48 82bc 1d85 06bd 9381 a7bc 6187 c2bb
000003b0: e49f 833d 0ac7 363c ffb6 cebc 4597 adbb
000003c0: 2e35 2d3c 6d01 2bbd f61e 4cbd 0b24 7cbd
000003d0: 2dfa 823d e5ce 273d daff c23b 7368 3e3d
000003e0: 90ff a73d 798d d93d b206 86bd 4d33 63bd
000003f0: 779f 2b3a bfac 5c3d 5750 96bc 1746 b63d
-0.003555164 -0.07990764 -0.054140586 0.062129755 -0.061996523 0.071618035 0.012205542 0.03650343
0.049542297 -0.060525287 0.0818107 -0.030284764 0.01945201 -0.0071449326 0.049937796 -0.016568178
0.041813422 0.018808337 0.0072622015 0.079578035 -0.07181579 -0.07828431 0.08108873 -0.02587656
-0.0135784075 -0.011250903 -0.0651462 0.11202729 0.029429346 -0.03975213 0.06795853 0.08664679
0.039196018 0.09381121 0.0049266494 0.10608463 0.024367295 0.017591832 0.017436417 0.0017810395
-0.023458073 -0.07286763 -0.04997211 -0.030957876 0.043699127 0.015217026 0.05825701 -0.012446482
0.11470255 0.083504416 0.063832656 0.0679632 0.061064407 0.10684069 0.005508145 -0.026191002
0.030552652 0.0679634 0.059354555 0.028542005 0.05063623 -0.011920471 0.004444408 0.08161801
0.064875856 0.065753 0.0570319 0.082659334 -0.07748599 0.01722274 0.015055877 -0.016920699
-0.06254724 -0.08083355 0.0036695937 0.01592263 0.056050044 -0.07226589 -0.01790782 -0.046705287
0.08607993 0.09707795 0.051562916 0.07197044 0.025588045 0.040957667 -0.010907165 -0.07455179
0.031193053 0.05509079 -0.002548548 -0.023944343 0.001493257 0.07807696 -0.011921885 0.0502372
0.05917885 0.034223225 -0.004971627 0.05432415 0.070818834 -0.0483391 0.042707838 0.11153501
0.06427161 0.076725155 0.059948687 0.034520745 -0.014159526 -0.007848787 0.08770522 0.047862723
-0.03754271 -0.00514352 0.058385246 0.06773929 0.008223487 0.08357375 0.098435745 0.07128062
0.039392926 0.09241622 -0.007682298 0.09863302 0.0941767 0.0010061149 0.077241465 0.011959099
0.056273047 -0.024663126 -0.0064724027 -0.0352601 -0.051663272 -0.05738568 0.06339418 0.062023975
0.05740321 0.08546588 0.027158402 0.070288375 0.06850042 -0.02934492 0.042536646 -0.05338012
0.08977459 -0.025755327 -0.059128247 -0.020151963 0.028795714 -0.036669955 0.090694994 0.06005296
-0.05817989 0.09352931 0.005454388 0.047661044 -0.045311727 -0.07649039 0.09359133 -0.029908277
0.031911578 0.05338594 -0.04132939 -0.0155090485 -0.020134514 -0.030768486 -0.05899166 0.04926015
0.08115343 -0.058005475 -0.0026466225 0.05416943 0.059770215 -0.07963587 0.06596899 0.014011283
0.060692057 0.058990017 0.013505156 -0.05743657 0.11355214 0.0064810766 -0.047581535 0.10786419
0.0119619565 0.007689748 -0.034095734 0.04156471 0.097504176 0.088688575 0.046656843 0.05169061
-0.0068700486 -0.031109449 0.09098759 -0.037150536 0.055749923 0.088713385 -0.0028017566 0.013166337
0.060037035 -0.067446895 -0.008683952 0.036465913 -0.0056662406 -0.04308652 0.049447954 0.04198962
0.088665925 0.067739405 -0.0061745364 -0.06486348 -0.016649123 -0.0023894075 0.0064962385 0.030307513
-0.047158536 0.052052584 0.10093531 -0.07560114 -0.061139118 0.01452988 -0.041622326 -0.040091634
0.06377911 -0.0033135142 0.07862574 0.0062213554 0.034800373 -0.04373494 0.036078937 0.045424294
-0.015903587 -0.03284179 -0.020447528 -0.0059365486 0.06426981 0.011155853 -0.025233744 -0.0052975737
0.010571761 -0.041749407 -0.049834214 -0.06155781 0.063953735 0.040968794 0.00595091 0.04648633
0.082030416 0.10622687 -0.06544246 -0.055468846 0.00065468944 0.05387568 -0.018348856 0.08900087
