Data/PredictionsData/AB20.pth (torch, 828430 bytes, 10 tensors)

lstm.weight_ih_l0 f4 [512, 13]
0	0xbca66e5e	-0.020316299
1	0x3d77436a	0.060367025
2	0xbd2fa683	-0.042883407
3	0xbd108276	-0.035280667
4	0x3dfaaad2	0.12239613
5	0xbd92e277	-0.07172101
6	0xbe1f87d6	-0.15579161
7	0x3d63d420	0.05562222
8	0xbd00b5d3	-0.0314234
9	0xbd73114b	-0.059342664
10	0x3d9ffe46	0.07812171
11	0xbdb40a5b	-0.08791038
12	0x3da1b267	0.07895356
13	0x3decabe7	0.11556225
14	0xbd35b820	-0.04436505
15	0x3d39f0c6	0.045395635
16	0x3a707c62	0.0009173808
17	0x3d124aa2	0.035715707
18	0xbd96a783	-0.07356169
19	0xbd70dea7	-0.058806088
20	0xbcca8c36	-0.02472506
21	0xbd851fef	-0.065002315
22	0x3d184d15	0.037182886
23	0xbdb814db	-0.08988353
24	0x3af5da30	0.0018757042
25	0x3d007638	0.031362742
26	0x3d8d0728	0.068861306
27	0xbdd8b5b3	-0.105815314
28	0xbcbcba1f	-0.023037968
29	0xbd938181	-0.07202435
30	0x3d4c2129	0.04983631
31	0xbd448ad8	-0.047983974
32	0xbd347017	-0.04405221
33	0x3ddb8c77	0.10720151
34	0xbd733656	-0.05937799
35	0x3d83d348	0.06436783
36	0xbcc84931	-0.024448963
37	0xbd9e2991	-0.07722772
38	0x3e0837d6	0.1330255
39	0xbd4a1900	-0.049340248
40	0x3cb21667	0.021739198
41	0x3bd608e4	0.0065318216
42	0x3d439768	0.047751814
43	0x3ce6bd2b	0.028166374
44	0xbdabbd83	-0.08385756
45	0xbd5cb924	-0.0538875
46	0x3d1a52a9	0.037676487
47	0xbd096894	-0.033547
48	0x3b9dc432	0.004814648
49	0xbbb1d924	-0.0054274965
50	0xbd977894	-0.07396045
51	0xbd2adb99	-0.04171333
52	0xbceffb94	-0.029294766
53	0x3d0dd035	0.03462239
54	0xbd1dade2	-0.038495906
55	0x3d45845a	0.048221923
56	0x3dcd21bb	0.10016199
57	0xbb888edd	-0.0041674213
58	0x3dc273f1	0.0949477
59	0x3b64e8e9	0.0034928864
60	0xbe01110c	-0.12604159
61	0x3dd00692	0.10157503
62	0xbd38b3e9	-0.04509345
63	0xbd972f7c	-0.07382104
64	0xbd8cd1eb	-0.06875976
65	0x3db61400	0.088905334
66	0x3cb9ec97	0.022695823
67	0x3d93e599	0.07221527
68	0x3dab599e	0.083667025
69	0x3ce55db7	0.027998788
70	0x3d2bb5c1	0.04192138
71	0xbda698a6	-0.08134584
72	0x3d890a0a	0.06691368
73	0x3dd7b582	0.10532667
74	0x3d427139	0.04747126
75	0xbd856d7c	-0.06515023
76	0x3dcdba8f	0.10045349
77	0xbd30caf9	-0.04316232
78	0x3dba47ab	0.09095701
79	0xbd5653e4	-0.052326098
80	0xbd8945e9	-0.067027874
81	0xbb0edcb2	-0.0021799025
82	0x3caa2bbf	0.020772813
83	0xbd1fb2bf	-0.038988825
84	0xbdab9d3d	-0.083796
85	0xbda40638	-0.08008999
86	0xbe1113b5	-0.14167674
87	0xbcbc1072	-0.02295706
88	0xbbd36537	-0.0064512747
89	0xbd445d38	-0.047940463
90	0xbda4e510	-0.08051503
91	0x3db42fad	0.08798156
92	0x3e0f47ea	0.13992277
93	0xba5a378c	-0.0008324317
94	0xbcb5831b	-0.022157243
95	0x3dde28e4	0.10847643
96	0x3d3b5b85	0.045741577
97	0xbdbfc4d5	-0.093637146
98	0x3df6f607	0.12058645
99	0x3d742869	0.05960885
100	0x3d3e1efd	0.04641627
101	0x3d5eccfb	0.054394703
102	0x3ced0415	0.02893261
103	0x3d578ee1	0.052626494
104	0xbcb6f882	-0.022335295
105	0xbd93f4ae	-0.07224403
106	0xbde8bf76	-0.11364643
107	0x3ce6e3ef	0.02818486
108	0xbd967714	-0.07346931
109	0x3cced3bf	0.025247453
110	0xbdb3446b	-0.08753284
111	0xbddbabf0	-0.10726154
112	0xbd82bcb6	-0.0638365
113	0xbd88aee4	-0.06673983
114	0xbdfeb9f4	-0.124378115
115	0xbd9219e0	-0.071338415
116	0x3c9323c1	0.017961385
117	0x3d1c2765	0.038123507
118	0xbdee9d1b	-0.11651059
119	0x3b13349b	0.0022461775
120	0x3d23c39a	0.039981462
121	0xbd97b225	-0.07407025
122	0xbd31a308	-0.04336837
123	0x3dc33dc7	0.095332675
124	0x3dbcb9b0	0.092151046
125	0x3c411f7f	0.011787294
126	0x3db43656	0.08799426
127	0x3db40e96	0.087918445
128	0x3bca4b86	0.006173554
129	0x3d2b4e50	0.04182273
130	0xbcbddff0	-0.02317807
131	0xbd99d691	-0.075116284
132	0xbd5277c0	-0.051383734
133	0x3c8ffc45	0.017576346
134	0xbca3f373	-0.020013547
135	0x3d485069	0.04890481
136	0x3cc10935	0.02356396
137	0xbdda922c	-0.10672411
138	0xbd823dd0	-0.06359446
139	0x3d1083f4	0.03528209
140	0x3d876d38	0.06612629
141	0xbbcd8342	-0.0062717507
142	0x3d8d107c	0.0688791
143	0xbc2ce9c3	-0.01055378
144	0x3da59cc0	0.08086538
145	0x3b8d0846	0.004303965
146	0x3a044a5f	0.00050464825
147	0xbd8d98e8	-0.0691393
148	0xbbb6e285	-0.0055812025
149	0x3ca87577	0.020563824
150	0xbdecbe48	-0.11559731
151	0x3cf704a0	0.030153573
152	0xbd836031	-0.064148314
153	0xbe2c8c15	-0.16850312
154	0x3ca20d58	0.019781753
155	0xbdfb5e02	-0.1227379
156	0xbd258523	-0.040410172
157	0xbd8a33b6	-0.06748144
158	0xbccb01e6	-0.024781179
159	0xbd921057	-0.07132023
160	0x3cd485fb	0.025942793
161	0xbde7c1b1	-0.113162406
162	0x3cb3810c	0.02191212
163	0x3dae5118	0.08511561
164	0x3d9ab0f0	0.075532794
165	0x3d7dcca7	0.06196275
166	0xbdcaf6d6	-0.099103615
167	0xbdaead52	-0.08529152
168	0x3ce4aca7	0.027914358
169	0x3d370aa7	0.044687893
170	0xbcf62b69	-0.030049996
171	0xbda60e44	-0.0810819
172	0x3c8eaa1d	0.0174151
173	0xbc0d4782	-0.008623006
174	0xbc1b1d31	-0.009467409
175	0x3b8d3347	0.0043090913
176	0x3df49a21	0.1194346
177	0x3cb5ebb2	0.022207115
178	0xbd0f29ba	-0.034951903
179	0xbdcbbf9a	-0.099486545
180	0x3d807ae8	0.062734425
181	0x3d720b04	0.059092537
182	0x3d630539	0.055424903
183	0xbd001192	-0.031266756
184	0xbca28e83	-0.019843346
185	0x3da639c2	0.08116485
186	0xbbd26c9f	-0.00642164
187	0x3d8b084a	0.067886904
188	0xbc1a7685	-0.009427671
189	0x3dc84384	0.097785026
190	0xbd1cd8e4	-0.03829278
191	0x3d749fb8	0.059722632
192	0x3cb6ad06	0.0222993
193	0x3c116452	0.008874016
194	0x3c217ccc	0.009856414
195	0xbd0e36f6	-0.034720384
196	0x3d9fa036	0.0779423
197	0x3d2b5bb8	0.041835517
198	0xbccea32f	-0.025224296
199	0x3dca1565	0.09867362
200	0xbc0c8cb1	-0.008578465
201	0xbdd8b39a	-0.10581131
202	0x3daeb9c3	0.08531525
203	0xbca14342	-0.019685391
204	0x3d8582b6	0.06519072
205	0x3d407e5a	0.0469955
206	0x3cf92e3c	0.030417554
207	0x3dc880cb	0.0979019
208	0x3c71e049	0.014762946
209	0xbe15d83a	-0.14633265
210	0xbd2ecb7c	-0.042674527
211	0xbd785bc5	-0.060634393
212	0x3c3801ab	0.011230866
213	0x3c8c4e0e	0.017127063
214	0x3ce49b80	0.02790618
215	0xbd9756d4	-0.07389608
216	0xbdb9d27c	-0.0907335
217	0xbd5498eb	-0.051903646
218	0x3d4d8a0c	0.05018048
219	0xbd0997d6	-0.033592068
220	0xbd0473f8	-0.03233716
221	0x3cd33987	0.025784267
222	0xbdd1b51e	-0.102396235
223	0xbc210186	-0.009827023
224	0x3d59c5db	0.053167205
225	0x3db4ce5c	0.088284224
226	0xbd72b7a6	-0.059257172
227	0x3bebbbe3	0.0071940287
228	0xbd331acb	-0.043726724
229	0x3cf71321	0.030160489
230	0x3decd682	0.115643516
231	0xbbc56727	-0.0060242596
232	0x3ca16bc2	0.019704703
233	0xbd5c1358	-0.053729385
234	0x3da58a9b	0.080830775
235	0x3d9c2288	0.07623774
236	0x3d02b5d1	0.031911675
237	0x3d107d03	0.03527547
238	0xbd3bb4bc	-0.04582666
239	0xbc8c736e	-0.017144885
240	0x3d2e7de3	0.042600524
241	0x3e0ad783	0.13558774
242	0xbce4c696	-0.027926724
243	0xbc22729f	-0.009915023
244	0xbd8b3e76	-0.06799023
245	0xbd0334d3	-0.0320328
246	0x3d7271b2	0.05919046
247	0xbc342973	-0.01099621
248	0xbd4ba544	-0.049718156
249	0x3d530eb6	0.0515277
250	0xbd1a1d59	-0.037625644
251	0xbd9836bc	-0.07432315
252	0xbdc4ae45	-0.09603552
253	0x3dd9ce9c	0.10635111
254	0xbd823c92	-0.06359209
255	0x3d5eb170	0.054368436

lstm.weight_hh_l0 f4 [512, 128]
0	0xbdd48916	-0.103777096
1	0x3daee81a	0.085403636
2	0x3ceb57af	0.028728334
3	0x3d9603a9	0.07324917
4	0xbd3a5804	-0.045494094
5	0x3c9aff40	0.01892054
6	0xbd228207	-0.039674785
7	0xbc5f04e5	-0.013612007
8	0xbd478877	-0.048714127
9	0x3ce4edbc	0.027945392
10	0xbd5a3986	-0.053277515
11	0x3c0e5352	0.008686857
12	0xbdeca8e3	-0.1155565
13	0xbd865dbe	-0.06560849
14	0x3cf33f18	0.029693171
15	0xbdaa5866	-0.08317642
16	0x3d8a064a	0.06739481
17	0x3c51dc2c	0.012808841
18	0xbd238211	-0.039918963
19	0x3d3e1663	0.04640807
20	0x3c30d6d0	0.010793403
21	0xbc5c3305	-0.013439898
22	0xbdb628e6	-0.088945195
23	0xbb29de09	-0.0025919697
24	0xbd13a2fd	-0.03604411
25	0x3cfb66ee	0.03068873
26	0xbdc25f8f	-0.094908826
27	0xbcda0d73	-0.026617741
28	0x3d4de703	0.050269138
29	0xbce4635a	-0.027879406
30	0x3c1bc459	0.009507262
31	0x3c9d9d61	0.019240083
32	0xbdb2631b	-0.08710309
33	0x3d5d9419	0.054096315
34	0x3df714dc	0.120645255
35	0xbd8daf5c	-0.06918213
36	0xbdc7e187	-0.09759813
37	0x3d1951d5	0.037431557
38	0xbc9d70d6	-0.019218843
39	0xbdd368b5	-0.10322706
40	0xbda4e06c	-0.080506176
41	0xbdcc6f1b	-0.09982129
42	0xbdd501f1	-0.10400761
43	0x3d8027fe	0.06257628
44	0xbd417416	-0.04722985
45	0x3d02ab93	0.031901907
46	0x3d1a14f6	0.037617646
47	0xbc21ba4f	-0.00987108
48	0xbbed6a9a	-0.007245374
49	0x3c8e78fc	0.017391674
50	0xbc4eb374	-0.012616027
51	0x3d9582c6	0.07300334
52	0x3d85f802	0.06541444
53	0x3c9f8561	0.01947278
54	0xbd34ecfe	-0.044171326
55	0x3ded2000	0.11578369
56	0xbdac48d1	-0.08412326
57	0xbda57bdb	-0.08080264
58	0x3d8303ab	0.06397184
59	0x3bf05f0a	0.0073355483
60	0x3d4e47c1	0.0503614
61	0x3d9863df	0.07440924
62	0x3d0a0548	0.033696443
63	0x3cc691ea	0.0242395
64	0xbbaddb66	-0.0053056953
65	0xba919441	-0.0011106805
66	0x3c937285	0.017998943
67	0x3cd96135	0.02653561
68	0xbd54d405	-0.05196001
69	0x3cefaf9e	0.029258545
70	0xbda37257	-0.07980793
71	0xbd4152df	-0.047198173
72	0xbd9808dc	-0.07423565
73	0xbd813074	-0.0630807
74	0xbd970a9a	-0.07375069
75	0xbdad5de3	-0.08465173
76	0x3d146482	0.036228664
77	0x3bfa842f	0.007645152
78	0xbca083a5	-0.019594023
79	0xbcff9c10	-0.031202346
80	0x3d4c5b7f	0.049891945
81	0x3dc730f3	0.09726133
82	0xbcfbb0ff	-0.030724047
83	0x3d041fc2	0.03225685
84	0xbde2a29d	-0.11066172
85	0xba3814a6	-0.000702212
86	0xbdae9140	-0.08523798
87	0xba9d0448	-0.0011979425
88	0xbcaae9e9	-0.02086349
89	0xbdb5c810	-0.088760495
90	0x3ccd5907	0.025066866
91	0xbd9cce1c	-0.076565
92	0x3cf73ab2	0.030179355
93	0x3d9dbf2d	0.077024795
94	0xbddf4879	-0.10902495
95	0xbd9a45e1	-0.075328596
96	0xbdce51dc	-0.10074207
97	0x3c286b21	0.010279448
98	0xbd4cb3aa	-0.04997603
99	0xbd0e2c15	-0.03471001
100	0xbd68833b	-0.056765776
101	0x3d5fe939	0.054665778
102	0x3d4ba811	0.049720827
103	0xbc552051	-0.013008193
104	0x3dd6057b	0.10450264
105	0xbd79cd4f	-0.060986813
106	0x3d5dc13b	0.054139357
107	0x3d4856a8	0.048910767
108	0xbd29e196	-0.0414749
109	0x3d37bbeb	0.044856947
110	0xbc8dc0fb	-0.017303934
111	0x3d13cd95	0.03608473
112	0xbdca6f6b	-0.098845325
113	0xbcc18db0	-0.023627132
114	0x3da124e9	0.07868368
115	0xbdf08879	-0.1174478
116	0xbd46bdf4	-0.048520997
117	0xbd6ad689	-0.057333503
118	0x3d5534d7	0.052052345
119	0x3a898287	0.0010491171
120	0x3d233fae	0.03985565
121	0xbd3bc39d	-0.04584085
122	0xbd31cf52	-0.043410607
123	0x3d2b72a5	0.04185738
124	0x3d702ef1	0.058638517
125	0x3a8763d8	0.0010329438
126	0xbdf9a95f	-0.12190508
127	0xbc112af3	-0.008860338
128	0xbc65394c	-0.013990711
129	0x3ddc9b8d	0.107718565
130	0x3d0f09fc	0.03492163
131	0x3d96c15b	0.073610984
132	0x3d01b166	0.03166332
133	0xbe04210c	-0.12903231
134	0x3d968b7f	0.073508255
135	0x3b9da0c5	0.004810425
136	0x3d60af29	0.054854546
137	0xbd0bdb7c	-0.034144863
138	0xbdaf9d57	-0.08574932
139	0x3dd4b954	0.10386911
140	0xbd14a595	-0.036290724
141	0x3d348f4e	0.04408198
142	0x3dd776dd	0.10520718
143	0xbbf48778	-0.007462438
144	0xbc0d6630	-0.00863032
145	0x3dabde5a	0.083920196
146	0x3db70ca5	0.08937959
147	0xbd1e13cd	-0.038593102
148	0xbd8b7db4	-0.06811085
149	0xbda3e0ab	-0.080018364
150	0x3ca48518	0.020082995
151	0x3d473d39	0.04864237
152	0x3d0b7bfe	0.034053795
153	0xbd49ed4f	-0.04929858
154	0xbb33ea44	-0.0027452866
155	0xbc78a7f9	-0.015176767
156	0xba375ac7	-0.0006994423
157	0xbda793fa	-0.08182521
158	0xbd8b8935	-0.068132795
159	0x3ce2165c	0.027598552
160	0xbdd09149	-0.10183961
161	0x3d8a8182	0.06762983
162	0x3c8df2df	0.017327724
163	0x3bf9ce06	0.007623437
164	0xbe0273e4	-0.12739521
165	0xbd8907e1	-0.06690956
166	0x3cadde7e	0.021224257
167	0xbd9cd4e5	-0.07657794
168	0xbcc26d5b	-0.023733785
169	0xbd991f92	-0.07476725
170	0xbd85ede7	-0.06539517
171	0x3c10c671	0.008836375
172	0x3d34e699	0.044165228
173	0xbdb444f4	-0.08802214
174	0xbd36c662	-0.044622786
175	0xbdd16e27	-0.10226088
176	0x3ddadc29	0.106865235
177	0x3d97be18	0.074093044
178	0x3daf8904	0.085710555
179	0x3d308899	0.04309902
180	0x3db098d2	0.08622898
181	0xbda1031b	-0.078619204
182	0xbddeed87	-0.108851485
183	0x3da98ad3	0.08278432
184	0x3c83f8f9	0.01610993
185	0x3c9d3d99	0.019194411
186	0x3dcb1d0d	0.0991765
187	0xbd9d59c0	-0.07683134
188	0xbdc82fc5	-0.09774736
189	0x3986d2fe	0.00025715673
190	0x3dc6970f	0.09696781
191	0xbd42925c	-0.04750286
192	0xbc3a9094	-0.011387009
193	0x3d94d7e9	0.07267744
194	0xbc335804	-0.0109462775
195	0xbc0fcff9	-0.008777612
196	0x3d5d3767	0.054007914
197	0xbd17c250	-0.037050545
198	0x3cadff01	0.02123976
199	0x3d2e3187	0.0425277
200	0x3d017de1	0.031614188
201	0xbd845ac3	-0.06462624
202	0x3c937328	0.017999247
203	0x3d16f083	0.036850464
204	0xbb42f385	-0.00297472
205	0xbdfa60cd	-0.122254945
206	0xbdac2f1c	-0.08407423
207	0xbdd0f53a	-0.10203023
208	0xbd8ad15c	-0.067782134
209	0x3db0342e	0.086037025
210	0xbd07e587	-0.03317788
211	0x3ddae003	0.10687258
212	0xbdac59fe	-0.08415602
213	0x3d6e1ec4	0.05813481
214	0x3c4e5889	0.012594351
215	0x3b968a44	0.0045941193
216	0x3cf28d78	0.029608473
217	0x3c201ee8	0.009772994
218	0xbd14cd4e	-0.036328606
219	0xbda560f4	-0.08075133
220	0xbca7922d	-0.020455444
221	0xbd883c5c	-0.06652138
222	0xbc8bab89	-0.017049568
223	0x3cfe5771	0.031047555
224	0xbd7a8e66	-0.061170958
225	0x3b860c23	0.0040908023
226	0xbd28e409	-0.041233096
227	0x3da2599c	0.07927248
228	0xbd2a0dd0	-0.04151708
229	0xbbb17d2f	-0.0054165344
230	0x3c0ecebd	0.008716282
231	0x3d8dcb1b	0.06923505
232	0x3c2f8b86	0.010714417
233	0x3d665f00	0.056242943
234	0xbcdaeb71	-0.026723595
235	0x3d9dd575	0.07706729
236	0x3d97943a	0.07401319
237	0xbd9660ae	-0.07342659
238	0xbd3229ac	-0.043496773
239	0xba27bae9	-0.0006398396
240	0x3d09fad9	0.033686493
241	0xbd81dd5b	-0.06341048
242	0x3c9f0bf4	0.01941488
243	0xbc9a5d9e	-0.018843468
244	0xbd035e0d	-0.032072116
245	0x3c315c23	0.01082519
246	0x3cbfa07b	0.023391953
247	0x3d31a291	0.043367926
248	0xbc6defd1	-0.014522509
249	0xb9e6f33a	-0.00044050236
250	0xbd0ed571	-0.034871522
251	0x3d101d5f	0.03518426
252	0x3d84f92d	0.06492839
253	0x3d92a914	0.07161155
254	0x3d2d6f77	0.04234263
255	0xbd67e0a6	-0.056610726

lstm.bias_ih_l0 f4 [512]
0	0x3a0d5a1e	0.00053921517
1	0xbc88b1f6	-0.01668642
2	0x3d9fadea	0.07796843
3	0x3c877469	0.016535
4	0x3c714c56	0.014727673
5	0x3d0793f7	0.033100095
6	0xbd7c865d	-0.061651576
7	0xbcff9f78	-0.03120397
8	0x3d1475b1	0.03624505
9	0x3d078154	0.03308232
10	0x3e084af1	0.13309838
11	0x3dfb5c0e	0.122734174
12	0x3ca301b7	0.019898279
13	0x3d4f66d0	0.05063516
14	0x3dbae72f	0.09126126
15	0xbd40e93b	-0.047097426
16	0xbc686960	-0.01418528
17	0x3df7eb85	0.12105469
18	0x3aeaf54a	0.0017925885
19	0x3d840644	0.064465076
20	0xbcdf560f	-0.027262716
21	0xbd33b23f	-0.04387116
22	0x3cb0c1c6	0.021576773
23	0xbcbfa20c	-0.0233927
24	0xbbdb28c3	-0.006688209
25	0x3da59ce7	0.08086567
26	0x3d2cb0af	0.042160686
27	0x3d41fbca	0.047359265
28	0x3c5edc62	0.013602348
29	0xbd26c930	-0.04071921
30	0x3dcabf0f	0.09899723
31	0x3ccea424	0.025224753
32	0xbd80d856	-0.06291263
33	0xbd3872b2	-0.045031257
34	0x3dd4d3b2	0.1039194
35	0x3e08d35f	0.13361882
36	0x3d20a396	0.039218508
37	0x3c9de4ee	0.019274201
38	0x3ae20454	0.0017243722
39	0x3dc473b3	0.095923804
40	0x3ca51b6f	0.020154683
41	0x3da003ba	0.07813211
42	0xbd344fa2	-0.044021256
43	0x3d6886a2	0.05676902
44	0x3dc105c9	0.094249316
45	0x3deb07d2	0.11476101
46	0xbc21c305	-0.009873156
47	0x3dd14660	0.10218501
48	0xbd25ef70	-0.04051155
49	0x3d63b490	0.05559212
50	0x3d4dfb71	0.05028862
51	0x3ca661e1	0.020310344
52	0x3dd35497	0.103188686
53	0x3d27fe4e	0.04101401
54	0x3d0b56b6	0.03401824
55	0xbd2857ff	-0.041099545
56	0x3ddfb7a4	0.109236985
57	0x3cb9b87d	0.022670979
58	0x3e02fd5b	0.1279196
59	0xba7a197f	-0.00095405424
60	0x3d7703c8	0.06030634
61	0x3d91f131	0.07126082
62	0x3c87885b	0.016544512
63	0x3dbd8927	0.09254675
64	0x3d6636a3	0.05620445
65	0x3d9e46cc	0.07728347
66	0x3d9e7329	0.07736809
67	0x3d7b04e8	0.061283976
68	0x3d03536a	0.03206197
69	0x3dcf09ee	0.10109316
70	0x3b1f42c4	0.002430127
71	0x3dcbccc0	0.09951162
72	0x3c8949cc	0.016758822
73	0xbd3d762d	-0.04625528
74	0x3d899c7a	0.06719299
75	0xbca2f967	-0.019894315
76	0x3c4a4c20	0.012347251
77	0x3df845bd	0.121226765
78	0x3dfd0070	0.12353599
79	0x3da0a122	0.07843234
80	0x3db520a7	0.088441186
81	0x3d884876	0.06654446
82	0x3d42620b	0.047456782
83	0x3d92fb0a	0.07176788
84	0xbd7f6591	-0.06235272
85	0xbc134bd3	-0.008990246
86	0x3dafd3f0	0.08585346
87	0x3d26a535	0.040684897
88	0x3ddec9f0	0.1087836
89	0x3d31db7e	0.043422215
90	0x3d93d5cd	0.07218514
91	0x3d64fe95	0.05590685
92	0x3d3462ca	0.044039525
93	0x3d716743	0.05893637
94	0xbc6972d8	-0.014248572
95	0x3d2e3713	0.04253299
96	0x3dc2202c	0.094787925
97	0x3df71216	0.120639965
98	0xbc845be8	-0.016157106
99	0xbb28f1bc	-0.002577885
100	0x3dcc388c	0.09971723
101	0x3da316c3	0.07963326
102	0x3c93b56e	0.018030848
103	0x3e044466	0.12916717
104	0x3db3ad32	0.08773269
105	0xbb83a6b0	-0.0040176734
106	0xbd034301	-0.03204632
107	0x3d19917d	0.037492264
108	0x3ab9a6c7	0.0014164083
109	0xbc2ffacf	-0.01074095
110	0xbd0dd6b5	-0.03462859
111	0x3d44ab3e	0.04801487
112	0xbcf33828	-0.029689863
113	0xbd5736b9	-0.052542422
114	0x3cc416b3	0.023936605
115	0xbca9b405	-0.020715723
116	0x3db7d628	0.08976394
117	0xbd7175c5	-0.058950204
118	0xbd14bf7a	-0.03631542
119	0xbcc33e6e	-0.02383348
120	0x3d1a53b2	0.037677474
121	0x3dae016b	0.08496364
122	0x3d82e8ad	0.06392036
123	0x3d162407	0.036655452
124	0x3d656fa7	0.056014683
125	0x3d9d9afd	0.07695577
126	0x3d2a6685	0.041601676
127	0x3c9f31b2	0.019432876
128	0x3cbef97e	0.023312327
129	0xbd06b870	-0.032890737
130	0xbcf8fac5	-0.030393014
131	0xbd09db44	-0.033656374
132	0x3da2385a	0.079209045
133	0x3e07557b	0.13216202
134	0xbc2213c3	-0.009892407
135	0xbb3c3ffb	-0.0028724659
136	0xbbf1b4a3	-0.00737627
137	0xbd56df90	-0.0524593
138	0xbd1ae197	-0.037812795
139	0x3d908175	0.07055942
140	0xbd6e8c37	-0.058239188
141	0xbd4e00b7	-0.05029365
142	0x3d401db2	0.04690332
143	0x3d032dfa	0.03202627
144	0x3d53ba6e	0.051691465
145	0xbc99d30e	-0.018777397
146	0x3df07133	0.11740341
147	0x3d188216	0.037233435
148	0x3dc44650	0.095837235
149	0xbbbf79ec	-0.0058433916
150	0x3da1853a	0.07886739
151	0x3ccd12a1	0.025033297
152	0xbd268bdc	-0.040660724
153	0x3d3939c6	0.045221113
154	0x3d97c78e	0.07411109
155	0xbd36f8a2	-0.04467071
156	0xbce4e862	-0.02794284
157	0x3d95734f	0.07297384
158	0x3ce27840	0.02764523
159	0x3d58a596	0.05289229
160	0x3c6fb640	0.014630854
161	0x3dddd6d8	0.10831994
162	0x3da6849e	0.081307635
163	0x3e0a209b	0.13489
164	0xbb23d265	-0.002499723
165	0x3dc7dd57	0.09759014
166	0x3d9fd999	0.07805175
167	0x3dc193b9	0.09452004
168	0x3d750a4c	0.059824273
169	0x3cd689bd	0.026188726
170	0xbd1acb0d	-0.0377913
171	0xbd38a99e	-0.045083635
172	0xbcf91bd3	-0.030408775
173	0xbccb1477	-0.024790032
174	0x3d74326b	0.059618395
175	0x3c2aafa0	0.010417849
176	0xbd6ce989	-0.057839904
177	0x3bc2ce81	0.0059450273
178	0xbb3f628e	-0.002920303
179	0x3d92166f	0.07133185
180	0x3ded6a39	0.11592526
181	0x3dda102b	0.10647615
182	0xbd1de3ce	-0.03854733
183	0x3c9a3beb	0.0188274
184	0xbd00de51	-0.031462017
185	0xbc583edc	-0.013198581
186	0x3d3e86d4	0.0465153
187	0x3c53b123	0.012920651
188	0x3d0bf96f	0.034173425
189	0xbc1fc168	-0.0097507015
190	0x3dbb8784	0.09156707
191	0x3dac98aa	0.08427556
192	0xbc46c3ff	-0.01213169
193	0xbb78d1cb	-0.0037966843
194	0x3de7e145	0.11322264
195	0x3d822283	0.06354239
196	0xbce1dfd7	-0.027572555
197	0xbd6ce87f	-0.057838913
198	0x3d69be39	0.057066176
199	0x3e116fb0	0.14202762
200	0x3d049500	0.03236866
201	0x3ab6398d	0.001390265
202	0xbd833330	-0.064062476
203	0x3dc4c333	0.09607544
204	0x3d88c243	0.066776775
205	0x3d98b0cf	0.074555986
206	0x3bf6111f	0.007509365
207	0x3ce03d96	0.027373116
208	0x3c868ea9	0.016425448
209	0xbd396532	-0.045262523
210	0xbc5a8495	-0.013337274
211	0xbb169af1	-0.0022980536
212	0x3db6b97c	0.08922097
213	0x3d880fb9	0.06643624
214	0x3b5c615d	0.003362737
215	0x3ce4dd59	0.027937578
216	0x3c85bd48	0.016325608
217	0x3dfe1f7d	0.1240835
218	0x3ded9e13	0.11602416
219	0x3d3080fd	0.043091763
220	0xbd0654d4	-0.032795742
221	0xbd5c5833	-0.05379505
222	0x3da4fb6d	0.08055768
223	0x3d7826d1	0.060583893
224	0x3d0d1b52	0.034449883
225	0xbd34835b	-0.044070583
226	0x3d7f5fd6	0.062347256
227	0x3dfd2f79	0.1236257
228	0x3d09d9a5	0.033654828
229	0x3d479cba	0.04873345
230	0x3d56fd7d	0.05248784
231	0x3c50219a	0.012703324
232	0xbd7a46b1	-0.061102573
233	0xbcc6d3d1	-0.024270924
234	0x3d1b1738	0.03786394
235	0x3d2e1f1c	0.042510137
236	0xbd0092de	-0.031390063
237	0xbcae2089	-0.021255748
238	0x3d882e30	0.066494346
239	0x3d426ec8	0.04746893
240	0x3d540c65	0.051769633
241	0xbd914dd6	-0.07094924
242	0xbcecc421	-0.028902115
243	0x3de10d96	0.109889194
244	0x3d7a510b	0.061112445
245	0x3dc71641	0.097210415
246	0x3c6e6a17	0.014551661
247	0xbd846c19	-0.064659305
248	0x3de30e7c	0.11086747
249	0x3dcef3a8	0.101050675
250	0x3c5386e6	0.01291058
251	0xbbb15244	-0.005411418
252	0xbb5b740e	-0.0033485922
253	0xbc8edb1b	-0.017438462
254	0x3c365041	0.011127532
255	0x3da35f2d	0.07977138

lstm.bias_hh_l0 f4 [512]
0	0x3dcbd5f8	0.09952921
1	0x3d3f4016	0.046691976
2	0xbcf7bde8	-0.030241922
3	0xbd795e53	-0.06088097
4	0x3da14eee	0.07876383
5	0xbcd5b67c	-0.026087992
6	0x3dbfea02	0.09370805
7	0x3d95362c	0.07285723
8	0x3d71b999	0.05901489
9	0xbc7f97e4	-0.015600178
10	0xbc97b3c8	-0.018518344
11	0xbbed1e59	-0.0072362837
12	0x3dc7f252	0.09763016
13	0x3de3cb36	0.11122744
14	0x3daf7ba7	0.08568507
15	0x3dd8dc56	0.10588901
16	0x3c4fddd0	0.012687162
17	0x3cb33f60	0.021880805
18	0x3d304d46	0.043042444
19	0x3dd823c4	0.10553697
20	0xbd5ff749	-0.05467919
21	0xbd941d88	-0.07232195
22	0x3dcbbdba	0.09948297
23	0xbc134af5	-0.008990039
24	0xbcf704bd	-0.030153627
25	0x3de852c2	0.1134391
26	0x3d84b045	0.06478933
27	0xbc4c32b8	-0.012463264
28	0xbc939283	-0.018014198
29	0xbcc3b2a0	-0.023888886
30	0x3c0507f7	0.008119575
31	0x3cd03ffb	0.025421133
32	0x3d421bae	0.04738968
33	0x3dc4a390	0.096015096
34	0xbca73893	-0.020412719
35	0x3d7012f0	0.05861181
36	0x3dbe506a	0.092926815
37	0xbd926b66	-0.07149391
38	0xbd5ae306	-0.053439163
39	0x3df638e5	0.120225705
40	0x3d42efab	0.047591846
41	0x3c386ad3	0.011255938
42	0x3d5f2131	0.054475013
43	0x3dd8d2ea	0.10587104
44	0x3d94f998	0.07274169
45	0x3ddcd1f6	0.10782234
46	0x3cfd7fa5	0.030944655
47	0x3df757a1	0.12077261
48	0x3da6ac81	0.08138371
49	0x3b0619e2	0.0020462205
50	0x3cb8a5d0	0.022540003
51	0x3dca9685	0.098919906
52	0x3dd2a27e	0.10284899
53	0x3de40d83	0.1113539
54	0x3da62f6a	0.08114512
55	0xbbd44347	-0.0064777466
56	0xbc9f579b	-0.019450953
57	0x3db37054	0.08761659
58	0x3e028e34	0.12749559
59	0x3dca7b82	0.098868385
60	0x3db9c3e0	0.09070563
61	0x3c4b7436	0.012417844
62	0x3d8d4eaf	0.06899773
63	0xbd448afd	-0.047984112
64	0x3dd15601	0.10221482
65	0x3dbe792f	0.09300458
66	0x3cbd15af	0.023081629
67	0xbd199141	-0.03749204
68	0x3e00283a	0.12515345
69	0x3da546ac	0.0807012
70	0xbb8e55c2	-0.004343719
71	0xbb2a6bdd	-0.0026004233
72	0xbd288f4a	-0.041152276
73	0x3b863f33	0.0040968894
74	0xbd0aac35	-0.033855636
75	0xbd43b5d8	-0.04778084
76	0xba484292	-0.0007639314
77	0x3d131daa	0.03591696
78	0xbd45f6a3	-0.048330914
79	0xbc61e20c	-0.013786804
80	0xbcee38f2	-0.029079888
81	0xbcfcd7d2	-0.03086463
82	0x3dec0b55	0.11525599
83	0x3bb15b87	0.0054125222
84	0x3d64466a	0.055731215
85	0xbd63e976	-0.055642568
86	0xbbab2017	-0.0052223313
87	0x3bbcf9e2	0.005767093
88	0x3d4a5c25	0.049404282
89	0x3d29f166	0.04148998
90	0xbccd989f	-0.02509719
91	0xbcff9013	-0.03119663
92	0x3da185c3	0.07886841
93	0x3cbcc7e2	0.02304453
94	0x3dccd3a0	0.10001302
95	0xbc1a8ffd	-0.009433744
96	0xbcc4b5a0	-0.024012387
97	0x3c24f3cd	0.010067892
98	0xbd7513dc	-0.059833393
99	0xbd037600	-0.032094955
100	0x3c375f23	0.011192116
101	0x3da08023	0.0783694
102	0x3d8fdd9b	0.0702469
103	0x3ddfeec6	0.10934214
104	0xbcf7e6be	-0.030261394
105	0x3dd1cb14	0.10243812
106	0xbbe0d5ed	-0.0068614394
107	0x3de5e931	0.11226118
108	0x3d990376	0.07471363
109	0xbd7edabf	-0.06222033
110	0x3b21d8b1	0.0024695809
111	0x3dd1d46d	0.10245595
112	0x3db6c966	0.089251325
113	0x3db2d4a0	0.08731961
114	0x3b1afd85	0.0023649645
115	0x3bb46a5d	0.0055058436
116	0xbd0066c2	-0.031347997
117	0x3d2d1ba4	0.04226269
118	0xbc95ba35	-0.018277267
119	0x3c306ba3	0.01076785
120	0x3d99a4bf	0.07502126
121	0x3d7f860b	0.062383693
122	0x3d648dc9	0.05579928
123	0x3dcec5db	0.10096332
124	0x3ce26e81	0.027640583
125	0x3dd132be	0.102147564
126	0x3c965752	0.018352184
127	0xbb899ee3	-0.004199849
128	0x3cf098d3	0.029369747
129	0x3cb714f1	0.022348853
130	0x3d56d030	0.052444637
131	0xbace3014	-0.0015730881
132	0x3c1179d6	0.008879146
133	0x3dccdf64	0.10003546
134	0x3da21e41	0.07915927
135	0x3c9a594a	0.018841404
136	0xbd2cc84c	-0.042183205
137	0xbd4dca50	-0.05024177
138	0x3d4c40d5	0.049866516
139	0xbd0ba4df	-0.03409278
140	0x3d7cf17d	0.06175374
141	0xbd5a45d5	-0.053289253
142	0x3ca8819a	0.020569611
143	0xbd716e28	-0.058942944
144	0x3d91a286	0.07111077
145	0x3d22435d	0.039615024
146	0x3d74a1f0	0.059724748
147	0x3d11b89f	0.03557646
148	0xbd00ef84	-0.03147842
149	0xbdaa2ad3	-0.08308949
150	0xbd8c12c0	-0.06839514
151	0x3da026dd	0.078199126
152	0x3d62e020	0.055389524
153	0x3dd9f6ae	0.106427535
154	0x3d5b6041	0.05355859
155	0x3b0bcdfa	0.0021332488
156	0xbcb50a4e	-0.02209964
157	0x3dc0265c	0.093823165
158	0x3d93932e	0.07205807
159	0x3db94a41	0.09047366
160	0x3d9c786f	0.076401584
161	0x3da0ed31	0.07857741
162	0x3d1e98fa	0.03872011
163	0x3dfc7c2b	0.12328371
164	0x3dc46a01	0.09590531
165	0x3d535985	0.051599044
166	0xbd558ef3	-0.05213828
167	0x3dc23494	0.09482685
168	0xbd24b90d	-0.04021554
169	0x3daa1a13	0.083057545
170	0x3cbdcd35	0.02316914
171	0xbd65ea0b	-0.056131404
172	0xbcd781a3	-0.026306933
173	0x3c441143	0.011967006
174	0x3c53853d	0.012910184
175	0x3cac9323	0.021066254
176	0x3c083130	0.008312508
177	0x3d6b4a36	0.05744382
178	0x3deed58d	0.11661825
179	0x3e129d2c	0.14317769
180	0x3d179c1c	0.037014112
181	0xbd44813d	-0.047974814
182	0xbd3c4157	-0.04596075
183	0x3d919a02	0.07109453
184	0xbd4b670e	-0.049658827
185	0xbd1e3a2b	-0.038629692
186	0x3d62425d	0.05523907
187	0xbd8522c1	-0.065007694
188	0xbce63149	-0.028099673
189	0x3d044ace	0.0322979
190	0x3d6c3037	0.05766317
191	0xbd25e27d	-0.0404992
192	0x3c47963c	0.012181815
193	0xbc815f0b	-0.01579239
194	0xbbe0177f	-0.0068387385
195	0x3cff5de3	0.031172698
196	0xbc445471	-0.011983023
197	0x3d47f6e3	0.048819434
198	0x3d44d4fe	0.048054688
199	0x3d47c167	0.048768427
200	0x3d62d1fa	0.05537603
201	0x3d9cb8d9	0.076524444
202	0x3c8a9440	0.016916394
203	0x3d8d3733	0.06895294
204	0x3c8caa59	0.017171072
205	0x3de3cf42	0.11123516
206	0x3da78608	0.08179861
207	0xbd2df94e	-0.042474084
208	0xbd0d459b	-0.03449021
209	0x3d3d059b	0.046147924
210	0x3cba3765	0.022731492
211	0x3914d26b	0.00014192767
212	0xbd59d0fe	-0.053177826
213	0x3da549d9	0.08070726
214	0x3d68f5c5	0.05687501
215	0x3d0defb8	0.03465244
216	0xbcaff58c	-0.02147939
217	0xbc87c114	-0.016571559
218	0x3dabd1ee	0.0838965
219	0x3c10a71b	0.008828904
220	0x3c8c6595	0.017138282
221	0x3c49550e	0.012288345
222	0xbc363fbe	-0.011123596
223	0xbd292f3e	-0.04130482
224	0xbc9d1273	-0.019173836
225	0x3d370517	0.04468259
226	0xbce7c242	-0.028290872
227	0x3de3ef26	0.11129598
228	0xbd0b9c63	-0.03408469
229	0x3d47becf	0.048765954
230	0x3d62d568	0.0553793
231	0xbbe0d4a3	-0.006861286
232	0x3d9003c5	0.07031969
233	0xbbb612d6	-0.0055564446
234	0x3c4fdfd5	0.012687643
235	0x3d9167a8	0.07099849
236	0xbd2bcdfd	-0.041944493
237	0x3d3fe980	0.046853542
238	0xbc11660c	-0.0088744275
239	0xbc60fd3a	-0.013732249
240	0x3cd0b70e	0.025477912
241	0xbd80a75b	-0.062819205
242	0x3db3667f	0.08759784
243	0xbc1e7824	-0.009672198
244	0x3d895d16	0.06707208
245	0xbd75d93d	-0.060021628
246	0x3dd90c7d	0.10598085
247	0xbd773750	-0.060355484
248	0xbd4d63a1	-0.05014384
249	0xbd09eafe	-0.03367137
250	0x3d5739f8	0.052545518
251	0x3ceed820	0.02915579
252	0x3de04872	0.10951318
253	0xbd575690	-0.052572787
254	0x3d8acca6	0.06777315
255	0xbd963996	-0.073352024

lstm.weight_ih_l1 f4 [512, 128]
0	0x3d9c3722	0.07627703
1	0x3d6d0d35	0.057873923
2	0xbd21bd15	-0.039486963
3	0x3dbc505b	0.09195014
4	0x3db96358	0.090521514
5	0xbd929c91	-0.07158769
6	0x3db69440	0.08914995
7	0xbd6fc5b8	-0.05853817
8	0x3d865ea4	0.0656102
9	0x3c8dfa5c	0.017331295
10	0xbd1cbc5d	-0.038265575
11	0xbd565ecc	-0.0523365
12	0xbab8dfb7	-0.0014104758
13	0xbb54a9e1	-0.0032449889
14	0xbd3b777f	-0.045768257
15	0x3d64bf26	0.055846356
16	0xbca1a268	-0.019730762
17	0xbd2ae21e	-0.04171955
18	0xbc2deb56	-0.0106151905
19	0x3d3f1e5f	0.046659824
20	0x3b94ef0f	0.0045450996
21	0xbc6c977e	-0.014440415
22	0x3d77b4db	0.06047521
23	0xbccc2b2d	-0.024922932
24	0x3bbf977d	0.005846916
25	0xbd832a2e	-0.064045295
26	0x3c4d3ce7	0.012526727
27	0xbc981cfa	-0.018568505
28	0xbd73fcc4	-0.059567228
29	0xbc815ce4	-0.015791364
30	0x3c85cee1	0.016334
31	0xbd9ff959	-0.07811231
32	0x3cc65882	0.024212126
33	0x3d7f1dfe	0.062284462
34	0x3da314ab	0.079629265
35	0xbc797b6c	-0.01522718
36	0xbd883511	-0.066507466
37	0x3d3bc01c	0.045837507
38	0x3c8ad903	0.016949182
39	0xbd7fecb8	-0.062481612
40	0x3db18c97	0.086693935
41	0xbd9c3117	-0.07626551
42	0xbc3087b1	-0.010774539
43	0x3d4fc3ca	0.05072383
44	0xbc716892	-0.014734404
45	0xbd83c1ea	-0.064334705
46	0x3c7e24f9	0.015511745
47	0xbda01e11	-0.07818235
48	0x3d1eabcb	0.038738053
49	0x3d7ec04a	0.0621951
50	0xbc6f4ee0	-0.014606208
51	0x3c853eaf	0.016265241
52	0xbd3f44dd	-0.046696533
53	0xbc76d06d	-0.015064341
54	0x3cc22c2e	0.023702707
55	0x3d09bf5b	0.033629756
56	0x3c2d1582	0.01056421
57	0xbd58dc58	-0.05294451
58	0xba6a4dcb	-0.00089379837
59	0x3cb66d8b	0.022269031
60	0xbd65c7b2	-0.056098647
61	0x3d0846c6	0.03327062
62	0x3d1f44cc	0.03888397
63	0x3cb93603	0.022608763
64	0xbd725b0d	-0.059168864
65	0xbd4652a5	-0.04841866
66	0xbc79af01	-0.015239478
67	0x3d96f8f5	0.073717035
68	0x3da825b3	0.082103156
69	0x3db73943	0.08946469
70	0xbc786c8d	-0.015162599
71	0xbd4f80df	-0.05066001
72	0x3ccb8fb0	0.024848789
73	0x3d4a8322	0.049441464
74	0x3b072e4e	0.0020626965
75	0xbb1c3680	-0.0023836195
76	0x3c4f83b9	0.0126656825
77	0xbdbd21d0	-0.09234965
78	0x3d423daf	0.047422107
79	0x3cae119f	0.021248637
80	0x3c17f45d	0.009274569
81	0xbcc5beaa	-0.024138767
82	0xbdb94a4d	-0.09047375
83	0x3db4d2be	0.088292584
84	0x3c4b788e	0.012418879
85	0xbd86a594	-0.0657455
86	0xbaf54537	-0.0018712644
87	0xbd3ecff7	-0.04658505
88	0xbda6eb6d	-0.08150373
89	0xbdfe32d6	-0.1241204
90	0x3d417444	0.04723002
91	0x3dad96d3	0.08476033
92	0xb93e2168	-0.00018132257
93	0x3cd1e1f9	0.025620447
94	0x3d5f791b	0.054558855
95	0xbd89bb4b	-0.067251764
96	0x3d8f3488	0.069924414
97	0xbb3c19c5	-0.0028701883
98	0x3c88a8e7	0.016682101
99	0x3db76374	0.08954516
100	0x3d536ff3	0.051620435
101	0xbd432d01	-0.04765034
102	0x3da585d3	0.080821656
103	0x3d3c0f36	0.045912944
104	0xbd8b636b	-0.06806072
105	0xbc301c00	-0.010748863
106	0x3cdc818d	0.026917243
107	0x3d5d440a	0.054019965
108	0xbd5484b4	-0.051884368
109	0x3d362716	0.04447087
110	0x3d493f4b	0.049132627
111	0x3d8c26cf	0.0684334
112	0xbc7c225f	-0.015389054
113	0xbca87b75	-0.020566681
114	0xbc941dc8	-0.018080607
115	0xbdc6eaba	-0.09712739
116	0xbd89031b	-0.066900454
117	0x3d21d939	0.0395138
118	0xbc993806	-0.018703472
119	0x3d5b0d1e	0.053479306
120	0x3cdaeebd	0.026725167
121	0xba39ddbd	-0.00070902315
122	0x3d0bad90	0.03410107
123	0xbdb4c609	-0.08826835
124	0x3afef762	0.0019452388
125	0x3dcd5e09	0.100277014
126	0xbc4fdfaa	-0.012687603
127	0x3d8f3182	0.06991865
128	0xbdcdf5b8	-0.10056633
129	0x3db9bacf	0.09068834
130	0xbd501a32	-0.05080623
131	0x3d03e78e	0.03220325
132	0x3da0306b	0.07821735
133	0x3ce0ed84	0.027457006
134	0xbd803550	-0.062601686
135	0x3d49a1db	0.049226623
136	0xbd50df2d	-0.050994087
137	0xbcbd2aa1	-0.023091616
138	0xbca5f7a9	-0.020259695
139	0xbdba4be8	-0.09096509
140	0x3d476da8	0.04868856
141	0xbd388f37	-0.045058455
142	0x3da6dd35	0.08147661
143	0xbd925052	-0.07144226
144	0x3c03314f	0.008007362
145	0xbd981cb6	-0.07427351
146	0xbb143773	-0.0022616058
147	0x3d418736	0.047248088
148	0x3d26a44b	0.040684026
149	0x3bae65cd	0.005322194
150	0x3b3ba1f6	0.0028630472
151	0xbd29a69e	-0.041418664
152	0xbdaa752f	-0.08323132
153	0x3d59c463	0.053165805
154	0xbd915aed	-0.07097421
155	0xbce4c783	-0.027927166
156	0xbcf19a08	-0.029492393
157	0xbdcfd036	-0.10147135
158	0xbd39a091	-0.045319144
159	0xbd98627c	-0.074406594
160	0x3db88f37	0.09011691
161	0xbc5143d9	-0.012772524
162	0x3d96f1db	0.07370349
163	0xbdc05f89	-0.09393222
164	0xbd010c4d	-0.03150587
165	0xbd19e05b	-0.037567478
166	0x3d1bceaa	0.038038887
167	0xbd89da53	-0.06731095
168	0xbd31bb1f	-0.043391343
169	0xbcd07c5d	-0.025449926
170	0xbd7f099b	-0.06226502
171	0x3d62a43e	0.055332415
172	0x3d59f50d	0.053212214
173	0x3d931678	0.0718202
174	0xbc3d614d	-0.011558843
175	0x3c856f0b	0.016288301
176	0x3d824314	0.063604504
177	0x3d18dbb1	0.03731889
178	0xbd386158	-0.04501471
179	0x3cbd2079	0.023086773
180	0xbd533433	-0.051563453
181	0xbd4bc00c	-0.049743697
182	0xbdb1bc10	-0.08678448
183	0xbd559c38	-0.052150935
184	0x3d3a540e	0.045490317
185	0x3cd7368f	0.026271133
186	0xbd8a60e4	-0.06756762
187	0xbc3657e8	-0.011129357
188	0xbd46e026	-0.04855361
189	0xbd581859	-0.052757595
190	0xbc511c8a	-0.012763152
191	0x3b8e9a7e	0.004351913
192	0xbd5e051c	-0.05420409
193	0x3d8e4644	0.06946996
194	0x3d4a9219	0.049455736
195	0xbc35fb76	-0.011107316
196	0x3db825a5	0.08991555
197	0xbdbfe47d	-0.093697526
198	0xbc408565	-0.011750554
199	0xbc94e1b0	-0.018174022
200	0x3d2b8299	0.041872595
201	0x3d77d94b	0.06050996
202	0xbd8329ae	-0.06404434
203	0x3dbcdc7a	0.0922174
204	0x3dca102d	0.098663665
205	0xbd8e2ecb	-0.06942519
206	0x3d92aa06	0.07161336
207	0xbd963078	-0.073334634
208	0xbd94a8c1	-0.0725875
209	0xbd905e30	-0.07049215
210	0x3da44d51	0.080225594
211	0xbd2094a1	-0.039204244
212	0x3cd9198e	0.026501443
213	0xbd275a0f	-0.04085737
214	0x3d920ca1	0.07131315
215	0xbc40a955	-0.011759122
216	0xbd4c9647	-0.049948003
217	0x3d4a15d3	0.04933722
218	0x3d797f45	0.06091239
219	0x3cf23aec	0.029569112
220	0x3d351720	0.044211507
221	0x3da9f781	0.08299161
222	0xbd1e4b32	-0.03864593
223	0xbc877829	-0.016536789
224	0xbc8e7cd8	-0.017393515
225	0x3cfe3b8b	0.031034252
226	0x3c45b872	0.012067901
227	0x3c97e407	0.01854135
228	0xbb3f9f57	-0.002923926
229	0xbd9c2a4b	-0.07625254
230	0x3d221375	0.039569337
231	0x3bd017ff	0.006350517
232	0xbca23646	-0.01980127
233	0xbd2144fb	-0.039372426
234	0xbcd63464	-0.026148029
235	0x3ce528e1	0.027973594
236	0x3d00d4ae	0.031452827
237	0x3bb7564d	0.0055950047
238	0x3d575890	0.052574694
239	0xbd3fc469	-0.04681817
240	0xbde23218	-0.11044711
241	0x3ac20adb	0.001480426
242	0xbd7af0df	-0.06126487
243	0xbd67bf20	-0.056578755
244	0x3cc8da87	0.024518264
245	0x3caeb7ac	0.021327816
246	0xbc0974fe	-0.0083897095
247	0x3c402e71	0.0117298225
248	0xb9e59455	-0.000437888
249	0xbde67677	-0.11253064
250	0x3d44efaa	0.048080124
251	0x3c0c24a6	0.00855366
252	0x3c8b9e04	0.017043121
253	0x3c4f3fa1	0.012649448
254	0xbd26bc4d	-0.04070692
255	0xbd3b60f3	-0.045746755

lstm.weight_hh_l1 f4 [512, 128]
0	0x3d9ed2f4	0.0775508
1	0x3d5f7d39	0.05456278
2	0x3d1f98c2	0.03896404
3	0xbd1d7170	-0.03843826
4	0x3d41b437	0.047291007
5	0x3d655517	0.05598935
6	0x3d082642	0.03323961
7	0xbd3c3a4b	-0.04595403
8	0xbd8f929c	-0.070103854
9	0x3d0666ba	0.03281281
10	0x3d4e80eb	0.050415915
11	0x3c3ef91b	0.011656071
12	0x3cc0d59f	0.023539362
13	0xbd949a18	-0.072559536
14	0x3b4c6dfa	0.003119348
15	0xbd6414a8	-0.05568376
16	0x3dc13a56	0.09434955
17	0xbc78c8d4	-0.0151846
18	0x3d431a4c	0.0476325
19	0x3d2a5f45	0.041594762
20	0xbcdd5ec4	-0.027022727
21	0x3c9ae6da	0.018908907
22	0xbc9c742a	-0.01909836
23	0xbd312e08	-0.04325679
24	0xbc5d45cc	-0.01350541
25	0xbcbf8373	-0.02337811
26	0x3d5ff3ea	0.054675974
27	0x3d70b685	0.058767814
28	0x3da54098	0.08068961
29	0x3d98cf28	0.07461387
30	0x3ca75034	0.020423986
31	0x3d9f09ea	0.07765563
32	0xbd8299ca	-0.06376989
33	0xbd215030	-0.039383113
34	0x3d60af54	0.054854706
35	0xbd806dca	-0.062709406
36	0x3cd9c30d	0.026582265
37	0xbd8bf0d3	-0.06833043
38	0xbd99550b	-0.07486924
39	0xbbb13e3a	-0.0054090293
40	0xbd4c0299	-0.049807165
41	0xbd89b63d	-0.06724212
42	0x3d2a1316	0.041522108
43	0xbcd91d7f	-0.026503323
44	0xbd29e17c	-0.041474804
45	0x3d3122ac	0.043245956
46	0xbbb08ebe	-0.00538811
47	0xbd69284d	-0.0569232
48	0xbd3be246	-0.045870088
49	0xbd869abc	-0.06572482
50	0xbcd8d116	-0.026466887
51	0xbc9eba5b	-0.01937597
52	0x3dac46a6	0.084119126
53	0x3d8a05e9	0.067394085
54	0x3ceb0017	0.028686566
55	0xbd7dace5	-0.061932463
56	0xbd8e57cd	-0.069503404
57	0xbd2a38f4	-0.04155822
58	0x3d0db78f	0.034598883
59	0x3daab247	0.08334785
60	0x3ce17cc1	0.027525308
61	0x3d9dc852	0.07704224
62	0xbc7ec56b	-0.015549998
63	0xbd01afa9	-0.031661663
64	0xba86b3a3	-0.0010276925
65	0x3d89cf69	0.067290135
66	0x3c07c677	0.008287064
67	0x3c92ea36	0.017933946
68	0x3d09d300	0.03364849
69	0xbda0e570	-0.07856262
70	0xbd9a4ec6	-0.07534556
71	0x3d95b293	0.07309451
72	0xbcabf8dc	-0.020992689
73	0x3ab507a9	0.0013811487
74	0xbc7cfcb5	-0.015441109
75	0xbd85ee7a	-0.065396264
76	0x3d67f049	0.05662564
77	0xbbff2d23	-0.007787363
78	0xbc03715d	-0.008022633
79	0xbcc93943	-0.024563437
80	0x3c3a6c59	0.011378371
81	0xbd9ae0bd	-0.07562397
82	0x3b99045b	0.0046697087
83	0xbc42df77	-0.0118940985
84	0x3dbe6648	0.09296852
85	0xbc175b08	-0.009238012
86	0xbdcfa34c	-0.10138568
87	0xbc5ccd5a	-0.013476694
88	0x3d9495cf	0.07255136
89	0x3dc59328	0.096472085
90	0xbae3fb86	-0.0017393685
91	0x3a9fb76f	0.0012185405
92	0xbbfe9b66	-0.00776999
93	0xbca449c3	-0.020054704
94	0xbd05c8c2	-0.03266216
95	0xbc074517	-0.008256218
96	0x3c51ef37	0.012813381
97	0x3d4e4ca8	0.050366074
98	0x3d02d7dc	0.03194414
99	0x3d873797	0.066024
100	0x3d09b737	0.033621993
101	0xbd6ac0bb	-0.05731271
102	0xbddf9e18	-0.10918826
103	0x3d9a207d	0.07525728
104	0x3ae041ca	0.001710945
105	0xbd7511c9	-0.059831414
106	0xbcd2d07c	-0.025734179
107	0x3d976190	0.073916554
108	0xbd6e2671	-0.05814213
109	0x3d372b72	0.044719167
110	0xbd39c38a	-0.045352496
111	0x3d98b220	0.0745585
112	0x3d111a4b	0.035425466
113	0x3cd63be4	0.026151605
114	0xbcdcd510	-0.026957065
115	0x3b51ff29	0.0032042956
116	0xbd6c8780	-0.05774641
117	0x3cb1d79f	0.021709261
118	0x3cf74a25	0.030186722
119	0x3d84d332	0.06485595
120	0xbdb3eeb0	-0.087857604
121	0x3d335c25	0.043789048
122	0xbcf02c1f	-0.029317914
123	0x3d785fc6	0.06063821
124	0xbda8fed0	-0.082517266
125	0x3d6c8086	0.057739757
126	0xbd9b4d03	-0.07583048
127	0x3d471d75	0.048612077
128	0x3bc0cd27	0.005883831
129	0xbd7a1518	-0.061055273
130	0xbac9e8e2	-0.0015404487
131	0xbbecbb02	-0.0072244415
132	0x3d5e8a5b	0.054331165
133	0x3d287b23	0.041133057
134	0x3d4abf71	0.04949898
135	0xbd7ce1c0	-0.06173873
136	0xbca260f7	-0.019821627
137	0xbdcbbb17	-0.09947794
138	0xbb80029e	-0.003906562
139	0x3c11d8e5	0.008901809
140	0xbccc9908	-0.024975315
141	0x3de0063d	0.1093869
142	0x3cf3201e	0.0296784
143	0x3d3daacf	0.046305474
144	0x3dd64111	0.10461629
145	0x3db5b046	0.08871512
146	0x3d825afd	0.06365011
147	0xbdafb089	-0.08578593
148	0xbcf07f65	-0.029357621
149	0x3dafadaa	0.08578046
150	0x3dedde5c	0.11614677
151	0xbdf6b23c	-0.12045714
152	0x3bcf561d	0.006327404
153	0xbba40b09	-0.0050061983
154	0xbc018257	-0.007904611
155	0x3d999366	0.07498817
156	0x3b88d258	0.0041754656
157	0x3b7cd726	0.0038580387
158	0xbd583001	-0.052780155
159	0xbc977956	-0.018490475
160	0xbd620a88	-0.055185825
161	0xbd23493c	-0.039864764
162	0xbdc81c4b	-0.097710215
163	0x3cfc6a2d	0.030812347
164	0xbc04568c	-0.008077275
165	0xbd60466d	-0.054754663
166	0x3dacaf76	0.08431904
167	0x3cb7ae90	0.022422105
168	0x3ccca3c1	0.024980428
169	0xbd91c1f4	-0.07117072
170	0x3c61918c	0.013767611
171	0xbcd7863e	-0.026309129
172	0xbc97d7ad	-0.01853546
173	0x3d05a74a	0.032630242
174	0xbd688d52	-0.0567754
175	0x3cd5ba84	0.026089914
176	0x3d1c096a	0.038094915
177	0x3d94fe98	0.072751224
178	0x3d9cd049	0.07656915
179	0x3c24b2d1	0.010052399
180	0x3da31aff	0.079641335
181	0xbd065ce0	-0.032803416
182	0x3d73d952	0.059533425
183	0x3d7f8b2d	0.062388588
184	0xb8593d5a	-5.179397e-05
185	0xbdba6ec7	-0.0910316
186	0xbd160088	-0.0366216
187	0x3d2bf761	0.041983966
188	0x3c54e7ee	0.0129947495
189	0x3cf727a1	0.030170264
190	0xbbb4ef69	-0.005521704
191	0xbd99f83d	-0.07518051
192	0xbd9ee366	-0.077582166
193	0x3de26dd5	0.11056105
194	0xbd93f46b	-0.072243534
195	0x3d10f716	0.03539189
196	0xbc978fa2	-0.018501107
197	0x3d4e4072	0.05035443
198	0xbd81a793	-0.0633079
199	0xbd0c9a2c	-0.034326717
200	0x3d405cb4	0.04696341
201	0xbd0a354f	-0.033742245
202	0x3d380820	0.044929624
203	0x3daebdcc	0.08532295
204	0x3b88f736	0.0041798605
205	0xbd5dc053	-0.054138493
206	0xbcdc3643	-0.026881343
207	0xbc22c30b	-0.009934197
208	0xbd811dd6	-0.06304519
209	0x3d103ab3	0.03521223
210	0x3d7294d6	0.059223972
211	0x3d4c7081	0.04991198
212	0x3d823514	0.0635778
213	0x3da5d6e9	0.080976315
214	0xbdd3161d	-0.10306952
215	0x3d909667	0.07059937
216	0x3d12fa6f	0.035883363
217	0x3d51621f	0.051118966
218	0xbdb16fb9	-0.086638875
219	0x3cb4c251	0.022065314
220	0xbd029715	-0.031882364
221	0x3c8b03f4	0.016969658
222	0x3d875f7c	0.06610009
223	0x3d756e5d	0.059919704
224	0x3cb584bf	0.022158025
225	0xbb2572bb	-0.0025245387
226	0x3d502ae0	0.05082214
227	0x3bc28edd	0.005937441
228	0x3c29539f	0.010334878
229	0x3d2f7cc8	0.04284361
230	0xbb2de5f5	-0.002653477
231	0x3c9605b4	0.018313266
232	0xbd0c6e65	-0.034284968
233	0xbd5702ac	-0.052492782
234	0x3d9263b7	0.07147925
235	0xbc333799	-0.0109385485
236	0x3cd2f6b8	0.02575241
237	0x3d08f013	0.033432078
238	0xbd6c4609	-0.05768398
239	0x3d3c5005	0.04597475
240	0xbdb284a7	-0.08716708
241	0xbc20940f	-0.009800925
242	0x3dc42188	0.09576708
243	0x3c402225	0.011726891
244	0x3d9736bb	0.07383486
245	0x3d977174	0.07394686
246	0x3d33ae01	0.043867115
247	0xbc2cd729	-0.010549345
248	0xbda8506f	-0.082184665
249	0x3ca00c6d	0.019537175
250	0x3d1f9aca	0.038965978
251	0xbcda82d9	-0.026673721
252	0x3d328c9b	0.043591123
253	0x3d94479f	0.07240223
254	0x3d0b3a07	0.033990886
255	0x3be1ef4e	0.0068949824

lstm.bias_ih_l1 f4 [512]
0	0xbbc4f6de	-0.006010874
1	0x3d3a8fe7	0.045547392
2	0x3c5c9068	0.0134621635
3	0xbc5adbbe	-0.013358055
4	0x3a9f55e0	0.001215633
5	0xbbba7292	-0.0056899274
6	0x3d988ea1	0.07449079
7	0x3d92cef6	0.07168381
8	0x3d824eb0	0.06362665
9	0xbb5466e3	-0.0032409958
10	0x3c8d2694	0.01723031
11	0x3c882975	0.01662133
12	0xb9c0c999	-0.00036771296
13	0x3d090191	0.03344876
14	0x3de6b813	0.11265578
15	0x3d8c60bd	0.06854389
16	0x3d205d62	0.039151557
17	0xbcb0a583	-0.021563297
18	0xb98f65ce	-0.00027350936
19	0xbd0a35f0	-0.033742845
20	0x3d9fa18f	0.07794487
21	0xbb82d0d9	-0.0039921817
22	0x3d4a6dde	0.049421184
23	0x3db63152	0.08896126
24	0x3d0935a4	0.03349842
25	0x3ceb6a8c	0.028737329
26	0x3d942f9b	0.072356425
27	0xbd297b05	-0.041377086
28	0xbd93da05	-0.07219318
29	0x3da77223	0.08176067
30	0xbd8bd5b4	-0.0682787
31	0x3dc2bae8	0.09508306
32	0x3da4a671	0.08039559
33	0xbd045cb1	-0.03231496
34	0xbd9a7989	-0.07542712
35	0xbc5d8f88	-0.01352299
36	0xbd1d5eca	-0.038420476
37	0xbd309994	-0.043115214
38	0xbbfc2249	-0.007694517
39	0xbce613eb	-0.02808567
40	0x3c095f06	0.008384472
41	0x3dbbc122	0.091676965
42	0xbd463cdc	-0.048397884
43	0xbd0642eb	-0.03277866
44	0x3d148ec5	0.036268968
45	0xbbee0c53	-0.0072646528
46	0x3c3284d7	0.010895929
47	0xbc29a7c4	-0.01035494
48	0xbd1fe60b	-0.039037745
49	0xbdaac41e	-0.08338188
50	0x3cc19b6e	0.023633685
51	0x3c58dbc7	0.013235993
52	0x3da9df1c	0.08294508
53	0x3de456b3	0.11149349
54	0x3a84b532	0.0010124801
55	0xbd79079a	-0.060798265
56	0xbd8e5023	-0.069488786
57	0x39959012	0.00028526835
58	0x3db6b373	0.08920946
59	0x3d948dd4	0.07253614
60	0xbce34206	-0.027741443
61	0x3d5bbc9c	0.05364667
62	0xbd2352f2	-0.039874025
63	0xbd73931c	-0.059466466
64	0xbccbca80	-0.024876833
65	0x3d98c127	0.07458716
66	0x3d3e9fb5	0.046539027
67	0x3d667974	0.05626817
68	0xbbe9143f	-0.007113009
69	0xbd850be1	-0.06496406
70	0x3d4b423b	0.04962371
71	0xbd906eab	-0.07052358
72	0x396f8bde	0.00022844921
73	0x3dd162bb	0.102239095
74	0xbcf48f60	-0.029853523
75	0x3dab9b4a	0.083792284
76	0x3da9cc56	0.08290927
77	0xbcadb1b7	-0.021202905
78	0xbda2d6fb	-0.079511605
79	0xbd31f4df	-0.043446418
80	0x3d22c8db	0.039742332
81	0xbc6fb3e4	-0.014630292
82	0x3b648b12	0.0034872931
83	0xbd2a84c7	-0.041630533
84	0x3d02ab2a	0.031901516
85	0x3946d2b6	0.00018961247
86	0x3d5c24f0	0.053746164
87	0xbdb1875a	-0.086683944
88	0x3de451f4	0.11148444
89	0xbd97271e	-0.07380508
90	0x3dab777f	0.083724014
91	0xbcc51ed9	-0.02406256
92	0xbd43d8f3	-0.04781432
93	0xbdaf9f5b	-0.085753165
94	0x3cdfe029	0.027328568
95	0x3d99f7c7	0.07517963
96	0xbcbed4e3	-0.023294872
97	0xbc40e882	-0.011774184
98	0xbd26d0af	-0.04072636
99	0x3d991990	0.07475579
100	0xbc170c0c	-0.009219181
101	0x3d070e15	0.032972414
102	0x3cbf69ac	0.023365818
103	0x3c626f30	0.0138204545
104	0x3bbf59b6	0.005839552
105	0xbd3cdca0	-0.046108842
106	0x3a883fd8	0.0010395003
107	0x3da856d7	0.082196884
108	0x3c791c91	0.015204565
109	0x3da095e0	0.078410864
110	0xbcebf86a	-0.028804976
111	0x3d1a8774	0.037726834
112	0x3c0baa4e	0.0085244905
113	0x3d71b83a	0.059013583
114	0x3d0c8c7b	0.03431366
115	0x3c5d37f0	0.013502106
116	0xbd21ee5f	-0.03953397
117	0x3d6b6dea	0.05747787
118	0x3d3742a9	0.044741306
119	0x3d65c8ac	0.05609958
120	0xbc4d6709	-0.0125367725
121	0xbd30bfae	-0.04315155
122	0x3c03a591	0.00803508
123	0x3dc786a7	0.0974248
124	0xbd59fdae	-0.053220443
125	0x3bff9d9f	0.0078007723
126	0x3d70b360	0.058764815
127	0x3d584081	0.05279589
128	0xbd25fb26	-0.040522717
129	0x3dc6eb08	0.097127974
130	0xbc7662d0	-0.015038207
131	0x3d8f14af	0.06986367
132	0x3dc3a2a0	0.09552503
133	0xbbd822b0	-0.006595932
134	0xbd669e62	-0.05630339
135	0xbcccd442	-0.025003556
136	0x3d850bb6	0.06496374
137	0xbc20ee50	-0.009822443
138	0xbd4a0237	-0.04931852
139	0x3d91ae3b	0.0711331
140	0x3d362b25	0.04447474
141	0x3d84433e	0.06458138
142	0xbc394944	-0.011308972
143	0x3d7667e1	0.06015766
144	0x3d661450	0.056171715
145	0x3dc07212	0.09396757
146	0xbd506a92	-0.050882883
147	0x3d4cdbf2	0.050014444
148	0xbdd76440	-0.10517168
149	0xbd33400d	-0.043762255
150	0xbc2ae952	-0.010431604
151	0x3c89ac26	0.01680572
152	0xbd91e439	-0.07123608
153	0x3d819617	0.063274555
154	0x3d843eb6	0.06457274
155	0xbd020b6b	-0.03174917
156	0xbd8a9f8d	-0.06768713
157	0xbd303819	-0.04302225
158	0xbd636e4a	-0.0555251
159	0xbd41e806	-0.047340415
160	0xbda1b622	-0.07896067
161	0xbd8f949d	-0.070107676
162	0x3cf0a93e	0.029377576
163	0x3d6c639e	0.05771219
164	0x3d3f4b66	0.046702765
165	0x3da82182	0.08209516
166	0x3dd10af3	0.102071665
167	0x3d58f409	0.052967105
168	0xbd3667dc	-0.04453264
169	0x3bae7122	0.005323545
170	0x3d82e0d9	0.063905425
171	0x3dae191e	0.085008845
172	0x3c3f2ae7	0.011667944
173	0x3dbadd30	0.091242194
174	0x3d743fc2	0.059631117
175	0xbbf909e9	-0.0076000583
176	0x3d4ecae1	0.05048645
177	0xbd821672	-0.06351937
178	0xbd81e3a8	-0.0634225
179	0x3d097d8f	0.033567008
180	0x3c5108c6	0.012758439
181	0x3d5f45a6	0.05450978
182	0x3d9dbce1	0.077020414
183	0xbd9b94cc	-0.0759674
184	0xbdb7cba6	-0.0897439
185	0x3da1d325	0.07901601
186	0xbd83b9d0	-0.06431925
187	0x3c41491d	0.011797217
188	0x3da90d67	0.082545094
189	0xbd64d3ae	-0.055865936
190	0x3c3b919a	0.011448288
191	0x3cf21322	0.029550139
192	0x3d97a66f	0.074047916
193	0x3daaaffc	0.083343476
194	0x3d9e208a	0.0772105
195	0xbda7d8ff	-0.081956856
196	0x3d797745	0.06090476
197	0xbd01d478	-0.031696767
198	0x3cbe4538	0.023226365
199	0xbd04fbdc	-0.032466754
200	0x3ca3b0c3	0.019981747
201	0xbd305cf5	-0.0430574
202	0xbcd8c517	-0.026461167
203	0x3d2a516e	0.041581564
204	0xbd9677e1	-0.07347084
205	0xbd022d77	-0.03178164
206	0x3ddd3383	0.10800841
207	0xbcabcdca	-0.020972151
208	0x3cffac23	0.03121001
209	0x3d350a5f	0.044199344
210	0x3bc8358c	0.006109899
211	0xbcf9e05a	-0.030502487
212	0xbd138da6	-0.03602376
213	0x3c1d76b6	0.009610822
214	0x3c5fadfa	0.013652319
215	0xbd2952d7	-0.041338768
216	0x3d8b5f9d	0.06805346
217	0xbd95ee9d	-0.073209025
218	0x3d602b9c	0.05472909
219	0x3dbaab31	0.091146834
220	0x3d8b9478	0.068154275
221	0xbd0ccc31	-0.03437442
222	0xbc9becfc	-0.019033901
223	0x3d90b526	0.07065801
224	0x3d5f96d4	0.0545872
225	0xbcd82d7f	-0.026388882
226	0xbd6d9d54	-0.058011368
227	0x3d2197b8	0.03945133
228	0x3ca23529	0.01980074
229	0xbd9e7405	-0.07736973
230	0xbd90462a	-0.07044633
231	0x3d54e53b	0.051976424
232	0xbd00a67e	-0.03140878
233	0x3ae2f7a4	0.0017316234
234	0x3d167c2a	0.036739506
235	0x3d0d2ac5	0.034464616
236	0x3cf90c2b	0.03040131
237	0x3d3baf85	0.045821685
238	0x3d8170b6	0.06320326
239	0x3cde0963	0.027104085
240	0x3db13efa	0.0865459
241	0xbcbe18ea	-0.02320524
242	0xbd597cd5	-0.053097565
243	0xbd6ea88b	-0.058266204
244	0x3c260fdd	0.010135618
245	0xbd89e5d3	-0.067332886
246	0xbda97a3e	-0.08275269
247	0xbd61c7e4	-0.05512227
248	0x3d030120	0.031983495
249	0x3da5b83f	0.08091783
250	0xbd4ef001	-0.050521854
251	0xbc96d1d3	-0.018410599
252	0xbd99fed0	-0.07519305
253	0x3ddbfa62	0.10741116
254	0xbd779450	-0.060444176
255	0x3db7f57e	0.08982371
