Data/PredictionsData/AB21.pth (torch, 828430 bytes, 10 tensors)

lstm.weight_ih_l0 f4 [512, 13]
0	0xbb943ea7	-0.0045240703
1	0xbd0ae78c	-0.033912227
2	0xbd1512fe	-0.036395065
3	0xbcbbf044	-0.022941716
4	0xbc07de11	-0.008292691
5	0xbd848479	-0.0647058
6	0xbcf4e973	-0.029896474
7	0x3d8adac3	0.06780007
8	0xbd091a21	-0.033472184
9	0x3d23530a	0.039874114
10	0xbd9a99bb	-0.07548853
11	0x3d32ae5b	0.04362331
12	0xbd81af56	-0.06332271
13	0x3d137f1c	0.036009893
14	0xbcbeadc1	-0.023276212
15	0x3c20a03a	0.009803826
16	0x3db7c94b	0.089739405
17	0xbcd437cc	-0.025905512
18	0xbe0327b5	-0.12808116
19	0xbe0ff613	-0.14058714
20	0x3d806fbe	0.06271313
21	0x3ce66c04	0.028127678
22	0xbc9152ac	-0.017739616
23	0xbdaa248f	-0.08307754
24	0x3c62c764	0.013841484
25	0x3d915cbd	0.070977665
26	0x3d387b1e	0.04503929
27	0xbc72ef81	-0.01482761
28	0x3cc9ce52	0.024634514
29	0x3cc1213a	0.023575414
30	0xbd96feef	-0.073728435
31	0x3d9ddbb8	0.07707924
32	0x3c902d63	0.017599767
33	0xbc7e967f	-0.015538811
34	0xbdae2533	-0.08503189
35	0xbdbdf034	-0.09274331
36	0xbd167b2a	-0.036738552
37	0x3cd5831e	0.026063498
38	0xbda722fb	-0.08160969
39	0x3d62cc2c	0.055370495
40	0xbc0463af	-0.008080407
41	0x3d558bfe	0.05213546
42	0xbc090d44	-0.008364979
43	0x3d885289	0.06656367
44	0xbcd8a52b	-0.026445946
45	0x3d795fe8	0.06088248
46	0xbcdbf889	-0.02685191
47	0x3d8ebeb3	0.06969967
48	0xbdaa069a	-0.083020404
49	0xbd9904e9	-0.0747164
50	0xbd94b84e	-0.07261716
51	0x3cd1ba08	0.025601402
52	0xbd7235b3	-0.059133243
53	0xbdd3992b	-0.10331949
54	0x3c8bb24e	0.017052796
55	0x3d0e7fa9	0.034789715
56	0x3d3cd00f	0.046096858
57	0x3da2f261	0.07956386
58	0x3bcb0041	0.0061950986
59	0xbda5de1b	-0.08099004
60	0x3aa3eaea	0.0012505923
61	0xbc730bbe	-0.0148343425
62	0x3c1da610	0.009622112
63	0xbd77e85c	-0.06052433
64	0x3cb11f70	0.021621436
65	0x3c1f522c	0.009724181
66	0xbbeb7099	-0.0071850535
67	0xbc0b59eb	-0.008505325
68	0xbd19a11e	-0.03750717
69	0xbcf68443	-0.030092364
70	0x3dd04bc3	0.101707004
71	0xbdfbe7b0	-0.1230005
72	0xbde4588b	-0.11149701
73	0x3cfb3153	0.030663168
74	0x3d3c7d3a	0.046017863
75	0x3d3d4140	0.046204805
76	0xbd348c0d	-0.044078875
77	0x3d2bf00a	0.041976966
78	0xbd8a8a4b	-0.067646585
79	0xbdd9eb17	-0.10640543
80	0x3da7a964	0.081866056
81	0x3d327e65	0.04357757
82	0x3d391786	0.04518845
83	0xbcfab564	-0.030604072
84	0xbc4f4b18	-0.012652181
85	0x3df95336	0.12174074
86	0x3cd7a3b1	0.026323171
87	0x3dae012f	0.084963195
88	0xbbe9c72f	-0.0071343402
89	0xbdde56a0	-0.10856366
90	0xbdab65a3	-0.08368995
91	0x3d62f2ec	0.05540745
92	0x3c95bcfc	0.018278591
93	0x3c35d064	0.0110970475
94	0x3d945391	0.072425015
95	0x3d795d45	0.060879964
96	0x3c5fb00b	0.013652812
97	0x3ddc176a	0.107466534
98	0xbe1911be	-0.14948174
99	0x3d8e8435	0.0695881
100	0x3caa05c1	0.020754697
101	0xbd197e43	-0.03747393
102	0xbe0087d2	-0.12551811
103	0x3d0108c5	0.031502504
104	0xbcd988ea	-0.026554544
105	0xbdd8affe	-0.10580443
106	0xbc52285e	-0.012827007
107	0x3d21ee29	0.039533768
108	0x3cf30f7c	0.02967047
109	0x3d8994b7	0.06717818
110	0xbd81aaf4	-0.06331435
111	0xbd01f2a2	-0.031725533
112	0xbc155b8b	-0.009116064
113	0x3db640e0	0.08899093
114	0x3c8e964d	0.017405653
115	0x3cebb8a2	0.028774563
116	0x3db75cd1	0.0895325
117	0xbde39352	-0.111120835
118	0xbd215560	-0.03938806
119	0xbcbeed9b	-0.023306658
120	0x3e1e5060	0.15460348
121	0xbdbca8fa	-0.09211917
122	0xbc0608cf	-0.008180811
123	0xbcb90e29	-0.02258976
124	0x3cbd76d0	0.023127943
125	0xbcf32a06	-0.029683124
126	0x3cbeb566	0.023279857
127	0x3db37732	0.08762969
128	0xbdc3282a	-0.09529145
129	0x3df90410	0.12158978
130	0x3ceb9e2b	0.028761944
131	0xbcbc7c15	-0.023008386
132	0xbd14b680	-0.036306858
133	0x3d86e291	0.06586183
134	0xbd471b4f	-0.048610028
135	0x3d3dbc51	0.04632217
136	0x3cbb3858	0.022854015
137	0x3d92c606	0.07166676
138	0xbdcba84b	-0.09944209
139	0x3e103420	0.14082384
140	0xbd91684d	-0.07099972
141	0xbd509ddb	-0.050931793
142	0xbce1d566	-0.027567577
143	0xbe1b6147	-0.15173827
144	0xbd508b9d	-0.050914396
145	0xbde26437	-0.11054271
146	0xbcfd9862	-0.03095645
147	0xbdd814f2	-0.1055087
148	0xbddcb7ae	-0.107772216
149	0xbe06881a	-0.13137856
150	0xbd70ea72	-0.058817334
151	0xbd898f4e	-0.06716786
152	0x3c5b822b	0.013397734
153	0x3be98f52	0.007127681
154	0xbdc8d074	-0.09805384
155	0xbc40e6b9	-0.011773759
156	0xbda606c0	-0.08106756
157	0xbd48cabc	-0.049021468
158	0x3dbdf96f	0.09276091
159	0xbcf23589	-0.029566543
160	0x3dbc1e91	0.091855176
161	0x3d9298f2	0.07158078
162	0xbd974567	-0.07386284
163	0x3d1555e3	0.03645886
164	0x3d5bf3f6	0.053699456
165	0xbcfe127b	-0.031014672
166	0xbce1bac3	-0.027554875
167	0xbc8ca650	-0.017169148
168	0x3bb9a4a2	0.0056653777
169	0x3d42e351	0.047580067
170	0x3d73fdd0	0.059568226
171	0xbd1a16fa	-0.03761957
172	0xbce13ef9	-0.027495848
173	0xbc980690	-0.018557817
174	0xbc779352	-0.0151108075
175	0x3d097c28	0.03356567
176	0x3d4ded63	0.050275218
177	0x3de36798	0.11103743
178	0x3d76e9e2	0.06028164
179	0xbcf56feb	-0.029960593
180	0x3d40d506	0.047078155
181	0x3d7ef0cc	0.06224136
182	0xbcfada18	-0.030621573
183	0xbd21f9a5	-0.03954472
184	0xbd0195b6	-0.031636916
185	0xbd83dbb9	-0.06438393
186	0xbc0f0193	-0.008728403
187	0x3d84d91d	0.064867236
188	0x3d293d20	0.04131806
189	0x3ca221e6	0.019791555
190	0xbd838a65	-0.06422881
191	0x3dce1667	0.10062867
192	0x3d48be0b	0.049009364
193	0x3b7455b4	0.0037282528
194	0x3d63eb17	0.05564412
195	0xbd86c381	-0.06580258
196	0x3d8d773f	0.0690751
197	0xbcfbc20b	-0.030732175
198	0xbd79c3cd	-0.060977746
199	0xbc528bd9	-0.012850725
200	0xbdab61f3	-0.08368292
201	0x3ddded20	0.10836244
202	0xbd3dc91d	-0.046334375
203	0xbd92144e	-0.07132779
204	0xbd6bc4ea	-0.05756084
205	0x3dad6972	0.08467378
206	0xbc7d9d8c	-0.015479457
207	0xbc38bf62	-0.011276098
208	0xbc5a41f5	-0.013321389
209	0x3d4e4192	0.0503555
210	0x39e31005	0.0004330875
211	0x3d2f5204	0.042802826
212	0xbd434f94	-0.047683313
213	0x3d743d62	0.05962885
214	0x3db5790f	0.08860981
215	0x3d14d8ab	0.036339443
216	0xbd24e00d	-0.040252734
217	0xbe05e275	-0.13074668
218	0x3d7e8644	0.062139764
219	0xbdb31fa8	-0.08746272
220	0x3da8d725	0.082441606
221	0x3bc78604	0.006088974
222	0x3d9fc725	0.07801656
223	0x3d8e7827	0.06956511
224	0x3c7dae11	0.015483395
225	0x3d9bf0da	0.07614298
226	0x3cb7ae6d	0.02242204
227	0xbdb3dc80	-0.087822914
228	0xbc13f3a8	-0.00903026
229	0x3d280b02	0.041026123
230	0xbdb5d8f6	-0.08879273
231	0xbd8d625e	-0.06903528
232	0x3c20207b	0.009773369
233	0x3d1203e8	0.035648257
234	0x3b97da3f	0.0046341713
235	0x3d2fe38b	0.04294161
236	0xba027cb4	-0.00049776887
237	0xbd5f868d	-0.054571677
238	0xbda45c31	-0.080253966
239	0xbcdc4c41	-0.02689183
240	0xbc87fea3	-0.016600912
241	0x3b020a63	0.0019842617
242	0x3c0914e9	0.008366802
243	0xbd209025	-0.039199967
244	0xbdec21a5	-0.11529855
245	0xbd9aa99c	-0.07551882
246	0x3db3e962	0.087847486
247	0xbb183282	-0.0023223464
248	0xbcca107b	-0.024666062
249	0xbd6b148a	-0.057392634
250	0x3cb09ea6	0.021560024
251	0xbc2bc6f2	-0.010484444
252	0x3dbd22b8	0.09235138
253	0x3d03c6fc	0.03217219
254	0x3d58a3c0	0.05289054
255	0x3cd0d77d	0.025493378

lstm.weight_hh_l0 f4 [512, 128]
0	0x3defc82b	0.11708101
1	0x3cdbe9d0	0.026844889
2	0xbd664fdc	-0.056228504
3	0x3bdf55ed	0.006815663
4	0x3db29119	0.087190814
5	0x3cd7f60e	0.026362445
6	0x3d5c0166	0.05371227
7	0xbd56183b	-0.0522692
8	0x3d53a0b4	0.05166693
9	0xbccd489b	-0.025059035
10	0xbdae20f6	-0.085023805
11	0x3b60e8f5	0.003431854
12	0x3dbec1b3	0.09314289
13	0xbd92d3b2	-0.07169284
14	0xbcd135b8	-0.02553831
15	0xbd862df7	-0.06551736
16	0xbcfca906	-0.030842315
17	0x3d3b93fa	0.04579542
18	0xbb838a2c	-0.004014274
19	0x3c172a28	0.009226359
20	0x3d9d61fe	0.07684706
21	0xbdaa8a84	-0.08327201
22	0xbdc25055	-0.09487978
23	0xbd753c76	-0.059872113
24	0x3cdc041d	0.02685743
25	0x3c7e3924	0.015516553
26	0x3d1acb5e	0.037791602
27	0x3dba060a	0.09083183
28	0x3c7b5a45	0.015341346
29	0xbd84695b	-0.064654075
30	0x3c9dc614	0.01925949
31	0xbdb3ae92	-0.08773531
32	0x3d041b83	0.0322528
33	0x3dab415d	0.083620764
34	0x3d903794	0.07041851
35	0xbd54045b	-0.051761966
36	0x3d0a148b	0.033710998
37	0xbc61caf6	-0.0137813
38	0xbd6238fd	-0.05523013
39	0x3de84668	0.11341554
40	0xbc253d2e	-0.010085387
41	0xbdbfe339	-0.09369511
42	0xbdbd7bf7	-0.0925216
43	0x3bea7772	0.0071553523
44	0xbdc8591b	-0.097826205
45	0x3ae07dd6	0.0017127346
46	0xbcbe4545	-0.02322639
47	0xbd7830ac	-0.060593292
48	0xbd4b08e2	-0.04956902
49	0x3cae2395	0.021257201
50	0xbdea1a1b	-0.114307605
51	0x3d2f6403	0.042819988
52	0xbdbc11b6	-0.091830656
53	0x3d1db4cd	0.038502503
54	0xbd38162b	-0.044943016
55	0xbd2d936f	-0.04237693
56	0x3d7c6ae3	0.061625373
57	0x3cf6474d	0.030063296
58	0x3d5b7c07	0.05358508
59	0xbd3686e9	-0.044562254
60	0xbd89d03d	-0.067291714
61	0xbd88d4fb	-0.06681248
62	0x3c9794af	0.018503515
63	0xbda02c93	-0.07821002
64	0xbacc1a2a	-0.0015571762
65	0xbdd2b8c7	-0.1028915
66	0xb9cf7211	-0.00039567103
67	0xbb0d5bdc	-0.0021569645
68	0x3dc989ec	0.0984076
69	0xbd6020d4	-0.054718807
70	0x3cb31439	0.021860229
71	0xbce44748	-0.02786602
72	0xbc3d641f	-0.011559515
73	0x3dd3e498	0.10346335
74	0x3debdc26	0.11516599
75	0x3b1dd061	0.0024080502
76	0x3ceb9d42	0.02876151
77	0xbde9ec94	-0.11422077
78	0x3de10696	0.10987584
79	0xbd3c40be	-0.04596018
80	0x3d160a55	0.036630947
81	0x3c9e27e4	0.01930613
82	0xbdacb003	-0.08432009
83	0x3dc7a943	0.09749081
84	0xbd8b45fb	-0.06800457
85	0x3d11b01f	0.035568353
86	0x3c426b5c	0.011866417
87	0x3d5603f3	0.05224986
88	0xbdbfa5bf	-0.093577854
89	0xbd65a538	-0.056065768
90	0x3d5125f7	0.051061597
91	0xbe13ec4c	-0.14445609
92	0xbc9bc2c4	-0.01901377
93	0x3debe94c	0.11519107
94	0xbbeef5c7	-0.0072924825
95	0x3cc87dac	0.024473988
96	0xbd89a7f3	-0.06721487
97	0xbd7fef04	-0.062483802
98	0xbdeed3a5	-0.11661462
99	0xbce9c2a6	-0.028535198
100	0xbdbf70b5	-0.09347669
101	0xbd82631d	-0.063665606
102	0xbb48a902	-0.0030618315
103	0xbd822930	-0.06355512
104	0x3d41f953	0.047356915
105	0x3cf7c527	0.030245377
106	0x3d38de61	0.045133952
107	0xbc3e4b09	-0.011614569
108	0xbd55499b	-0.05207215
109	0xbd695e75	-0.056974847
110	0xbca8b781	-0.020595314
111	0xbcaaa6fc	-0.020831577
112	0xbd7376f3	-0.05943961
113	0x3cffde70	0.031233996
114	0x3cc08fcd	0.02350607
115	0xbd398c9c	-0.04530011
116	0xbd8cb184	-0.06869796
117	0x3c47f1ab	0.012203614
118	0x3da79ecc	0.08184585
119	0xbcd08f71	-0.025459023
120	0x3d87500b	0.06607064
121	0x3dacbc75	0.08434383
122	0xbd0e561c	-0.03475009
123	0xbd834d1e	-0.06411193
124	0x3d646298	0.05575809
125	0x3be641a1	0.0070268665
126	0x3a288f41	0.0006430038
127	0x3d80e039	0.06292767
128	0x3d951d87	0.072810225
129	0xbd9d9647	-0.07694679
130	0x3db83e06	0.08996205
131	0x3d3194f2	0.043354936
132	0xbd5f1691	-0.05446488
133	0x3ddb4fd0	0.107085824
134	0x3dcab115	0.09897057
135	0x3dc5ae0b	0.09652337
136	0xbacc1c7f	-0.0015572457
137	0x3de1f0ad	0.110322334
138	0xbc9ee782	-0.0193975
139	0x3cedbca1	0.02902061
140	0xbbcb12df	-0.006197318
141	0xbdab62fa	-0.08368488
142	0xbd641de6	-0.055692576
143	0x3d41f463	0.047352206
144	0xbda24aea	-0.07924445
145	0x3d6341ba	0.055482604
146	0xbd40fa9d	-0.047114003
147	0x3b827d7c	0.003982244
148	0x3c921431	0.017831894
149	0xbd4c793c	-0.049920306
150	0xbdc7f391	-0.097632535
151	0xbcdcfe38	-0.02697669
152	0xbd0a36c5	-0.03374364
153	0xbc657ee5	-0.014007305
154	0xbd886b88	-0.06661135
155	0xbc226770	-0.009912357
156	0x3d5bb4c1	0.053639177
157	0xbd909b27	-0.07060843
158	0xbde5e00d	-0.11224375
159	0xbcb42000	-0.021987915
160	0x3d8d3d41	0.06896449
161	0x3d597edf	0.05309951
162	0x3c5a934e	0.013340784
163	0x3a82a88a	0.0009968441
164	0xbcd96ed1	-0.0265421
165	0xbd90f850	-0.07078612
166	0xbe064cb0	-0.13115191
167	0x3d9819fb	0.074268304
168	0x3caa0f87	0.020759357
169	0xbd295fef	-0.041351255
170	0xbe0106cb	-0.12600248
171	0x3c737bc8	0.014861055
172	0x3dd8b44c	0.10581264
173	0x3da61c2c	0.08110842
174	0x3e10ada8	0.14128745
175	0xbd400223	-0.046877038
176	0x3a4924d5	0.000767303
177	0x3e045d8d	0.12926312
178	0xbd814aca	-0.06313093
179	0xbe148461	-0.14503624
180	0x3d8681ae	0.06567703
181	0xbd930fc3	-0.07180741
182	0x3cebdef2	0.028792832
183	0xbcbefc2e	-0.023313608
184	0xbd6a4754	-0.05719693
185	0x3d1c8c6f	0.038219865
186	0x3d8560b4	0.06512585
187	0xbc028aa1	-0.007967622
188	0x3c32ae99	0.010905885
189	0x3c938eac	0.018012367
190	0x3da8f420	0.08249688
191	0xbd111fd9	-0.035430763
192	0x3acc35c8	0.0015579993
193	0xbd00a1c3	-0.031404268
194	0xbcb84a49	-0.02249636
195	0x3d571903	0.052514087
196	0x3d519033	0.05116291
197	0x3d1c8622	0.038213857
198	0x3ccb5714	0.024821796
199	0x3d9e8be1	0.077415235
200	0xbd910d56	-0.07082622
201	0xbcdab22a	-0.026696283
202	0x3d3dd659	0.046346996
203	0xbe0ccfda	-0.13751164
204	0xbe0126b6	-0.12612423
205	0xbd72dc80	-0.059292316
206	0x3dd82a93	0.105549954
207	0x3dbd34bc	0.09238574
208	0xbe043fba	-0.12914935
209	0x3b9ae18c	0.0047265943
210	0xbd1a6bc3	-0.037700426
211	0x3dbfcee1	0.09365631
212	0xbcf8c30c	-0.030366443
213	0x3b8413d6	0.004030685
214	0x3cc231db	0.023705414
215	0x3de8a0c6	0.1135879
216	0xbd6881c3	-0.056764375
217	0xbda0e30e	-0.07855807
218	0x3c6802dd	0.014160839
219	0xbceace11	-0.028662713
220	0xbc2c398e	-0.010511769
221	0xbc9ed931	-0.019390674
222	0xbd293c2f	-0.04131716
223	0xbcb51ce8	-0.02210851
224	0xbd5abf34	-0.053405
225	0xbcf16445	-0.029466758
226	0xbda72e36	-0.08163111
227	0x3de19276	0.11014263
228	0x3d3b5500	0.04573536
229	0xbd48d41c	-0.04903041
230	0x3d2bcdb6	0.041944228
231	0xbd17fb7f	-0.03710508
232	0xba9836be	-0.0011612994
233	0xbd399fd0	-0.045318425
234	0x3bba12c0	0.0056785047
235	0xbb6eb83a	-0.0036425726
236	0xbd3858a0	-0.045006394
237	0xbdacb769	-0.0843342
238	0x3c62e48b	0.013848434
239	0xbbaf1504	-0.0053430814
240	0xbd6cba46	-0.05779483
241	0x3d24bb2d	0.040217567
242	0x3cece60a	0.028918285
243	0x3d9be506	0.07612042
244	0x3d6753fc	0.056476578
245	0x3dca2094	0.09869495
246	0x3d047fb5	0.032348353
247	0x3d818e7f	0.06326007
248	0x3c84fdba	0.016234268
249	0x3d9f8c12	0.07790388
250	0xbc85672e	-0.016284551
251	0xbc652779	-0.013986462
252	0x3ccdaf11	0.025107892
253	0x3d5045d4	0.050847843
254	0xbd12f88f	-0.035881575
255	0xbbab83e8	-0.0052342303

lstm.bias_ih_l0 f4 [512]
0	0x3d98e6a5	0.07465867
1	0x3b37c12b	0.002803872
2	0xbd0844ac	-0.033268616
3	0x3daa0eaa	0.08303578
4	0xbd5a9421	-0.053363923
5	0x3d8729b7	0.06599753
6	0x3dc4a21c	0.096012324
7	0xbcc1f240	-0.023675084
8	0x3dc18713	0.094495915
9	0x3db943d3	0.090461396
10	0x3b34fa86	0.0027615144
11	0x3d6e83c6	0.058231138
12	0x3d8b6863	0.068070196
13	0x3d9a6447	0.07538658
14	0x3c7c8d38	0.015414529
15	0x3b59600c	0.003316882
16	0x3e00bace	0.1257126
17	0x3dcd297c	0.10017678
18	0x3bef2d8a	0.00729913
19	0x3d928086	0.0715342
20	0x3d9bfafa	0.07616229
21	0xbd3a69a5	-0.045510907
22	0x3dba1d7d	0.09087656
23	0xbd6b6372	-0.057467885
24	0x3cbf9d06	0.023390304
25	0x3dd2a186	0.102847144
26	0xbb530200	-0.0032197237
27	0x3dbc52f1	0.09195507
28	0x3d4b06dd	0.049567092
29	0x3df4ad28	0.119470894
30	0x3dbe69c2	0.092975155
31	0xbd477e0c	-0.048704192
32	0x3e016c6f	0.1263902
33	0x3c65c574	0.014024127
34	0x3dd1f841	0.10252429
35	0xbb19e226	-0.0023480742
36	0xbd5f9191	-0.054582182
37	0xbcfd4f64	-0.030921645
38	0x3ce91fa9	0.02845748
39	0x3d51cb25	0.051219124
40	0x3d9409f3	0.0722846
41	0x3c11302b	0.008861582
42	0x3d19983f	0.03749871
43	0xbd0cf18d	-0.03441005
44	0x3d8cd373	0.06876268
45	0xbd7b5000	-0.06135559
46	0xb8e521b9	-0.00010925852
47	0x3d02985c	0.031883582
48	0x3dce4e3e	0.10073517
49	0x3d8724c7	0.065988116
50	0xbc8907a9	-0.016727285
51	0x3dca3e89	0.09875209
52	0x3d8464c6	0.064645335
53	0x3c85b30e	0.016320731
54	0x3ce9665b	0.02849119
55	0xbb9dbad1	-0.00481353
56	0xbd439e25	-0.04775824
57	0xbd8eab21	-0.06966234
58	0x3daaa7d0	0.08332789
59	0xbd7bc482	-0.0614667
60	0x3dd0b73e	0.10191201
61	0x3c880175	0.016602257
62	0x3d8098ab	0.06279119
63	0x3d458236	0.048219882
64	0x3da5a183	0.080874465
65	0x3d9daab5	0.076985754
66	0x3d20b470	0.03923458
67	0xbd5f38b7	-0.054497447
68	0xbd2f45c8	-0.042791158
69	0x3daa79ca	0.08324011
70	0x3e0c829b	0.13721697
71	0x3c18335f	0.009289592
72	0x3c9b453c	0.018953912
73	0x3ddb41d3	0.10705914
74	0xbd02b597	-0.03191146
75	0x3dd63001	0.10458375
76	0x3da654c5	0.08121637
77	0xbcfb6f74	-0.030692793
78	0xbd204bf6	-0.039134942
79	0x3dab16e7	0.08353978
80	0x3d0f72fe	0.035021774
81	0xbc2a9a18	-0.010412715
82	0x3e12d32a	0.14338365
83	0x3d990ee3	0.074735425
84	0xbd06481f	-0.032783624
85	0xbd578fc7	-0.05262735
86	0x3ddb3ee9	0.107053585
87	0xbbe85437	-0.0070901173
88	0xbc856c80	-0.016287088
89	0x3de98fd9	0.1140439
90	0xbd025d2a	-0.03182713
91	0xbbb98dcf	-0.005662657
92	0xbcf64117	-0.030060334
93	0x3dfcd225	0.123447694
94	0x3c870dcb	0.01648607
95	0x3dc1447d	0.09436891
96	0x3db09d42	0.086237445
97	0xbc1372de	-0.008999554
98	0x3d4089b9	0.047006343
99	0xbcb6ec4f	-0.022329478
100	0x3cd8aa41	0.02644837
101	0x3d4746ea	0.048651613
102	0xbcb0be1b	-0.021575024
103	0x3d576d77	0.05259463
104	0xbd6ca5de	-0.05777537
105	0xbcb35750	-0.02189222
106	0x3ca6d791	0.020366462
107	0xbcc17545	-0.023615489
108	0xbc623a28	-0.013807811
109	0x3d84b2bd	0.06479404
110	0xbd3b37d4	-0.04570754
111	0xbca98a81	-0.020695927
112	0xbd1e8c7f	-0.038708206
113	0x3e0134ee	0.12617847
114	0x3b477a1e	0.0030437778
115	0xbd4794e5	-0.04872598
116	0x3d93f299	0.07224006
117	0x3dbfe1de	0.093692526
118	0x3e003b0d	0.12522526
119	0x3de57a24	0.11204937
120	0x3d7bbf6e	0.06146186
121	0xbd4f8200	-0.050661087
122	0x3de98978	0.11403173
123	0xbd3f8084	-0.04675342
124	0xbb2cb6d4	-0.0026354091
125	0x3c9fcd63	0.019507116
126	0xbd1b35d2	-0.037893124
127	0x3dba3f45	0.09094099
128	0x3daa3cfd	0.08312414
129	0xbc915f74	-0.01774571
130	0x3d36155b	0.04445396
131	0xbd245c88	-0.040127307
132	0x3dbae185	0.09125046
133	0xbcbc2f42	-0.022971753
134	0x3d82a25f	0.06378626
135	0xbc33b159	-0.010967576
136	0x3d5453ce	0.051837735
137	0xbd22f6c0	-0.0397861
138	0xbd65931b	-0.056048494
139	0x3d7bde2c	0.061491176
140	0xbc48932e	-0.012242122
141	0x3de22bb1	0.1104349
142	0x3cadfa70	0.021237582
143	0x3cf68db0	0.030096859
144	0xbcc34176	-0.023834925
145	0x3d2ef481	0.042713646
146	0xbd002b93	-0.031291556
147	0xbba39cd5	-0.004993061
148	0xbd200163	-0.039063822
149	0xbd156d23	-0.036481034
150	0x3d9b6bc6	0.075889155
151	0x3d196558	0.037450165
152	0x3d8b9294	0.06815067
153	0x3e0121ea	0.12610593
154	0x3dbe7b3f	0.09300851
155	0xbd85e283	-0.06537344
156	0x3bcf94f7	0.0063348967
157	0x3d5fbcf4	0.05462356
158	0x3bf668e9	0.0075198305
159	0x3de2c58a	0.11072834
160	0xbd537413	-0.05162437
161	0x3beac8ca	0.007165049
162	0xbb3f8599	-0.0029223918
163	0xbc1e85e7	-0.0096754795
164	0x3dd982f7	0.10620683
165	0x3da19502	0.07889749
166	0xbd781873	-0.06057019
167	0xbc1bf9af	-0.009519978
168	0xbd14ffd4	-0.03637679
169	0xbc2d5045	-0.01057822
170	0xbd3b3a76	-0.04571005
171	0x3dc8e184	0.09808639
172	0x3dbd014e	0.092287645
173	0xbd107c70	-0.035274923
174	0x3e0b1e8c	0.13585871
175	0x3b98961a	0.0046565654
176	0x3c9ec8ef	0.019382922
177	0xbcd52aab	-0.026021322
178	0x3d9a0e79	0.07522292
179	0xbd0b8511	-0.03406245
180	0x3ce647f3	0.02811048
181	0xbd7df497	-0.062000837
182	0x3c4be2ff	0.012444257
183	0xbd30c500	-0.043156624
184	0x3d874b0c	0.06606111
185	0xbd2b060e	-0.04175382
186	0x3d334cbd	0.043774355
187	0xbd03e29d	-0.032198537
188	0x3da8a432	0.08234443
189	0x3d962c31	0.073326476
190	0x3d0d25f2	0.034460016
191	0xbd4956fe	-0.049155228
192	0x3d5d092a	0.053963818
193	0x3d96e04f	0.07367002
194	0x3dc198d0	0.09452975
195	0x3cd709d4	0.026249804
196	0xbd067b60	-0.032832503
197	0x3d990ef1	0.07473553
198	0x3d1e4119	0.0386363
199	0x3d9197be	0.07109021
200	0xbb31e41b	-0.0027144018
201	0xbd1e9f74	-0.038726285
202	0x3dac212a	0.08404763
203	0xbcae365a	-0.021266151
204	0x3d97cc07	0.07411962
205	0x3d66d751	0.056357685
206	0x3dc0fdff	0.09423446
207	0x3db3e685	0.087842025
208	0x3dc49e06	0.09600453
209	0x3d9045db	0.07044574
210	0xbccc1dbe	-0.024916526
211	0x3da148e0	0.07875228
212	0x3da94ef9	0.08267016
213	0xbcafe45a	-0.021471191
214	0x3e276511	0.16347148
215	0x3da0b472	0.07846917
216	0xbd55cf0f	-0.05219942
217	0x3dfd6ee5	0.12374667
218	0x3dddfe09	0.10839469
219	0x3d1fcc2e	0.03901308
220	0x3d012c3a	0.03153632
221	0x3d9da42f	0.07697331
222	0x3d824ec9	0.06362683
223	0x3d97f21e	0.07419227
224	0xbc298b6b	-0.010348181
225	0xbc784f4c	-0.015155625
226	0xbccd5ab4	-0.025067665
227	0x3d931e4e	0.071835145
228	0x3d65979b	0.056052785
229	0x3de4a50f	0.11164295
230	0xbcbbd8f6	-0.022930603
231	0x3de8dc61	0.11370159
232	0x3cb10d5c	0.021612816
233	0xbc18345c	-0.009289827
234	0x3ddb9228	0.107212365
235	0xbb730519	-0.0037081896
236	0xbb9199ca	-0.004443382
237	0x3c9eb1c6	0.019371878
238	0x3de73622	0.11289622
239	0x3d7a08f5	0.0610437
240	0x3d7804c3	0.060551416
241	0x3dfc32b0	0.123143554
242	0x3c30bb8e	0.010786904
243	0xbcc96b92	-0.024587426
244	0x3d10ce3a	0.035352923
245	0x3d974574	0.07386294
246	0x3d54045d	0.051761974
247	0xbd17395b	-0.036919933
248	0x3d9c4c2c	0.07631716
249	0xbd666ad1	-0.05625421
250	0x3c87f545	0.016596446
251	0xbd129c50	-0.035793602
252	0x3d272bba	0.040813185
253	0x3b3e0c65	0.0028999087
254	0xbc1e5999	-0.009664916
255	0x3ddf1a0f	0.10893642

lstm.bias_hh_l0 f4 [512]
0	0x3de1a94e	0.110186204
1	0x3cec7d12	0.028868232
2	0xbca0456a	-0.01956435
3	0x3dacd218	0.0843851
4	0x3d28b243	0.04118563
5	0x3da447e5	0.08021525
6	0x3dc15863	0.094406866
7	0x3c88d62f	0.016703693
8	0x3c4823ed	0.012215597
9	0x3c59f96d	0.013304097
10	0x3d892ab4	0.06697598
11	0xbd684d21	-0.05671418
12	0x3d5595e0	0.052144885
13	0x3dbe5a14	0.09294525
14	0x3dc39a1d	0.09550879
15	0x3d650dfe	0.055921547
16	0x3d8fa98b	0.0701476
17	0x3d681e1a	0.056669332
18	0x3da6f0fa	0.081514314
19	0xbca144bb	-0.019686094
20	0x3d4cee38	0.05003187
21	0xbd33aee9	-0.04386798
22	0x3db630a0	0.08895993
23	0x3d26e29c	0.040743455
24	0x3d18321b	0.03715716
25	0x3dd492a9	0.10379536
26	0xbd544ce2	-0.051831134
27	0xbcf99c33	-0.03046999
28	0xbc449393	-0.011998075
29	0x3da93066	0.082611844
30	0x3ce75c6d	0.028242314
31	0xbd07c7fe	-0.03314971
32	0x3d8b8b04	0.068136245
33	0xbce9e41c	-0.028551154
34	0x3d4dcb6d	0.05024283
35	0xbd020de9	-0.031751547
36	0x3b802927	0.0039111557
37	0xbc88c50d	-0.016695524
38	0xbc83a804	-0.016071327
39	0x3b1bd7be	0.0023779715
40	0x3d9be9a8	0.07612926
41	0x3de87c74	0.113518625
42	0xbd3e9b1d	-0.046534646
43	0xbd63f534	-0.055653766
44	0x3dc79592	0.09745325
45	0x3d341231	0.04396266
46	0x3dad33f7	0.08457177
47	0x3d0068be	0.03134989
48	0xbd16328b	-0.036669295
49	0x3ca93df6	0.020659428
50	0xbd00e08c	-0.031464145
51	0xbc5ead22	-0.013591083
52	0x3bdfddff	0.006831884
53	0x3cefdbfb	0.0292797
54	0x3daed7e6	0.08537273
55	0x3beee93a	0.0072909864
56	0xbb741463	-0.0037243597
57	0x3dcd830e	0.10034762
58	0x3b3218ac	0.002717535
59	0x3d586946	0.05283477
60	0x3dcce99f	0.10005497
61	0x3dacc9e0	0.08436942
62	0x3e075345	0.13215359
63	0x3dbb887a	0.0915689
64	0x3d7c82a6	0.061648034
65	0xbd011631	-0.031515304
66	0xbcabadbe	-0.02095687
67	0x3ca34899	0.019932078
68	0x3c90964b	0.01764979
69	0x3d34d3e0	0.044147372
70	0x3e09ca4c	0.13456076
71	0x3dd4ddd3	0.10393872
72	0x3cb6b0d3	0.022301113
73	0xbd654266	-0.055971526
74	0x3dcfe19a	0.10150452
75	0x3d805a9c	0.06267282
76	0xbc602571	-0.013680802
77	0x3d496890	0.049171984
78	0x3d89c618	0.067272365
79	0x3db9a4ba	0.09064622
80	0x3d9b7b86	0.075919196
81	0xbbb4bf7b	-0.0055159903
82	0x3cb067d5	0.021533886
83	0x3d2780c7	0.040894296
84	0xbd05bc31	-0.032650176
85	0x3c3e67b0	0.011621401
86	0x3b847b80	0.0040430427
87	0xbd3b11ff	-0.04567146
88	0xbae3f1a3	-0.0017390739
89	0x3d457678	0.048208684
90	0x3dde9b5d	0.10869477
91	0x3e01762a	0.12642732
92	0xbd5b359c	-0.053517923
93	0x3cfdc64b	0.030978343
94	0x3dcb37c2	0.09922744
95	0x3dab1fd9	0.08355684
96	0xbd3f5fda	-0.04672227
97	0x3d1c3f85	0.038146514
98	0x3df0057d	0.11719797
99	0x3d5ed19c	0.054399118
100	0x3d16c7e9	0.036811743
101	0x3cd4757b	0.025934925
102	0x3d20279c	0.039100274
103	0xbd1ac5ff	-0.03778648
104	0xbce9e7b0	-0.02855286
105	0xbcd2ae70	-0.025717944
106	0x3d64360a	0.0557156
107	0x3d5c0954	0.053719833
108	0x3da0ea65	0.07857207
109	0x3dcc02e4	0.09961489
110	0x3de26faa	0.110564545
111	0x3db13d49	0.08654267
112	0x3db188a7	0.086686425
113	0x3db786bb	0.08961245
114	0xbab90e12	-0.0014118573
115	0x3c472c60	0.012156576
116	0xbccdf824	-0.025142737
117	0xbce90ac1	-0.02844751
118	0x3bf5fb59	0.0075067696
119	0x3d4fa32c	0.050692722
120	0x3de41187	0.111361556
121	0xbc3f8e9b	-0.011691715
122	0xbccc56a6	-0.024943661
123	0x3dc645f5	0.09681312
124	0xbc3b1285	-0.01141799
125	0x3ddb1282	0.106968895
126	0x3dbb2827	0.09138518
127	0x3da32641	0.07966281
128	0x3df170d5	0.11789099
129	0xbc6aa2a7	-0.014321006
130	0x3d90f893	0.07078662
131	0xbc83e205	-0.016098985
132	0x3dd0833d	0.10181282
133	0x3d0ecb4f	0.03486186
134	0xbd08c945	-0.03339507
135	0xbc0f13fd	-0.008732793
136	0x3be6ed89	0.0070473594
137	0x3dabbe34	0.08385888
138	0x3da01b27	0.07817679
139	0xbd1ca50b	-0.038243335
140	0xbc382c48	-0.011241026
141	0x3db0a44c	0.08625087
142	0xbd19c3e9	-0.03754035
143	0xbc657535	-0.014004995
144	0x3d0824c7	0.0332382
145	0x3c18ffe9	0.0093383575
146	0xbd40bff2	-0.047058053
147	0x3df536be	0.11973332
148	0x3d9fea88	0.07808405
149	0x3d9be169	0.07611353
150	0x3d15cf2c	0.036574528
151	0x3d507f87	0.05090287
152	0x3dcd639b	0.10028764
153	0xbcaee35c	-0.021348648
154	0x3dac7aa1	0.08421827
155	0x3d66e751	0.056372944
156	0x3d147670	0.036245763
157	0x3d30a05b	0.043121677
158	0x3cc358a2	0.023845974
159	0xbc4bf353	-0.01244815
160	0x3d7e4a37	0.062082496
161	0xbd44b652	-0.048025437
162	0xbd844962	-0.06459309
163	0x3a9ca6b9	0.0011951543
164	0x3d5b1415	0.05348595
165	0x3da2509e	0.07925533
166	0x3dd414a4	0.103554994
167	0x3d05d986	0.03267815
168	0x3d70f81d	0.05883037
169	0x3d98a3d2	0.07453121
170	0xbd06b313	-0.032885622
171	0xbd20cdab	-0.03925864
172	0x3da15c80	0.07878971
173	0x3bc9ea44	0.00616196
174	0x3db8ea06	0.090290114
175	0x3d6de269	0.05807725
176	0x3d6869ba	0.056741454
177	0x3d05ad42	0.032635935
178	0xbd232b65	-0.039836306
179	0x3d92a48e	0.071602926
180	0x3b0c08b3	0.002136749
181	0x3d652b05	0.05594923
182	0x3d1d48ed	0.038399626
183	0x3dc4b9c9	0.09605748
184	0xbd8676c7	-0.06565624
185	0x3d2d4136	0.042298518
186	0x3de1da68	0.11027986
187	0x3d8e0aed	0.06935678
188	0xbc492328	-0.012276448
189	0xbd2d08a3	-0.042244565
190	0x3daf0598	0.08545989
191	0xbd8093f6	-0.06278221
192	0x3d4607f2	0.04834742
193	0xbd38e2b2	-0.04513807
194	0x3c15aa3d	0.009134826
195	0x3d645bda	0.05575166
196	0x3d66e41d	0.05636989
197	0x3e3d2e12	0.18474606
198	0x3e11ccdd	0.14238305
199	0xbc2d4397	-0.010575197
200	0x3d8e5168	0.06949121
201	0x3d58d577	0.05293795
202	0xbd0c5fc0	-0.034271
203	0x3d038739	0.03211138
204	0xbb1a7cd9	-0.002357295
205	0x3d312bf0	0.043254793
206	0xbd601552	-0.054707833
207	0x3c293f2c	0.010330003
208	0x3ca3e7e2	0.020008031
209	0xbccae365	-0.024766633
210	0x3dcf2566	0.10114555
211	0x3ddc8f80	0.10769558
212	0x3d222173	0.03958268
213	0x3d2894fe	0.041157715
214	0x3dfff80a	0.124984816
215	0xbc57e40d	-0.01317693
216	0xbcdb0704	-0.026736744
217	0x3ddc8d99	0.10769195
218	0x3ddf0793	0.108901165
219	0xbc08fbf6	-0.008360853
220	0x3dd0df38	0.101988256
221	0x3d151772	0.036399312
222	0xbcb6419e	-0.022248086
223	0x3d418212	0.047243185
224	0xbd5ca190	-0.053865016
225	0xbd6f2218	-0.058382124
226	0x3d67728d	0.05650573
227	0xbd6fb10d	-0.05851846
228	0x3dabb99b	0.08385011
229	0xbcb3c9f9	-0.021946894
230	0x3db4a685	0.088208236
231	0x3ca3a54a	0.019976277
232	0x3d89310f	0.0669881
233	0xbceaf5b4	-0.028681614
234	0x3df2c5a9	0.11854107
235	0x3d7681df	0.06018245
236	0x3def72a5	0.116917886
237	0x3cd0dff5	0.025497416
238	0x3d5efc74	0.054439977
239	0x3e056a90	0.13028932
240	0xbd81145a	-0.0630271
241	0x3dbf854a	0.09351595
242	0x3da558d1	0.08073581
243	0xbd3f05ed	-0.04663651
244	0x3ded4861	0.11586071
245	0xbd42193a	-0.04738734
246	0x3d825ca4	0.06365326
247	0x3d95978c	0.07304296
248	0x3e294423	0.16529898
249	0xbb81aaba	-0.00395712
250	0x3dc6420f	0.096805684
251	0x3d5f2b2d	0.054484535
252	0x3d866aeb	0.06563362
253	0x3d0bf6fa	0.034171082
254	0x3c5d6805	0.01351357
255	0x3de6549f	0.11246609

lstm.weight_ih_l1 f4 [512, 128]
0	0x3d887bea	0.0666426
1	0xbc2682a6	-0.010162985
2	0x3dbc75c1	0.09202147
3	0x3d35001f	0.04418957
4	0xbd6d089a	-0.05786953
5	0xbd222625	-0.03958716
6	0x3dc0ffc5	0.09423784
7	0xbd744131	-0.059632484
8	0x3d9a2fa9	0.07528622
9	0x3da61e20	0.08111215
10	0xbceff287	-0.02929045
11	0x3cfe4468	0.031038478
12	0xbd05f767	-0.032706644
13	0xbd902772	-0.070387736
14	0x3e01a666	0.12661132
15	0xbca43ba9	-0.02004798
16	0xbdbffd74	-0.09374514
17	0xbd28ef0f	-0.04124361
18	0x3c65ded0	0.014030173
19	0x3bc7713e	0.0060864976
20	0xbcd82556	-0.02638499
21	0xbd94b41d	-0.072609164
22	0x3d4b790a	0.04967598
23	0x3c868fa0	0.016425908
24	0xbc8a113f	-0.016853927
25	0x3bde2117	0.006778847
26	0xbdda7797	-0.10667341
27	0xbd94c399	-0.0726387
28	0xbda7051e	-0.08155273
29	0xbe0c92b9	-0.13727845
30	0xbd16e0a8	-0.036835343
31	0x3d7cc51e	0.061711423
32	0x3d491e2f	0.04910105
33	0x3c95bee8	0.018279508
34	0x3c796965	0.015222882
35	0xbd141488	-0.036152393
36	0x3d1a194c	0.03762178
37	0xbd8efd3a	-0.06981893
38	0xbd6940e6	-0.056946658
39	0x3bc153b3	0.0058998703
40	0x3bffe751	0.0078095575
41	0x3d2af73c	0.041739687
42	0x3cb3441c	0.021883063
43	0x3d59ba4d	0.053156186
44	0x3daa0516	0.08301751
45	0x3c209de2	0.009803267
46	0xbb031c0a	-0.0020005726
47	0x3d9ba97c	0.07600686
48	0x3db4df00	0.088315964
49	0x3dfea0ec	0.12433037
50	0xbd871320	-0.06595445
51	0xbbdc3ed7	-0.0067213583
52	0xbd1d7eff	-0.03845119
53	0x3cec782f	0.028865902
54	0xbd34ee21	-0.04417241
55	0xbdd5be02	-0.10436632
56	0xbdf933a0	-0.1216805
57	0x3d492b70	0.04911369
58	0x3bab3ca2	0.005225734
59	0xbd993fa1	-0.074828394
60	0x3dc906fc	0.09815785
61	0xbdbb31b3	-0.09140339
62	0xbca045e0	-0.019564569
63	0x3b99173e	0.00467196
64	0xbd24e845	-0.040260572
65	0xba551d59	-0.00081296783
66	0xbe14a190	-0.14514756
67	0xbd19e55f	-0.03757226
68	0xbd874d42	-0.06606533
69	0x3ddb4239	0.1070599
70	0xbe0460c2	-0.12927535
71	0x3df2c2e8	0.11853582
72	0xbdc97852	-0.098374024
73	0xbd34301f	-0.043991204
74	0x3d22dc57	0.039760914
75	0xbcee75ba	-0.02910887
76	0xbe283f5a	-0.16430417
77	0xbc2890a0	-0.010288388
78	0x3e1465e9	0.14492
79	0xbc279205	-0.010227685
80	0xbd67f115	-0.056626398
81	0xbd6a944f	-0.057270344
82	0x3bcde6bb	0.0062836087
83	0x3c089218	0.008335613
84	0xbd0e722d	-0.034776855
85	0xbda601f8	-0.08105844
86	0x3d9c1e1f	0.07622933
87	0x3dd3a19e	0.103335604
88	0x3d8ec0ce	0.06970368
89	0xbde019d9	-0.1094243
90	0xbd3e1ecb	-0.046416085
91	0xbc88827d	-0.016663784
92	0xbd26d9ff	-0.04073524
93	0xbd29cc03	-0.041454326
94	0x3ca375cd	0.019953633
95	0x3d1ead6e	0.038739614
96	0xbd9a1b1e	-0.075247034
97	0xbce940b1	-0.02847323
98	0xbd92f9b7	-0.071765356
99	0xbd6716b8	-0.05641815
100	0x3cd88d0f	0.02643445
101	0xbd90690c	-0.07051286
102	0xbdb9c59e	-0.090708956
103	0xbdac2a9d	-0.08406565
104	0xbd8b1211	-0.06790555
105	0xbde3e6bc	-0.111279935
106	0x3d1ba203	0.037996303
107	0xbd124ea9	-0.035719547
108	0xbd461572	-0.048360296
109	0xbd9591fb	-0.07303234
110	0x3d9d8fc8	0.0769344
111	0x3c778ed4	0.0151097365
112	0xbd90f57e	-0.07078074
113	0xbd7a4096	-0.06109675
114	0xbd0a171b	-0.03371344
115	0x3dbf12e3	0.09329774
116	0x3d5f7bf7	0.05456158
117	0x3cd47bec	0.025937997
118	0x3c98c2d9	0.018647598
119	0x3d10d3af	0.035358127
120	0x3cfdab80	0.030965567
121	0xbd708a6a	-0.058725752
122	0xbb176d2b	-0.002310584
123	0x3d38a7d9	0.045081947
124	0x3daa6a0a	0.083210066
125	0xbdb1692d	-0.08662639
126	0xbd804ea6	-0.06265001
127	0xbd8dbb8c	-0.06920537
128	0x3d83e8ab	0.06440862
129	0xbd505858	-0.0508655
130	0xbd928983	-0.071551345
131	0x3a2764e8	0.00063855806
132	0xbd67b9bc	-0.056573614
133	0x3c6db412	0.014508264
134	0xbc5499fe	-0.012976168
135	0x3c7f4f3a	0.015582854
136	0xbd7c7848	-0.061638147
137	0xbb02d62b	-0.001996408
138	0xbc4ebb23	-0.012617859
139	0xbd5dc5dd	-0.054143775
140	0x3d3156a3	0.043295514
141	0xbdcaea52	-0.09907974
142	0x3cc291c9	0.023751156
143	0x3d32955e	0.04359948
144	0x3bcf4fa9	0.006326635
145	0x3d336e64	0.04380645
146	0xbd15d35e	-0.03657853
147	0xbe242955	-0.16031392
148	0x3d82e337	0.06390994
149	0xbcf3578e	-0.029704835
150	0xbd9d7c76	-0.07689755
151	0xbdf25aa7	-0.11833697
152	0x3c1d9090	0.009616986
153	0xbaeb02ec	-0.0017929948
154	0xbd5dcea0	-0.05415213
155	0xbc6c57e2	-0.01442525
156	0x3d84cbe5	0.06484202
157	0xbd3375e0	-0.043813586
158	0xbe10f0d2	-0.14154366
159	0xbe3b0ce8	-0.18266642
160	0x3e074840	0.13211155
161	0xbcaaf368	-0.020868018
162	0xbce5fda0	-0.02807504
163	0xbd0d5dc1	-0.03451324
164	0xbd5cfd29	-0.05395237
165	0xbc679d19	-0.014136576
166	0xbdad6a12	-0.08467497
167	0x3d5f9549	0.05458573
168	0xbdf2d97b	-0.11857887
169	0xbdf454d9	-0.11930246
170	0xbdd99785	-0.10624603
171	0x3d1f9eaa	0.038969673
172	0x3cdd1403	0.026987081
173	0xbc5f28ab	-0.013620536
174	0xbb9cff51	-0.0047911783
175	0xbc130426	-0.008973157
176	0x3de76402	0.11298372
177	0xbd8a6e61	-0.06759334
178	0xbd6dbae1	-0.05803955
179	0xbb8340f8	-0.0040055476
180	0xbdbf6682	-0.09345724
181	0xbdff5820	-0.124679804
182	0x3d958e51	0.07302535
183	0xbab19f8f	-0.001355158
184	0x3d479b89	0.048732314
185	0xbcb442f7	-0.022004588
186	0xbbcd0b60	-0.0062574595
187	0x3df8a041	0.12139941
188	0x3db3acea	0.08773215
189	0xbe02675a	-0.12734738
190	0x3e079087	0.13238727
191	0xbe060372	-0.13087252
192	0xbc45e254	-0.012077887
193	0xbd1f2b3c	-0.03885959
194	0x3e07e323	0.1327024
195	0x3d977e40	0.07397127
196	0x3e1249fe	0.14286038
197	0x3c5494a5	0.012974893
198	0x3d86b07f	0.06576633
199	0x3c0cdddd	0.008597818
200	0x39db1f2e	0.00041794166
201	0xbbd75f1e	-0.006572618
202	0x3bd98c83	0.0066390648
203	0xbe003c56	-0.12523016
204	0x3baa9239	0.0052054194
205	0xbaeb02ec	-0.0017929948
206	0x3dfe12ee	0.12405954
207	0xbd5183a8	-0.051150948
208	0xbcf982ed	-0.030457938
209	0x3debc578	0.115122736
210	0xbdb9b4f0	-0.09067714
211	0x3d57c477	0.052677598
212	0xbbbbf946	-0.005736503
213	0xbd2bd86e	-0.04195445
214	0xbd710e57	-0.058851566
215	0xbd4b81ed	-0.049684454
216	0x3b5f79f5	0.0034099792
217	0x3d0adfef	0.033904966
218	0x3d65bf91	0.056090895
219	0xbdca7378	-0.09885305
220	0x3d11ff8c	0.0356441
221	0x3d8f666f	0.070019595
222	0x3d9df2bf	0.07712316
223	0xbbec7337	-0.007215883
224	0x3dc2092c	0.09474406
225	0xbcab9700	-0.020946026
226	0x3cf0465e	0.029330429
227	0xbd15ec56	-0.03660234
228	0x3cbfcbb2	0.02341256
229	0x3dc65aa7	0.09685259
230	0x3d98e1ee	0.07464968
231	0xbde4f089	-0.11178691
232	0xbdd0f5b7	-0.102031164
233	0x3d908fbd	0.07058666
234	0x3a8f53c2	0.0010934996
235	0xbc1ed96c	-0.009695392
236	0xbd7401c8	-0.05957201
237	0xbe07579b	-0.13217013
238	0x3dc4e2c9	0.09613568
239	0xbc49f69b	-0.012326862
240	0x3dadd708	0.084882796
241	0xbdcafce3	-0.099115156
242	0xbd1b4e88	-0.03791669
243	0x3d0e0486	0.034672283
244	0x3dde14e4	0.10843828
245	0x3db79a00	0.0896492
246	0x3da823b9	0.082099386
247	0xbd79686c	-0.0608906
248	0x3cb2a67c	0.021807902
249	0xbd07382a	-0.033012547
250	0x3a77ab31	0.0009447812
251	0xbd9ac7ff	-0.075576775
252	0x3cf8b45a	0.030359436
253	0xbd86078d	-0.06544409
254	0xbe180543	-0.14845757
255	0x3c031697	0.008000991

lstm.weight_hh_l1 f4 [512, 128]
0	0x3d4f2d06	0.050580047
1	0x3d571a0a	0.052515067
2	0xbdb33bbc	-0.08751628
3	0x3ce5ad59	0.02803676
4	0x3cb8df4f	0.02256742
5	0xbda0c042	-0.0784917
6	0x3c04de06	0.008109575
7	0xbcd77c89	-0.0263045
8	0x3dc6a4d0	0.09699404
9	0x3de9e83a	0.11421247
10	0x3d064318	0.03277883
11	0xbb2f3dde	-0.0026739757
12	0xbd770cff	-0.06031513
13	0x3dba1086	0.09085183
14	0x3d0414d1	0.032246415
15	0xbde280cc	-0.11059722
16	0xbc293aa7	-0.010328925
17	0xbd88cac4	-0.066792995
18	0xbd5a3b26	-0.053279065
19	0x3da7fac2	0.08202125
20	0x3dcc74f0	0.099832416
21	0xbd86d15d	-0.065829016
22	0xbb6c851b	-0.003609008
23	0xbd3d3049	-0.046188626
24	0xbb89958c	-0.0041987356
25	0x3c805f87	0.015670551
26	0xbdb95b4a	-0.09050615
27	0x3bad5551	0.0052897115
28	0xbb1f1b21	-0.0024277645
29	0xbb45d97d	-0.0030189448
30	0x3b2daaa7	0.0026499422
31	0xbc8ced30	-0.017202944
32	0xbd906625	-0.070507325
33	0x3d12420b	0.035707515
34	0x3d7c5f66	0.061614417
35	0xbd83aa3e	-0.064289555
36	0x3c5d740e	0.013516439
37	0x3cddc18b	0.027069828
38	0xbd512414	-0.051059797
39	0x3d13320b	0.035936397
40	0xbcb67da4	-0.022276707
41	0xbc82b6cc	-0.015956305
42	0xbd866fe2	-0.06564309
43	0x3d339a1f	0.043848153
44	0x3cd09988	0.025463834
45	0x3cdf4705	0.027255544
46	0x3d5477b3	0.051871967
47	0xbe073964	-0.13205487
48	0x3bc3adeb	0.0059716604
49	0xbdd36e78	-0.103238046
50	0xbc3cf777	-0.01153361
51	0x3d5eaf27	0.054366257
52	0x3d7875a2	0.06065906
53	0x3d290401	0.041263584
54	0xbca65965	-0.020306299
55	0x3d4c171c	0.049826726
56	0x3dd390e8	0.10330373
57	0x3d726518	0.05917844
58	0x3dcf64c9	0.10126645
59	0x3a812d67	0.000985545
60	0xbd0a8c7e	-0.03382539
61	0x3cd23db8	0.025664195
62	0x3d161b3b	0.036647063
63	0x3db56687	0.08857446
64	0x3d57c910	0.052681983
65	0xbdb800b9	-0.08984513
66	0x3d89dce4	0.06731585
67	0x3d59c6d9	0.05316815
68	0xbdee74db	-0.11643382
69	0xbd96969f	-0.073529474
70	0xbb82397b	-0.0039741374
71	0xbd748aee	-0.059702806
72	0xbdfa853b	-0.12232443
73	0xbdb747c3	-0.08949234
74	0xbd8b8b72	-0.068137065
75	0xbba82238	-0.0051310323
76	0xbc85f2cd	-0.016351128
77	0x3d6a69b3	0.05722971
78	0x3a77c308	0.0009451364
79	0x3d06a71f	0.032874223
80	0x3d2fa228	0.042879254
81	0x3d2e8190	0.04260403
82	0x3c937054	0.017997898
83	0xbd41ec0f	-0.047344264
84	0x3dac21b3	0.08404865
85	0x3cae72c4	0.021294959
86	0xbba539dd	-0.005042298
87	0xbe115cac	-0.14195508
88	0xbdac0b49	-0.0840059
89	0xbdda602f	-0.10662877
90	0xbc7f4229	-0.015579739
91	0x3d8e3725	0.06944112
92	0xbd83c9e0	-0.06434989
93	0x3e0f8e9a	0.14019242
94	0xbb245faf	-0.0025081446
95	0xbc6aebcb	-0.014338444
96	0x3dad628f	0.08466064
97	0x3cd5ad6d	0.026083672
98	0x3a9c49ed	0.0011923887
99	0xbd250390	-0.0402866
100	0xbd04e9f0	-0.032449663
101	0x3d3f3a13	0.046686243
102	0xbca8da28	-0.020611838
103	0x3de8ea25	0.113727845
104	0x3ce0c119	0.027435826
105	0xbd99e6f9	-0.07514758
106	0x3da073c0	0.078345776
107	0x3d821361	0.063513525
108	0xbc3493ec	-0.011021595
109	0x3d3de2ac	0.04635875
110	0x3db2276e	0.08698927
111	0x3da5d03f	0.080963604
112	0xbdbbcf66	-0.091704175
113	0x3d85339d	0.06503985
114	0x3ddfcf68	0.109282315
115	0x3cec840f	0.028871564
116	0x3c221354	0.0098923035
117	0x3d10f124	0.03538622
118	0xbe0f546d	-0.1399705
119	0x3c2f1d6b	0.010688166
120	0x3cc6e141	0.024277331
121	0x3c565390	0.013081446
122	0x3dab80cb	0.08374175
123	0x39168048	0.00014352903
124	0xbd572c94	-0.052532747
125	0xbbdbb631	-0.0067050685
126	0xbc902aae	-0.017598476
127	0x3d244227	0.04010215
128	0x3b2e6084	0.002660782
129	0xbdd87cbd	-0.10570667
130	0x3dcf1058	0.10110539
131	0x3d44f891	0.048088614
132	0xbd3a237b	-0.045443993
133	0xbd63f3bd	-0.05565237
134	0xbcb51e89	-0.022109287
135	0x3d752ce8	0.05985728
136	0xbdb73057	-0.08944767
137	0x3cb79ef1	0.022414656
138	0x3cabbf24	0.020965166
139	0xbcff1d18	-0.031141803
140	0x3ca24919	0.019810246
141	0x3cf4a3de	0.029863294
142	0xbc826a03	-0.015919691
143	0x3c38a052	0.011268692
144	0x3b89784d	0.004195249
145	0xbd34340a	-0.04399494
146	0x3d1c02bf	0.038088556
147	0xbd938f2f	-0.072050445
148	0xbd408a13	-0.047006678
149	0xbd159211	-0.036516253
150	0xbd76d2df	-0.060259696
151	0xbd8cfb54	-0.068838745
152	0xbd2d8f8a	-0.042373218
153	0x3d94e1ed	0.072696544
154	0xbb37e307	-0.0028058903
155	0xbc2a7ca8	-0.010405697
156	0xbdeb48d3	-0.114884995
157	0xbc802716	-0.015643638
158	0xbc24c045	-0.010055606
159	0xbd7a2012	-0.06106574
160	0xbdd80c99	-0.10549278
161	0x3da8d43e	0.08243607
162	0x3cc93529	0.024561482
163	0x3d39972e	0.04531019
164	0x3d5792f1	0.05263037
165	0xbd951380	-0.0727911
166	0xbd5f6ed5	-0.054549057
167	0x3d8d367e	0.06895159
168	0xbda5a109	-0.08087356
169	0x3ce4ebfe	0.027944561
170	0x3c114082	0.0088654775
171	0xbd58b2ee	-0.052905016
172	0x3d1277d5	0.035758812
173	0xbcac5135	-0.021034816
174	0xbddb3c15	-0.10704819
175	0xbca24480	-0.019808054
176	0xbd36ace8	-0.04459849
177	0xbd7b8c19	-0.061412904
178	0x3c237856	0.009977421
179	0x3ccb41e0	0.024811685
180	0x3d55ec5d	0.052227367
181	0xbc2b5b60	-0.010458797
182	0x3d47b6e7	0.048758414
183	0xbcad5258	-0.021157429
184	0x3d88eed5	0.066861786
185	0xbd5e79cc	-0.054315373
186	0x3da004cc	0.07813415
187	0x3da4226d	0.08014379
188	0x3ca4889b	0.02008467
189	0xbd4a06c8	-0.049322873
190	0xbd902b23	-0.07039478
191	0x3d84858e	0.06470786
192	0x3d687e3a	0.056761004
193	0xbc3195bb	-0.010838921
194	0x3d4ec03e	0.050476305
195	0x3d214d04	0.03938009
196	0xbda8f5c7	-0.08250003
197	0xbc06ff31	-0.008239553
198	0x3d49eb70	0.049296796
199	0xbdc6d84b	-0.09709223
200	0xbdaba31b	-0.08380719
201	0xbd0f998e	-0.03505855
202	0x3da5d9e1	0.08098198
203	0x3dcdacc8	0.10042721
204	0x3d13f981	0.036126617
205	0x3da4a9ac	0.08040175
206	0x3d981303	0.07425501
207	0xbddf486b	-0.109024845
208	0xbd9c4307	-0.07629972
209	0xbd4292d6	-0.047503315
210	0x3c87ee0b	0.016593
211	0xbd2eae68	-0.042646796
212	0x3d93b65d	0.072125174
213	0xbc65c1c1	-0.014023245
214	0x3d83f722	0.06443621
215	0xbc9f38f3	-0.019436335
216	0x3da2c75b	0.0794818
217	0x3c380b19	0.011233115
218	0x3dcbe185	0.09955124
219	0x3c86083d	0.01636135
220	0xbc7ddb71	-0.015494213
221	0x3dc940b5	0.09826795
222	0x3d664d90	0.056226313
223	0xbd8391c6	-0.064242885
224	0x3cae115c	0.021248512
225	0x3dd86205	0.10565571
226	0xbd7af7f6	-0.06127163
227	0x3d2d17c4	0.042258993
228	0x3daf64ec	0.08564171
229	0x3c8a6e65	0.016898343
230	0xbd8013a5	-0.06253747
231	0xbd3518e5	-0.044213194
232	0x3cabc707	0.020968927
233	0x3c55de7e	0.013053535
234	0xbddbc94e	-0.10731755
235	0x3c7710db	0.015079702
236	0x3dd562f1	0.10419262
237	0x3cb8ca6e	0.022557463
238	0xbc933e0e	-0.017973926
239	0x3d81bbfb	0.063346826
240	0x3d472df9	0.048627827
241	0x3d2b3c16	0.04180535
242	0xbace8952	-0.0015757477
243	0xbd6ae713	-0.057349276
244	0xbc880959	-0.01660602
245	0xbc30be17	-0.010787508
246	0x3da0aef1	0.078458674
247	0x3dc01787	0.093794875
248	0x399f8bed	0.00030431096
249	0x3d748fdf	0.05970752
250	0xbba60e7d	-0.005067645
251	0xbdcafac9	-0.09911115
252	0xbb2f8842	-0.0026784097
253	0x3dd65194	0.104647785
254	0x3d16e8fb	0.03684328
255	0x3bd0e5d7	0.0063750553

lstm.bias_ih_l1 f4 [512]
0	0x3d3db424	0.046314374
1	0x3d5651d3	0.052324127
2	0x3bdcc8cb	0.0067378036
3	0x3d741df2	0.05959887
4	0xbc9da98e	-0.019245889
5	0xbd654e18	-0.05598268
6	0x3db18c9b	0.086693965
7	0x398df2cc	0.00027074513
8	0x3d903bb8	0.070426404
9	0x3d872440	0.06598711
10	0x3d202636	0.03909894
11	0x3cff7db2	0.031187866
12	0xbd13e70a	-0.036109008
13	0xbda020f7	-0.078187875
14	0x3da77af3	0.081777476
15	0x3d62b92c	0.055352375
16	0x3da85f45	0.08221296
17	0xbc27650d	-0.0102169635
18	0x3d82a300	0.06378746
19	0x3d01c6c9	0.031683717
20	0x3de3fa14	0.11131683
21	0x3d136791	0.03598744
22	0x3d56084c	0.052254006
23	0xbc19faf9	-0.009398215
24	0x3d6542fe	0.05597209
25	0x3d665906	0.056237243
26	0xbcf48ab8	-0.029851303
27	0x3cba308f	0.022728233
28	0xbcac15d5	-0.021006504
29	0xba9b8151	-0.0011864101
30	0xbc9c0b77	-0.019048436
31	0x3d0bf254	0.03416665
32	0xbd7f31ad	-0.062303234
33	0xbd7963b5	-0.060886104
34	0xbccaa990	-0.024739057
35	0xba6ab8c6	-0.0008953925
36	0xbd6e373d	-0.058158148
37	0xbd222e03	-0.03959466
38	0x3d9a6d1f	0.075403444
39	0x3c4c31f6	0.0124630835
40	0xbd58f5d5	-0.05296882
41	0xbc0516be	-0.008123098
42	0x3cef9a09	0.029248254
43	0xbc69998c	-0.0142578
44	0x3cf6195a	0.030041385
45	0xbd0f1a27	-0.03493705
46	0x3a4a9f64	0.00077294395
47	0xbac2e724	-0.0014869911
48	0xbbe94727	-0.0071190777
49	0xbd84ce05	-0.064846076
50	0x3d9da7f3	0.076980494
51	0x3d4e8e36	0.05042859
52	0x3d01916b	0.031632822
53	0xbd6eb5f0	-0.058278978
54	0x3d26cfd6	0.04072555
55	0xbb837a74	-0.0040124003
56	0xbd8aec4a	-0.0678335
57	0x3d34d0b9	0.044144366
58	0x3d9b032e	0.07568966
59	0x3d049bff	0.032375332
60	0xbd55936a	-0.052142538
61	0xbc090d77	-0.008365027
62	0x3d72f957	0.05931982
63	0xbc7ceb9f	-0.015437036
64	0xbc13b0fd	-0.009014365
65	0xbd984b04	-0.07436183
66	0x3d38047c	0.04492615
67	0xbd18d9d9	-0.03731713
68	0x3d491e57	0.0491012
69	0xbd9420dd	-0.07232831
70	0x3dc2ff94	0.09521404
71	0x3c56abd9	0.013102495
72	0x3ccf9686	0.02534033
73	0x3d95a139	0.073061414
74	0x3d288f2f	0.041152176
75	0x3cb385af	0.021914331
76	0x3d8ab53f	0.06772851
77	0x3c80654f	0.015673308
78	0x3d57221c	0.052522764
79	0xbb2e7047	-0.0026617215
80	0x3d752efd	0.059859265
81	0x3dbec6ff	0.09315299
82	0xbd94359d	-0.072367884
83	0x3cb30356	0.021852177
84	0xbb591e7e	-0.0033129747
85	0xbd1b8c01	-0.037975315
86	0x3cc1a872	0.023639891
87	0x3d5d7238	0.054064006
88	0xbd7b7ad9	-0.061396454
89	0xbccdb65c	-0.02511137
90	0x3d88a75b	0.066725455
91	0xbad92987	-0.0016568162
92	0x3d9b3792	0.075789586
93	0xbd2939a5	-0.04131474
94	0xbcb81075	-0.022468785
95	0x3c7b4b97	0.015337846
96	0xbd1e5019	-0.038650606
97	0xbd2166af	-0.039404567
98	0x3cd20f75	0.025642136
99	0xbc17f679	-0.009275072
100	0x3cc425de	0.023943838
101	0xbd8f7f4f	-0.07006704
102	0xbcd691d0	-0.026192576
103	0xbd5fa7ec	-0.054603502
104	0xbd710d6f	-0.058850702
105	0x3d4db23e	0.050218813
106	0x3d13882b	0.03601853
107	0x3d104140	0.035218477
108	0xbd42e6cc	-0.047583386
109	0xbc07a546	-0.00827915
110	0xbd827132	-0.063692465
111	0xbd3a2236	-0.045442782
112	0x3cf053aa	0.02933677
113	0x3cd0e438	0.025499448
114	0x3d872e9b	0.06600686
115	0x3d9db167	0.076998524
116	0xbd7c906a	-0.06166116
117	0x3d0247c6	0.03180673
118	0xbc62eb47	-0.01385004
119	0xbd5f50c9	-0.054520402
120	0xbd2e248e	-0.04251533
121	0x3d49c424	0.04925932
122	0xbd00fb20	-0.03148949
123	0x3d05df81	0.032683853
124	0xbd8a6e11	-0.06759275
125	0x3c217d4c	0.009856533
126	0x3c988198	0.018616483
127	0x3cf7c731	0.030246349
128	0xbd8f027d	-0.069828965
129	0x3cbe89e3	0.023259109
130	0x3c769a25	0.015051399
131	0x3d8a8dc6	0.067653224
132	0x3cea4b46	0.028600346
133	0xbca077a0	-0.019588292
134	0x3d819708	0.06327635
135	0xbd23328b	-0.039843123
136	0xbc12f1f6	-0.008968821
137	0x3da56a6c	0.08076939
138	0x3d0a93db	0.033832412
139	0x3d580bac	0.052745506
140	0xbd27e925	-0.04099383
141	0x3c13e5b0	0.00902693
142	0x3ce527eb	0.027973136
143	0x3cb45d30	0.022017092
144	0xbcd8752e	-0.026423063
145	0x3d0e38d8	0.03472218
146	0x3d90da60	0.07072902
147	0x3b057e90	0.0020369627
148	0x3c37812c	0.011200231
149	0x3d9adbaf	0.075614326
150	0x3d917512	0.071024075
151	0xbcac4a1f	-0.021031437
152	0xbd39c65a	-0.04535518
153	0x3bedce1e	0.007257237
154	0x3d6a32b8	0.057177275
155	0x3d76c07a	0.060242154
156	0x3ace06b7	0.0015718554
157	0xbd77171c	-0.060324773
158	0xbcfeca3d	-0.031102294
159	0x3c7ad5b6	0.015309742
160	0xbd7c6382	-0.061618336
161	0x3db80999	0.089862056
162	0xbcffa8ca	-0.031208415
163	0x3c3af715	0.011411448
164	0x3dbee3a8	0.09320766
165	0xbd5960ab	-0.053070705
166	0xbc94465b	-0.018099954
167	0x3d8cfcbd	0.068841435
168	0x3d9e5b29	0.07732231
169	0x3dc43c2d	0.0958179
170	0x3d86d32e	0.06583248
171	0x3c92985c	0.017894916
172	0x3d5348eb	0.051583212
173	0xbb2b1e04	-0.002611042
174	0xbd0ee237	-0.034883704
175	0xbccebe97	-0.025237365
176	0x3cf31a42	0.029675607
177	0x3d87f03b	0.06637617
178	0x3d0f71e2	0.035020716
179	0xbd5bd96c	-0.053674147
180	0xbc1251a3	-0.0089305965
181	0x3dd02557	0.10163372
182	0xbd142778	-0.036170453
183	0x3db96896	0.09053151
184	0xbcce614f	-0.025192885
185	0x3d4553d4	0.048175648
186	0xbd821c9d	-0.06353114
187	0x3d3c59a3	0.04598392
188	0x3d65dd98	0.05611953
189	0x3d5aa6a3	0.053381573
190	0x3cd7f058	0.026359722
191	0x3dcd2555	0.10016886
192	0x3c8c12af	0.017098753
193	0x3d58b86b	0.05291025
194	0xbd6324b0	-0.05545491
195	0x3d783c1f	0.06060421
196	0x3cf9a629	0.03047474
197	0x3d517f27	0.051146653
198	0x3d5e1910	0.05422312
199	0x3d348753	0.044074368
200	0xbc19199d	-0.009344486
201	0xbd1ed082	-0.038773067
202	0xbd029874	-0.031883672
203	0x3dcc6796	0.09980695
204	0x3d71eaa7	0.059061673
205	0xbd535290	-0.05159241
206	0x3d37d1f6	0.04487797
207	0xbd75a2e0	-0.059969783
208	0x3dad8b2c	0.084738106
209	0xbd723fb0	-0.05914277
210	0xbd71fa23	-0.05907644
211	0x3ca2a46c	0.019853793
212	0xbd02131d	-0.03175651
213	0xbd907b4a	-0.070547655
214	0x3dc225ce	0.09479867
215	0x3c2ba553	0.010476428
216	0x3d57eb84	0.05271484
217	0x3bc2e213	0.0059473603
218	0x3c542ebc	0.0129505955
219	0xbdaa8773	-0.08326616
220	0x3d312589	0.043248687
221	0xbdb8c0b7	-0.090211324
222	0x3c994575	0.018709878
223	0xbd8275b1	-0.06370104
224	0xbccfff22	-0.025390211
225	0x3cd3d075	0.025856236
226	0xbd4887e6	-0.048957728
227	0x3d4f323c	0.050585017
228	0x3d2d09cd	0.042245675
229	0x3d47d5e2	0.04878796
230	0x3db2bc1c	0.08727285
231	0x3d7c73de	0.061633937
232	0xbcfbf821	-0.030757966
233	0x3cd0152d	0.025400722
234	0x3d994cc2	0.074853435
235	0xbda7ae76	-0.08187573
236	0x3d99db8d	0.07512579
237	0x3da1323a	0.07870908
238	0xbd06904a	-0.03285245
239	0x3da4dca3	0.080498956
240	0xbd16d89f	-0.03682768
241	0x3d4daea5	0.050215382
242	0xbd850c93	-0.06496539
243	0x3db43deb	0.088008724
244	0x3d9c9718	0.07646006
245	0xbd16e707	-0.03684142
246	0x3d68de15	0.05685242
247	0x3d8d7218	0.06906527
248	0x3db1e3af	0.08686005
249	0xbd28ad6d	-0.041181017
250	0x3d93b3d6	0.07212035
251	0xbd2c2667	-0.04202881
252	0xbcd41ef0	-0.025893658
253	0x3cc02182	0.023453478
254	0xbd21f1dd	-0.0395373
255	0x3c46deda	0.012138093
