Data/PredictionsData/AB23.pth (torch, 828430 bytes, 10 tensors)

lstm.weight_ih_l0 f4 [512, 13]
0.07579463 0.011442673 0.110135905 0.053768113 0.08600778 0.042698875 -0.035262175 0.037904352
-0.0012696182 -0.025589908 -0.09344973 0.005778352 -0.047992475 0.051991228 0.02551961 0.045108728
-0.047171447 0.04576155 0.09121738 -0.006878047 -0.10626705 0.048844367 0.03221618 -0.0071338676
-0.018214243 -0.017298482 0.032250907 -0.029726462 0.06378932 0.076591365 0.12232657 0.08403508
-0.100696005 0.05699932 0.08260314 -0.0026520067 0.09501574 0.006441937 0.051688112 -0.06643927
-0.05568422 0.043726303 0.029009202 -0.13809676 0.07527047 0.12710801 -0.055340696 -0.059988532
0.015745196 -0.037048705 0.06322458 -0.026271233 -0.025980705 -0.063482374 0.06608907 -0.09075827
0.048062753 -0.05703696 -0.0109122805 0.043350656 -0.05970058 -0.031849697 0.054899357 0.07008192
0.010952237 -0.009862297 0.044546884 5.647715e-05 0.033871897 -0.042418428 0.05746585 -0.07004136
-0.04040639 -0.036431517 -0.004899971 0.118570834 0.0383026 -0.07412077 -0.03243661 0.05537901
0.03745565 -0.086425416 0.15331455 -0.05768717 -0.062163185 0.10573572 0.036440138 -0.16510114
0.07181123 0.002372377 0.027035702 0.0479329 0.085745245 0.010824506 -0.03195306 0.037268095
-0.026487717 0.07421327 -0.046910714 0.10190091 -0.03185659 0.095043465 0.027092256 0.020213969
-0.040034004 0.0037778323 0.021730144 -0.020481762 -0.10382844 0.02043234 0.037442636 0.1270991
-0.010586586 -0.027244156 0.045552105 -0.046560254 0.060770873 -0.040702283 0.06703798 0.09699943
0.082541615 0.04284581 -0.08911972 0.08102865 -0.029318199 -0.08487279 0.07071396 -0.13017589
0.047754914 0.01734548 0.04239632 -0.11820489 -0.055547144 0.04803632 0.03714381 -0.030322734
-0.039663345 -0.024545139 0.042261973 0.044319294 0.024511611 0.09111779 0.0098799495 -0.09668667
0.039339304 -0.03031221 0.09861758 -0.074917555 0.080627285 0.08474537 -0.02960628 -0.039638214
0.08580259 0.08728432 -0.013348504 0.011525318 0.02758912 -0.0032780194 0.06039845 0.00092474563
0.019980343 -0.032329723 0.01874755 0.10028229 0.055041723 0.038160652 0.11610658 -0.089438185
-0.014694156 -0.00018998145 0.1194842 0.09916076 -0.025998149 -0.049845748 0.014001881 -0.012979388
0.13519977 0.022313843 -0.077051654 -0.004578279 -0.021049663 -0.031732406 -0.07935293 0.009626714
0.027764132 0.07408371 0.118487775 -0.06131028 -0.08359294 0.05742646 -0.09217641 -0.026752094
0.044472393 -0.044040475 0.059793405 -0.013088153 0.024704445 0.06375321 0.00843802 -0.01589547
0.13166088 -0.023095192 0.041889276 -0.083428435 -0.10142102 0.094038814 -0.035998072 0.0048688487
0.05752738 0.01847941 0.041569896 -0.12467067 -0.06810151 0.06201426 -0.11087305 -0.053641435
-0.012009751 0.085384734 0.1465618 0.028375119 0.021463891 -0.005352797 0.099018425 -0.025474828
0.040021807 0.050957426 -0.08762289 0.13739467 0.028878383 0.11421999 -0.109522805 0.035970196
0.052246105 -0.051172405 0.05820082 0.050971813 0.05707177 -0.07499097 -0.015088463 0.061650895
0.13630335 0.051074702 -0.041785203 0.04512399 -0.033688974 -0.03487435 0.08145718 -0.07249319
0.050350823 -0.062270436 0.05002814 -0.07762689 -0.021662494 -0.055915758 -0.037817586 -0.08543372
00000000: 373a 9b3d 0d7a 3b3c ef8e e13d f43b 5c3d
00000010: d924 b03d 04e5 2e3d 126f 10bd 9841 1b3d
00000020: 5169 a6ba eda1 d1bc 9262 bfbd 5458 bd3b
00000030: c293 44bd c1f4 543d 800e d13c eec3 383d
00000040: d936 41bd 7770 3b3d 2dd0 ba3d 3d61 e1bb
00000050: 8aa2 d9bd 0811 483d 1df5 033d 38c3 e9bb
00000060: 0936 95bc 8cb5 8dbc 8719 043d e984 f3bc
00000070: faa3 823d efdb 9c3d 5a86 fa3d 961a ac3d
00000080: b539 cebd 1e78 693d d62b a93d 4acd 2dbb
00000090: 9d97 c23d e216 d33b eab6 533d 5011 88bd
000000a0: 2315 64bd 5a1a 333d b5a4 ed3c 3d69 0dbe
000000b0: 6727 9a3d 9a28 023e edac 62bd 89b6 75bd
000000c0: 12fc 803c 62c0 17bd e37b 813d c536 d7bc
000000d0: 7dd5 d4bc 0c03 82bd b559 873d 79df b9bd
000000e0: 73dd 443d 969f 69bd 6cc9 32bc 7590 313d
000000f0: 9888 74bd d474 02bd 26de 603d 1c87 8f3d
00000100: 0371 333c 7995 21bc cb76 363d e1e1 6c38
00000110: 42bd 0a3d f2be 2dbd 5061 6b3d d871 8fbd
00000120: 2c81 25bd 3739 15bd f08f a0bb 44d5 f23d
00000130: 30e3 1c3d a1cc 97bd 40dc 04bd 1ad5 623d
00000140: 186b 193d cfff b0bd 7dfe 1c3e 6249 6cbd
00000150: d39e 7ebd f88b d83d 4142 153d 4610 29be
00000160: c411 933d e279 1b3b fa79 dd3c 4a55 443d
00000170: 349b af3d 4559 313c 36e1 02bd 6ea6 183d
00000180: c5fc d8bc 20fd 973d 7325 40bd 6db1 d03d
00000190: 0e7c 02bd 26a6 c23d 94f0 dd3c c497 a53c
000001a0: b2fa 23bd 8295 773b 6a03 b23c 5ec9 a7bc
000001b0: 01a4 d4bd b961 a73c 735d 193d 4426 023e
000001c0: 5c73 2dbc 232f dfbc d894 3a3d f7b5 3ebd
000001d0: e1ea 783d 70b7 26bd 354b 893d a3a7 c63d
000001e0: 940b a93d 177f 2f3d 6684 b6bd 59f2 a53d
000001f0: b82c f0bc c9d1 adbd 7bd2 903d d44c 05be
00000200: a89a 433d 1c18 8e3c c3a7 2d3d 6815 f2bd
00000210: 6785 63bd bbc1 443d 1c24 183d 6267 f8bc
00000220: 0876 22bd e312 c9bc e41a 2d3d 2688 353d
00000230: 93cc c83c f79b ba3d 83df 213c a903 c6bd
00000240: 4022 213d 5051 f8bc 04f8 c93d 606e 99bd
00000250: eb1f a53d fb8e ad3d df88 f2bc ae5b 22bd
00000260: 45b9 af3d 1fc2 b23d afb3 5abc b0d4 3c3c
00000270: 9402 e23c 0ad4 56bb 5d64 773d a16a 723a
00000280: d1ad a33c 2c6c 04bd 7694 993c cd60 cd3d
00000290: 6e73 613d 584e 1c3d 49c9 ed3d 5e2b b7bd
000002a0: c2bf 70bc c235 47b9 22b4 f43d cc14 cb3d
000002b0: 12fa d4bc 0e2b 4cbd 2568 653c 80a7 54bc
000002c0: cf71 0a3e 85cb b63c 42cd 9dbd 6305 96bb
000002d0: 5870 acbc d7f9 01bd ca83 a2bd 5db9 1d3c
000002e0: 9b71 e33c 33b9 973d b8a9 f23d 7d20 7bbd
000002f0: c632 abbd 0238 6b3d fcc6 bcbd 3527 dbbc
00000300: af28 363d c963 34bd eee9 743d b16f 56bc
00000310: fa60 ca3c 0b91 823d 9f3f 0a3c 3737 82bc
00000320: 1cd2 063e 2132 bdbc 1794 2b3d 87dc aabd
00000330: d3b5 cfbd 6c97 c03d b772 13bd dd8a 9f3b
00000340: d4a1 6b3d 2262 973c 3245 2a3d 5653 ffbd
00000350: ce78 8bbd aa02 7e3d 6911 e3bd 1fb7 5bbd
00000360: 8cc4 44bc 31de ae3d 4c14 163e f072 e83c
00000370: 0bd5 af3c 8466 afbb 2cca ca3d 96b0 d0bc
00000380: e8ed 233d bcb8 503d a173 b3bd 30b1 0c3e
00000390: 5c92 ec3c 2cec e93d 7e4d e0bd 7c55 133d
000003a0: 0300 563d 289a 51bd fc63 6e3d d2c7 503d
000003b0: 17c4 693d de94 99bd 9a35 77bc a685 7c3d
000003c0: 1b93 0b3e b533 513d f626 2bbd efd3 383d
000003d0: 73fd 09bd 68d8 0ebd 06d3 a63d 4f77 94bd
000003e0: aa3c 4e3d 490f 7fbd 4fea 4c3d d9fa 9ebd
000003f0: 8b75 b1bc ec07 65bd 9de6 1abd e0f7 aebd

lstm.weight_hh_l0 f4 [512, 128]
-0.07621987 -0.053008784 -0.05681705 0.003258401 0.04706151 -0.047297347 -0.08134131 -0.04800137
-0.07143445 0.07819157 0.05887514 0.019906888 -0.10111141 0.061848506 -0.014315008 -0.0787917
-0.032606877 0.0568026 -0.039160147 0.021264745 0.07497154 -0.11994808 -0.046753738 0.06923223
0.053611107 0.0024752542 -0.02204913 -0.01664473 -0.016777944 -0.027441954 -0.03420943 0.049384877
0.009647775 -0.014432238 -0.04585679 0.030172747 -0.025024043 0.0151336985 -0.080048576 -0.0152218975
-0.0017983192 -0.04132863 0.025091257 0.08133534 -0.025215216 0.0487615 -0.032403257 -0.0220478
-0.0072157644 0.08295189 0.04033538 0.018402005 -0.03383703 -0.094230644 0.07772917 -0.03884192
0.006636281 -0.0117782615 0.0835195 -0.030183094 -0.06104619 0.06429032 -0.06700099 -0.118617594
-0.032052163 -0.021817505 0.041603837 7.097532e-05 0.05728045 0.025649875 -0.086276054 0.10198578
-0.09921859 0.082698904 -0.0032602851 0.0124571035 -0.056023072 0.025383353 -0.0721497 0.011589124
-0.03359601 -0.053280782 -0.055924334 -0.025289992 0.027169092 0.052832074 0.027953004 0.061236016
-0.0068333936 0.038624045 0.079786874 -0.07605702 0.00688321 -0.0051500956 -0.005620398 0.052045126
0.091794856 0.03303772 -0.07498233 -0.057458155 0.0015924491 -0.024216754 -0.06439567 -0.042756405
0.032339305 -0.031218415 0.038993165 -0.08788786 -0.059292294 -0.0931268 -0.07040697 0.083673134
-0.055045843 -0.04055928 -0.0032187295 -0.10324583 -0.03601887 -0.034815524 0.0460338 0.03946475
-0.07258436 0.031755585 -0.009420726 0.059635695 0.08770503 0.048965346 -0.043653544 -0.102121584
0.019983567 0.002961085 -0.0771894 -0.054755908 0.07016829 -0.0031384835 -0.053757634 0.064361095
-0.08528161 0.0039361515 -0.06382875 0.036602665 -0.010770082 -0.020819176 -0.057501715 -0.079085745
-0.013744627 -0.09227724 -0.0069185924 0.023700673 0.032866307 -0.07298133 -0.001682416 -0.026085993
0.003251223 0.047878817 -0.075398654 0.009916009 -0.03013722 -0.100378014 0.07579537 -0.015565018
0.064693056 0.040604573 -0.14497355 -0.06952263 -0.041837003 -0.008946759 -0.0325519 0.09657691
0.07682715 0.020152478 -0.07830152 0.042771284 0.027073959 -0.09456523 -0.10334804 0.07351776
-0.05771556 0.07088076 -0.023482418 -0.09164841 0.0056258636 -0.031921912 -0.067311294 -0.014905401
-0.008670043 -0.052808683 0.012422446 0.055715006 -0.027112989 -0.08015424 0.05121414 -0.09268701
0.060285293 -0.008951918 -0.042887926 0.061359752 -0.059945185 -0.036439788 0.029223345 -0.04367206
0.035172578 0.08510962 0.03951022 -0.009264757 -0.02894236 -0.039910823 0.025078317 0.007984438
0.051989775 0.035827797 0.08299162 -0.033966355 -0.07489293 -0.1057821 -0.017832711 0.09119265
0.033863623 -0.037243553 -9.062709e-05 0.052789725 0.025520863 -0.03632553 0.020619748 -0.026368989
0.14629026 -0.03718436 0.08214235 -0.03704447 -0.0031982472 -0.07215511 -0.035146847 -0.109385684
0.060464952 0.041431576 -0.039059013 -0.02949481 0.025490211 0.041233916 -0.08951015 0.13264197
0.028668504 -0.0032625566 -0.06355998 -0.12521726 -0.044267204 -0.028160146 0.09642134 -0.10734123
0.025042998 -0.089243 0.05290502 0.12747629 -0.008496568 0.0663333 -0.058648095 -0.068849504
00000000: 2a19 9cbd bd1f 59bd ffb8 68bd e68a 553b
00000010: 92c3 403d ddba 41bd 4696 a6bd 169d 44bd
00000020: 3a4c 92bd e722 a03d 0f27 713d c513 a33c
00000030: 8013 cfbd dc54 7d3d 7f89 6abc 8b5d a1bd
00000040: ca8e 05bd d8a9 683d 6466 20bd 6733 ae3c
00000050: ae8a 993d 57a7 f5bd d980 3fbd a1c9 8d3d
00000060: 5297 5b3d e037 223b 61a0 b4bc 875a 88bc
00000070: e671 89bc f3cd e0bc 301f 0cbd cc47 4a3d
00000080: b411 1e3c 3275 6cbc 54d4 3bbd d62c f73c
00000090: 39ff ccbc 55f3 773c 82f0 a3bd 4465 79bc
000000a0: 94b5 ebba 3648 29bd 2e8c cd3c 2593 a63d
000000b0: 2490 cebc 23ba 473d 47b9 04bd 969d b4bc
000000c0: 3872 ecbb aee2 a93d b636 253d cdbf 963c
000000d0: b398 0abd fffb c0bd 7930 9f3d b518 1fbd
000000e0: 2975 d93b 9cf9 40bc 460c ab3d 8942 f7bc
000000f0: 920b 7abd a5aa 833d d137 89bd c8ed f2bd
00000100: 2149 03bd a0ba b2bc c968 2a3d 96d8 9438
00000110: e89e 6a3d b01f d23c 80b1 b0bd ecdd d03d
00000120: 1e33 cbbd 0b5e a93d 82aa 55bb e118 4c3c
00000130: 7378 65bd c0f0 cf3c 39c3 93bd 4fe0 3d3c
00000140: f89b 09bd f33c 5abd ea10 65bd f52c cfbc
00000150: b791 de3c 7266 583d b3fd e43c 9ed2 7a3d
00000160: a9ea dfbb 3f34 1e3d 4d67 a33d c8c3 9bbd
00000170: 8d8c e13b 22c2 a8bb 512b b8bb 452d 553d
00000180: f1fe bb3d 8f52 073d 5690 99bd 3e59 6bbd
00000190: bab9 d03a 3762 c6bc e1e1 83bd 5721 2fbd
000001a0: 3876 043d c3bd ffbc 4cb7 1f3d 8dfe b3bd
000001b0: 7adc 72bd 44b9 bebd 8831 90bd d25c ab3d
000001c0: c077 61bd 7d21 26bd 52f1 52bb 8d72 d3bd
000001d0: 8688 13bd b99a 0ebd f08d 3c3d caa5 213d
000001e0: 1ca7 94bd 2512 023d 6459 1abc 8f44 743d
000001f0: b29e b33d e38f 483d 0fce 32bd 1f25 d1bd
00000200: 94b4 a33c c30e 423b 7a15 9ebd bb47 60bd
00000210: 64b4 8f3d 04af 4dbb f730 5cbd c0cf 833d
00000220: 20a8 aebd d5fa 803b a6b8 82bd adec 153d
00000230: ff74 30bc fa8c aabc eb86 6bbd b5f7 a1bd
00000240: 2531 61bc d9fb bcbd 5cb5 e2bb ea27 c23c
00000250: d29e 063d 3c77 95bd 8384 dcba 4bb2 d5bc
00000260: 7812 553b 941c 443d 9c6a 9abd c276 223c
00000270: 55e2 f6bc fd92 cdbd 9a3a 9b3d 6b04 7fbc
00000280: cb7d 843d fb50 263d f273 14be e161 8ebd
00000290: 475d 2bbd 6d95 12bc 2455 05bd 1dca c53d
000002a0: 8e57 9d3d cf16 a53c 8c5c a0bd f130 2f3d
000002b0: 35ca dd3c 6aab c1bd 23a8 d3bd 7b90 963d
000002c0: 2767 6cbd ef29 913d 335e c0bc 29b2 bbbd
000002d0: 2a59 b83b 8dc0 02bd 81da 89bd c835 74bc
000002e0: cc0c 0ebc eb4d 58bd 8487 4b3c 6b35 643d
000002f0: 0f1c debc e827 a4bd ebc5 513d b0d2 bdbd
00000300: b6ed 763d 11ab 12bc 40ab 2fbd 5d54 7b3d
00000310: 1589 75bd e341 15bd cc65 ef3c 79e1 32bd
00000320: 1f11 103d f44d ae3d 78d5 213d 35cb 17bc
00000330: 8718 edbc 8879 23bd 0b71 cd3c 29d1 023c
00000340: 3bf3 543d 2bc0 123d 83f7 a93d 4e20 0bbd
00000350: 7761 99bd 49a4 d8bd e815 92bc 36c3 ba3d
00000360: 95b4 0a3d b28c 18bd 0c0f beb8 0a3a 583d
00000370: 2111 d13c 14ca 14bd bfea a83c c703 d8bc
00000380: 1dcd 153e a14e 18bd 403a a83d f1bb 17bd
00000390: af99 51bb 0fc6 93bd 24f6 0fbd 9a05 e0bd
000003a0: 19aa 773d 28b4 293d 58fc 1fbd 1a9f f1bc
000003b0: d9d0 d03c e5e4 283d 1951 b7bd 4cd3 073e
000003c0: 36da ea3c 9ed0 55bb bc2b 82bd f438 00be
000003d0: 8751 35bd 1bb0 e6bc 8d78 c53d b8d5 dbbd
000003e0: f926 cd3c 09c5 b6bd efb2 583d 2589 023e
000003f0: 3035 0bbc c1d9 873d fc38 70bd f800 8dbd

lstm.bias_ih_l0 f4 [512]
0.10960666 0.03628889 0.11667033 -0.054889243 -0.0424426 -0.021492288 0.019385675 0.012696896
0.0069198865 0.0007993983 0.051188946 -0.04510074 0.0019835941 -0.037063852 -0.013615439 -0.009189726
0.09788965 0.011655014 0.095497794 -0.015103137 -0.019580528 0.030645836 -0.033806518 0.05516706
0.07125568 0.08663013 0.101275444 0.044863533 0.07340076 0.018480774 0.10964611 0.030083489
0.0947638 -0.014796965 0.06657217 -0.0057226876 -0.011528446 0.08126888 0.048767615 0.004436958
0.09855126 -0.050996743 0.040090658 0.09932522 0.03883911 -0.004097709 -0.040215414 0.064862736
0.06291212 -0.058939993 -0.020288141 -0.0020176389 0.10195986 0.09107659 0.07823756 0.07398176
-0.06870235 -0.047996134 0.062089995 0.026198136 0.058170073 0.05567258 0.03110575 0.10076382
0.01982182 0.110435694 0.014242132 -0.020193024 0.052197058 -0.034275007 0.09296343 0.0636397
0.14120325 0.0888336 0.04746519 0.0391964 -0.019135915 0.008430492 0.061605513 0.010318834
-0.032836415 0.0955517 -0.017418817 -0.009337074 -0.004714353 -0.040827576 0.015628174 0.10020132
0.05783626 -0.021324612 0.07475662 0.056396432 0.108825676 0.018518323 0.05695985 0.012996961
0.1299987 -0.010468635 0.11418431 -0.046539973 0.021891579 0.008485788 0.11402256 0.07088568
-0.034929834 0.1370484 0.08346746 0.07494733 0.055373907 0.10626923 -0.05689125 -0.03813506
0.09966953 -0.004903891 -0.06696981 0.00068849203 0.057847023 0.10755464 0.014895046 0.06684163
-0.016315155 -0.048895545 0.050202966 -0.061384354 -0.02284483 0.024112381 0.04566682 0.07853726
-0.04426022 0.019052582 0.052918486 -0.049857397 0.09466562 -0.05951535 -0.021906413 0.06757971
0.07227756 -0.045857843 0.103152394 0.0006335193 0.018797833 -0.050310414 0.08515552 0.03313567
-0.0054804524 0.06302065 -0.02324757 -0.02175472 0.105381615 -0.0365609 0.07993098 0.07278491
-0.047860976 -0.029413674 0.09153898 0.040652663 -0.039460443 0.0030186498 0.10657405 0.12830532
0.050156094 0.018553976 0.061828703 -0.017186157 -0.009029292 0.12009137 0.058156088 -0.0008471941
0.050763275 -0.04132569 -0.06400891 0.02950826 0.07883839 0.0879985 0.09107291 0.006815175
-0.009586384 -0.014789661 0.014302644 -0.050304618 0.07907092 -0.004385832 0.04358213 0.10035412
0.041066583 0.108234294 -0.066035755 0.013878937 0.0893333 0.02124737 -0.04800509 0.029070212
-0.0019506665 0.010228553 0.11366168 0.017391084 0.03243816 0.04609262 0.08300251 0.012806797
0.13590038 0.06856519 -0.0072379047 0.08286776 0.06305384 -0.05615466 -0.054837137 -0.032830995
0.037970483 0.014197162 0.06538442 0.068750635 -0.030515905 -0.06521935 0.010411931 0.00030192488
0.11194325 0.08404457 0.014315808 -0.066055894 -0.038500678 0.014707947 -0.029146094 0.084178954
-0.035674874 0.032159552 -0.015590609 -0.010967678 0.11680952 0.05579003 0.09320085 0.07305725
-0.030777384 0.053155437 -0.05517387 0.073264204 0.073892824 0.00088661985 0.06503314 -0.03828073
-0.03293905 0.13760777 0.006194483 -0.011733053 0.010478816 0.1185491 0.059795074 0.017276475
0.10589484 0.049172822 0.068269305 -0.033181 0.0025126727 0.06419386 0.051530182 0.0029911993
00000000: 7579 e03d a9a3 143d dbf0 ee3d 8bd3 60bd
00000010: 4bd8 2dbd 9810 b0bc b5ce 9e3c a406 503c
00000020: 37c0 e23b b68e 513a 80ab 513d 8ebb 38bd
00000030: 30ff 013b 44d0 17bd 4a13 5fbc 8190 16bc
00000040: 5e7a c83d acf4 3e3c 5994 c33d 2673 77bc
00000050: 5867 a0bc fa0c fb3c b478 0abd dbf6 613d
00000060: 7fee 913d 236b b13d 8069 cf3d d3c2 373d
00000070: 2353 963d fe64 973c 248e e03d a671 f63c
00000080: 8613 c23d f86e 72bc fd56 883d 6285 bbbb
00000090: cfe1 3cbc 4c70 a63d 8dc0 473d e763 913b
000000a0: 3ed5 c93d f6e1 50bd 1a36 243d 056b cb3d
000000b0: c215 1f3d 1346 86bb ebb8 24bd c1d6 843d
000000c0: 12d8 803d 106b 71bd 5133 a6bc 5d3a 04bb
000000d0: 55d0 d03d 5d86 ba3d 043b a03d c083 973d
000000e0: d1b3 8cbd 9897 44bd 1452 7e3d 799d d63c
000000f0: be43 6e3d ee08 643d 7cd1 fe3c 435d ce3d
00000100: 5f61 a23c 1c2c e23d d557 693c d76b a5bc
00000110: 95cc 553d f363 0cbd 9c63 be3d 8855 823d
00000120: 9697 103e 64ee b53d dc6a 423d 688c 203d
00000130: ecc2 9cbc 0c20 0a3c 1056 7c3d 5410 293c
00000140: 7a7f 06bd 9cb0 c33d e8b1 8ebc 87fa 18bc
00000150: dc7a 9abb d13a 27bd a806 803c 5a36 cd3d
00000160: b7e5 6c3d f4b0 aebc 001a 993d f2ff 663d
00000170: ffdf de3d bdb3 973c bb4e 693d 35f1 543c
00000180: 611e 053e a384 2bbc 77d9 e93d b3a0 3ebd
00000190: f855 b33c f907 0b3c a984 e93d 832c 913d
000001a0: 9612 0fbd 6a56 0c3e fdf0 aa3d fc7d 993d
000001b0: c0cf 623d afa3 d93d cd06 69bd 8233 1cbd
000001c0: 8a1f cc3d d2b0 a0bb 7827 89bd eb7b 343a
000001d0: 00f1 6c3d 9b45 dc3d 5a0a 743c 44e4 883d
000001e0: 5ca7 85bc b246 48bd a0a1 4d3d 296e 7bbd
000001f0: 1525 bbbc 5487 c53c 220d 3b3d 25d8 a03d
00000200: 344a 35bd 2914 9c3c 0ec1 583d 4537 4cbd
00000210: 0ce0 c13d 5ec6 73bd 1475 b3bc 3b67 8a3d
00000220: 4206 943d 6fd5 3bbd 9041 d33d c312 263a
00000230: eafd 993c 4b12 4ebd 0466 ae3d 45b9 073d
00000240: 5e95 b3bb f810 813d b071 bebc f436 b2bc
00000250: 51d2 d73d e2c0 15bd dbb2 a33d 4110 953d
00000260: df09 44bd f2f4 f0bc ca78 bb3d 6883 263d
00000270: 46a1 21bd 8ad4 453b 7f43 da3d 7862 033e
00000280: 7a70 4d3d 82fe 973c 1840 7d3d fcc9 8cbc
00000290: 98ef 13bc 77f2 f53d 1435 6e3d 3c16 5eba
000002a0: 27ed 4f3d 2045 29bd 1a17 83bd 4ebb f13c
000002b0: 0676 a13d 8f38 b43d 6f84 ba3d d551 df3b
000002c0: 3510 1dbc 5650 72bc a355 6a3c 370c 4ebd
000002d0: efef a13d 07b7 8fbb 2d83 323d 7686 cd3d
000002e0: 6f35 283d f1a9 dd3d c13d 87bd 7b64 633c
000002f0: 61f4 b63d f70e ae3c fca0 44bd a724 ee3c
00000300: 82ad ffba a995 273c 74c7 e83d bf77 8e3c
00000310: e0dd 043d 9dcb 3c3d 38fd a93d 9ad3 513c
00000320: 7829 0b3e e86b 8c3d f22b edbb 92b6 a93d
00000330: 5f22 813d 6e02 66bd e89c 60bd cb79 06bd
00000340: f086 1b3d 379b 683c 44e8 853d 22cd 8c3d
00000350: 7efc f9bc b991 85bd ce96 2a3c ac4b 9e39
00000360: 8142 e53d 8f1f ac3d da8c 6a3c 5048 87bd
00000370: e3b2 1dbd 9af9 703c cac3 eebc 0466 ac3d
00000380: d11f 12bd bcb9 033d c16f 7fbc c7b1 33bc
00000390: d439 ef3d 1684 643d 16e0 be3d 0a9f 953d
000003a0: da20 fcbc 84b9 593d fffd 61bd 8b0b 963d
000003b0: 1f55 973d 0d6c 683a 1830 853d 41cc 1cbd
000003c0: 19eb 06bd 0de9 0c3e 17fb ca3b fe3b 40bc
000003d0: 57af 2b3c dfc9 f23d aeeb 743d 6587 8d3c
000003e0: 65df d83d 7169 493d c7d0 8b3d cde8 07bd
000003f0: a7ab 243b 1278 833d 5011 533d ff07 443b

lstm.bias_hh_l0 f4 [512]
0.019065468 -0.025585148 0.16417342 0.006336464 0.104014754 0.023629397 -0.023390753 0.01556791
-0.023265703 -0.025060877 0.019103589 0.037469685 -0.037283126 0.09906043 0.07158392 0.12731302
0.09674527 0.05668728 0.026496563 0.029580407 0.04977779 0.013299572 -0.026442673 0.07925958
-0.075699925 0.12716335 0.08361913 0.11842062 0.105615065 -0.0017941606 -0.009609299 -0.0035880723
0.027841026 0.011109417 0.07737514 0.09828634 -0.0037815794 0.097509556 0.017190322 -0.058698107
0.08742864 0.08933875 0.031883907 0.039890446 -0.018095618 -0.04558733 0.0556832 0.0056873285
0.05219147 -0.0013965777 0.0067792675 -0.042060025 0.058265015 0.0325169 0.03211778 0.028578587
-0.062678225 0.0889561 0.0016051885 0.013179399 0.043139838 -0.01203915 0.015575407 0.014767158
0.09810578 0.09636127 0.09750113 0.10408858 -0.006135247 0.049806498 0.04898522 0.065031596
0.1430363 0.010005694 0.06331404 0.04829474 -0.000922748 0.055258177 0.09816759 0.029373756
-0.04822535 0.086476296 -0.03668307 0.10904793 0.13792077 -0.065627754 0.10441208 0.031372488
8.72323e-05 -0.031764574 0.08988971 0.018645145 0.025260229 0.026975267 0.04444049 -0.04314156
0.09174083 0.041636206 -0.020195238 0.05268843 0.08167564 0.05711636 0.030514622 0.0009901928
-0.06462911 0.09382844 0.06255939 0.115577504 0.088957876 0.06621791 0.0850133 0.0061490103
0.05081211 0.10232633 0.09281679 0.026961805 0.08167465 0.09119757 0.08418291 0.09132111
0.10147665 -0.038126014 0.107612096 -0.051307004 0.016666919 -0.029145073 0.025045173 -0.023857586
-0.04093888 0.057715517 0.061611265 0.047498677 0.039847396 0.08815902 0.078978896 0.07363675
0.06959292 -0.02242647 -0.028381553 0.047625773 0.01684219 -0.05094646 -0.015845774 -0.013638944
0.09892835 0.097059086 0.108117044 -0.03601114 -0.002686963 -0.021843342 0.06776733 -0.009052191
0.00096015097 -0.050545864 0.108884186 0.021041881 0.049040526 0.1057023 0.10874352 0.13590278
0.05873996 0.06421476 0.04376355 0.06364774 0.015034926 0.010507677 0.042235382 -0.05606644
0.023778705 -0.04878576 -0.0058482997 0.03450415 0.0927803 -0.01975857 -0.05535044 0.0498677
-0.034243077 -0.0278065 0.08524811 0.034687877 -0.010736188 0.06662479 0.010835837 0.059499703
0.05212176 -0.015936166 0.02846869 0.13033323 0.015994443 0.059109252 0.034201518 0.059574775
-0.03558265 0.047238242 0.11128549 -0.034633566 0.059157345 -0.015268454 -0.022841422 0.07458819
0.04123478 0.0036718117 -0.0056753317 0.018152392 0.070042394 0.033587847 0.027095124 0.013324594
-0.004943308 0.002168349 0.03403823 -0.036826726 0.11821909 -0.0063783503 -0.021235762 0.10244408
0.016264651 0.047387432 -0.03662682 -0.054260395 0.057395205 0.08191674 -0.048218828 0.03206488
-0.043189805 -0.0035008441 0.036400136 0.06465062 0.05819829 0.014983429 0.07464191 0.0653262
-0.0043484466 0.098894306 -0.04187253 0.07940342 -0.013126302 -0.02327142 0.045867827 0.08304103
0.08200257 0.07714481 0.003091574 -0.042490486 -0.04100634 0.05171673 0.094337694 0.045783315
0.022562394 -0.01909398 0.012728716 0.06929349 0.023519667 0.02175509 0.041990604 0.06395146
00000000: 2f2f 9c3c f297 d1bc 141d 283e 1da2 cf3b
00000010: b005 d53d 7092 c13c f79d bfbc 8c10 7f3c
00000020: b797 bebc 784c cdbc 217f 9c3c d079 193d
00000030: 31b6 18bd 32e0 ca3d 979a 923d 585e 023e
00000040: 6222 c63d ec30 683d 520f d93c 9c52 f23c
00000050: cce3 4b3d 73e6 593c 4e9e d8bc d952 a23d
00000060: 9008 9bbd 1c37 023e 8240 ab3d 8386 f23d
00000070: b64c d83d 0a2a ebba 5270 1dbc dd25 6bbb
00000080: dd12 e43c 4604 363c db76 9e3d 594a c93d
00000090: 60d4 77bb 17b3 c73d b8d2 8c3c 6d6d 70bd
000000a0: c90d b33d 3cf7 b63d b398 023d 2a64 233d
000000b0: 433d 94bc c8b9 3abd 1114 643d c55c ba3b
000000c0: b9c6 553d 5f0d b7ba 9e24 de3b 2247 2cbd
000000d0: 4ca7 6e3d 7130 053d ef8d 033d a41d ea3c
000000e0: 715d 80bd 9e2e b63d 3065 d23a 68ee 573c
000000f0: 66b3 303d db3f 45bc fe2f 7f3c f3f1 713c
00000100: afeb c83d 0f59 c53d acae c73d 652c d53d
00000110: 2f0a c9bb e601 4c3d baa4 483d 492f 853d
00000120: 1c78 123e ecee 233c cbaa 813d b5d0 453d
00000130: 92e4 71ba 6656 623d 170c c93d 3ba1 f03c
00000140: f287 45bd 7c1a b13d fd40 16bd 8554 df3d
00000150: 1a3b 0d3e d867 86bd 00d6 d53d 7080 003d
00000160: 7cf0 b638 921b 02bd 1918 b83d b4bd 983c
00000170: 8aee ce3c 3cfb dc3c 3b07 363d 34b5 30bd
00000180: 9ee2 bb3d ba8a 2a3d 7c70 a5bc d3cf 573d
00000190: 8f45 a73d d8f2 693d cdf9 f93c 5bc9 813a
000001a0: 445c 84bd 2029 c03d 231f 803d e6b3 ec3d
000001b0: 8c2f b63d 419d 873d 741b ae3d a37d c93b
000001c0: 5c20 503d 7890 d13d bb16 be3d 01df dc3c
000001d0: 0a45 a73d cbc5 ba3d 1768 ac3d 9006 bb3d
000001e0: fdd2 cf3d 062a 1cbd bb63 dc3d 4b27 52bd
000001f0: 1089 883c a6c1 eebc 892b cd3c fc70 c3bc
00000200: 87af 27bd 1b67 6c3d 185c 7c3d f98d 423d
00000210: 0637 233d b78c b43d b0bf a13d ddce 963d
00000220: bc86 8e3d b7b7 b7bc 6e80 e8bc 3e13 433d
00000230: a2f8 893c 3cad 50bd ffce 81bc e175 5fbc
00000240: f29a ca3d eac6 c63d 786c dd3d 6b80 13bd
00000250: c217 30bb cff0 b2bc 99c9 8a3d a44f 14bc
00000260: a4b2 7b3a 2e09 4fbd acfe de3d 0660 ac3c
00000270: b8de 483d 737a d83d ecb4 de3d 192a 0b3e
00000280: 5099 703d 0783 833d 6941 333d bf59 823d
00000290: 0d55 763c 6428 2c3c 02ff 2c3d eca5 65bd
000002a0: 8fcb c23c 94d3 47bd 18a3 bfbb 3954 0d3d
000002b0: 9903 be3d b9dc a1bc 25b7 62bd 1342 4c3d
000002c0: 7842 0cbd 75ca e3bc 9096 ae3d e014 0e3d
000002d0: d6e6 2fbc 9472 883d cb88 313c f6b5 733d
000002e0: a07d 553d 908c 82bc 2c37 e93c 1376 053e
000002f0: c706 833c 8b1c 723d e416 0c3d ae04 743d
00000300: 1dbf 11bd e37c 413d a6e9 e33d eddb 0dbd
00000310: f94e 723d 8a28 7abc ef1d bbbc b1c1 983d
00000320: cde5 283d c7a2 703b 22f8 b9bb 53b4 943c
00000330: 6372 8f3d 6993 093d 98f6 dd3c 664f 5a3c
00000340: 79fb a1bb dc1a 0e3b ac6b 0b3d 9fd7 16bd
00000350: da1c f23d 7b01 d1bb 9ff6 adbc 34ce d13d
00000360: 723d 853c 5319 423d 0106 16bd 2640 5ebd
00000370: 3c17 6b3d f7c3 a73d 1b81 45bd 7756 033d
00000380: cbe7 30bd 6b6e 65bb 4f18 153d 8b67 843d
00000390: 5561 6e3d 0e7d 753c dcdd 983d bec9 853d
000003a0: 6a7d 8ebb 1989 ca3d 8882 2bbd 439e a23d
000003b0: b30f 57bc b4a3 bebc e7df 3b3d 6a11 aa3d
000003c0: f7f0 a73d 19fe 9d3d 019c 4a3b 810a 2ebd
000003d0: 44f6 27bd ecd4 533d 1f34 c13d 4987 3b3d
000003e0: c5d4 b83c fa6a 9cbc 1b8c 503c bfe9 8d3d
000003f0: 51ac c03c bb37 b23c 57fe 2b3d fcf8 823d

lstm.weight_ih_l1 f4 [512, 128]
0.02231543 -0.013858721 0.024137137 0.032829534 0.006996281 -0.06980987 -0.022631548 0.0013922619
0.06442514 -0.114017114 0.0035954763 0.061089985 -0.06330694 -0.033337284 0.09743258 0.016466197
0.05070574 -0.05215474 -0.043018263 -0.015347212 0.022814587 0.067578256 0.07286023 -0.045107268
-0.074897006 0.10178623 -0.07984107 0.031213138 -0.034734953 -0.06068263 -0.006297117 -0.0014762287
0.028892217 0.04066158 -0.027669795 0.051452875 0.0379833 0.06091599 -0.0024446698 0.0028186748
-0.03644324 -0.029534215 -0.03904299 0.035453267 -0.0069035287 0.054715447 -0.031931207 0.02745373
0.04699577 0.00010397086 0.04823806 0.004246225 -0.0032834783 -0.03149428 -0.018702181 0.040936437
-0.024622833 -0.09325266 -0.07010341 -0.05672867 0.035471145 0.08567483 -0.03959036 -0.054974012
0.015367332 0.061135612 0.019657638 -0.03970359 -0.02610727 -0.06584233 0.055324506 -0.07653696
-0.04214193 -0.11499687 0.013528854 -0.08909534 -0.008190823 0.061893046 -0.046650767 0.012883253
-0.055309787 7.234514e-05 0.07051702 -0.042600274 0.086553164 -0.051312327 0.0013717299 0.1186862
0.100414634 0.00068456295 -0.08065484 -0.06478664 -0.022877242 0.019692505 0.08571262 -0.054908644
-0.00029705855 0.050690737 0.029473843 -0.053658966 -0.070523076 -0.024395254 0.039254162 0.023333259
-0.06624253 0.004888944 0.0054402123 -0.03320984 0.022364452 -0.05519831 0.050429206 0.08893901
-0.013627948 0.035910495 -0.012623942 0.045473654 -0.013579947 0.06740254 -0.02206268 0.023572685
0.08585067 -0.017686497 0.035139777 0.018384257 0.12206275 0.09970544 0.07364858 0.047878053
-0.08723144 -0.0639371 0.065640755 0.05960358 0.07869295 -0.08190192 -0.038076706 0.049890954
0.023969766 0.06202808 0.058441862 0.018354367 -0.048765622 0.0018531783 0.052073043 -0.007940523
-0.06841688 -0.047130693 -0.10289597 -0.031815235 -0.049589172 0.04061055 -0.066557735 0.046904072
0.04023944 -0.07666714 -0.015565514 -0.06818947 -0.001070834 0.022880075 -0.04375907 -0.012794764
0.021931026 -0.025450362 0.003634971 0.06655699 -0.04302162 -0.011282545 0.07351045 -0.04715494
0.10858613 -0.07364769 0.09099844 0.000313985 -0.0022546963 0.06607144 -0.05270126 0.037429918
-0.026805779 0.008734726 0.057154406 0.061373655 -0.06399747 0.0031322103 0.086742155 -0.0077150944
0.05848085 0.05995502 -0.01732534 -0.0906212 0.07186931 -0.00912448 0.010670269 0.013694442
0.05659238 -0.077730015 -0.034488704 -0.06412488 0.022357259 -0.019303065 -0.09129221 0.024926396
0.032930594 -0.012055039 0.02708068 -0.07172544 -0.06627594 0.06383958 -0.030471 -0.105729945
-0.055427134 -0.029979354 -0.03475714 -0.054343607 -0.02601151 -0.045800645 -0.06860696 0.044415776
0.032257624 -0.012306259 -0.10340503 0.064364694 -0.07793835 0.030756902 0.029625585 -0.0066170017
0.062141825 -0.030268751 0.06783535 -0.0069578416 -0.030721344 0.023025684 -0.03513919 -0.041220948
0.056392744 0.07858513 -0.091888115 -0.014089614 -0.024362464 -0.038581174 0.051989224 0.02065685
-0.017370876 -0.039223637 0.007138306 0.03926153 -0.038326997 0.040009387 0.03814327 0.031489544
-0.0065391087 0.022198096 0.10923504 0.061925482 0.015080473 -0.03701101 -0.00064341736 -0.008532192
00000000: d9ce b63c b00f 63bc 3fbb c53c 4378 063d
00000010: 0f41 e53b 7af8 8ebd cc65 b9bc 8f7c b63a
00000020: 54f1 833d ce81 e9bd 15a2 6b3b 7e39 7a3d
00000030: 12a7 81bd ad8c 08bd bc8a c73d 1ee4 863c
00000040: d2b0 4f3d 35a0 55bd eb33 30bd df72 7bbc
00000050: a8e5 ba3c 7866 8a3d bf37 953d 66c2 38bd
00000060: 9a63 99bd 4d75 d03d b783 a3bd b2b2 ff3c
00000070: 3d46 0ebd 598e 78bd 0c58 cebb 047e c1ba
00000080: 5faf ec3c c28c 263d c4ab e2bc 40c0 523d
00000090: 6094 1b3d 0c83 793d c136 20bb 84b9 383b
000000a0: 8245 15bd bdf1 f1bc 8beb 1fbd 7237 113d
000000b0: ff36 e2bb 4e1d 603d 4cca 02bd a5e6 e03c
000000c0: a37e 403d ee0a da38 4695 453d eb23 8b3b
000000d0: a02f 57bb 2500 01bd 5135 99bc f7ac 273d
000000e0: d3b5 c9bc 40fb bebd 6092 8fbd 525c 68bd
000000f0: 314a 113d 4976 af3d 8029 22bd 6e2c 61bd
00000100: 43c7 7b3c 5669 7a3d 0e09 a13c 3ba0 22bd
00000110: eade d5bc 58d8 86bd f39b 623d 69bf 9cbd
00000120: 049d 2cbd 7b83 ebbd 20a8 5d3c 9e77 b6bd
00000130: cd32 06bc 9083 7d3d e014 3fbd 4814 533c
00000140: 848c 62bd 00b8 9738 3a6b 903d a07d 2ebd
00000150: c942 b13d e02c 52bd 9ecb b33a c011 f33d
00000160: 30a6 cd3d 3e74 333a 5d2e a5bd dcae 84bd
00000170: 0e69 bbbc 2d52 a13c 198a af3d e3e7 60bd
00000180: 86be 9bb9 17a1 4f3d 2173 f13c 81c9 5bbd
00000190: 676e 90bd 8ed8 c7bc f9c8 203d 6425 bf3c
000001a0: 2aaa 87bd 6f33 a03b cf43 b23b 0b07 08bd
000001b0: a835 b73c a017 62bd db8e 4e3d a825 b63d
000001c0: c247 5fbc e216 133d a7d4 4ebc 9542 3a3d
000001d0: 6d7e 5ebc 580a 8a3d cbbc b4bc 811b c13c
000001e0: 7ad2 af3d 46e3 90bc baee 0f3d 959a 963c
000001f0: 09fc f93d 5e32 cc3d 11d5 963d c71b 443d
00000200: 66a6 b2bd 74f1 82bd a96e 863d e222 743d
00000210: c529 a13d 32bc a7bd 52f6 1bbd 755a 4c3d
00000220: 3e5c c43c 2811 7e3d bc60 6f3d e65b 963c
00000230: 76be 47bd 58e6 f23a 8b4a 553d f818 02bc
00000240: 261e 8cbd 1d0c 41bd 1fbb d2bd b150 02bd
00000250: 041e 4bbd 4057 263d 6c4f 88bd 7c1e 403d
00000260: 1cd2 243d a903 9dbd 7f06 7fbc eca6 8bbd
00000270: 3a5b 8cba ff6e bb3c b63c 33bd 21a1 51bc
00000280: b2a8 b33c 477d d0bc b238 6e3b 084f 883d
00000290: 7037 30bd 6cda 38bc a68c 963d 8a25 41bd
000002a0: 6862 de3d 9ad4 96bd 645d ba3d 5a9e a439
000002b0: 87c3 13bb 7750 873d 47dd 57bd 1d50 193d
000002c0: cb97 dbbc 191c 0f3c bd1a 6a3d f162 7b3d
000002d0: 1b11 83bd c545 4d3b dfa5 b13d e7ce fcbb
000002e0: 9e89 6f3d 6593 753d dfed 8dbc 9c97 b9bd
000002f0: 3830 933d d87e 15bc 5ad2 2e3c a75e 603c
00000300: 69cd 673d ea30 9fbd 0744 0dbd e853 83bd
00000310: 9226 b73c 7621 9ebc 69f7 babd 7132 cc3c
00000320: 3be2 063d 8082 45bc 4dd8 dd3c cae4 92bd
00000330: aebb 87bd 53be 823d 529e f9bc f188 d8bd
00000340: 9007 63bd 4397 f5bc 815d 0ebd 6797 5ebd
00000350: 1716 d5bc 7599 3bbd ce81 8cbd 51ed 353d
00000360: 9220 043d 31a0 49bc 04c6 d3bd a3d1 833d
00000370: 249e 9fbd e6f5 fb3c 5bb1 f23c 6fd3 d8bb
00000380: 6d88 7e3d 2cf6 f7bc 43ed 8a3d 9bfe e3bb
00000390: 54ab fbbc 5ca0 bc3c 1cee 0fbd 4cd7 28bd
000003a0: 14fc 663d 3ef1 a03d d62f bcbd 20d8 66bc
000003b0: ca93 c7bc 4b07 1ebd a7f2 543d 8e38 a93c
000003c0: 5e4d 8ebc f7a8 20bd 73e8 e93b b3d0 203d
000003d0: c5fc 1cbd e2e0 233d 1e3c 1c3d 2efb 003d
000003e0: 0546 d6bb c8d8 b53c 9fb6 df3d 93a5 7d3d
000003f0: 1714 773c db98 17bd 02ab 28ba 9bca 0bbc

lstm.weight_hh_l1 f4 [512, 128]
0.061380446 0.09736357 0.092376634 0.009037009 -0.06311014 -0.09702463 0.051750943 -0.0070388117
0.074388646 0.013352879 -0.11771609 -0.030334037 -0.02274982 0.08404127 -0.0568259 0.025657367
0.06388729 0.026212757 -0.008667414 -0.024261251 0.09873513 -0.027005447 0.068808205 0.042683546
0.035829123 0.08940926 0.003002899 -0.07204738 0.02094985 -0.06972857 0.03273781 -0.07564032
-0.0072053913 0.09092086 -0.041222367 0.026526865 -0.046201438 -0.025582792 0.0017766727 0.02518042
-0.042897083 -0.006528447 -0.04490565 0.04141657 -0.029724797 0.03599926 -0.019848032 -0.023722658
0.02942782 -0.0947887 0.040229503 -0.0013877788 -0.052142076 -0.07111956 0.03494695 -0.00869164
-0.11009747 -0.071876064 0.048221517 -0.07985048 0.085145585 -0.10419139 0.027395975 -0.018051386
0.036445785 -0.06728876 -0.04230861 0.011732558 -0.003332034 0.05524487 -0.03773931 0.07239668
-0.018075278 -0.046782274 0.07943692 0.0063772528 0.012640067 0.11289976 -0.11178988 0.05274439
-0.0054794853 -0.03493112 0.06438051 -0.06531421 0.03624007 -0.05893886 0.0896037 0.037162278
0.09942531 -0.06990525 0.087060764 0.060996372 -0.07650441 0.05271073 -0.08290016 -0.057691958
-0.010897415 -0.06497289 -0.061694052 -0.01981675 0.008653609 0.022035874 0.08515429 0.062940985
0.02611246 -0.07055544 -0.02710717 -0.034685872 -0.043129414 0.05298678 -0.03190602 0.0023584121
-0.016535439 -0.07269123 -0.011806528 0.03991441 0.012307144 0.09989365 0.090793364 0.09890357
0.03732916 0.119717896 0.038699716 -0.05048533 0.051513396 0.043012854 -0.0047265855 0.034163862
0.034205794 -0.036641285 0.010711901 -0.08389366 -0.03498168 -0.04234176 0.009260746 0.036651
-0.06982842 -0.081261486 0.027249489 -0.09363732 -0.013431217 -0.062455587 -0.019469121 0.009852328
0.03652403 -0.08231721 0.09751629 0.068398856 -0.018591378 -0.09902567 -0.075895324 0.035743084
0.0727422 -0.0016498663 0.032740258 -0.027147815 0.09516606 0.09964822 -0.0031076334 0.02796538
0.104197636 0.026255224 0.035159018 0.04467388 -0.111032434 0.068815276 0.07229969 -0.027330333
-0.09468461 -0.016078677 0.01432669 -0.068907134 0.027944207 0.08665948 0.035646506 0.0637563
-0.032086622 -0.029184263 0.040936284 0.09263352 -0.039541762 0.013424482 -0.050163943 0.07802908
0.009259806 0.015592628 0.058164917 0.070135176 0.044217627 -0.095336914 0.044482473 -0.05353508
-0.05949978 0.045235284 -0.010751133 0.0694108 0.0414817 0.018121019 -0.02535412 0.07918633
0.021453094 0.039933227 -0.034046657 -0.051481787 -0.09102161 -0.051852137 0.038491167 0.037279088
0.06010907 -0.056138013 -0.010464657 0.054072116 0.03626371 -0.08307589 -0.0176921 0.014064902
-0.03479636 0.07285366 -0.045792714 -0.09730603 0.05940631 0.09852447 0.012422156 0.088813335
-0.013140007 -0.05048081 -0.070611484 0.09173379 0.021985061 0.05503992 -0.03267416 -0.08985365
-0.024608944 -0.06337902 -0.11663357 -0.06998753 -0.082222365 0.09040964 0.09034327 -0.13755476
-0.0021628132 -0.0696409 0.0076581487 0.07410816 -0.018803252 -0.014080246 0.09548336 0.0833887
-0.0042874347 0.023803031 -0.05057466 -0.066465594 -0.077524714 0.069687985 0.05511375 0.05858183
00000000: 106a 7b3d 8d66 c73d f62f bd3d f70f 143c
00000010: e43f 81bd d9b4 c6bd ccf8 533d d5a5 e6bb
00000020: 1359 983d 09c6 5a3c 2215 f1bd 167f f8bc
00000030: d55d babc d41d ac3d 46c2 68bd 662f d23c
00000040: 57d7 823d 23bc d63c c501 0ebc 88bf c6bc
00000050: a535 ca3d 873a ddbc 51eb 8c3d f1d4 2e3d
00000060: 8fc1 123d 341c b73d 49cc 443b 948d 93bd
00000070: 059f ab3c dacd 8ebd 1518 063d 50e9 9abd
00000080: 341b ecbb b734 ba3d c9d8 28bd de4e d93c
00000090: b83d 3dbd 0193 d1bc 3edf e83a 2b47 ce3c
000000a0: dab4 2fbd 95ec d5bb fdee 37bd 6ca4 293d
000000b0: 6b81 f3bc f673 133d 5798 a2bc 0556 c2bc
000000c0: 9d12 f13c 9420 c2bd b1c7 243d 21e6 b5ba
000000d0: ee92 55bd 22a7 91bd 8824 0f3d 6167 0ebc
000000e0: c87a e1bd c233 93bd ed83 453d a688 a3bd
000000f0: cf60 ae3d 4c62 d5bd 866d e03c 80e0 93bc
00000100: 2d48 153d b0ce 89bd cb4b 2dbd ea39 403c
00000110: 415e 5abb 7248 623d 8994 1abd b644 943d
00000120: 9b12 94bc c59e 3fbd d3af a23d 46f8 d03b
00000130: 4918 4f3c fd37 e73d 18f2 e4bd 800a 583d
00000140: 418d b3bb ef13 0fbd eed9 833d 75c3 85bd
00000150: 7870 143d e069 71bd 2582 b73d 7937 183d
00000160: 7f9f cb3d 7c2a 8fbd ea4c b23d 55d7 793d
00000170: 58ae 9cbd 35e7 573d 8fc7 a9bd 674e 6cbd
00000180: 128b 32bc 8210 85bd e7b2 7cbd bd56 a2bc
00000190: dec7 0d3c 9484 b43c 5f65 ae3d 34e7 803d
000001a0: cce9 d53c 5f7f 90bd db0f debc c612 0ebd
000001b0: 78a8 30bd aa08 593d e3af 02bd 978f 1a3b
000001c0: 5475 87bc 24df 94bd 2b70 41bc 4b7d 233d
000001d0: e7a3 493c 0b95 cc3d dff1 b93d f48d ca3d
000001e0: 76e6 183d a82e f53d 9883 1e3d b5c9 4ebd
000001f0: b6ff 523d 3f2e 303d 79e1 9abb 68ef 0b3d
00000200: 601b 0c3d 2c15 16bd f880 2f3c 70d0 abbd
00000210: f348 0fbd 8e6e 2dbd 62ba 173c 5c1f 163d
00000220: 3402 8fbd 6c6c a6bd 523a df3c ecc4 bfbd
00000230: 9b0e 5cbc 6ed1 7fbd b57d 9fbc a96b 213c
00000240: 399a 153d ed95 a8bd 9fb6 c73d b314 8c3d
00000250: f24c 98bc f8cd cabd 026f 9bbd 5767 123d
00000260: ddf9 943d 5440 d8ba a61a 063d 1865 debc
00000270: 6ce6 c23d 5e14 cc3d 70a9 4bbb a717 e53c
00000280: 9265 d53d 3215 d73c e702 103d f5fb 363d
00000290: f964 e3bd 06ef 8c3d dc11 943d dde3 dfbc
000002a0: 01ea c1bd 6eb7 83bc 7eba 6a3c 2f1f 8dbd
000002b0: 40eb e43c 877a b13d 1202 123d aa92 823d
000002c0: 436d 03bd d613 efbc ceac 273d a5b6 bd3d
000002d0: 8bf6 21bd 5cf2 5b3c b578 4dbd b6cd 9f3d
000002e0: 71b6 173c 3978 7f3c 563e 6e3d 08a3 8f3d
000002f0: 8b1d 353d 0040 c3bd 4133 363d 9a47 5bbd
00000300: 0bb6 73bd a248 393d 8525 30bc 4027 8e3d
00000310: b7e8 293d 8872 943c 72b3 cfbc 712c a23d
00000320: 66be af3c 0691 233d 8274 0bbd 91de 52bd
00000330: 8a69 babd e862 54bd eaa8 1d3d f5b1 183d
00000340: ee34 763d f9f0 65bd f473 2bbc b97a 5d3d
00000350: 4289 143d b123 aabd 06ef 90bc 7a70 663c
00000360: a186 0ebd 4d34 953d 2491 3bbd 6248 c7bd
00000370: 0854 733d 33c7 c93d 4c86 4b3c c4e3 b53d
00000380: 2f49 57bc f7c4 4ebd c19c 90bd edde bb3d
00000390: 041a b43c 8a71 613d 57d5 05bd 3105 b8bd
000003a0: b298 c9bc dccc 81bd 95dd eebd 9f55 8fbd
000003b0: 3364 a8bd b028 b93d e405 b93d 28db 0cbe
000003c0: fcbd 0dbb e39f 8ebd 35f1 fa3b 05c6 973d
000003d0: 4709 9abc d5b0 66bc c88c c33d b2c7 aa3d
000003e0: 9c7d 8cbb 93fe c23c 6027 4fbd 1d1f 88bd
000003f0: 47c5 9ebd 93b8 8e3d f5be 613d 80f3 6f3d

lstm.bias_ih_l1 f4 [512]
0.08369457 0.009452326 -0.03656107 0.10575311 -0.03660298 -0.012074932 -0.036891606 0.019019924
0.028857647 0.039792225 -0.020104023 0.0010903431 0.034041904 0.055716455 -0.07931888 -0.015542384
0.023594297 0.035646465 0.0213634 0.09381388 -0.04419825 -0.016682528 -0.02103704 0.0046115546
0.046783738 0.0075738695 0.062687315 0.07045911 0.04254849 0.10366988 0.04252679 0.04606399
0.08408491 0.086638145 -0.0139571 0.06189565 0.0018438878 -0.022707999 0.048279975 -0.021412682
0.050323773 0.011147044 -0.030809637 -0.013188433 0.0939081 0.05024931 0.05590251 0.019348983
-0.003299596 0.06569746 -0.020290287 -0.0057362923 0.0009453572 0.06328402 0.047124185 0.012962545
0.011446469 0.075941846 0.07818167 0.047118478 0.07075738 0.032358434 -0.03468396 -0.070829034
0.00059993955 -0.010889173 0.032947954 -0.016390888 -0.004523414 -0.07348507 0.009191962 0.028859043
0.08780491 -0.021372791 0.0839916 0.020883897 -0.013800929 0.05412107 -0.059648223 0.028834706
-0.022170978 0.09437691 -0.011887042 -0.08184452 0.040926497 0.07836182 -0.056899097 -0.059253763
0.06344586 -0.06770222 0.06595009 0.08290594 0.07619522 0.024446404 0.090948075 0.052259818
-0.090550795 0.028705932 -0.0009910587 0.06694684 -0.017114038 0.02471019 0.009448226 0.015414634
-0.07717689 0.10860051 0.058254108 0.016534898 -0.015259327 -0.062255397 0.055903427 0.024484858
0.030927515 -0.013569455 -0.01623456 0.0008761679 0.07682948 0.023088489 -0.01389071 0.055316143
-0.022255901 -0.046527285 -0.055214413 -0.014780959 0.032227978 0.047155786 -0.01480627 0.09648122
0.098333865 0.050374117 -0.08103222 0.01646359 0.0032568031 -0.047067076 -0.025994446 -0.0015690455
0.00083382137 -0.037485868 -0.059053805 0.046868414 0.083117366 0.063393265 0.04317561 0.09530993
-0.039306358 -0.052526783 0.04515006 0.048623346 0.042740148 -0.07180532 0.06768607 -0.06146338
-0.051374894 0.059519723 -0.024573471 0.053147927 -0.049646493 0.09466838 -0.01635029 -0.011863451
0.048786387 0.01883657 0.11499943 -0.006355275 -0.0024301687 -0.054481957 0.10069917 -0.024906838
-0.0058248625 -0.042776737 0.08433665 0.018557267 -0.043976504 0.04215389 -0.0011158575 0.03346732
0.036325753 -0.043912504 0.0744461 0.0040076156 -0.031481396 -0.024277443 -0.051591612 0.0573152
-0.029135922 -0.035811137 0.09059216 -0.06700816 0.0068436977 -0.06035722 0.084072635 0.03524236
0.08143999 -0.07126209 0.086364225 0.082567565 0.04061464 0.08098596 0.081594154 0.031617943
0.04453853 0.027478399 -0.057989538 0.09501961 -0.05455522 0.0036788888 0.09551471 0.057440594
-0.010946006 0.020202298 0.044208102 0.008943786 -0.047810506 -0.037594527 -0.052373484 0.065253094
-0.07325295 -0.057683542 -0.02179212 -0.045943327 0.056675456 -0.05322711 -0.07824627 -0.06248537
0.059458297 0.107336104 0.032526318 -0.048109088 0.0981221 -0.04987665 -0.038770176 0.095801935
0.08784178 0.069359556 0.004902784 -0.04023356 0.06632945 0.04365565 0.050196208 -0.05211661
0.07410229 -0.035766244 0.03163205 -0.002462948 0.05699487 -0.060175613 0.04783916 -0.076152384
-0.026739445 -0.046807326 -0.012084543 0.08449413 -0.0803575 -0.0018348786 0.051823106 0.013077212
00000000: 0f68 ab3d eedd 1a3c 0fc1 15bd 1695 d83d
00000010: 02ed 15bd f0d5 45bc a71b 17bd accf 9b3c
00000020: df66 ec3c 2cfd 223d 31b1 a4bc d8e9 8e3a
00000030: 866f 0b3d f036 643d f071 a2bd 7ca5 7ebc
00000040: d448 c13c 0702 123d 4c02 af3c 7e21 c03d
00000050: 3909 35bd cca9 88bc df55 acbc 861c 973b
00000060: 4ea0 3f3d 392e f83b 3562 803d de4c 903d
00000070: 5347 2e3d e050 d43d 9230 2e3d 98ad 3c3d
00000080: b634 ac3d 576f b13d 52ac 64bc 4b86 7d3d
00000090: 9cae f13a 2006 babc 39c1 453d a669 afbc
000000a0: 4d20 4e3d 17a2 363c 7e64 fcbc 4c14 58bc
000000b0: e452 c03d 38d2 4d3d 08fa 643d c281 9e3c
000000c0: 093e 58bb 648c 863d d137 a6bc 82f7 bbbb
000000d0: d9d1 773a 0d9b 813d 4a05 413d db60 543c
000000e0: f989 3b3c 6687 9b3d b61d a03d 4eff 403d
000000f0: 3fe9 903d 478a 043d c510 0ebd d00e 91bd
00000100: 4345 1d3a 8068 32bc 6ff4 063d 2f46 86bc
00000110: 2639 94bb 577f 96bd e299 163c cd69 ec3c
00000120: 10d3 b33d fe15 afbc ca03 ac3d b514 ab3c
00000130: 4b1d 62bc 0eae 5d3d b251 74bd c336 ec3c
00000140: e99f b5bc ae48 c13d dec1 42bc 1a9e a7bd
00000150: 8ba2 273d 297c a03d 070f 69bd 13b4 72bd
00000160: e7ef 813d 76a7 8abd d710 873d 97ca a93d
00000170: 3d0c 9c3d d343 c83c fc42 ba3d 640e 563d
00000180: b272 b9bd b428 eb3c 69e6 81ba 6d1b 893d
00000190: bd32 8cbc 066d ca3c bbcc 1a3c a98d 7c3c
000001a0: eb0e 9ebd f269 de3d dc9b 6e3d 3274 873c
000001b0: 4202 7abc 84ff 7ebd fefa 643d 7894 c83c
000001c0: b35b fd3c 6b52 5ebc 57fe 84bc a2ae 653a
000001d0: c658 9d3d 1224 bd3c dc95 63bc 2e93 623d
000001e0: 0252 b6bc 6593 3ebd 8228 62bd d62b 72bc
000001f0: 7c01 043d 6d26 413d ff95 72bc f297 c53d
00000200: 4463 c93d 1755 4e3d 38f4 a5bd a7de 863c
00000210: 1770 553b 68c9 40bd 4ef2 d4bc 6ea8 cdba
00000220: ce94 5a3a c88a 19bd 67e2 71bd 18f9 3f3d
00000230: 7039 aa3d 54d4 813d e9d8 303d da31 c33d
00000240: b4ff 20bd 5326 57bd 45ef 383d 4629 473d
00000250: 4b10 2f3d ab0e 93bd ff9e 8a3d 06c1 7bbd
00000260: 7b6e 52bd f4ca 733d 4e4e c9bc a4b1 593d
00000270: 1f5a 4bbd 7fe1 c13d 0bf1 85bc ec5e 42bc
00000280: 3cd4 473d 274f 9a3c d284 eb3d e93f d0bb
00000290: 7743 1fbb 7928 5fbd 5e3b ce3d 6d09 ccbc
000002a0: 7dde bebb a936 2fbd b2b8 ac3d 6905 983c
000002b0: b520 34bd 8fa9 2c3d f741 92ba 0715 093d
000002c0: 50ca 143d 99dd 33bd 3277 983d 5152 833b
000002d0: a3f2 00bd 7de1 c6bc ba51 53bd 58c3 6a3d
000002e0: 75ae eebc b3ae 12bd 6288 b93d 933b 89bd
000002f0: 1941 e03b 2239 77bd 462e ac3d 4b5a 103d
00000300: 02ca a63d dcf1 91bd badf b03d 2f19 a93d
00000310: 895b 263d f8db a53d d61a a73d d181 013d
00000320: 096e 363d 611a e13c 7086 6dbd a499 c23d
00000330: 4b75 5fbd 8319 713b 379d c33d d446 6b3d
00000340: e056 33bc 4a7f a53c 8e13 353d f588 123c
00000350: f3d4 43bd b8fc 19bd 9485 56bd 6aa3 853d
00000360: a505 96bd 9445 6cbd 6385 b2bc 122f 3cbd
00000370: 8624 683d ac04 5abd 953f a0bd a9f0 7fbd
00000380: 8b8a 733d 08d3 db3d 513a 053d 090e 45bd
00000390: 3df4 c83d 754b 4cbd 7acd 1ebd ce33 c43d
000003a0: 64e6 b33d 620c 8e3d 88a7 a03b f2cb 24bd
000003b0: bcd7 873d 44d0 323d 8a9a 4d3d 3a78 55bd
000003c0: f1c2 973d a07f 12bd 9c90 013d 6969 21bb
000003d0: 7473 693d b47a 76bd fff2 433d c8f5 9bbd
000003e0: ae0c dbbc 0ab9 3fbd 3ffe 45bc 420b ad3d
000003f0: 7992 a4bd 4f80 f0ba 7744 543d cd41 563c
