Data/PredictionsData/AB24.pth (torch, 828430 bytes, 10 tensors)

lstm.weight_ih_l0 f4 [512, 13]
00000000: 0ad1 a2bb 2dfc 6d3d 869f 053d 9a6b 2bbe
00000010: ae28 acbd b9c2 b13c 8d7f 513c f356 a73c
00000020: 9121 b23a 8619 07bd fce5 28bd bf9f 56ba
00000030: 9d43 12be 5ae8 883d 9189 6abc af12 1c3c
00000040: 64fa 1abd f1ba 52b9 1938 66bd af72 d1bd
00000050: f6e3 c23d 2224 a9bc e7d1 c8bc 3810 ac3d
00000060: ae9a 343c 7b23 39bd 4998 9d3d 35c0 82bd
00000070: 40a1 b9bc 7d3e a3b9 3171 8b3d 9f56 a73b
00000080: b872 6abd ba72 1dbe 2968 d73d a2e9 bc3b
00000090: 1c8a 81bd dadc b83c b4d9 78bd b97a 81bd
000000a0: e132 a43c 9bdf 03bd 4fca 873c a6d1 873d
000000b0: d4b2 083b 4acf fa3d 0a4f 50bd 1f37 debd
000000c0: ed68 ae3d ab18 253b 3e5e e9bd 545d 2f3d
000000d0: efd6 ddbd f0e3 c8bd 0ae5 b1bd 4afd b3bd
000000e0: fdad df3d 92a5 cbbc 892b 91bc a185 07bd
000000f0: d9ad cf3d 222c 273c 82a6 81bd 71b8 80bc
00000100: 52b8 2bbd a452 babc 578c 94bd 99f7 c9bc
00000110: de44 aa3d 6fa3 143d 5d1c 21bc 6f04 84bd
00000120: d74b 503d 81de 573d 7861 b8bd 388e 45bd
00000130: b14e 853d 752f 31bd a69a 0bbd 6f69 39bd
00000140: 944e d53d 367a c03d 6570 b9bc b0cb 78bb
00000150: 5798 313d 27a8 753d 2d21 df3d 387e 04bd
00000160: 4b8f 803d acb4 56bd 79bc febc 3347 80bd
00000170: 3fd0 c9bd c2a4 37bd 7f06 f13c d58e 7c3d
00000180: e2bb d83d 0d95 db3d 73df a4bd 2edf 263d
00000190: e7b1 1fbb 4f77 093e 7abd ae3a 523e 753d
000001a0: 8a6e b53c 87df 01bb bc0c cbbb 1284 eb3d
000001b0: 3d9d a03d a3dc 9dbc d376 c9bd fc66 f73d
000001c0: 2cf5 c13c 01d4 e33d 9249 b4bc ff3c 6e3d
000001d0: 5920 cdbc f0e3 d7bd fd17 0a3d cc9a 783d
000001e0: d11d b83c 3070 02be 9068 593c cdb2 29be
000001f0: 8b27 c43d 7ca8 2cbd 87a8 c43d 5c64 9f3d
00000200: 4e25 b33c 729a 573d 4ad1 4cbd f4fc 8cbd
00000210: 4366 87bc ac87 8cbc dbba c6bc 9512 68bc
00000220: 2811 353d abfc 963c baa6 963c bc0d cd3d
00000230: e50d da3d ea25 adbd 4930 333d 8ea9 083c
00000240: 4b10 373d 31bd 3a3d 7e74 acbd a973 af3d
00000250: 9f5e 8c3c 5cdc 75bd 352a 893c 6b8d 4c3c
00000260: 45d4 783d 7bea b73d ac34 bd3d 0895 0fbd
00000270: 754a d2bd e889 e0bd 3cd1 bcbd 5f2c 2bbe
00000280: 07d4 3bbd d643 1ebd 2ca8 cdbd a7df f73c
00000290: 23a5 0a3d c3ac 3ebc c504 8f3d 8a71 883c
000002a0: 1091 c63c 972c b63d 6294 e1bc d2e9 413d
000002b0: c86b e33c 19e8 f83d 3c5e 5dbd 66d1 81ba
000002c0: ca89 a73d 9363 74bc ac78 b33d 0d98 d13a
000002d0: f96b b53d e7c9 243d e912 443d 7918 89bd
000002e0: 2b6c 1cbd 44c3 52bd 1122 6e3d 2142 d83d
000002f0: a49e ddbd 035d 063c 7c0e b73d 548f 513d
00000300: e238 c83d ec66 2d3d be34 b53d 19c8 d03b
00000310: a5c8 3abc b404 0ebd c6e9 f13d b67c ba3b
00000320: fe48 85bd 2c2e 1abd d864 5ebd c092 303c
00000330: ac32 c1bd a0d5 d43d 0d72 b43d 0a9d 29bd
00000340: 27a2 b2bd 44f2 ac3c 16d6 f8bc a67d 70bd
00000350: 2dc8 5abd d6f3 a73d 68d7 853d 776d 46be
00000360: a23b e63b f2af babc be50 9ebb 37de 94ba
00000370: a1a3 0bbc cb25 0abd eca5 90bd 8c96 fabc
00000380: 6297 8d3c c215 e33c 4071 7dbd f991 54bb
00000390: 5c0f 6f3d ce94 633d f896 5dbd 2fdd 213d
000003a0: 3aa7 b63d af55 473d c766 ce3d 8187 813d
000003b0: 4b69 d13d 425b 6ebd 8417 f3bc c38b abbd
000003c0: 13ad 25bc e46e 903c 8833 803d c9c1 9c3c
000003d0: b298 8b3c 06cd 293d 657e d5bd ad5f 013e
000003e0: 1d96 373e b630 cb3d 2077 2dbd 32fd aa3c
000003f0: b06e 0ebd 5ddb 02be 3295 4c3d 2791 e63c
-0.004968767 0.05810182 0.032622837 -0.16740265 -0.084061965 0.021699296 0.012786758 0.020427203
0.0013590326 -0.032983325 -0.041234955 -0.0008187256 -0.14283605 0.066849425 -0.014315025 0.009525939
-0.037836447 -0.00020096802 -0.056205843 -0.10226952 0.09516136 -0.020647112 -0.024514152 0.08401531
0.011023207 -0.045199852 0.07695062 -0.06384317 -0.022659898 -0.0003113634 0.06808699 0.0051067616
-0.05723831 -0.15375796 0.10517914 0.005765156 -0.063251704 0.022566248 -0.060754493 -0.063222356
0.020043792 -0.03219567 0.01657596 0.06631784 0.0020858543 0.122465685 -0.050856628 -0.10850357
0.08516107 0.0025191705 -0.113949284 0.042813614 -0.10832011 -0.09809101 -0.08686264 -0.087885454
0.109218575 -0.024859224 -0.017720954 -0.033086423 0.10140581 0.010203393 -0.06330587 -0.015712949
-0.04192383 -0.022744484 -0.0725333 -0.024654197 0.083139166 0.036288675 -0.0098334225 -0.06446158
0.050853577 0.05270243 -0.09002966 -0.048231333 0.0650915 -0.04325815 -0.03408303 -0.045266565
0.10415378 0.0939831 -0.022636602 -0.0037963204 0.043358173 0.059974816 0.10895 -0.032346934
0.06277331 -0.052418396 -0.03109573 -0.0626358 -0.09854173 -0.04483486 0.029422043 0.061659653
0.10582711 0.107217886 -0.08050432 0.040740184 -0.0024367513 0.13424419 0.0013331615 0.059873886
0.022147436 -0.001981707 -0.0061965864 0.114998 0.07842491 -0.019270247 -0.09837117 0.120801896
0.023676477 0.11124421 -0.022007737 0.05816364 -0.025039839 -0.105415225 0.033714283 0.0606945
0.022475155 -0.12738109 0.013269559 -0.16572113 0.09577855 -0.042152867 0.096024565 0.07782814
0.021868374 0.052637525 -0.05000428 -0.068841845 -0.016528254 -0.017154537 -0.024259022 -0.014164587
0.044205815 0.018431028 0.018390048 0.10012385 0.106471814 -0.08454497 0.04374722 0.008341206
0.044693273 0.045590583 -0.084206566 0.08566982 0.017134963 -0.060024604 0.016743759 0.012484889
0.06074931 0.089802705 0.09238562 -0.035054237 -0.10268108 -0.109638035 -0.09219596 -0.16716145
-0.045856502 -0.038638912 -0.10041842 0.030258013 0.033848893 -0.011637869 0.069833316 0.016655702
0.024239093 0.088952236 -0.027536575 0.04734213 0.027761355 0.12153644 -0.054044947 -0.0009904325
0.08180578 -0.0149163185 0.08763251 0.0015990749 0.08858485 0.04023161 0.047869597 -0.06694121
-0.038189095 -0.05145575 0.058137957 0.10559488 -0.10821274 0.008200887 0.089383096 0.05116208
0.097764745 0.042334482 0.088479504 0.0063715097 -0.011400376 -0.034672454 0.11812167 0.0056911362
-0.06508063 -0.03764169 -0.05429539 0.010777175 -0.09433493 0.10392308 0.08810816 -0.04140953
-0.08722334 0.021111615 -0.030375522 -0.058713578 -0.05341356 0.08200805 0.06535226 -0.19377695
0.0070261518 -0.022788975 -0.0048314026 -0.0011357729 -0.008522899 -0.03372745 -0.07062897 -0.030589364
0.017284099 0.027720336 -0.06187558 -0.003243564 0.058364257 0.055561833 -0.054099053 0.039517578
0.08918615 0.0486657 0.10078197 0.063246734 0.10225161 -0.0581925 -0.029674299 -0.08376267
-0.010112065 0.017631002 0.06259829 0.019135373 0.017040584 0.04145529 -0.104244985 0.12634154
0.17928357 0.099214 -0.042349935 0.020872686 -0.03477353 -0.12778993 0.04994697 0.028145386

lstm.weight_hh_l0 f4 [512, 128]
00000000: 3398 96bd 864b 83bb fb5a e1bc 2406 7a3d
00000010: b4d5 cbb9 cbaa c0bd 0d35 893c 8e34 9dbd
00000020: f694 22bd d13c 48bd d05a a03d 733b 463d
00000030: 38cb f7bc 3fc8 b8bd 1809 423d 8656 18bd
00000040: 003e 1b3e f58f 533c 1897 4f3d 5407 97bd
00000050: df96 8fbd d3dc 2dbd cfbf 103c 7387 ef3d
00000060: c42e 123b bc49 19bd 5eb3 d2bd cc2c 12bd
00000070: d093 64bd 6dc4 9dbd c2da 4dbd f835 3d3d
00000080: 7845 b03c 141f d63c cf9a 8639 ee03 aebb
00000090: 3bbf bdbd 8c5f 9ebd 7b2f ddbd ddc5 7ebd
000000a0: 34d8 923d 80bb bcbb 9690 41bd 740c 01bd
000000b0: 5c1f 3f3d 84d7 cbbd f339 d23c 0c11 2b3d
000000c0: 74b0 78ba 4e03 a0bd 6702 eb3b 10c0 cc3d
000000d0: 0763 94bd b679 17bc fe6f 673d 13a8 18bc
000000e0: 7cba 323d 19c7 85bd 3dc5 cabc 7d70 4ebd
000000f0: 0493 3b3d 85f5 bf3c 49f3 b73d 6ab1 233d
00000100: 473c 4fbc f440 7a3d 7c3c be3c c7cb 4bbc
00000110: b15f 913d 6bac 6ebd 2eea 7dbc 6d03 dabc
00000120: 521f ac3d 5cdc 1a3e b09e 60bd 11a6 5fbd
00000130: 49dc b0bd 8244 5a3d d4ce e8bd 1c93 00bd
00000140: 1cda f5bc d483 f13c 8a01 80bd 06ad 7dbc
00000150: 3668 8dbc 8cef 3fbd 138c e13d 281a 2f3d
00000160: 841b 4d3d 4db5 b33b ed6a b4bd 83ac 81bd
00000170: 0d0f 31bd 2859 d43c e04e 353d 34ec 6a3c
00000180: 68da cabd 4082 963c 7b71 b13d 46c6 863c
00000190: 2cfd dfbd a818 61bd 1d83 ddbc 855e aabc
000001a0: efc2 d7bc 15ff debd 700f 45bd 0dcd fdbc
000001b0: 5a22 50bd bdaa b1bb 0b8f 1e3b 1ff6 d83d
000001c0: 9155 a0bd 63f1 00bd 17cd 07be 0d05 bebd
000001d0: c5f8 3ebd 9767 4bbd d776 da3a c822 14bd
000001e0: 9b5c 113d 2823 46bd 22a0 09bd 09d7 ac3d
000001f0: c2d5 d6bd 872a 7a3d 7aee a5bc 217e 003d
00000200: 3fde 2bbc ce9f 343d 92cd 82bc 7f60 b13d
00000210: c281 2e3d 1e95 d33d f95a dcbb 94d5 bfbd
00000220: b9eb 9e3c 01b1 023d 5dfa 70bd bc38 7e3d
00000230: acf9 d1bc 9d1d b93c 8b6f 4a3d 6d48 273d
00000240: 2cf4 84bb 5c67 96bd de20 b6bb f5e8 acbd
00000250: a6c2 5d3d e21f 963d cb4c 3b3d 0dee 9abd
00000260: c235 903d 2085 0b3d 98db 2b3c e532 37bc
00000270: 26d2 1d3a 1296 74bd 6430 76bc 9fb1 33bc
00000280: 505c d13a 92b6 05bd ecd7 d0ba 8673 893d
00000290: f929 cdbc 3d37 673d 023e 553d 16a2 d63c
000002a0: 5e19 513d be33 6abd c5fc 903d c4fd cfbc
000002b0: 00c2 213c e9d0 9bbd 9d4d 9bbd 8246 0c3d
000002c0: a0e5 f4bb 3e3f 0f3c 1fbd 343d 6d04 4dbd
000002d0: 6065 06bc c96b b8bd a764 5ebd 617e 6fbd
000002e0: 3f09 be3c 41e4 303d aa3d 94bc 3e76 07bd
000002f0: 1bc5 9a3d 4a2b 69bd 0f47 323d e8bb c2bc
00000300: 2654 2cbc c3c9 133d 41c1 053d c22b e7bc
00000310: 4f70 76bd 8cb8 9f3c c34c e7ba 662b 98bd
00000320: be28 ecbd 5de2 803d 3146 96bd 5412 89bd
00000330: f760 e63c a71a aebb d3a2 86bd faae b43c
00000340: 3e7c 98bc 90d4 cf3d 3a73 923d 4afd af3d
00000350: fa1a eb3d b4fa aabc d8be cbbc 5fa5 9e3c
00000360: e447 ca3c 8b95 503d 15f9 aa3c 72d2 d53b
00000370: e38d 9fbd 1df1 9c3d 9a09 a33c 4199 f13c
00000380: fab2 c4bc 0cec 743b 3fa9 363d 490d 99bd
00000390: 4cac 723b 23aa 6cbc 1843 7abd a6d2 2fbd
000003a0: 5945 f43c 9a01 f73d 14fc 56bd 795c babc
000003b0: cd09 df3d 0dfc acbc e94b 2bbd c005 943d
000003c0: 58b4 4dbc 277e c83c 6d92 7c3d 5300 773d
000003d0: 6dc2 df3d c030 2e3d e1c5 bbbc 1619 993d
000003e0: 73c7 d2bc 1430 8f3c 79a1 0fbc e031 b7bb
000003f0: 1da0 3c3c 3b19 4d3d 8ca8 953c 3dee 173c
-0.073532484 -0.004006806 -0.027509203 0.061041012 -0.00038878398 -0.09407576 0.01674893 -0.0767604
-0.03969284 -0.048886124 0.07829821 0.04839654 -0.03024827 -0.09022569 0.047371954 -0.03719189
0.1516037 0.01291274 0.050681204 -0.073744446 -0.07011198 -0.042446923 0.008834793 0.11695757
0.0022305707 -0.037423834 -0.10288118 -0.035687253 -0.055805027 -0.07703481 -0.05025745 0.046194047
0.0215175 0.026137866 0.00025673813 -0.005310527 -0.0926499 -0.07733068 -0.10800072 -0.062200416
0.07170144 -0.0057596564 -0.04725703 -0.031506017 0.046660766 -0.09953216 0.025662398 0.041764304
-0.0009486743 -0.0781313 0.0071719172 0.099975705 -0.072454505 -0.009245327 0.05650329 -0.009317416
0.043634877 -0.065321155 -0.024752254 -0.050400246 0.045794502 0.023432503 0.0898195 0.039964117
-0.012648649 0.0610971 0.0232222 -0.012438721 0.0709833 -0.0582699 -0.015497727 -0.026612962
0.084044114 0.15123123 -0.054838836 -0.054601733 -0.08635766 0.05328799 -0.11367574 -0.031390294
-0.03001123 0.029481806 -0.062502936 -0.0154831465 -0.017261606 -0.04685931 0.11013045 0.042749554
0.05007507 0.005484259 -0.08809457 -0.06331732 -0.043227244 0.02592142 0.044264674 0.014338542
-0.09904939 0.018372655 0.08664223 0.016451966 -0.109369606 -0.054955155 -0.027040059 -0.020797024
-0.026338069 -0.10888497 -0.048110425 -0.030981565 -0.05081401 -0.005421965 0.0024194147 0.10593819
-0.078288205 -0.031480204 -0.1326183 -0.09278307 -0.046623964 -0.049659338 0.0016667497 -0.036165982
0.035488706 -0.04837337 -0.03359998 0.08439452 -0.1048999 0.061075713 -0.020255316 0.031370286
-0.010489999 0.044097714 -0.015967164 0.08660983 0.042604215 0.10331176 -0.006724712 -0.09366909
0.01939951 0.031907085 -0.058832515 0.062065825 -0.025631748 0.022597129 0.049422782 0.040840555
-0.004057428 -0.07343933 -0.0055581173 -0.084428705 0.05414071 0.073303 0.045727532 -0.07564936
0.070415035 0.034062505 0.010489367 -0.011181568 0.0006020389 -0.05971343 -0.015026186 -0.010967641
0.0015972946 -0.032644816 -0.001593349 0.067114875 -0.025044428 0.056449164 0.05206109 0.026200335
0.051049583 -0.05717825 0.07079462 -0.02538956 0.009872913 -0.07608206 -0.07583163 0.03424693
-0.0074736625 0.008743105 0.044125672 -0.05005305 -0.008202881 -0.090049334 -0.05429521 -0.058470134
0.023197768 0.04318643 -0.01809581 -0.03307175 0.07557126 -0.05692605 0.043524798 -0.023771241
-0.010518109 0.036081087 0.032655004 -0.028219108 -0.0601657 0.019497178 -0.0017646778 -0.074301526
-0.115312085 0.06293175 -0.07337607 -0.06692949 0.028122408 -0.005313236 -0.06574025 0.022056092
-0.01861393 0.10147965 0.07150884 0.08593233 0.11479755 -0.020871498 -0.024871275 0.019365964
0.024692483 0.050923865 0.020870725 0.006525331 -0.077907346 0.07663176 0.01990204 0.029492022
-0.024011124 0.003737214 0.044595 -0.07473237 0.0037028966 -0.014444861 -0.06109914 -0.0429255
0.029818224 0.12060852 -0.052486494 -0.022749173 0.10890541 -0.02111628 -0.04182044 0.07227659
-0.012555204 0.024474217 0.06166308 0.060303044 0.10925756 0.04252696 -0.022921504 0.07475488
-0.02572987 0.01747898 -0.008766525 -0.0055906624 0.011512783 0.05007289 0.018268846 0.009273109

lstm.bias_ih_l0 f4 [512]
00000000: 71fc 42bb 19d0 cc3d 3406 95bd 8409 9d3d
00000010: 27d3 063c a12a 373d 8861 96bc 326b cb3d
00000020: 307b 10bc 3308 923d 256e ab3c 43bf 4abd
00000030: cf8a 67bc 7f88 e93d f9ed 6a3d 7c52 a2bc
00000040: 6618 853d 0974 e93d 6664 b13d d248 f73c
00000050: f053 953d 7981 583d 4e3f ea3d 8c71 853c
00000060: df3e 62bc 93ce 7a3d cf0b 153d 3b1f 893d
00000070: 1fb0 b83d 5961 523a 692f c13d d664 ec3d
00000080: 5165 38bb d153 a33d 56f8 7ebc 0fc4 203d
00000090: b68e 1cbc ff30 2a3e af65 5a3d 4760 5a3a
000000a0: 9f46 903d c5ac cf3c 13c6 893d 9db3 9c3d
000000b0: 67c0 303d ae28 d4bc d170 be3c 2a17 b03d
000000c0: 213a 78bb f5f6 eb3d 8727 fb3c 76eb ce3d
000000d0: 97d2 b2bc cbfc 313d e7ed dfbc 7f96 78bd
000000e0: 9cba 333d d503 c4bc 0b86 a93d 6a34 9e3d
000000f0: fd51 15bd 5317 cf3d eccb 7c3c f587 443d
00000100: 6344 943d 43dc 293d ad0e d93c 1cbf 3abd
00000110: 6a91 aa3d a0cb 483d a08d 333d 6347 96bd
00000120: 7601 073d 13ef 0bbd 0e80 d0bc e5ef 5c3d
00000130: 2d7f dabc 44ca 6fbb 1329 24bd fcd8 703d
00000140: 72d3 013c 693e bf3c dead 2b3d 8faf 143d
00000150: 68a0 1f3d 8d6d 843d 776b 61bc 8cef 91bd
00000160: 40ca 24bd 4e2d 453b 436f 1cbd 7c08 ab3d
00000170: 99b6 1bbd 6756 4c3c 5797 b23d d706 ab3c
00000180: 773a 9d3d 2aec a13d 5b09 dd3d fbcd 423d
00000190: c1b3 4c3d 30bc 963c d402 febc 8572 fe3b
000001a0: 0de6 dc3c 497d 893c 4fe9 84bd f828 ee3d
000001b0: 5562 e33d ed8c 753d cea8 da3d 067f e7bc
000001c0: 029d 403d 4c95 ca3d 1783 e6bc c69f e73d
000001d0: 58ae c33b 1168 7d3c 7315 cf3d 45b3 e13c
000001e0: a6d5 81bd e152 2abd 5dd4 13bc d91b c03d
000001f0: 3724 ab39 3672 233d 09c5 e13d 81cb 503a
00000200: 20d4 bd3b 2fad 90bd c494 243d e0b9 a8bb
00000210: 4b5a a03d 0aa3 703d bbec d63d 1008 96bc
00000220: 96d4 2e3d 2b7c 193c 5223 e43d 5127 8cbd
00000230: 327a 033d df53 cebb 0d46 1ebd 8b2d f23d
00000240: 74bf 683c 8c0f 363d 69ed a73d 1a76 3c3d
00000250: 1e75 abbc f818 ee3d e59e 563d 2210 e53d
00000260: 2334 953d af15 e1bc 2ca0 2dbd 22b8 103d
00000270: 7e6e 8c3d 9ace 29bd 5dd0 d43c c813 fd3d
00000280: 5a77 8f3d c5de c33d 0b6e ee3d 0528 913d
00000290: 61cf 193c 124b 043e 1f94 8d3d df5c 973d
000002a0: 1dcb 8c3c ea4f 14bd abf7 853d e2cb 003d
000002b0: bdad 823d 76cb 8a3d e500 023e b1e0 b23d
000002c0: d7cd 6d3d 0a4f 38bd 37c3 973d 1d71 1bbd
000002d0: 4576 943d d207 ff3d e477 86bd ff73 10bd
000002e0: 9189 ba3d 4c00 ed3d b223 e13d b99c 513d
000002f0: cb73 bc3a cb4f 663d aef9 ab3d cd78 493d
00000300: 1cf4 41bd 2b31 ee3d f2c4 fdb9 8b1d ab3d
00000310: c128 66bc 6e16 b33a 7b4d aa3d a1c5 963d
00000320: 03e4 313c ae47 1a3d e9c2 043d cd45 1c3d
00000330: 18b8 4dbd c5c0 693d 5f59 023d 5cfd 4b3d
00000340: e53d ce3a 6976 b53d 926e a43c 69ed e83d
00000350: ae5d c33c 68f3 ff3d 2dd6 07bd d555 99bc
00000360: 7ebf 89bd c4ce fcbc e9be 923d bbdf 1bbd
00000370: 4221 b13d 3053 973d 2bca 3d3d 464b 973b
00000380: c66a 653d 61e2 023e 667f 893b 4439 873d
00000390: 18bd d43c ca20 793d 5ded 0c3d c61a fe3c
000003a0: 78c5 933d 9ec6 8b3d 76c6 2fbc 5881 393d
000003b0: 2627 843c a6d7 953d 05a3 44bc 0080 e6bc
000003c0: b2f5 523c 89d5 1abd 1412 583d 812b 8f3d
000003d0: ca27 c53c d2a9 003d 48b1 803b 1ee6 573d
000003e0: 6af4 9c3d 6522 f43d ebe5 b53d 10de 143c
000003f0: 27d2 52bd b519 803b f4d0 7bbc 5188 80bc
-0.0029752518 0.10000629 -0.07276574 0.076678306 0.008229054 0.04471839 -0.018357053 0.09932555
-0.008818433 0.0713047 0.020926544 -0.049498808 -0.014132216 0.11402988 0.057355855 -0.019814722
0.06498794 0.11399085 0.086617276 0.03018609 0.072914004 0.05285785 0.11437856 0.016289495
-0.013808935 0.06123216 0.036388215 0.0669541 0.090179674 0.000802537 0.09432871 0.115426704
-0.002813656 0.07974971 -0.015562138 0.039249476 -0.009555509 0.16620253 0.05331963 0.00083303865
0.0704472 0.025350938 0.06727233 0.07651446 0.04315224 -0.025898304 0.023247154 0.08598168
-0.0037876444 0.11521713 0.030658497 0.10103504 -0.021828933 0.043453973 -0.02733512 -0.0606904
0.043879136 -0.023927609 0.0827752 0.07724841 -0.036455143 0.101118706 0.015429478 0.04798122
0.07239606 0.041469824 0.026496256 -0.045592412 0.08328517 0.049022317 0.043836236 -0.07337835
0.032960378 -0.034163546 -0.025451686 0.05393972 -0.02667197 -0.0036589066 -0.040078234 0.058800682
0.007923948 0.02334519 0.04191386 0.03630024 0.038971335 0.06466208 -0.013758532 -0.07125768
-0.040231943 0.0030086818 -0.038192045 0.08351228 -0.038015936 0.012471772 0.08720272 0.020877285
0.07677167 0.07906373 0.107928 0.04755972 0.049976114 0.018400282 -0.031007208 0.0077651166
0.026965166 0.016783373 -0.064898126 0.11628908 0.1110274 0.05994885 0.10676728 -0.028258812
0.047024734 0.09891757 -0.02813868 0.11309771 0.005971711 0.015466706 0.10111513 0.027551303
-0.06339578 -0.041582946 -0.009022799 0.093803115 0.00032642644 0.039903842 0.110239096 0.0007964895
0.0057931095 -0.07064282 0.040180936 -0.005149111 0.07829722 0.058749236 0.104943715 -0.018314391
0.042683206 0.009367983 0.11139549 -0.068434365 0.032098956 -0.0062966193 -0.038641024 0.11825093
0.014205802 0.04444842 0.08199579 0.046011068 -0.02092987 0.11625856 0.052397627 0.11184718
0.07285335 -0.02747616 -0.04238908 0.035331853 0.06857012 -0.041456796 0.025978262 0.123572886
0.070051864 0.09563974 0.11642083 0.07087711 0.009387822 0.12919262 0.069130175 0.07390761
0.017186696 -0.036209024 0.065413795 0.031444438 0.06380794 0.06777088 0.12695654 0.08734263
0.058057632 -0.044997253 0.07410281 -0.03794967 0.072491206 0.124526635 -0.06565836 -0.035266872
0.0910827 0.11572322 0.109931365 0.051174853 0.0014377771 0.05622844 0.08397232 0.04918747
-0.04735194 0.11630472 -0.00048402656 0.08355244 -0.014047802 0.0013663301 0.083155595 0.073619135
0.010857585 0.037666015 0.032412443 0.038152505 -0.050224394 0.057068605 0.031823512 0.04980217
0.0015734999 0.088604756 0.020072255 0.113734074 0.02384838 0.12497598 -0.03316324 -0.018717686
-0.06725977 -0.030860312 0.071653195 -0.038055163 0.086489215 0.07388914 0.04633538 0.0046171276
0.05601003 0.12781669 0.0041960953 0.066027194 0.025969073 0.060822286 0.034406055 0.031018626
0.072153986 0.068249926 -0.010728469 0.045289367 0.016131949 0.07316522 -0.0120017575 -0.028137207
0.012875961 -0.0378013 0.052751616 0.069907196 0.024066824 0.031411953 0.0039273836 0.05270969
0.07663806 0.11920623 0.08881744 0.009086147 -0.05146995 0.0039093145 -0.0153696425 -0.01569

lstm.bias_hh_l0 f4 [512]
00000000: 5e3d 6cbc 42a5 59ba 73ac c73d 0090 c2bc
00000010: fa31 0abb b5f4 39bc a2c7 083d 74c5 a93d
00000020: 7f82 d73d 8449 bfbc 41a4 d93a 9ce7 b33d
00000030: 6be3 c83d cc9f 023e 0507 503c fe0c 3cbd
00000040: ee41 483c 8c6c fcb9 4a55 633c 1454 163b
00000050: ab50 7ebd 9637 3abc c2c4 8b3d 7183 d23d
00000060: 4a91 e33b 8b91 babb a72d 13bd 8e64 f93d
00000070: 35a5 c03d 9003 58bb 6e9b 8ebc 2e45 8e3d
00000080: 4546 183d 8c02 db3d 3cbe 913d 29cd 323d
00000090: 8334 35bc 7ff3 933d 0e9e 9bbc 8667 e63c
000000a0: b239 b63c 51f4 4abd bc82 8a3d 9574 88bb
000000b0: 8f0e 5b3d 9eda 573d 5424 043d 0599 fe3d
000000c0: 5df1 c23d 2b5d 1c3d 0229 983c 7ab8 653d
000000d0: 0a06 d4bc ddca dd3c 2e42 c63d 8251 463d
000000e0: 8d90 833d bffc a03d b38d e2bb fc76 a03c
000000f0: c577 843d 0eed 9fbb 8b45 303d 0afd 86bc
00000100: de64 b73d 6bfb a83d 1b12 55bb 7358 833d
00000110: dcb2 bc3d e215 fc3d 3b12 9e3d d503 913d
00000120: f018 ea3c 1be7 44bd 2e39 c23d d311 80bb
00000130: e36a 1e3d 4299 25bd 976e ba3d 5858 43bd
00000140: b093 6cbd 173d a33b 1145 1ebd 1cab 8ebc
00000150: a188 6a3c e228 08bb 0ca1 a0bc a7e2 bdbc
00000160: 385a 6a3d 049a 033e c4b6 86bc b252 b53d
00000170: e5bf 8f3c 30f6 18bd 056c c8bc d11a b13d
00000180: 0fed a03d 5be4 10bb cdaa e13c 503f f33c
00000190: 7c42 d53d 3e55 a23d d5b6 d53d c14b a83d
000001a0: 9695 d73d 5613 d43c c522 a03d 785a f53c
000001b0: fbca bb3c dd35 17bb 4027 c63c be24 593d
000001c0: b44a 47bd ff4a 8f3b 6d10 933c 5a72 ff3c
000001d0: e884 063d f13f 7e3d db18 143d eeed 78bc
000001e0: 5b32 b43d ddda ca3d 7a58 3ebb 6773 1f3d
000001f0: b133 443d 8286 aa3c 0c99 993d 2c82 8bbd
00000200: 6d8e 0e3e b7a0 bb3c 4c1e 64bd 3f52 3abd
00000210: ee59 0bbd 7845 083e 6b3b 503d ffe9 cc3d
00000220: 8b3e 743d 000e 033c ac1f 023e bc26 463d
00000230: 1633 6abd 2c56 283d 3ed2 49bd 10fd 23bc
00000240: 40fb 6c3b 8380 b73d cad8 bbbc 6c79 d2bc
00000250: 46ae 8cbc 5b2d c2bc b7c9 903d 8e58 d0bc
00000260: 958e 093d da78 33bc a449 71bc 1b9c 0b3d
00000270: b17b 583d 856c 17bd 0ed3 8f3d 1d7d 71bc
00000280: dac2 cfba c114 3a3d c19e ee3c 3fa0 4b3c
00000290: 8f4d d03d 4b85 693d 59a0 7f3d 17d4 913d
000002a0: 654b 193d 1b06 a33d d0ad 56bd 2368 82bc
000002b0: 4fb2 e03c 17b8 02bc df85 9eba f4a7 8cbc
000002c0: 1fd0 8b3d 908e b03d 5319 203d 981e 23bd
000002d0: c392 8dbd 57a7 f73d b0ce 65bd 954f 813c
000002e0: 6c21 c33d 6b46 213d 1c14 e93d 8259 0fbd
000002f0: 1397 acbc 1137 653d f77c 473c 0409 363b
00000300: 6e19 753c d7b6 013b 74d8 0c3e dc56 8a3d
00000310: 7e8b f83d 5c95 013b 1783 953d 9047 a13b
00000320: abd5 a23c 190d c93c 2973 3d3d 49ee ba3b
00000330: 9e29 71bd 79f7 cf3d 6cb2 39bd d731 2dbc
00000340: 4998 68bd 8b17 c03d c0d1 d93d b415 af3d
00000350: 890d a1bc cf35 1bbd 8729 63bc c4fd 453c
00000360: f268 203d 20fb e83d 61d0 943d a396 283d
00000370: 2660 aa3d 4bdf 1e3c 3b3a 373d e20e 3ebd
00000380: 67b5 35bd d909 c83d b174 82bc 33d1 a03d
00000390: d7fd 3ebd c21b 293d 4183 133d d402 213b
000003a0: 6c22 5fbd dea3 5f3d 13d7 34bd f2e5 16bd
000003b0: eccf 823d 5134 b63d 4cca 573d 3d94 ebbc
000003c0: ef06 b93d 78be 873d dde5 213e 35d8 903d
000003d0: 664f b23c e7ec 033e b4d3 ab3d 32a8 12bc
000003e0: 5c1c 5cbd 2419 d13d b8d3 e13d c7a1 f4bc
000003f0: 28da 543d 6152 6b3d d4e2 3ebd 1218 febc
-0.014418928 -0.00083025184 0.09749689 -0.023750305 -0.0021086917 -0.011349847 0.03339351 0.08289614
0.10522937 -0.023350485 0.0016604738 0.0878441 0.098090015 0.1275627 0.012696986 -0.045910828
0.01222275 -0.0004814606 0.013875315 0.0022938298 -0.06208865 -0.011365792 0.06824638 0.10278977
0.00694481 -0.0056936196 -0.03593221 0.121773824 0.09406511 -0.0032961108 -0.017408099 0.06946789
0.03717639 0.10693845 0.071163625 0.043652687 -0.011059883 0.072241776 -0.018996265 0.028125536
0.022244308 -0.049549405 0.06763217 -0.0041642883 0.05348068 0.052698724 0.032261208 0.1243153
0.09518693 0.03817479 0.018574242 0.056084134 -0.025881786 0.027074272 0.096805915 0.048417576
0.06424055 0.078607075 -0.0069138645 0.019587986 0.06468157 -0.004880554 0.04303507 -0.01647808
0.08954786 0.08251079 -0.0032512012 0.06413355 0.09213802 0.12308861 0.07718321 0.07080809
0.028576344 -0.04807196 0.094835624 -0.003908375 0.038676154 -0.04042936 0.091031246 -0.047691673
-0.057758033 0.0049816477 -0.038640086 -0.017415576 0.014314801 -0.0020776321 -0.019608043 -0.023179365
0.057214946 0.12851721 -0.016444571 0.088536635 0.017547557 -0.037344158 -0.02446557 0.08647693
0.07857715 -0.0022108767 0.027547264 0.029693276 0.104130715 0.07926415 0.10435263 0.08217574
0.10526578 0.025888126 0.07819132 0.029950365 0.022923937 -0.0023072877 0.024188638 0.053013556
-0.048655227 0.004372954 0.017952168 0.031182457 0.032841593 0.062072698 0.036156517 -0.015193446
0.08798667 0.09905026 -0.0029044435 0.038928416 0.04790086 0.020816091 0.074998945 -0.06811938
0.13921519 0.022903783 -0.055692956 -0.045488592 -0.03402131 0.1330775 0.050837915 0.10005569
0.059629958 0.007998943 0.12707394 0.048376784 -0.057177626 0.041097805 -0.04927277 -0.010009065
0.00361605 0.089600585 -0.022930522 -0.025692664 -0.017172944 -0.023703268 0.07069724 -0.025432851
0.033583242 -0.010954106 -0.01472703 0.03408442 0.052852336 -0.036968727 0.07022677 -0.014739302
-0.0015850917 0.04542995 0.029128434 0.012428342 0.10171043 0.057011884 0.06240878 0.07120531
0.037425417 0.07960149 -0.052411854 -0.015918797 0.027428774 -0.007978461 -0.001209434 -0.01716993
0.06826805 0.08620942 0.03908665 -0.0398241 -0.06912758 0.120924644 -0.056105316 0.015785018
0.09527859 0.039373796 0.11380789 -0.03499747 -0.021068132 0.05596072 0.01217579 0.002777637
0.014959676 0.001979282 0.13754445 0.06754848 0.12135981 0.0019772863 0.07300394 0.004921861
0.019877275 0.024542378 0.046252403 0.0057046753 -0.05887758 0.101546235 -0.045336172 -0.010570965
-0.056785855 0.093794905 0.1063571 0.085490614 -0.019659774 -0.037893113 -0.013864881 0.012084428
0.039162584 0.11376023 0.072663076 0.041159283 0.0831912 0.009696792 0.044733267 -0.046400912
-0.044362452 0.09767503 -0.015924783 0.078524016 -0.0466288 0.041286238 0.036013845 0.0024568336
-0.054476187 0.054599635 -0.044150423 -0.036840387 0.06387314 0.08896697 0.05268316 -0.028757209
0.090345256 0.06628126 0.15810342 0.07072488 0.021766376 0.1288334 0.083899885 -0.008951234
-0.053737983 0.10209873 0.1102671 -0.029862298 0.051965863 0.05745161 -0.04660304 -0.031017337

lstm.weight_ih_l1 f4 [512, 128]
00000000: 56c8 a73c ff5b 883d fae4 953d 54c0 f43c
00000010: fd15 4dbd 82c1 b3b9 df5a 3a3c e802 29bd
00000020: 265a 183d 6ada 4e3d bd29 98bd a697 2bbd
00000030: 4712 2d3d 7d94 323d b647 f9bd a23d 5a3c
00000040: e205 213d 44f0 b9bd 4ef7 7fbd 7d81 c5bc
00000050: 39d8 ab3d 6ffc c1bb f649 00b9 31a9 ed3c
00000060: ec48 f93c 9b07 6a3d 7d5f 983c 4613 ca3d
00000070: 9405 61bc a2c6 97bd e220 9bbc ba0b c73c
00000080: 6aae 6dbd a65e 6a3d db98 033d 0195 9fbd
00000090: 8c21 e3bc 4fc3 53bd 0966 ad3d 0589 863d
000000a0: c000 9dbd 499e af3d f55a 4bbd ec2f 343c
000000b0: 4e0d 4b3d d8b9 3fbc 3356 b8bd 23ed 16bd
000000c0: eb94 283d b9f7 d73d 59ab 8c3d a8bd eb3c
000000d0: 2cf2 f0bc 8e06 28bd ab77 8c3d fefc c13a
000000e0: b9b2 a2bd ec8d f6bd 0459 003e 6154 553d
000000f0: c020 85bd eec6 39bd e9d5 91bc a510 0a3d
00000100: 8700 b6bc 29e4 6cbc 292a 00be b1ea 97bd
00000110: 154d 99b9 0f98 103b 322c e53d d180 b6bc
00000120: 1d70 adbd d22f 10bd 31d7 38bd 60f1 d6bb
00000130: 8225 753c d0e2 d83d 100c a13c 2621 663d
00000140: 9343 a7bb 26a8 3d3c 5e4b 0ebd 2131 8ebc
00000150: 14cf 433d c66e 2abc 7b9b 2abc 94e6 583c
00000160: 0190 d73a 721a 55bd 1ad1 fd3a 3c2d d0bd
00000170: 515d 523c f5c2 9b3d 007e ffbd 223c 913d
00000180: 829b 8abd 7e3c cb3c 077b b83d 85be 773d
00000190: ee09 35bd d335 f23d 8d0d 70bd bcb4 b8bd
000001a0: f625 813d e066 b23d 6c58 593d ae02 5f3d
000001b0: 26e1 8a3d c3b4 c53c 22c0 c9bc 0b28 483c
000001c0: 9c5f dbbd 3eab a83d acec 823c e4ea 0cbd
000001d0: c199 513d f90c 6cbc fd2e 9939 b4e6 0c3d
000001e0: a807 913d 0def 3abd 06f5 ad3d 58fa b83d
000001f0: 5587 633c 45ef 34bd e68c 72bd aadf 99bd
00000200: 08dd 39bd cac7 40bd b748 8bbb 188c 253c
00000210: 4bf0 dabc 795b 473d 215b 983d 211a e93d
00000220: 36f6 69bd 6b8b dcbb 7b62 af3d 49e3 6b3b
00000230: 5bfa ac3d 897f f93c 79c3 543d ec18 87bb
00000240: 1fd2 13bd 8114 333d 626c 573d 5b08 763d
00000250: 24ac 5e3d 3b21 8e3d 7666 a2bb 536b 563d
00000260: b671 873d 4ea8 12bd 135f 91bd ef3e 123d
00000270: c75d 113c 8d33 2abd ee89 b73c 5fbe 7fbd
00000280: 88c5 cb3b e595 8bbd da69 f7bb 9860 083b
00000290: 9d79 373d 8d66 e93a 8e4a 8fbd cc0f 30bb
000002a0: 1d6b 5b3c 58a1 f03b 2ed6 283d 2532 843d
000002b0: d949 1bbc 751c fb3c 24be f7bc 6c1d d8bc
000002c0: a028 f13c 30f4 833d 3841 37bd 8eae 9c3b
000002d0: 78eb 433d 95e5 573c 8bea 68bd 5a39 813b
000002e0: 5f02 9a3d 4fa7 0ebd ae26 b83d 0d47 3dbd
000002f0: 4c65 b33d 39e8 a23d e7e0 ddba 3557 55bd
00000300: 1f19 443d f9a4 3e3d 7f11 2cbd bd23 49bc
00000310: 1956 b5ba 470c 413d ce77 5b3d 568c f53c
00000320: dfb8 113d 5fb0 243d 17c7 1cbd a34b 963d
00000330: 383f 20bd 5827 23bd 80ea b9bd e53f a4bd
00000340: c824 b83d 532d fd3c 1342 1dbd 968a c03d
00000350: 9e64 363d b726 94bd a978 9c3d b507 8bbd
00000360: 0521 633d 85a3 743d 44bd 943c 3379 923d
00000370: 4ace a2bc 8d1a e33d ff14 a8bc 25d8 1c3d
00000380: e722 9d3d 3bc2 79bd 346e 863d ed37 86bd
00000390: 9f1a 2b3c 2c0e 16bd cdca 7fbd 58df 663c
000003a0: 65ee ac3d 673a 6b3d 19a6 953d 843c 8f3c
000003b0: 0f91 3bbc 2e0d 14bc d4fa f5bc 2479 38bd
000003c0: 29ea 72bd 02f3 353a 323e 0c3d 65a8 693d
000003d0: e20d 55bd 910b 0b3d 11db edbc 7063 47bd
000003e0: 4cb2 52bd 3512 793d 111c 943c 0b28 61bc
000003f0: 62e0 a53c cf88 0c3d 61c8 913c 096a 49bd
0.02048127 0.06658172 0.073190644 0.029876865 -0.050069798 -0.00034285715 0.011374204 -0.041262537
0.037195347 0.050501265 -0.07429836 -0.04189267 0.04225376 0.04359864 -0.12171881 0.0133203585
0.03931225 -0.0907903 -0.062491708 -0.024109596 0.083908506 -0.005919985 -0.00012234584 0.02901134
0.03043028 0.05713616 0.01860022 0.09866957 -0.01373424 -0.07410933 -0.018936578 0.024297584
-0.058027662 0.05721917 0.032128196 -0.07792092 -0.027725957 -0.051699933 0.08466727 0.06569103
-0.07666159 0.085751124 -0.04964729 0.010997754 0.049573235 -0.011702023 -0.09000816 -0.036847245
0.041157644 0.10545296 0.068686195 0.028776959 -0.029412352 -0.041021876 0.06858762 0.0014800129
-0.07944245 -0.12038788 0.12533957 0.052082423 -0.06500387 -0.04535573 -0.017802196 0.03370728
-0.022217048 -0.0144586945 -0.12516083 -0.07417811 -0.00029239865 0.002206329 0.1119007 -0.022278221
-0.084686495 -0.035201855 -0.045127098 -0.006559536 0.014962556 0.10590136 0.019659072 0.056183957
-0.005104491 0.011575734 -0.034739845 -0.01735741 0.047804907 -0.010402387 -0.010413046 0.013238568
0.0016446115 -0.052027173 0.0019364685 -0.10164878 0.012839631 0.076055445 -0.124752045 0.070915475
-0.06767942 0.024809118 0.090078406 0.060484428 -0.044198923 0.118266724 -0.058606673 -0.09018847
0.063060686 0.08711028 0.05306284 0.054445915 0.06781225 0.024134045 -0.024627749 0.012216578
-0.107115954 0.08235787 0.015981995 -0.034403697 0.05117202 -0.01440739 0.00029217443 0.034399703
0.070815384 -0.045638133 0.08494 0.09032124 0.013887246 -0.044173498 -0.059216402 -0.07513364
-0.045376807 -0.047065534 -0.0042506116 0.010104202 -0.026725909 0.04867122 0.074392565 0.11381937
-0.05711957 -0.006730487 0.085637055 0.0035993627 0.08446189 0.030456321 0.05194423 -0.004122844
-0.03608906 0.043720726 0.052593596 0.060066562 0.054363385 0.06939932 -0.004956062 0.052348446
0.066134855 -0.03580504 -0.07098212 0.03570455 0.008872456 -0.04155307 0.022404637 -0.06243741
0.006218616 -0.068156995 -0.0075504603 0.0020809527 0.044793714 0.0017807052 -0.06996642 -0.0026864884
0.013392237 0.0073434524 0.041219883 0.06454877 -0.009478056 0.030653218 -0.030242033 -0.026381217
0.029438317 0.064430594 -0.04473993 0.0047815507 0.047831982 0.013177295 -0.056864303 0.0039436044
0.075199835 -0.034827527 0.089917526 -0.046210337 0.08759555 0.07954449 -0.0016927988 -0.05208512
0.04787552 0.04654405 -0.042008873 -0.012276587 -0.0013834863 0.04713085 0.05358105 0.029974144
0.035576697 0.040207263 -0.038275804 0.07338645 -0.03912279 -0.039832443 -0.090779305 -0.080199994
0.089913905 0.030905401 -0.03839309 0.09401433 0.04452955 -0.07233947 0.076402016 -0.067885794
0.05545141 0.059726257 0.018156655 0.07152023 -0.019873757 0.110890485 -0.020517824 0.03829207
0.07672673 -0.06097625 0.06563988 -0.06553636 0.010443359 -0.03663461 -0.062449265 0.014091335
0.08443908 0.057428744 0.07307071 0.01748491 -0.011448159 -0.009036345 -0.03002683 -0.045037404
-0.059305344 0.0006940813 0.034239 0.05704536 -0.052015193 0.033946577 -0.029035123 -0.048678815
-0.05143957 0.06080838 0.01807979 -0.013742457 0.020248596 0.03431016 0.017795743 -0.04917339

lstm.weight_hh_l1 f4 [512, 128]
00000000: 2556 b6bd 6165 4bbd f2e0 893c 6315 9939
00000010: 6bd8 913d b5dd dcbc b1e8 90bd 1918 a0bc
00000020: e969 24bd 6910 713d f529 993d 02eb b03d
00000030: b28e 023d 1970 cbbc 4211 3fbc 7e9d 8fbd
00000040: 5f21 be3d 8463 a7bc ff8f 42bd 3011 8dbd
00000050: 54ee 0ebb f399 0d3c d3b6 7dbd 965a 6bbd
00000060: fe46 4fbd 35f1 36bd 992c c23b 0c50 d6bc
00000070: 72b0 d23c 730c 843d 6b63 a9bd 2a16 8b3d
00000080: ea3b 843d dbb2 943d fed0 10bd d114 0d3d
00000090: 69b5 343d 0ddb 55bc c8d5 63bb ca1b 0a3c
000000a0: c194 693d 7422 783c 9c63 73bc 8039 14bc
000000b0: f79d 743d f873 ccbc bd0a cf3d 6383 cdba
000000c0: 262f 84bd 2340 dabc 43a3 a33d a5c7 703d
000000d0: cf41 12bd 264a 58bd b5af 69bc 2f2e 5b3d
000000e0: eb15 03bd f73c 973d 6c8b 3d3d d968 6c3d
000000f0: de0f 4e3d f74d cebc 24af 813d 106d f3bc
00000100: 30de 73bd 0133 173d 83ba ed3c 3bc6 923c
00000110: c581 c6bc 8f09 03bd b401 8abd 00f6 81bd
00000120: 6729 06bd a325 3d3c 5d7d 3cbd 3cf0 9fbd
00000130: 1db2 323d 1a15 a93b 61e0 2fbd f5bd 393d
00000140: 3cc7 25bd 5bb8 543d e581 d03d a8a8 d73b
00000150: 0a62 83bc 79c4 4dbc 0ca8 4ebd 8c93 343d
00000160: 6527 03bd 6b64 013d 83f3 ccbc 8cc9 a6bd
00000170: 9f5f d43c 119b 333b 9a69 c83d 9225 3b3d
00000180: d0d6 273d 2431 31bd 69e1 b6bc c29a f6bc
00000190: 0232 83bc 6e52 35ba 1e38 c2bc 2578 b6bc
000001a0: f29a b23c 8cbe 47ba 5aac 38bd 3ae1 783d
000001b0: c4c0 45bd 8a98 9d3d 2891 aa3d 73a7 efbc
000001c0: 8bab 69bd 73bf 81bc 6cac 8bbc 437b 12bc
000001d0: 5db6 8c3d e5f3 4cbd b05c 8d3d ca3b a6bd
000001e0: da2f fcbc 6e99 28bb 449b 673c 9623 7abd
000001f0: 043f c83d 4125 c93d 2d0b b73d 4c73 bf3d
00000200: 22fe b53b 962e 0c3d 7687 c63d 01d1 5d3c
00000210: 4c0f 713d a569 d73c 6f97 8f3c f4be f23c
00000220: 8ee5 5e3d 4074 70bd a247 4dbc 68dc 9abd
00000230: f21e 6ebc 37f9 53bd d11a 09bd 3790 6dbd
00000240: 1783 6a3d fe7e 89bd 8920 cab9 cf27 6bbb
00000250: 078d 213d 500d 693d b814 51bd 9ca7 c3bd
00000260: 900c 97bd fcaa 3cbd 47f8 093e c2a3 c9bb
00000270: 98b6 983c cee2 733d 8b47 12bd 9ddb a63c
00000280: b8aa 91bd 0071 743c 6f6a 783a bbc8 12bd
00000290: 2572 d5bc 2101 8dbc 84bf 82bd 8f90 cdbd
000002a0: ccbc 70bd 5abb 6ebd eb93 9b3d ac10 8c3d
000002b0: 5644 c33d ca94 06bc 86cb b03c ef97 6d3b
000002c0: 20a9 863d f577 3e3d f18b 823d 7226 b5bd
000002d0: 1512 a03d 4c84 cd3d a609 c2bc fea2 b73d
000002e0: ebf7 1e3d e190 d93d 79c7 2bbc 006b 083d
000002f0: e17f 7dbd 030d 32bc ec39 94bb ee59 143d
00000300: 7050 9c3c 398a 8c3c 8069 29bd 9b1b 9f3c
00000310: 7369 82bd a7b4 94bd 8f65 743d 15e3 663d
00000320: 370e 373c c5c6 713d e8b4 fbbb d516 f83b
00000330: 661a 0d3d a115 aabc 5971 493d 660c bb3d
00000340: 7b34 99bd 4455 80bd 8bf3 60bd c907 6abc
00000350: 765d 12bd 98b8 4fbd 5cb2 6b3d 6bd9 7a3c
00000360: 0313 5d3d 5f02 07bd 562e 03bc 5e54 633d
00000370: 0e28 313d a913 c63c f791 46bd aa9e a73d
00000380: 7b63 36bd 8ba4 a23d c954 de3b 2af4 0fbd
00000390: 0654 43bd 63e1 1e3d 7ed7 533d 4709 a13b
000003a0: 122d eeba 20c2 533b 467b 933c 48a9 8dba
000003b0: 11b2 8abd f7c8 53bd aa13 5a3d e244 be3d
000003c0: 0ded 693d 7a2a a03d ae03 c0bd 43a0 933c
000003d0: 4920 443d bd83 59bd 75d2 8b3d a059 ec3c
000003e0: ebfc 9d3d e2f2 6c3d c2e5 fbbc 26a9 493d
000003f0: 1718 9f3d ff89 39bd df83 0bbc b6c5 113b
-0.089031495 -0.04965723 0.016830895 0.00029198368 0.071213566 -0.026961187 -0.07075632 -0.01954274
-0.040140066 0.05885354 0.07478706 0.08638574 0.031874366 -0.024833726 -0.011661829 -0.07012461
0.09283709 -0.020433195 -0.047500607 -0.06888044 -0.0021809535 0.008642661 -0.061941933 -0.057459436
-0.050604813 -0.044663627 0.0059257266 -0.026161216 0.025718901 0.06447687 -0.082709156 0.06791337
0.0645674 0.072606765 -0.03535556 0.03444368 0.04411832 -0.013052714 -0.0034764875 0.008429477
0.05702663 0.015144933 -0.014855292 -0.009046912 0.05972096 -0.024957642 0.1010947 -0.0015679415
-0.06454305 -0.02664191 0.07990124 0.058784146 -0.03570729 -0.05280509 -0.014263083 0.05351084
-0.032003324 0.07384675 0.04627554 0.057717178 0.0503081 -0.02518366 0.063322335 -0.029715091
-0.059538066 0.036913875 0.0290196 0.01791679 -0.0242318 -0.031991538 -0.06738606 -0.06345749
-0.032754328 0.011544618 -0.046017993 -0.07809493 0.043626893 0.005159986 -0.042938594 0.045347173
-0.040473208 0.051933628 0.101810254 0.0065813847 -0.01603796 -0.01255905 -0.05045323 0.044086024
-0.03201999 0.031589907 -0.02501846 -0.08143911 0.025924502 0.002740566 0.09785767 0.045690127
0.040976346 -0.043259755 -0.02232428 -0.030103091 -0.016015057 -0.0006916885 -0.0237084 -0.022274086
0.0218024 -0.0007619641 -0.045086242 0.060761668 -0.04827954 0.0769511 0.083284676 -0.02925465
-0.05704836 -0.01583836 -0.01704999 -0.008940521 0.068707205 -0.050037283 0.06902444 -0.081168726
-0.030784536 -0.0025726217 0.014136139 -0.061069094 0.09777644 0.09821559 0.089376785 0.09348163
0.0055539766 0.034224115 0.09693806 0.0135386 0.05885248 0.026295492 0.017528264 0.02963207
0.05441814 -0.058704615 -0.012529286 -0.075615704 -0.014533745 -0.05175134 -0.03347284 -0.057998862
0.057253923 -0.06713675 -0.00038552683 -0.0035881882 0.039441135 0.05689746 -0.05104515 -0.09553453
-0.07375443 -0.0460615 0.13473617 -0.0061535547 0.018641755 0.05954247 -0.03571276 0.020368392
-0.0711264 0.014919519 0.0009476309 -0.035835963 -0.026055405 -0.017212452 -0.06384185 -0.10037338
-0.0587738 -0.05828414 0.075965725 0.068391174 0.095345184 -0.008214185 0.021581423 0.003625389
0.06575227 0.04650112 0.06374348 -0.088452235 0.07815949 0.10034999 -0.023686241 0.08966635
0.03881065 0.106233366 -0.01048457 0.03330517 -0.061889533 -0.01086736 -0.0045235064 0.036218576
0.019081324 0.017155753 -0.04136038 0.019422343 -0.06367769 -0.07261019 0.059667166 0.056368906
0.011172823 0.059027452 -0.007681478 0.007571081 0.034449004 -0.020762267 0.049180362 0.09133224
-0.07480713 -0.06266263 -0.05491976 -0.014284083 -0.035733663 -0.05071315 0.057543144 0.015310626
0.05397321 -0.032961246 -0.008006653 0.05550038 0.04325109 0.024179297 -0.048479047 0.0818456
-0.044528466 0.0794154 0.0067850095 -0.035144962 -0.047687553 0.038789164 0.05171918 0.004914436
-0.0018171391 0.0032311752 0.018003117 -0.0010807896 -0.06772245 -0.051705327 0.05324141 0.09290482
0.057110835 0.07820602 -0.09375702 0.018020755 0.047882352 -0.05310415 0.06827251 0.02885133
0.07714256 0.05784882 -0.030749205 0.04923358 0.07768267 -0.04529762 -0.008515327 0.002224309

lstm.bias_ih_l1 f4 [512]
00000000: 1488 d33d 23f7 7dbc 38fc 70bd 5377 c63d
00000010: ae7b 903d 5242 a73d 06a7 9c3d 3b64 823d
00000020: 040c 6f3d 3978 49bd 5d03 b13d bc70 60bd
00000030: 5151 7b3d 419b 563c 168d 613d 5b25 88bc
00000040: c572 593d 4ff7 43bd 8327 87bc 2471 b13d
00000050: 8424 41bd df29 5cbc 2f0d 913c 9d1c 91bc
00000060: 3bc8 2abc 2222 93bd 007c a33d aedb eabc
00000070: 16f7 7abd 546e 9e3d 2dcc c23c b036 ffbc
00000080: 0f0e ee3c 6898 513b e42e b63d 17c8 333d
00000090: ad38 19bd 204f 263d 81b6 653d b717 8dbd
000000a0: 3261 1e3d aecb 81bd a657 b63d 29bc 5c3d
000000b0: 33da 63bc 59a8 8cbd 71a2 96bc 07ad ac3d
000000c0: 4c1d 0bbd 7b22 ae3c eaac 96bd 6296 ac3d
000000d0: 4321 cb3d d912 af3d 8386 a73c 3de3 b03d
000000e0: 946c 923d e3d5 85bd 4d39 cabc b4bf 82bc
000000f0: 020c bebb a5d1 8fbd 9300 8abc edb2 acbb
00000100: 0f71 8a3d d4d6 a73d 1457 14bd 0038 c83c
00000110: b1ab 86bd 4275 0cbd 4102 68bd 0ebc b1bc
00000120: a3bf b63d f531 b23d 19aa 1c3d 3a4a e73b
00000130: e130 45bd 83df 62bd 458e 2b3d 642e 943c
00000140: 3c31 96bd 8565 2b3d 1137 3f3d 50f2 713d
00000150: a79a bc3c 3180 c13d 2d96 80bd 4f48 27bd
00000160: 34da 983d bb90 943d f641 f1bc e3af 4cbd
00000170: 9930 0d3d f468 50bc eed8 a13d 88e0 89bd
00000180: 80ce 9b3d de24 6c3d ce0a 73bd 8797 95bd
00000190: 84ae 973d d9f9 17bd e8b8 8bbd ccf8 b53d
000001a0: 0f67 2dbd 6317 48bc dbcd f0bc 5add b83c
000001b0: 31b0 ce3d 5682 c93d 1425 0ebd 99e0 293b
000001c0: 129b f9bc 1a9f 383d 125b 443d 3c25 8fbd
000001d0: 53e5 413c 3e60 ad3d ce29 293d e3ed f43c
000001e0: 316a 8a3d 288d f83c a50e 763a 8b65 3a3d
000001f0: 802d 933d 632d 043d 8406 8e3d 8f4c 65bd
00000200: 79e9 15bd b701 a63d 643d 8f3a cfe4 743d
00000210: f86a 8bbd 9df0 903d 52fa 80bd 5a58 25bd
00000220: a81e debb 24b1 c43c bdbd 7dbd cbe2 23bd
00000230: 138e b53d 9ec9 b83d 8d71 58bc 7bec 6b3c
00000240: 5824 4cbd 514c d4bc dbd4 9b3d 560f f13b
00000250: 7297 18bc acf8 403b 053f 48bc 808f 9cbd
00000260: 9ff4 c53d 386b cbbc 7f0a 30bb ede3 36bd
00000270: 7c09 14bd 6980 2cbd e9ec 2d3d b338 203d
00000280: aa7b d23d e508 37bd 8323 703d 4d29 b03d
00000290: 26b5 9a3d 7471 9f3d 8804 5cbd 76b1 743a
000002a0: 8981 a5bc e350 1fbd 5dc9 cebc ef0d 29bd
000002b0: 4b7a 45bd 5bdd d2bc 9fbf a83d ebe6 423d
000002c0: 7715 923d 90d5 8cbd 566c 47bd b5e8 b13c
000002d0: 1b84 b23c 9f84 40bd 86d8 953d 3385 86bc
000002e0: a866 903d 4d04 58bc 5917 193d 3bfe 213c
000002f0: a61a aebd 6185 1cbd e343 8f3d 3429 a73c
00000300: 9cdd d83c bd96 763d 29ba 993d 0e85 7c3d
00000310: 5a47 0ebd 53a0 40bd 6eff c03d 0707 2bbc
00000320: fc01 9a3d da53 3f3d 062b a83d e76f e63c
00000330: 63eb 74bc 5c84 c83d 0066 5bbd 54ce f9bc
00000340: 389d 143d 946f eb3c 15dd 8b3d a66c 85bc
00000350: 7d5a 09bc 16ab 8e3d 95ad ac3d d65e dc3d
00000360: 430a 943d 9c42 1d3d 8018 a73d 9562 793d
00000370: 62ac 28bb a15a a93d f1d7 ba3d 5731 a2bc
00000380: fa33 24bd ecd9 9ebd 8cdb 013d 6103 7cbd
00000390: 5c79 8a3c 2fe8 9e3d a95f 753d e95a f13c
000003a0: 61b5 a43d 5f30 963d 2e09 263c dbde 52bd
000003b0: 9a81 02bd 811d e53d 6433 9f3c 18ae 0bbd
000003c0: fb1b 053d 8522 02bd 7790 5b3d aede 273d
000003d0: 35b7 03ba b79b 943d ad2e 9a3d 84e2 1fbd
000003e0: ac43 8b3d 4860 863d 0ff5 b43d 1833 6d3d
000003f0: bd7d 243d 63f4 b93d be91 99bc 8621 ae3c
0.10328689 -0.0155008165 -0.058834285 0.09690728 0.0705484 0.081669465 0.07649045 0.06366774
0.05836107 -0.04918692 0.086432196 -0.054795012 0.061356846 0.013098539 0.05506619 -0.016619375
0.05308797 -0.047843274 -0.016498333 0.08664158 -0.047153965 -0.013437717 0.017706482 -0.01771384
-0.010423715 -0.07184245 0.079826355 -0.028669205 -0.061270796 0.07735887 0.023779 -0.031154007
0.029059438 0.003198171 0.088956624 0.043891992 -0.037407566 0.040602803 0.056082252 -0.06889289
0.03866691 -0.06337677 0.08903436 0.05389038 -0.013907003 -0.06868047 -0.018388005 0.0843144
-0.033963487 0.021256676 -0.073571995 0.08427121 0.099184535 0.08548517 0.020449882 0.08637092
0.07149616 -0.06534936 -0.024685526 -0.015960552 -0.0057997713 -0.070224084 -0.016845977 -0.005270353
0.067598455 0.08195272 -0.036215857 0.024440765 -0.06575716 -0.034291513 -0.056642774 -0.021696117
0.089232706 0.08700935 0.038248155 0.007058409 -0.048142318 -0.05538894 0.041883726 0.018088527
-0.073336095 0.041844863 0.046683375 0.059068978 0.023022963 0.09448279 -0.06278644 -0.040840443
0.07463494 0.07254168 -0.029450398 -0.049972426 0.034470174 -0.012720335 0.07902704 -0.06732279
0.07607746 0.057652347 -0.059336476 -0.07304292 0.07406333 -0.037103508 -0.068223774 0.08885345
-0.042334612 -0.012212607 -0.029395035 0.022566486 0.100921996 0.09839313 -0.03470333 0.0025921224
-0.030469451 0.045073606 0.047938414 -0.06989524 0.01183446 0.08465622 0.041299634 0.02989859
0.06758536 0.030340746 0.00093863375 0.045506995 0.07186413 0.032269847 0.069348365 -0.055981215
-0.03659961 0.08105796 0.001092833 0.05978852 -0.06807512 0.07077143 -0.06297745 -0.04036746
-0.006778557 0.024010248 -0.061948527 -0.04001121 0.08864989 0.090228304 -0.013210666 0.014399643
-0.049839348 -0.025915297 0.07608958 0.0073565645 -0.009313451 0.0029445095 -0.012222056 -0.07644558
0.096657984 -0.0248314 -0.0026861725 -0.04465096 -0.036141858 -0.04211465 0.042462263 0.039116573
0.10277493 -0.044686217 0.058627617 0.086016275 0.075540826 0.07785311 -0.05371526 0.0009334305
-0.020203369 -0.0388955 -0.025242502 -0.041273054 -0.04821233 -0.025740316 0.08239674 0.0475835
0.07133 -0.06876671 -0.0486873 0.021717409 0.021791508 -0.047001477 0.07316689 -0.016420936
0.0705083 -0.013184619 0.03737578 0.009887273 -0.085011765 -0.038213138 0.0699537 0.02040539
0.02647286 0.06020235 0.0750621 0.06165033 -0.034736015 -0.047027897 0.09423719 -0.010438687
0.0751991 0.046710826 0.08211331 0.028129531 -0.014948699 0.097908705 -0.05356407 -0.030493893
0.036282748 0.028739728 0.068292774 -0.01628716 -0.0083833905 0.06966226 0.08431546 0.10760276
0.0722852 0.0383936 0.0815897 0.06088503 -0.0025737514 0.08269239 0.09123219 -0.019798918
-0.04008863 -0.07756409 0.031703517 -0.06152666 0.016903572 0.07759129 0.05990568 0.029462295
0.08042408 0.07333445 0.010134025 -0.051482063 -0.03186188 0.11187268 0.019433685 -0.034101576
0.032497387 -0.0317712 0.05360457 0.04098385 -0.00050245534 0.07256263 0.07528434 -0.03903438
0.06800017 0.06561333 0.08835804 0.057910055 0.040158976 0.09079816 -0.018746253 0.02125622
