Data/PredictionsData/AB25.pth (torch, 828430 bytes, 10 tensors)

lstm.weight_ih_l0 f4 [512, 13]
000000 09 aa 33 bc c3 11 6c bd 13 3a bd bc 4b 18 ba 3c
       -0.0109658325 -0.057634126 -0.023098981 0.022716662
000010 90 dd a1 bd 66 64 e8 bd f0 bd 28 bd d9 12 08 bd
       -0.07903588 -0.113472745 -0.041196764 -0.0332211
000020 47 5b d9 bc 39 1e bd 3d 94 c5 cf bd a0 11 b4 3d
       -0.026532782 0.0923428 -0.10145107 0.08792424
000030 6a a9 5c 3d 4a 70 9e 3c a7 13 8b bd 75 96 00 bd
       0.053872503 0.019340653 -0.06790858 -0.031393487
000040 3f b5 8b bc 23 dc 51 bc bd 67 3e 3d f0 2c b0 bd
       -0.017054198 -0.012808832 0.04648565 -0.08602321
000050 4b 24 97 3d ca a0 a0 3d e3 70 8e 3d fc df d1 bd
       0.07379969 0.07843168 0.06955125 -0.102478
000060 58 06 c4 bc 14 d7 e5 3d b6 dd 17 3e 12 3c 35 3d
       -0.023928806 0.112226635 0.1483067 0.04424674
000070 9d 18 a4 3d b2 3f a9 bd 6d bd 23 bd 46 fc c4 3d
       0.08012507 -0.08264102 -0.039975572 0.0961843
000080 0f 9e cb 3d ec b0 7e 3c 7c 5a 12 3e b3 3a c1 bc
       0.09942257 0.015545111 0.1429233 -0.02358756
000090 66 8e 5a bd 81 0a a3 3d 99 60 15 3c 10 d7 51 bd
       -0.053358458 0.07960988 0.009117269 -0.05123049
0000a0 d6 8d d8 3d ec d7 94 bd 38 f8 67 bd a5 ac 13 3d
       0.10573928 -0.07267746 -0.056633204 0.03605332
0000b0 d8 88 66 3c f4 56 75 bd d2 d2 bc 3d e3 3b 06 3d
       0.014070712 -0.059897378 0.09219898 0.032771956
0000c0 ad b2 fc 3d fc 44 58 bd ca c1 ed 3d c7 89 e4 3c
       0.12338767 -0.052800164 0.11609228 0.027897729
0000d0 93 9d 8b 3d ae 61 62 3d 3b b1 6c 3d 34 e2 f1 bc
       0.06817164 0.055268936 0.057786208 -0.029526807
0000e0 1e 0b 80 3c 49 c4 41 bd 2d 57 89 3d 3f 1c f1 bc
       0.015630301 -0.047306333 0.067060806 -0.029432414
0000f0 f1 3b ab 3c 9c d3 82 3d e5 b0 ce 3d c0 9c fc 3c
       0.020902606 0.063880175 0.10092334 0.030836463
000100 24 ea 8f 3d 4a be d2 3d cd 61 a7 3d 93 21 03 bd
       0.07027081 0.10290201 0.08172951 -0.03201444
000110 f5 69 3b bc 8b ea be bc 44 1d 42 3c 8c 94 e4 3d
       -0.011438836 -0.023305198 0.011847798 0.111611456
000120 60 07 62 3d ed a8 91 3d 50 16 e8 3b f5 bb 20 be
       0.055182815 0.07112298 0.007082738 -0.156967
000130 17 89 cf bd 7d fa c5 bd f3 5e 89 bc c4 93 b6 bd
       -0.1013357 -0.096669175 -0.016768908 -0.08914903
000140 3d 76 87 3c 74 c6 56 3a 24 60 1c be be 4e c7 3c
       0.016535873 0.0008193024 -0.1527105 0.02432954
000150 2b 6b 0b bd 2c fa 25 bd 57 09 81 3d 14 45 a9 3d
       -0.03403775 -0.040521786 0.063006096 0.08265129
000160 e5 4a e0 bb 6e 5d 28 3d bd 15 b2 3d 11 10 8f 3c
       -0.0068448656 0.041104726 0.086955525 0.017463716
000170 c4 c7 cd bb fb 83 6d 38 f6 e6 84 3c 9d 48 ec 3b
       -0.0062799174 5.662812e-05 0.016223412 0.0072108046
000180 ea 18 7f bc 0e 3a a3 3d e4 1c 8b 3d 9d 08 ce 3d
       -0.015569905 0.079700574 0.0679262 0.100602366
000190 fd 8b 8b 3d 3b 89 0b 3e 04 19 13 3b 13 8c 1f 3d
       0.0681381 0.13626568 0.002244533 0.038951945
0001a0 27 65 47 bc 8e 56 8a 3b c7 d2 43 3d f5 bb 30 3c
       -0.012170113 0.004221744 0.047808435 0.010787
0001b0 40 56 33 3c 69 0e 74 3d 25 26 83 3d ec a8 e0 3d
       0.010945857 0.059584055 0.0640376 0.10969719
0001c0 82 25 cf 3d 7b 40 54 bc e6 60 b9 bb c3 83 cc bd
       0.10114576 -0.0129548265 -0.005657303 -0.09986069
0001d0 c8 6b d2 3d 17 0f 36 bd d1 c8 00 3d fe 27 38 3d
       0.10274464 -0.044447985 0.031441513 0.044960015
0001e0 89 8e 5f bd 60 a9 77 3d 5c a9 f1 3c cd db 4d bd
       -0.05457929 0.060464263 0.029499702 -0.050258446
0001f0 99 3c c3 3d 7c 6f 80 3d a1 dc 35 3c 66 92 80 bc
       0.095330425 0.06271264 0.011099965 -0.015694808
000200 04 60 17 3d f0 a4 98 bd 6d 07 83 bc 06 58 b4 3d
       0.036956802 -0.07453334 -0.015994752 0.08805852
000210 76 09 3d 3d d3 5f 6d 3d 47 71 00 3d 21 59 c4 3d
       0.0461516 0.057952713 0.03135803 0.095873125
000220 ff b5 40 be 2a 63 5f 3c 11 e2 7c 3d 49 13 66 3d
       -0.18819426 0.013634482 0.06173903 0.056170736
000230 d8 e4 55 bd 64 24 66 bc d5 6b 13 bd 57 80 aa 3d
       -0.052220196 -0.014046762 -0.03599151 0.0832526
000240 d7 e6 a0 3d d1 89 8c bc 41 3a 13 bd 50 5c 8a 3c
       0.07856529 -0.01715556 -0.035944227 0.016889721
000250 7c 91 3e bd 1e 47 0b bd 36 44 f3 bc b4 8a 54 3d
       -0.046525463 -0.03400337 -0.029695611 0.05189009
000260 df 7d 56 bc 01 6c ec bd 4f 8f 82 3d ab 8c 9e bd
       -0.013091533 -0.115440376 0.0637499 -0.07741674
000270 5a c0 73 3c 89 6c 30 3e 1d 0a 90 bd 1b 46 29 3e
       0.014877403 0.17228903 -0.07033179 0.1653065
000280 ee 27 94 3d 64 da 05 3c 2e 82 52 3c 09 e7 36 3a
       0.072341785 0.008169744 0.01284842 0.0006977176
000290 95 d5 18 3d 96 e8 ca bd 38 79 74 3d 51 60 22 bd
       0.037313063 -0.099076435 0.059685916 -0.039642636
0002a0 78 92 6c bd 31 f4 2b bd e9 6b a8 bd 16 d2 fd 39
       -0.05775687 -0.041980926 -0.08223707 0.00048412447
0002b0 83 3c db bd fe 09 a3 bd 12 4d a0 bb a3 95 0a be
       -0.10704901 -0.0796089 -0.004892 -0.13533644
0002c0 6b a4 11 bd a1 c0 4e bd 48 6e 13 be 83 ba 11 bc
       -0.03555719 -0.050476674 -0.14397538 -0.0088945655
0002d0 75 bd 9c bd 85 fd ca 3d 69 30 80 3c b5 ba d5 3d
       -0.076533236 0.09911636 0.015648084 0.10436002
0002e0 10 58 a0 3d a9 44 bc bc 53 4b 00 3c 98 6f 94 bc
       0.078292966 -0.022981958 0.007830459 -0.018119618
0002f0 01 7a 13 3e 59 58 9f bd 7c 52 3f be ee 61 9e bc
       0.1440201 -0.07780523 -0.18683809 -0.019333806
000300 44 96 20 bd 7b be 9c bd 31 b5 f8 bc 0d 58 09 3c
       -0.039205804 -0.07653519 -0.030359836 0.008382809
000310 81 b6 2c 3c 7f e8 02 3c 4b 94 74 bd f7 1b 58 3a
       0.010541559 0.007990002 -0.059711736 0.0008243913
000320 e8 e1 e0 bd 54 4b 1b be 54 e9 b1 3c d8 d9 d8 3d
       -0.10980588 -0.15165454 0.021717705 0.105884254
000330 94 f8 b3 3d a2 39 b6 bc 99 cc 92 3d 07 50 3d bd
       0.08787647 -0.022244278 0.0716793 -0.0462189
000340 f6 05 ac 3c 5a ca aa bd 08 ba 8e bd 9b 56 f8 3b
       0.020998936 -0.08339377 -0.069690764 0.0075786836
000350 ca 25 f4 3c 2a 2b ae 3c 65 2e d8 bd e4 60 3c 3d
       0.029803175 0.021260817 -0.10555724 0.04599084
000360 d3 47 b8 bc ae 92 74 3d fe ba e3 bd dd f1 1a 3e
       -0.022495186 0.059710197 -0.1111965 0.15131326
000370 b4 f5 86 bd 5d 2d 16 3d 5e 1b 9e bd 1e 36 47 bd
       -0.06589833 0.036664356 -0.077200636 -0.048635595
000380 71 46 c6 bc 8c 2b 05 be b6 be c8 3d 3a 18 1f be
       -0.024203511 -0.13004893 0.09802 -0.15536585
000390 26 21 27 3e fc a9 dc 3d 29 c8 10 bd 58 9b 7b bc
       0.16321239 0.107746094 -0.035347138 -0.015356861
0003a0 2d dc 02 bd cf e5 86 bd 0a 98 93 3c c3 1c 2c bc
       -0.031948257 -0.06586801 0.018016834 -0.010504904
0003b0 c5 bb c7 bd 01 f4 5d bd 7c d0 f1 bd 6e 36 00 3d
       -0.09752611 -0.05418778 -0.11807343 0.03130191
0003c0 a7 49 fe 3d 7b ac cd bc aa 42 02 3d 5e 0c 3d 3e
       0.12416392 -0.02510666 0.031801857 0.18461749
0003d0 ea ab 14 3e ed 7a cb bd ef 53 07 3e b3 84 bd bd
       0.14518705 -0.099355556 0.13215612 -0.09253826
0003e0 df 2c c9 bd 58 98 3e 3c 3a 1d 91 ba bf ee 3b bd
       -0.098230116 0.011633001 -0.0011071332 -0.045881983
0003f0 f3 3c 8a bd 13 7f b1 3c e4 f4 cd bc 46 11 b0 bc
       -0.067499064 0.021667039 -0.025141187 -0.021492612

lstm.weight_hh_l0 f4 [512, 128]
000000 5b fa 22 3d 6d e0 c4 3d 18 0a be bd ee 7d e2 3d
       0.03978954 0.09613118 -0.09279269 0.110591754
000010 7c 82 4a be 22 b6 8c bd e5 f5 af bd 01 4f ae 3c
       -0.19776338 -0.068706766 -0.085918225 0.021277906
000020 73 59 ff bc fa 64 8e 3c 1d 47 ec 3d f4 b1 03 3d
       -0.031170582 0.017382134 0.11537001 0.03215213
000030 47 df 16 3e 58 f5 e3 bc a2 43 88 bd 04 a7 89 bc
       0.14733611 -0.02782695 -0.06653525 -0.016803272
000040 af bc d8 3d b2 01 5d 3d 74 06 e9 bc fc bf 92 3c
       0.105828635 0.053956695 -0.02844546 0.01791381
000050 f8 fb fb bc c4 63 4c 3d bc 07 52 3d 6e 29 ea 3b
       -0.030759797 0.04989983 0.051276907 0.007146052
000060 2c 95 17 bd 91 8d 02 3e 23 28 5e 3d 40 d5 66 3d
       -0.037007496 0.12749316 0.054237496 0.056355715
000070 91 b0 e9 3d fb 64 84 bd 9f ca b9 bd 6e e7 de 3c
       0.114106305 -0.06464573 -0.0907185 0.027209964
000080 83 0a bf bc 1c b0 38 3d 82 61 5a bd a6 c8 0c bc
       -0.023320442 0.045089826 -0.053315647 -0.00859276
000090 68 5b c4 3d 03 b9 91 bd e3 a1 06 3b 4b d2 a3 3b
       0.09587747 -0.07115366 0.002054327 0.004999434
0000a0 f7 1a 07 be c0 cc c3 bd ea 19 91 3d a9 bb c0 bd
       -0.1319388 -0.09560537 0.07085021 -0.09410793
0000b0 e4 25 95 bd 04 7f aa 3a 66 b1 cf 3c 25 42 af 3d
       -0.07282618 0.0013007824 0.025353145 0.08557538
0000c0 07 d1 75 3c 14 03 e0 bd a9 c7 ef 3c 96 28 8c bd
       0.015003449 -0.10938087 0.02927001 -0.06843679
0000d0 49 64 bf bc 24 da 9a 3c 0d 67 f8 3b ea c7 a0 3d
       -0.02336325 0.018902846 0.007580644 0.078506306
0000e0 98 f1 84 bd 55 4c fa 3d 76 ca 69 3d 67 e2 34 bd
       -0.06491393 0.122215904 0.057077847 -0.044161227
0000f0 1d 87 fd 3d db 24 a2 bc 2b 15 94 bc 51 f5 8f bc
       0.123792864 -0.019792965 -0.0180765 -0.01757303
000100 9f 2d 76 3c 46 c4 04 bd 57 b9 c4 3c 28 95 0a 3d
       0.015025525 -0.032413743 0.024014158 0.033833653
000110 25 fd 88 3c d0 8d e0 3d b7 78 df bd 02 b8 37 3d
       0.016722271 0.109645486 -0.109116964 0.044853218
000120 49 de cd 3c d9 4b a9 bc da c1 b7 bd 18 f8 9d 3d
       0.025130408 -0.02066605 -0.08972521 0.07713336
000130 7b 23 cd bc 09 a0 a2 bd 9e 87 10 3d 3f d0 ed 3c
       -0.025041332 -0.079406805 0.035285585 0.029029964
000140 5d 2d fe 3d ae 8a c7 3d e0 8b 2f bd e4 af ea 3d
       0.12410996 0.09743248 -0.042858005 0.1145933
000150 fb 5a 5d bd c3 df 12 3e df 32 e3 bd 65 dc 66 bd
       -0.054041844 0.14343171 -0.11093687 -0.05636253
000160 ed 3e 5d 3c d2 f4 af bb ba 3d 7a bd 1a c0 14 be
       0.013503772 -0.005369761 -0.061094023 -0.14526406
000170 0d cd 7b 3c ae 8a 0c 3c 9f 70 e5 3d a4 10 d9 bb
       0.015368712 0.008577986 0.112031214 -0.006624298
000180 1e c7 9c bd cc 9c 06 bc a6 ad 2f 3d 37 df c0 bd
       -0.07655166 -0.008216094 0.042890213 -0.09417575
000190 12 68 40 3a d2 24 24 3c fb 58 88 3d 6f 4c 01 3e
       0.00073397264 0.010018544 0.06657597 0.12626813
0001a0 d0 a4 0c bc 7e 82 af 3c 22 c2 f3 bd 22 9b 55 bd
       -0.008584216 0.021424528 -0.11902262 -0.0521499
0001b0 dc 53 35 bd 18 42 40 bc 3a 94 8c 3d 8e e4 60 bc
       -0.044269428 -0.011734508 0.068642095 -0.013726367
0001c0 37 1c 9d bd ea 68 1b bd 64 a8 55 3d 7e e7 a7 bd
       -0.07671397 -0.03794185 0.052162543 -0.081984505
0001d0 0d ec e7 3c 1d a5 d2 3d ca 58 6a bd d5 a2 b3 3d
       0.0283108 0.10285399 -0.057213582 0.08771292
0001e0 23 10 68 3c d7 b8 91 bd 84 92 ae 3c c9 ca 88 3d
       0.014164004 -0.071153335 0.021310098 0.06679303
0001f0 31 4a ce bd 49 4a ec bc b6 08 d0 bd 48 90 d7 3d
       -0.10072745 -0.028844016 -0.101579115 0.10525566
000200 da ff 33 bd d1 a1 05 3d a3 7a 88 bd 57 28 bf 3d
       -0.04394517 0.032625023 -0.06664016 0.09333866
000210 28 7d c1 bd bc 71 de 3c 2e 92 cf 3c ef 38 65 bd
       -0.094477 0.027153842 0.025338259 -0.0559625
000220 30 51 af 3c df 04 36 3d 9d 70 0b 3e 92 26 b0 3d
       0.021401018 0.04443824 0.13617177 0.08601107
000230 1f 4c d9 bd da 83 d6 bd c6 c3 b9 bd 0b ac 7b bd
       -0.10610222 -0.104743674 -0.09070544 -0.06144337
000240 4d 99 cc bd d2 0c fe bc a2 77 aa bd f4 52 45 bd
       -0.09990177 -0.031011973 -0.083235994 -0.048174813
000250 0f c6 0e bc 68 84 02 3e 38 23 f7 bb 9d 2c f7 3c
       -0.008714213 0.12745821 -0.00754204 0.03017264
000260 d8 ff 59 bd ae a7 f5 3d 89 4a 96 3d 81 c1 94 3d
       -0.053222507 0.11994873 0.07338435 0.072634704
000270 d4 b8 82 bd 06 33 f7 bc 15 46 87 bd ac a9 8e 3c
       -0.063829094 -0.030175697 -0.06605164 0.01741489
000280 6e 08 81 3d 22 74 35 3d 74 12 d1 bc a4 b9 7c 3c
       0.06300436 0.044300206 -0.025521494 0.01542512
000290 93 f6 56 3d 5b 31 bf bd 75 a2 f1 bc 49 55 43 bc
       0.052481245 -0.09335586 -0.02949641 -0.011922189
0002a0 f6 23 c8 3b fc a1 f5 3c 76 b8 99 bd d8 25 78 bc
       0.0061078025 0.029984467 -0.07505886 -0.015145741
0002b0 66 56 ae 3c 22 44 ab bc f3 c2 9d 3b af 46 80 bd
       0.021281432 -0.020906512 0.0048144995 -0.06263482
0002c0 9e 23 aa bb 3e a4 90 3c 58 cb 13 bd bd a9 3d bd
       -0.005192234 0.017656442 -0.036082596 -0.046304453
0002d0 aa 3e 00 bc 3e 2a d2 bc 41 54 c2 3d 77 f7 45 3b
       -0.00782744 -0.025654908 0.094887264 0.0030207315
0002e0 2c 1a 01 3e da 56 bc 3d 0d 1b 5f 3d e4 2c 02 bd
       0.1260764 0.09196253 0.054469157 -0.031781092
0002f0 a3 81 3e 3d d3 00 a8 bc c1 b0 f4 3c a4 73 27 3d
       0.04651035 -0.020508206 0.02986944 0.040881768
000300 8e 91 ae 3d 26 2a e3 3d 47 51 30 3d 76 48 eb 3c
       0.08523856 0.110920236 0.043046262 0.028721076
000310 1c 3e 8b bd 27 44 83 bc f1 27 0f 3d 3c e0 e4 3c
       -0.06798956 -0.016023709 0.0349502 0.027938955
000320 e8 2f 5e bd 32 0c db 3c 97 44 19 be 51 16 b8 3d
       -0.054244906 0.026739214 -0.14967571 0.089886315
000330 b1 0f b2 3d 5e 9b 02 bc 0d 29 a9 3d 47 08 65 bd
       0.08694399 -0.007971613 0.08259783 -0.055916097
000340 6d 3d 9d bc a9 70 b7 3d 5a 31 20 3d d3 44 83 3d
       -0.01919433 0.08957035 0.039109565 0.064096116
000350 a6 1c 3a 3d f3 5e d9 3b 3f 3e 53 3d 47 7a 37 bd
       0.045437478 0.0066336333 0.051573034 -0.044794347
000360 0e 94 37 bd 68 54 d5 ba 5e f8 1c 3d e5 dd d9 bc
       -0.04481893 -0.0016275765 0.0383228 -0.026595065
000370 24 99 94 3d fb 24 85 3d e1 52 d0 3d a7 8e 0e bd
       0.07255772 0.06501194 0.10172058 -0.034804013
000380 b8 76 fd 3c ba 09 36 bd 1e 35 46 3d 06 48 63 3d
       0.030940399 -0.04444287 0.0483905 0.05548861
000390 9a 06 9c 3d 7f 02 5f bd cf fb e2 bc 37 fc c4 bb
       0.07618447 -0.05444574 -0.027707962 -0.0060115117
0003a0 b6 d0 df bd 3e 1b 0d 3d 54 47 df bd 55 00 64 bd
       -0.1092848 0.03444981 -0.10902277 -0.05566438
0003b0 fc 67 72 bd 81 5b e6 3d f6 27 48 3b 4e 8b 82 bd
       -0.0591812 0.11247922 0.0030541397 -0.063742265
0003c0 c6 98 00 bc 26 55 cf 3d 93 06 dd bb f9 3c 4c 3c
       -0.007848924 0.10123663 -0.0067451685 0.012465709
0003d0 fc 89 47 3d c1 85 ee 3b 10 e5 53 3c 77 14 71 3d
       0.048715577 0.0072791283 0.012933031 0.058857407
0003e0 76 8b a0 3c ba 86 20 bd 2a 82 fd bd 7f 72 ed 3d
       0.01959775 -0.039190985 -0.123783424 0.11594104
0003f0 19 cd fc bc 91 f8 83 bd b6 a2 e0 3c d4 31 88 3b
       -0.030859517 -0.06443895 0.027421337 0.0041563306

lstm.bias_ih_l0 f4 [512]
000000 0c 07 10 bc 46 1e d5 3d 3b 3c a5 bc 5d fa 82 3d
       -0.008790743 0.10406165 -0.020170322 0.06395409
000010 f0 28 1f 3e a8 54 98 bc f2 1b 91 3d f1 91 46 bd
       0.1554296 -0.018595055 0.07085408 -0.048479024
000020 9c be be 3d 27 7c 05 bd c3 55 70 3d c8 df d3 3d
       0.093136996 -0.032589104 0.05867554 0.10345417
000030 fb 3f dd bc 2c d4 d2 3d ee b4 63 bd 27 c4 80 3d
       -0.027008047 0.10294375 -0.05559247 0.06287413
000040 7a 09 0c 3e 4d fc ae 3d db 84 53 bc 4e 48 1b 3d
       0.1367549 0.08544216 -0.012910093 0.037910752
000050 a9 65 1d 3d cb 39 c3 3d b7 5f 02 3c 71 02 d1 3c
       0.03842703 0.095325075 0.0079573905 0.02551386
000060 0d 00 ca 3d 37 64 88 3d 47 33 7f bc d0 24 01 bc
       0.09863291 0.066597395 -0.01557619 -0.007882312
000070 ab 9b 39 bc 93 99 60 3d f0 90 bc 3d b3 56 55 3d
       -0.011328618 0.05483396 0.09207332 0.052084636
000080 c7 a9 c6 3c c9 9e bd 3c 41 28 55 3d ce a0 c4 3c
       0.024250878 0.023147004 0.052040342 0.024002459
000090 28 ea ae 3d f0 88 00 3e 6c 92 0b 3d 43 c0 b9 bc
       0.085407555 0.12552238 0.034075186 -0.022674685
0000a0 98 4d 9e 3b 9f ee 3c bd 82 ad 25 3d 70 e6 eb 3c
       0.0048310272 -0.046126004 0.040448673 0.028796405
0000b0 14 d2 b3 3d 70 00 ac 3d fd 8a d6 3d 71 da 08 3d
       0.087803036 0.08398521 0.10475729 0.033411447
0000c0 c6 52 9e 3d 2d 13 43 bd 10 79 ae 3d 08 04 f3 bb
       0.077306315 -0.04762571 0.085191846 -0.007416252
0000d0 1f e1 95 3d 0d ff 90 3d 4b 6a 53 3d a0 68 e0 bc
       0.07318329 0.07079897 0.05161504 -0.02739364
0000e0 e1 33 11 bd e2 45 f6 3d 69 69 98 bb 5b 08 4f 3d
       -0.035449866 0.12025048 -0.0046512377 0.050545078
0000f0 1c e9 f7 3d 64 83 9c 3d d6 b0 86 3d 68 79 aa 3d
       0.12105009 0.07642248 0.065766975 0.08323938
000100 33 fe 1e 3e 35 9e 82 bd dc 74 05 bc 4a bc 81 3c
       0.15526657 -0.06377832 -0.008145537 0.015836854
000110 8c d2 20 bd fd c0 17 3d 36 43 bd 3d 90 ae c9 bc
       -0.039263293 0.037049282 0.09241335 -0.02461937
000120 37 d7 97 3c 33 07 0f bd 05 d1 10 3e 37 d8 b5 3d
       0.01853524 -0.034918975 0.14142235 0.0887913
000130 d1 0f 58 3d c0 0b cc 3d 9c 3e bf 3d 55 62 5a 3d
       0.05274946 0.09963179 0.09338114 0.053316433
000140 11 02 95 bc 8e 7a bf bc 6e 03 8e 3d be dc 86 bd
       -0.018189462 -0.023373868 0.06934248 -0.06585072
000150 35 99 93 bc c6 bf 4b 3c 45 0f cf 3d 1e 47 1e bb
       -0.01801739 0.012435859 0.10110334 -0.0024151276
000160 69 41 e9 3d 47 2a 92 3c b8 b4 98 3c 32 43 9d 3d
       0.11389429 0.017842425 0.01864086 0.07678832
000170 28 5a 10 3e 4b a7 2f bd 06 ea 41 3c 7f ca 67 3d
       0.14096892 -0.042884152 0.011835581 0.0565896
000180 8a be 7c 3d 0e a7 29 3e 64 f7 39 3d dd a2 9c 3c
       0.06170515 0.16567633 0.045401946 0.019120628
000190 9c 68 95 3d dd a7 a0 bc bb af 2d 3d aa 81 21 3d
       0.07295343 -0.019611293 0.042403918 0.039430298
0001a0 5d 5d e2 3d 6a ba 7d 3d 13 85 d6 3d 9b 00 a0 3d
       0.11052964 0.061945356 0.10474601 0.078126155
0001b0 c0 0f 8a 3d e4 da ed 3c ef c0 7f 3d 33 7d bf ba
       0.06741285 0.02903504 0.062439855 -0.0014609456
0001c0 85 4f 7c 3c 89 76 28 bd 03 30 ab bc 7b cb 19 3d
       0.015399818 -0.04112867 -0.020896917 0.03754757
0001d0 b8 90 83 3d 7b d6 df bc e1 45 98 3d 8d d6 d3 3d
       0.06424087 -0.027323952 0.07435203 0.10343657
0001e0 b8 da 8a 3c 59 7a 81 3c 3a 6c 0e bd a7 0c 30 bd
       0.016949996 0.01580541 -0.03477118 -0.042980816
0001f0 f9 68 03 3e 00 c3 d8 b3 c9 f6 97 3d 90 85 9a bc
       0.12833013 -1.0093754e-07 0.074201174 -0.018862516
000200 dd 4d 59 3c 03 b3 db 3d 1c 45 0e 3e 06 44 55 bc
       0.013263193 0.10727503 0.1389355 -0.013016706
000210 11 e4 ae 3c a4 7a 36 bb e7 78 4f bd 35 c1 c3 3d
       0.021348985 -0.0027844096 -0.05065241 0.09558336
000220 b0 22 e1 bb 23 8b 81 3d 82 e2 c4 bc dd 8a 44 bd
       -0.00687059 0.06325366 -0.024033789 -0.047983993
000230 7e f4 f2 bc 07 f8 71 3d a4 16 a8 3d e3 62 4f 3d
       -0.029657599 0.059074428 0.08207443 0.050631415
000240 86 b7 9e 3d 42 c7 cd 3c 54 05 ec 3d f3 8e 02 bd
       0.07749848 0.025119428 0.11524454 -0.03187461
000250 3f 43 c1 bc d4 c4 d5 3d 99 17 c6 3d 9b e0 36 3d
       -0.023591636 0.104379326 0.0967247 0.044647794
000260 79 9f c0 bc bc b3 34 3d 09 55 d2 bc 69 6f de 3d
       -0.023513542 0.04411672 -0.025675314 0.108610936
000270 59 78 62 3b d5 1d 54 3d 0e ac 92 bc 80 ad de 3d
       0.0034556596 0.051786263 -0.017904308 0.10872936
000280 33 8c ca 3d e2 a6 92 3d 5d 22 e0 3d 0f 15 88 bd
       0.09890022 0.071607366 0.10944054 -0.066446416
000290 bf b6 03 3d c6 75 55 3c 3a ce 5b 3d 24 52 ab 3d
       0.032156702 0.013028568 0.05366347 0.083652765
0002a0 cf 91 95 3c 44 f4 96 bd 5a 8a ae 3d 68 28 4d 3c
       0.018258004 -0.07370809 0.08522482 0.012521841
0002b0 7f 60 00 3e 71 d6 b0 3d cd 0b 10 3c 4c fc 71 3c
       0.1253681 0.086346515 0.008791876 0.014769625
0002c0 64 19 0c 3a 87 ce 99 bc a6 aa 3f 3d 65 21 eb 3d
       0.00053443597 -0.018775238 0.046793602 0.11480979
0002d0 01 ad de 3d f6 75 9c bc 9e da 38 bd 9e 68 eb 3d
       0.108728416 -0.019099217 -0.045130365 0.114945635
0002e0 b0 b9 17 3d 61 d5 1b bd 4f f2 4f 3c 7f 36 05 bd
       0.03704232 -0.03804529 0.012692048 -0.032522675
0002f0 31 19 fc bb f8 01 04 bd 7b 87 aa 3d 87 c9 d8 3c
       -0.0076934327 -0.03222844 0.08326622 0.026463283
000300 bf 12 33 3e 47 7d 20 bd 46 16 2d 3d fc 33 66 3d
       0.1748762 -0.039181974 0.04225757 0.05620192
000310 34 c6 53 bd 42 ab e4 3d ed a3 7d 3d 6c 1d 43 3d
       -0.051702693 0.11165477 0.06192391 0.04763548
000320 ce ad d0 3d 62 1d 78 bd 81 c5 2c 3d 4a b0 c4 3d
       0.101894006 -0.060574897 0.042180542 0.09603937
000330 b7 b6 bd 3d 59 64 1c bd 46 e3 92 3d 89 ee 93 bb
       0.09263366 -0.038181636 0.07172255 -0.0045145196
000340 c6 f0 20 3d 34 f6 57 3d fe db 58 bd 75 8a 6b 3d
       0.03929212 0.052725032 -0.052944176 0.05750509
000350 e7 93 6e bd 77 e4 06 3e c9 81 1b 3d 2d 1d 8b 3d
       -0.05824652 0.1317309 0.03796557 0.06792674
000360 12 5c 00 3d 8d 63 8f 3b 48 e9 78 3d bb 85 b8 3c
       0.031337805 0.004375881 0.06076935 0.022524705
000370 39 83 0d 3e 1a 9a 29 3d b0 89 0b bd 36 48 00 bc
       0.13819589 0.04140673 -0.034066856 -0.007829716
000380 c1 25 c5 bc 63 6f 17 3e 49 f3 c3 3d ef 63 e3 3c
       -0.024065854 0.14788584 0.09567887 0.027757613
000390 16 d8 ad 3d ec 17 88 3d 38 63 45 3d f0 2f 3a bc
       0.08488481 0.06645188 0.048190325 -0.011363968
0003a0 c2 88 10 bb 88 ea 98 bd 9e 24 4c 3d 92 06 87 3d
       -0.002205417 -0.07466608 0.04983961 0.0659305
0003b0 92 a6 bc bc 55 46 18 bb 76 30 e5 3d 39 d2 fc 3d
       -0.023028646 -0.002323528 0.11190884 0.12344784
0003c0 59 95 7c 3d 24 6f 06 3d 99 3a 7d bb ba b6 48 3c
       0.061665867 0.032820836 -0.0038639663 0.012250597
0003d0 0f a4 10 3e b4 37 13 bc e4 c8 9f bc 41 1f c9 3d
       0.14125083 -0.008985449 -0.019504972 0.09820414
0003e0 89 c9 94 ba 53 db be 3d 04 e2 7d 3d 8a 79 5a 3d
       -0.0011351566 0.093191765 0.061983123 0.053338565
0003f0 36 bc 57 3d a8 57 11 3d df fd 51 3c e0 24 45 3d
       0.052669726 0.035483986 0.012816875 0.04813087

lstm.bias_hh_l0 f4 [512]
000000 77 0f 51 bc 6e be aa 3d 45 7e 6c 3d fd f1 85 3c
       -0.012760035 0.08337103 0.057737608 0.01635074
000010 6c a0 0f 3e 12 8f 5e 3d fa 0d 8d bc 37 f5 68 3d
       0.1402604 0.05433566 -0.017218579 0.05687448
000020 6b ad 04 3d 78 21 07 3e c7 13 96 3d 14 cd 69 bd
       0.032391947 0.13196361 0.07327991 -0.057080343
000030 5b c9 fa 3d 9e e1 d1 3d 3b f7 46 bd 7e 66 16 3e
       0.12245437 0.10248111 -0.04857562 0.14687535
000040 01 be c5 3d 5d 00 87 3d 07 25 d9 3c 2c 6e a1 3d
       0.09655381 0.06591866 0.026506914 0.07882342
000050 a9 2f ac 3d df ed 6d ba 7d cc be 3d e0 91 05 bd
       0.08407528 -0.0009076278 0.09316347 -0.03260982
000060 31 e5 8a 3c 03 e0 ac bc c2 40 d1 bc 80 30 b1 3d
       0.01695499 -0.02110291 -0.025543574 0.08651829
000070 72 d1 02 bc 2f a9 06 3e 3d a5 c0 bc 34 36 ee 3d
       -0.007984506 0.13150476 -0.023516292 0.11631432
000080 6b 5b 44 3d 3f c8 85 3d d5 c0 a1 3d be be 4e bc
       0.047938745 0.065323345 0.07898108 -0.012618719
000090 e2 e2 ad 3d 3e 70 fb 3d 16 08 bd 3c 84 59 68 bd
       0.0849054 0.12277268 0.023075145 -0.056725994
0000a0 a6 73 18 3d a8 e2 a8 3d 35 8f 19 bd f5 eb 9c b9
       0.037219666 0.08246356 -0.03749009 -0.0002993044
0000b0 06 0c 06 3e 53 9c 2b 3d 8b e7 f1 3d 53 32 4f bd
       0.13090524 0.04189713 0.118117414 -0.050585102
0000c0 ae ab 6b 3d 7a 8b 92 3d ae ac 98 3d fb 44 67 3c
       0.057536773 0.07155509 0.07454811 0.014115567
0000d0 b7 11 81 bc 94 1a 27 bd 30 b3 b5 3c a3 e3 51 3c
       -0.015755517 -0.04079683 0.02218017 0.0128106205
0000e0 4c 26 ef 3c 5b 1c 2b 3d 14 a3 13 bd c8 86 18 bd
       0.029193066 0.04177509 -0.036044195 -0.037237912
0000f0 07 a0 3d 3d 97 e5 5a 3d fb a1 6f bc c5 36 ce bc
       0.046295192 0.05344161 -0.0146260215 -0.0251726
000100 ca 3e 17 3e fd ea a7 bc 9f 02 c7 3b 57 62 f3 3d
       0.14770046 -0.020497793 0.0060733105 0.11883991
000110 3a 37 15 3d cf 44 a3 3b 40 81 c5 3b a4 58 6c 3c
       0.03642962 0.004982568 0.0060273707 0.01442543
000120 3f 95 23 3d 03 68 9e 3c 21 af d0 3d 6d b2 90 3d
       0.039937254 0.019336706 0.10189653 0.07065282
000130 03 c3 e1 3d 43 d9 5f 3a e7 70 ac bc da 87 03 3e
       0.11023524 0.00085391494 -0.02104993 0.12844792
000140 7d f8 75 bc 53 90 84 3d dd d2 bd 3d f0 05 72 ba
       -0.0150128575 0.0647284 0.092687346 -0.0009232452
000150 af 38 1e 3d 10 2e 0e 3c 05 09 8f 3d 8d 6f 14 bd
       0.038628276 0.008677974 0.06984142 -0.036239196
000160 72 2d da 3d 0b 28 0a 3d c2 3a a6 3c a2 ae 24 bd
       0.10653199 0.033729594 0.02029169 -0.040205605
000170 40 e5 86 3c 56 45 14 3d 50 45 a4 3d 48 55 07 3e
       0.016466737 0.036198936 0.08021033 0.13216126
000180 93 94 f8 3b ef 7d ef 3d 7f 0d cb 3d 34 24 d2 bc
       0.007586071 0.11693942 0.099146836 -0.025652029
000190 38 7a 61 bc 8c 71 b3 3c d9 f9 15 3d 10 1c cc ba
       -0.013762049 0.02190473 0.036615226 -0.0015572328
0001a0 8a 6a 49 3d 0e eb 13 3d f2 fa a3 3b b1 3f e2 3d
       0.04917387 0.036112837 0.0050042802 0.110473044
0001b0 80 38 e1 3d 5c 59 98 3d 4c 83 ad bb 30 04 7a 3d
       0.10997105 0.07438919 -0.005295193 0.06103915
0001c0 25 c1 d3 3d b9 1b af 3d 1e 9b 0b 3b f4 31 0d 3c
       0.10339574 0.085502096 0.0021302174 0.008617867
0001d0 08 09 c2 3d d4 ff 8e 3d 86 1a eb 3d 83 03 8b bb
       0.09474379 0.06982389 0.11479668 -0.004242362
0001e0 99 50 b4 3d 87 d1 e0 3d 64 d1 d0 3d 84 1d 1d 3d
       0.08804435 0.10977464 0.10196188 0.038358226
0001f0 9e 55 0f bc 84 8f 0c bd 5d 34 01 3d 09 f0 71 3c
       -0.00874844 -0.034316555 0.03154408 0.0147667015
000200 0b 2e 7d bd 22 95 45 bd b3 a2 c6 3d db 95 d1 3c
       -0.061811488 -0.048237927 0.09699001 0.025584152
000210 af 28 e1 3d 40 a5 04 3d 10 6d 39 3d 53 c9 51 bd
       0.10994088 0.032384157 0.045270026 -0.05121739
000220 fe 57 95 3c f7 23 6f 3b ff 6f 83 bc 2f 8f a4 3d
       0.018230435 0.0036489943 -0.016044615 0.080351226
000230 db db fa bc 81 2b 98 3c 19 af e8 3d da 1c e9 3d
       -0.030622413 0.018575432 0.11361522 0.11382456
000240 20 d9 e3 3d db 05 18 3d ca bc 40 bd 4a 3a c5 3d
       0.11125398 0.03711496 -0.047055043 0.096302584
000250 f5 ff f1 bc b6 46 66 bd 0d f6 99 3d 26 35 8d 3d
       -0.029540995 -0.05621978 0.075176336 0.06894903
000260 bb 16 c0 3d a9 36 bb 3b ef 27 cf bc 59 b5 04 3d
       0.093793355 0.005713303 -0.025287597 0.03239951
000270 f3 54 a4 3c 45 71 f1 3b d4 5d 2c 3d 19 21 b6 3c
       0.020060038 0.007368239 0.04208167 0.022232579
000280 5e 55 d0 bc 40 41 72 3d 1b 69 a1 3c 49 1b 2e bd
       -0.025431331 0.05914426 0.019703439 -0.04250649
000290 63 18 c3 3d 43 9c d8 3c 90 95 0e 3e c6 07 94 bd
       0.09526136 0.026441699 0.13924241 -0.07228045
0002a0 10 d9 d8 3c b1 d4 d7 bc b5 f4 5a 3d 04 ed 17 3d
       0.026470691 -0.026346536 0.053456027 0.03709127
0002b0 9a e6 8f bc b6 0d 98 bc b9 8d 3b bc b9 59 80 3d
       -0.017566014 -0.018561225 -0.0114473635 0.06267113
0002c0 ae 96 f2 3d 85 a4 84 3b 34 d4 09 3d 0c 30 1a 3d
       0.11845146 0.0040479326 0.03364964 0.037643477
0002d0 ec 24 72 3d 55 ba 20 3d 34 ad ab 3d e8 5c 25 bd
       0.059117243 0.0392402 0.08382645 -0.040371805
0002e0 02 a0 80 3d 7c a4 32 3c 40 34 ec 3c f3 61 93 3b
       0.06280519 0.010903474 0.028833508 0.0044977604
0002f0 d5 32 85 3c 1a 5c d4 3d e2 35 1e bd 74 fb 24 bd
       0.01625959 0.103691295 -0.038625605 -0.040278867
000300 af 4b 96 3d 31 7a 34 3c 93 e1 63 bc ba e1 b9 3d
       0.07338654 0.011015461 -0.013908762 0.09076257
000310 01 14 3a 3c 02 8c bf 3d ba 81 b0 3c be 19 f0 3d
       0.011357308 0.09352876 0.021546233 0.1172366
000320 79 94 8b 3d 2d 44 86 bc e9 5e a2 3d 95 4f 03 3e
       0.06815428 -0.01638993 0.07928259 0.12823327
000330 c0 b5 d2 3c c1 4d ce bc cf 4b 67 3c 07 7c bb 3d
       0.02572143 -0.02518356 0.014117195 0.09154516
000340 fb 1a 62 3d 7c 4a 1d 3c 33 a6 f4 bb 8f f4 8a bd
       0.05520151 0.009600278 -0.0074661016 -0.06784927
000350 22 f0 17 bd 9e 2e 06 3c 3c cf 92 3c 9a da 2b 3c
       -0.037094243 0.008189825 0.017921083 0.01048913
000360 8f db 74 3d d3 64 78 3c 24 16 08 3e 49 93 b6 bc
       0.0597797 0.015160757 0.13289696 -0.022287028
000370 9f a8 c9 bc 36 49 85 bc de 97 a5 3c 18 2a f0 3c
       -0.024616538 -0.016270261 0.020214017 0.029316947
000380 ea e5 e5 3d aa b4 45 3d 34 84 ea 3d 7f cd 08 bc
       0.11225493 0.048267998 0.11450997 -0.008349775
000390 d6 07 be 3d 27 1a 82 3d cf 8a f9 3c de a2 10 3b
       0.09278838 0.063526444 0.030461697 0.0022069733
0003a0 44 2b cc 3d 53 7e 2b 3d 13 f2 10 bd a2 f5 b3 3d
       0.0996919 0.04186852 -0.03538711 0.08787085
0003b0 45 0a 28 3d 07 59 98 bc 20 7f 0e 3d 6f dd 49 bd
       0.04102542 -0.018597139 0.034789205 -0.04928344
0003c0 8f 87 88 bd 9c 56 38 bd ef aa 96 3d 01 9f 63 3d
       -0.06666481 -0.045004472 0.07356822 0.05557156
0003d0 20 46 68 3c b7 3a 16 3e a8 0a 5a 3d b3 1c 2c 3c
       0.014176875 0.14670835 0.05323282 0.010504889
0003e0 ed 06 02 3e a6 80 04 bd dc 73 e5 3d 5f 3e fa bc
       0.12697954 -0.03234925 0.11203739 -0.030547319
0003f0 99 13 8f 3d 52 ff db 3d ae 79 c9 ba f0 60 99 3d
       0.0698616 0.10742058 -0.0015371346 0.074891925

lstm.weight_ih_l1 f4 [512, 128]
000000 fd 1c c4 3c 4c ed 7e 3d af 07 7d 3b b1 fa c9 bc
       0.023939604 0.062238023 0.0038609316 -0.024655672
000010 d3 72 db bc e0 63 48 3d b6 ea cb 3c cd 6a ba 3d
       -0.02678815 0.048923373 0.024892192 0.09102402
000020 e0 16 dd bc 62 77 ad 3d ae 1f 7a bc 8a 20 cf 3d
       -0.026988447 0.08470036 -0.015266342 0.10113628
000030 3b 05 57 3d e4 e5 cb 3c 7f ae ad 3d 4f 5e d7 bd
       0.052495223 0.024889894 0.08480548 -0.10516035
000040 1e f5 00 be 94 fe 3f 3d af e0 99 3d b5 5b 4b 3b
       -0.12593505 0.046873644 0.07513558 0.0031030003
000050 02 f1 0f 3d 1d 71 60 3d ce cd 01 3e f6 65 a9 3d
       0.035141952 0.054795373 0.12676165 0.08271401
000060 b9 e4 8a bd 1b 76 9c 3d 25 ff b5 bc 67 54 cb 3c
       -0.06781907 0.07639714 -0.022216389 0.02482052
000070 c7 b6 e9 3c c5 53 af 3d 7e 2c 8b bd c2 7f 09 3d
       0.028529538 0.085609 -0.067955956 0.033569105
000080 f0 f3 b8 3d ac 90 81 bd 35 9a 9c bd 74 49 5c bd
       0.090309024 -0.06326422 -0.076466 -0.053780988
000090 bb 9e eb bd 46 f8 e2 3c 9b 38 6f 3d a6 69 6f 3c
       -0.11504885 0.027706277 0.058403593 0.014612591
0000a0 ad 5d da bd 49 1b 61 bd 1c 95 00 bd cc 64 65 3b
       -0.106623985 -0.05495766 -0.0313922 0.0035002707
0000b0 6e ad 3d 3d 37 55 cf b9 72 b2 b7 3c d4 a4 b6 3d
       0.046307974 -0.00039545607 0.022423957 0.08918157
0000c0 f7 7c a5 bd 0d e0 86 bd af 30 41 bd af a3 40 3d
       -0.08080476 -0.06585703 -0.04716557 0.0470311
0000d0 55 0b 62 bc 2a 86 ab bd 81 18 a9 bd 32 2b 47 bc
       -0.013796647 -0.08375199 -0.08256627 -0.012156295
0000e0 2d 1c e6 bc 98 19 65 bd 51 a7 ce 3b 59 55 13 bd
       -0.028089607 -0.05593261 0.0063065668 -0.035970066
0000f0 03 0d fd bc 40 9a 9c 3d 17 40 31 bd b2 a4 06 3d
       -0.030889994 0.07646608 -0.04327401 0.03287191
000100 27 7e 85 bc 61 04 86 3d 41 03 0b bd 6b ff 7f 3d
       -0.016295506 0.06543804 -0.03393865 0.062499445
000110 64 ce 23 3d 0a a0 c3 3a 51 61 31 3d cf b0 a3 3c
       0.03999175 0.0014925015 0.0433057 0.01998177
000120 8b e2 fa 3c 3c 37 a3 bc 8b e1 85 bc cf 70 13 be
       0.030625602 -0.019923799 -0.016342899 -0.14398502
000130 26 70 21 bd 1c 12 4f 3d e6 0a 67 3d 10 aa cf 3d
       -0.039413594 0.05055438 0.056406878 0.10139859
000140 68 2f dd bb 0e 98 9e 3b 61 41 62 bd 80 67 3a bc
       -0.006750036 0.0048399037 -0.05523813 -0.011377215
000150 2a f3 9d 3d b1 23 ba 3d fe 1c 29 bd 77 79 36 bc
       0.077123955 0.09088839 -0.041287415 -0.011137358
000160 3c 27 90 3b ca 98 97 3d 98 a4 27 bd 4b 44 27 3d
       0.0043992084 0.07402189 -0.040928453 0.040836614
000170 f5 2c 02 3e 0b 18 4a bc fa d2 c3 3a fd 39 8d 3d
       0.12712462 -0.012334834 0.0014940195 0.06895826
000180 dc 72 b5 3d 87 e8 80 3d 90 8e 9d 3d f0 67 06 3d
       0.08859798 0.06294351 0.07693207 0.032813966
000190 a1 02 91 bd c8 c7 27 bd 3f 6c b6 bd de 0d 52 3d
       -0.070805795 -0.04096201 -0.08907365 0.051282756
0001a0 3e 9a 0a 3d fa 3a cb bc 41 e5 46 3c 40 f8 47 3d
       0.033838503 -0.024808396 0.012139619 0.048820734
0001b0 aa 5c 64 bd ec 35 c7 3d 9b a0 95 bd 02 49 a9 3c
       -0.055752434 0.09727082 -0.07306024 0.020664696
0001c0 52 28 f4 3d 3b ee 23 3d 16 29 b5 ba 69 a4 91 bd
       0.11921753 0.040022116 -0.0013821449 -0.07111437
0001d0 39 da 08 3c 08 73 f7 b8 86 3b 0e 3e ed 75 3c 3d
       0.00835281 -0.00011799304 0.13889894 0.0460109
0001e0 48 7f 81 bd a3 33 ff 3d 31 ce 80 3d 65 74 b6 3d
       -0.06323105 0.12461021 0.06289328 0.08908919
0001f0 c6 22 12 3e 05 6d d9 3c 3e e0 29 bd b6 41 f3 3c
       0.14271078 0.026541242 -0.04147362 0.02969442
000200 2d b4 9f 3d a0 b1 d6 bd 04 c1 52 3d d8 fb 7b bd
       0.07798038 -0.10483098 0.051453605 -0.061519474
000210 da b5 19 3c c5 50 56 3b 88 78 c6 3d 4a ca 97 3d
       0.009381736 0.003270195 0.09690958 0.074116305
000220 8e 5b 9b bd a2 4d 93 bd b7 14 bd bd 8b 50 b7 3d
       -0.07585822 -0.07192542 -0.09232467 0.08950909
000230 68 7d 07 3c fd a3 89 3d b7 40 a8 3d 0f 12 a4 3d
       0.008269645 0.067207314 0.082154684 0.08011257
000240 bc 23 09 3d fa 21 10 bc e7 78 05 3d 66 db 2a bd
       0.033481345 -0.008797163 0.032586005 -0.04171314
000250 58 84 8a bd 1c cd c5 bd bc 2f 9c 3d b2 54 68 3d
       -0.06763524 -0.09658262 0.07626292 0.056721397
000260 3a 11 a9 3c 3b 0a b2 bd 63 8c 3c bd df 88 4a bd
       0.020638097 -0.086933576 -0.04603232 -0.049446937
000270 23 07 7a 3c 58 78 7a 3d 4b 70 b0 bd f1 1e 98 bc
       0.015260491 0.061149925 -0.08615168 -0.018569442
000280 04 47 00 3d 88 6a 10 bd 06 6c ac 3b 17 ea 5f 3d
       0.031317726 -0.035257846 0.005261901 0.054666605
000290 56 59 97 3d 01 4c a6 3d cb 2f 1c 3d 5f 79 9f bd
       0.07390086 0.08119965 0.038131516 -0.077868216
0002a0 a2 a0 10 bd 62 33 58 3d 97 15 8d bd 36 47 60 bd
       -0.03530944 0.052783377 -0.068888836 -0.054755412
0002b0 eb a3 47 bd a6 90 c1 3d 24 b0 07 3d 17 a8 be bd
       -0.04874031 0.094514176 0.033126965 -0.09309404
0002c0 ff e0 e3 3c 28 91 aa 3d b9 76 b5 bd cd c3 2f 3c
       0.027817247 0.083284676 -0.08860535 0.010727835
0002d0 10 8e 72 3d 8e a1 10 bd a2 df 7d 3a e1 df a2 bc
       0.059217513 -0.03531032 0.0009684508 -0.019882144
0002e0 77 12 b7 bd 28 a2 35 3d 31 cf 83 bc 6f 92 d2 bc
       -0.08939069 0.044344097 -0.016090007 -0.02570459
0002f0 9b e5 9a bd e1 c3 01 3d 21 b8 cd 3d 3a e6 6f 3c
       -0.07563325 0.031680945 0.100448854 0.014642293
000300 b4 92 26 bc a9 d9 42 3c c9 9a 99 bd 4b f0 12 3c
       -0.010166813 0.011892715 -0.07500226 0.008968423
000310 80 74 87 3d 8b a3 b7 bd f5 c7 cd bd 30 55 31 3d
       0.066140175 -0.0896674 -0.100479044 0.04329413
000320 99 5f 0d bd 52 ec 94 3c 9f f6 5a bd d9 98 38 3d
       -0.034514997 0.018179093 -0.053457852 0.045067642
000330 e6 e7 98 bd 34 27 af bc 25 91 23 3d b7 86 0f 3d
       -0.07466106 -0.021380998 0.039933342 0.035040583
000340 f1 44 c2 3d e1 78 e4 bc b2 e6 a0 bd 92 2c b7 3d
       0.09485806 -0.02788967 -0.07856502 0.08944048
000350 60 a9 3a 3d f4 ec ab 3b 28 10 5b 3d 2c 18 59 3d
       0.045571685 0.005246753 0.053482205 0.053001568
000360 4a c9 6d 3d d6 ca 75 b9 ba 64 d0 3d e4 06 d4 3d
       0.058053292 -0.00023440583 0.10175462 0.10352877
000370 18 31 39 3d be 41 5c 3c 8d aa 63 3d c7 6e 79 3d
       0.045212835 0.0134434085 0.05558257 0.06089666
000380 53 a4 20 bb 34 34 c2 3d ff 1e 9b bd 0a 9d 5b bd
       -0.0024512007 0.09482613 -0.075742714 -0.05361656
000390 a3 19 8b 3d 6d bf 88 bd 55 a9 14 3c b4 93 70 3d
       0.06791999 -0.066771366 0.009073575 0.05873461
0003a0 0a 78 0a bd 17 83 89 bd 40 3f 53 bd 0b ce e7 3c
       -0.033805884 -0.067144565 -0.05157399 0.028296491
0003b0 f6 88 df bd 37 c4 92 3c c2 0b b9 3c ac 0d bb bd
       -0.10914795 0.017915828 0.022588614 -0.09133467
0003c0 20 4a 99 3a d4 14 ea 3c 1a 19 b0 bd 87 0e 43 3d
       0.0011695065 0.028574385 -0.08598538 0.047621276
0003d0 6f cc 0b 3c 46 75 94 bd 47 1c f4 bd ab 0d 96 bd
       0.0085326275 -0.07248931 -0.11919456 -0.07326826
0003e0 61 4a 7a bc d2 0a 88 3b 90 05 b1 3b 3e be 97 3d
       -0.015276522 0.0041516805 0.0054022744 0.07409333
0003f0 69 0c 79 3d 63 bb fe 3d 93 fe a5 bb 88 35 9d bc
       0.06080285 0.12438085 -0.005065748 -0.019190565

lstm.weight_hh_l1 f4 [512, 128]
000000 5c 80 14 3b cd 48 a0 bc ea 62 6d bd 8d 90 9a bb
       0.0022659516 -0.019565964 -0.05795566 -0.004716939
000010 bb 1f 0a bd 04 69 95 bd b0 78 bd bc 9c 96 a8 bc
       -0.033721667 -0.07295421 -0.023128837 -0.020579629
000020 6f 8f d2 3d 72 49 49 ba 95 d6 82 3d f5 ce bc bd
       0.10281264 -0.00076784857 0.063885845 -0.092191614
000030 24 6a e5 3c fe de 35 ba 3f 9c 24 bc ba 91 88 3d
       0.028004713 -0.00069378305 -0.010047018 0.0666842
000040 c2 13 90 bd 0c 8e 40 bc 19 72 f3 bc c0 33 3d 3c
       -0.070350185 -0.011752617 -0.029717492 0.011547983
000050 c0 39 9d 3d 2d 16 e1 bc d3 4d ca 3d 2c 6c 12 3d
       0.076770306 -0.027476395 0.09878125 0.035747692
000060 92 e5 19 3d 13 95 ec bc af 22 39 bd fc d4 72 bd
       0.03757245 -0.028879678 -0.045199092 -0.05928515
000070 62 2a d7 bd b5 6f 5c 3c b1 ba b2 bd 9e 17 a1 3c
       -0.10506131 0.013454367 -0.08727015 0.019664582
000080 e6 e1 e6 bb e6 68 62 bc 89 f1 ef bd 8f 52 3c bd
       -0.007045972 -0.013818955 -0.11715991 -0.04597717
000090 c1 4e d1 3c 58 28 52 bd dd ec 13 bc 14 8d 08 3d
       0.025550248 -0.051308006 -0.009028641 0.033337668
0000a0 70 24 4d 3c d2 08 62 3d ef d2 27 bd ca f1 80 bd
       0.012520894 0.055184193 -0.040972646 -0.062961176
0000b0 bb dc d2 3d 80 14 1c bd b0 1a 8b bd 5b bd ac bc
       0.10296007 -0.038105488 -0.067921996 -0.021086385
0000c0 4b ba 63 bd ba c0 2b 3c ef 3d 84 bd e1 41 b4 3d
       -0.055597585 0.010482961 -0.064571254 0.08801628
0000d0 96 74 9f 3d 00 6f 2f bb 24 d1 a6 bc 90 f0 b2 bb
       0.07785909 -0.0026769042 -0.020363398 -0.005460806
0000e0 f2 ee 11 bc 8f 89 a1 bd 94 28 6b bd 7b 2d ba bd
       -0.008907067 -0.07887565 -0.057411745 -0.09090706
0000f0 38 c5 91 3c fa 32 7f bd 00 89 5a 3d 22 90 12 bc
       0.017794237 -0.062304474 0.05335331 -0.008945497
000100 6b 6f f0 3b 77 5e ed bc db d4 88 bd c8 8b 45 bc
       0.007337501 -0.028975708 -0.06681224 -0.012057252
000110 22 b7 77 3d 31 28 a2 3d 67 46 a0 bc 39 6f 13 3d
       0.060477383 0.07917822 -0.01956482 0.035994742
000120 39 cd 34 3d 7b 84 92 bd 55 8e 93 3d fe 50 f6 bc
       0.044141028 -0.07154175 0.07204882 -0.030067917
000130 bd ec 87 3c 28 04 b4 3d 7f d8 6a 3d cd 62 cd bc
       0.016592378 0.08789855 0.057335373 -0.025071526
000140 e2 95 22 3c 4d 66 bd bb 80 e2 ba 3d af 7d 2d bd
       0.00992343 -0.0057800175 0.09125233 -0.04235619
000150 fc 1c 98 3c 6a ec d3 bd 6d a8 be 3d 55 2a ba bd
       0.018568508 -0.10347827 0.093094684 -0.090901054
000160 61 07 9d 3d c8 2c 98 bd ab d4 08 3d 81 13 13 3d
       0.07667423 -0.07430416 0.03340594 0.035907272
000170 75 3d 8c bd 31 29 1a 3d 21 02 4d 3d b7 ec b5 3c
       -0.068476595 0.03763694 0.05005086 0.022207601
000180 e1 60 a3 3c 2f 2e 83 bd 23 c3 80 bd 41 1a a1 bd
       0.019943656 -0.06405293 -0.062872194 -0.07866336
000190 60 ed f7 3c 1b 4f 8d bd 60 d0 c9 bd 3e 14 fe bc
       0.030264556 -0.06899854 -0.098541975 -0.031015512
0001a0 fd 0d 53 3c a1 57 60 bd cf 5d 86 3d d7 dc f1 3c
       0.012881753 -0.05477107 0.06560861 0.02952425
0001b0 88 33 ae 3d 30 8e 13 bd 45 49 77 3c de a6 2d bc
       0.085059226 -0.036024272 0.015093152 -0.010598866
0001c0 da e7 2a bd 43 0f 83 3c ba 6f 9c bd 6f 79 fa 3c
       -0.041725017 0.015998488 -0.07638498 0.030575482
0001d0 2f b8 92 bd 8d 94 5f bb 03 0c 7d bd b8 89 b6 bd
       -0.071640365 -0.0034115643 -0.061779033 -0.089129865
0001e0 f0 e9 3a 3c dd 8a 2d 3d fd 7a 0d bd 3e d5 53 bd
       0.011408314 0.04236876 -0.03454112 -0.051717035
0001f0 d3 b7 bb 3d 3a cf 9b 3b 37 0d c1 3c c4 6b 0e bc
       0.09165921 0.004754928 0.023565872 -0.0086926855
000200 2a ef 6a 3d 9c 04 58 bd 5a 6f 64 bb 14 e4 96 bd
       0.05735699 -0.05273877 -0.003485641 -0.07367721
000210 df 11 95 bd 48 97 b2 bd f8 88 1e 3c 4b 50 57 bd
       -0.07278799 -0.08720261 0.009676211 -0.052566808
000220 bc 67 60 bc 93 6e 62 3d f0 5b 43 bd 0b 53 3d bd
       -0.013696607 0.055281233 -0.0476951 -0.046221774
000230 24 07 97 bd 86 c4 a3 bd fd 97 5f bb 98 61 16 bc
       -0.07374409 -0.07996468 -0.0034117692 -0.009178542
000240 64 ba da bc eb 16 d4 bc e6 fe b5 3c 34 f7 8d bd
       -0.026700206 -0.025889834 0.022216272 -0.06931916
000250 5d b1 3f 3a a8 7b 03 bd 1c 26 70 3d 76 35 1f 3d
       0.0007312501 -0.03210035 0.058630094 0.038869344
000260 c9 9d e8 bc fd 12 ba bc 0a 38 7f 3d a7 f5 6e bd
       -0.02839555 -0.022714132 0.062309302 -0.05833974
000270 55 b0 cb 3d ce 1a 69 bd 5b 05 f1 bc de ff b1 3d
       0.09945742 -0.05691033 -0.029421499 0.08691381
000280 68 1e af bd 7f 10 ac bd 66 be 18 bd 72 bd a3 bd
       -0.085507214 -0.08401584 -0.037290953 -0.07995118
000290 da 4b da 3c 69 e6 5c 3d 04 1b e5 3c f3 97 5e bd
       0.026647497 0.053930674 0.027966984 -0.05434413
0002a0 f2 c0 ba bc 03 f9 a1 bd a0 11 ea 3b bb 8f 1b 3d
       -0.022797082 -0.07908823 0.0071432143 0.03797887
0002b0 2b 0d fc 3b a5 0e a8 bd 7a 9b df bc 79 c0 1f 3d
       0.0076919994 -0.08205918 -0.027295817 0.039001916
0002c0 05 52 38 bc d9 2b 98 3a 6b 45 2e 3d d8 45 09 3d
       -0.011250024 0.0011609747 0.04254667 0.033513874
0002d0 b5 fd da bc 99 67 7d 3d d0 34 91 bc ee 70 50 3d
       -0.026732305 0.061866377 -0.017725378 0.05088895
0002e0 65 70 8b bd 4f f4 37 3d b3 a3 2f 3d 62 2d 12 bd
       -0.06808547 0.044910725 0.042880725 -0.03568781
0002f0 fc 71 a6 3d 08 62 2d bc 40 95 8a bc 49 0d 21 3d
       0.081272095 -0.0105824545 -0.016916871 0.03931931
000300 60 e6 61 bd 29 6c ab 3d 02 11 ec bd 5e 0d 2e bd
       -0.055151343 0.08370239 -0.115266815 -0.042493217
000310 93 42 6b bd c1 63 19 3c 18 e3 cf bc 01 d2 9e 3d
       -0.057436537 0.009362162 -0.025376841 0.07754899
000320 5f 63 aa bd 45 a4 a2 bb ae 7e 53 3c 23 97 37 3c
       -0.08319735 -0.00496343 0.012908621 0.011205467
000330 33 40 9f 3d 1f 3e 8c 3d 98 cb f5 bc f6 4b e0 3d
       0.07775917 0.06847786 -0.030004308 0.109519884
000340 0b 84 b2 bd d9 4b c6 3b 4b 7a 8d bc e6 be da bd
       -0.087165914 0.006051522 -0.017270228 -0.10680942
000350 63 ca 30 bc 20 15 95 bd a7 24 39 bd dd a0 79 bd
       -0.01079044 -0.0727942 -0.04520097 -0.060944427
000360 c7 9a 79 3d 18 53 30 3d 90 fa 62 3d e7 3d 6c bc
       0.060938623 0.043047994 0.055414736 -0.014419056
000370 a9 d6 fa bc 94 62 b8 bb f7 0b 30 3d 5d 21 60 bd
       -0.030619936 -0.005626986 0.04298016 -0.054719318
000380 c0 dc 1f bd 2d d5 b8 3d fa 5b ac 3d 33 9f 1b be
       -0.039028883 0.09025035 0.08415981 -0.15197448
000390 bb ff 8a bb d9 74 d0 bc 09 97 a9 bd fd 80 71 3d
       -0.004241911 -0.025446342 -0.08280761 0.058960903
0003a0 ee ef 8c bd 9a ae b8 3c 25 11 db bd 3b c6 21 3d
       -0.068817005 0.022544194 -0.106966294 0.039495688
0003b0 7a 95 a1 3d e2 76 62 bd 52 cf 22 3c 6d aa 89 3d
       0.078898385 -0.055289157 0.009937124 0.06721959
0003c0 03 df a9 bd a7 89 c1 3d 69 66 c3 bc f4 67 05 bd
       -0.08294489 0.09450083 -0.023852544 -0.03256984
0003d0 05 a3 83 bd 04 83 a6 3d 13 2e 16 3d c1 83 19 3b
       -0.06427578 0.08130458 0.036665034 0.0023424479
0003e0 cd 07 a9 bd e8 a6 55 bd 59 53 b2 3d 2f da c6 3c
       -0.08253441 -0.052161127 0.087073036 0.02427396
0003f0 fc b4 7f 3d a5 9a 4c 3c 69 76 f5 bb 2a 05 b1 bd
       0.06242846 0.012488042 -0.007490922 -0.08643563

lstm.bias_ih_l1 f4 [512]
000000 1e 9b 3a bd 83 03 80 bd 1a 31 ae 3d f3 20 be bb
       -0.045558088 -0.0625067 0.08505459 -0.0058022677
000010 b2 75 ca 3d 6e 14 0e bc e6 d8 f7 3a 68 f5 02 3d
       0.0988573 -0.008671863 0.0018909245 0.03197232
000020 a7 22 2b ba d0 04 57 bd 40 32 91 3d 05 a8 a8 3d
       -0.0006528296 -0.052494824 0.070896626 0.08235172
000030 0a d2 c4 3d 59 b9 96 3c 08 79 03 bd f4 02 33 bd
       0.09610374 0.018398928 -0.032097846 -0.04370399
000040 20 0e 28 3d af af 2b bd 3f 76 63 3d 85 96 a1 bd
       0.041029096 -0.04191559 0.05553269 -0.078900374
000050 27 e5 a2 bd 23 c3 ba 3c 95 cb 9a bc 46 8d 62 3d
       -0.079538636 0.022798127 -0.018895904 0.05531051
000060 c1 36 c2 3d ca bb 6e bd e1 be 8f 3d 79 4e 8d bd
       0.094831 -0.05828456 0.07018829 -0.06899733
000070 6d 45 a3 bc 71 69 00 3c 06 6b f5 3d 01 4b 16 3c
       -0.019930566 0.007837639 0.11983304 0.009173156
000080 af d9 84 3c 93 cb fe 3b e5 bb 0f bc 88 f3 f0 bc
       0.01621708 0.007775733 -0.008772825 -0.029413
000090 3c b3 f1 3c a6 55 83 3d 5c 72 b8 3d 87 5d 83 bc
       0.02950441 0.064128205 0.09006187 -0.016035808
0000a0 ad a9 92 bc 2a 43 86 3c 96 70 82 bd 43 31 13 3d
       -0.017903173 0.016389448 -0.0636913 0.03593565
0000b0 e4 e9 3c bc fa 85 ff 3b 6a 9f 07 3c 2b 8a 33 3d
       -0.011530373 0.0077979537 0.008277753 0.04383294
0000c0 01 46 f1 3d b1 c7 ad bc fd 6f 1a 3d 6a e7 89 bd
       0.1178093 -0.021213384 0.037704457 -0.06733592
0000d0 c4 5f 8f 3d bc 95 03 3d 10 5a f0 bc 9f fd 4b bc
       0.07000688 0.03212522 -0.02933982 -0.012450605
0000e0 cc 7c c3 3d 32 6d b8 3c 1c 6d a3 bd 53 5f 55 bd
       0.095452875 0.022513006 -0.07979795 -0.05209286
0000f0 4f 03 41 bd 32 5e ae 3d 54 82 8c bd 3d e1 da 3b
       -0.047122296 0.0851406 -0.068607956 0.0066796825
000100 b6 ad 85 3d 6b 7c 78 3d 46 ca 8c bd 0f c6 99 3d
       0.06527273 0.06066553 -0.06874518 0.0750848
000110 ce fa 13 bd 49 7b cd bc 80 8e 97 bc db 90 6b 3d
       -0.036127858 -0.025083201 -0.018500566 0.05751119
000120 ab 1e 6d bd 6e 35 2a bc a8 ad db 3d 39 e5 c4 3d
       -0.057890575 -0.010388715 0.10726482 0.09614033
000130 04 35 5a 3c 02 86 5a 3c e3 b9 a5 bc 1a 98 7d 3d
       0.013318304 0.013337614 -0.02023024 0.061912633
000140 81 f3 cf bc 9f 5c 2e 3c 32 10 8e 3d 89 69 6f 3c
       -0.025384666 0.0106422 0.06936683 0.014612564
000150 f7 43 a9 3d bf 2f 8a bd a2 08 b4 bb 3c 33 b7 3d
       0.082649164 -0.06747388 -0.005494193 0.08945319
000160 91 56 98 3d a4 38 ff 3c 08 c3 74 bc 3a bd 01 3d
       0.07438386 0.031154938 -0.014939077 0.0316746
000170 64 0d 91 3c 42 ee c0 3d cc 24 8a bd b9 79 91 3d
       0.01770658 0.09420444 -0.067453 0.07103295
000180 ae 90 f6 bc e6 75 ac bb 92 99 c3 bc f9 7b ad 3c
       -0.030098286 -0.005263078 -0.023876939 0.021177279
000190 2b cc b8 3d b6 f7 6e bd b2 e0 ac 3d 80 b9 67 bd
       0.09023317 -0.058341704 0.08441295 -0.05657339
0001a0 4c f7 32 bc 01 7f cc 3b aa 15 dd 3d cc c2 66 3d
       -0.010923218 0.006240726 0.10795148 0.056338117
0001b0 e8 31 b3 bc 8b c3 cc bc 31 bd 54 bc e5 2b ce 3b
       -0.021874383 -0.024995586 -0.01298456 0.0062918537
0001c0 37 3b 61 bd e1 f7 10 bd b0 f4 9f 3d cd d0 83 bd
       -0.054988112 -0.035392646 0.07810342 -0.0643631
0001d0 5e 41 a2 bd c7 5c 94 bd 4f 5b 86 3c 7e 98 7d 3d
       -0.07922624 -0.072442584 0.016400961 0.061913006
0001e0 3d 4a 9d bd 4b 8e 92 3d 7c 0f a5 bd ea 5c 54 3d
       -0.076801755 0.071560465 -0.08059594 0.051846422
0001f0 75 5d 06 3d 44 ee 78 3c 85 b4 18 3d 50 62 a6 3d
       0.03280397 0.015193526 0.03728153 0.0812422
000200 d2 5b 32 bd cc ca e8 3c 75 a0 18 3d b5 9b 79 bd
       -0.043544598 0.028417014 0.0372624 -0.06093951
000210 29 f5 1a 3d eb 2b 97 3b 37 f4 20 bc cd a3 82 3c
       0.03783146 0.0046133897 -0.00982385 0.015947247
000220 2d 3b 51 3d af b6 a7 bc 92 a6 22 bd 7e 71 72 ba
       0.051081825 -0.020472853 -0.039709635 -0.0009248479
000230 24 2b 3a bd 8d e4 89 bd aa 7e 25 bd 74 1e f9 bc
       -0.0454513 -0.06733046 -0.040404 -0.030410029
000240 4d 6b 6f bc 3f 3b 51 3d 48 5d 13 bd 25 da 83 3d
       -0.014612985 0.051081892 -0.03597763 0.06438092
000250 1a 6e 1d bc 72 ef 7d 3d 56 93 18 bd a9 86 1b bd
       -0.00960877 0.06199593 -0.037249885 -0.03797022
000260 0d 53 8e 3c 7a 40 59 bd 70 31 2f bd c5 53 59 bd
       0.017373586 -0.053040005 -0.042771757 -0.053058404
000270 24 e6 8a 3d 90 1e c1 3d 30 81 3e 3d f2 8e 32 bc
       0.06782177 0.094296575 0.04650992 -0.010898339
000280 c4 09 d2 3d d3 44 66 bd f2 d6 c9 3c 87 da 26 bd
       0.10255769 -0.05621798 0.024638627 -0.040735748
000290 00 67 b9 3d ff d0 aa bc 9b 5a 3d 3d 6c 28 2b bb
       0.09052849 -0.02085161 0.046228986 -0.0026116623
0002a0 61 e6 1c bd f6 ba 2e 3c d2 54 c4 3a db a6 99 3c
       -0.038305644 0.010664692 0.0014978892 0.01875632
0002b0 a4 b2 a0 3d 77 4a b4 3d 35 3f da 3d 73 7c 70 bd
       0.07846573 0.088032655 0.10656587 -0.058712434
0002c0 4b 75 e5 3d 24 5d 92 3c 33 d1 a1 3d d8 a7 fa 3b
       0.112040125 0.017866679 0.0790123 0.007649403
0002d0 9f c1 64 3d 81 c2 d6 bc 72 a6 b8 3d dd 97 a1 3c
       0.055848714 -0.026215794 0.09016122 0.019725734
0002e0 c9 1f c9 3d 52 de d8 3d 14 70 42 bd 14 f9 a3 bd
       0.09820516 0.10589279 -0.047470167 -0.08006492
0002f0 6c 8e ae bc 71 96 ac bc a3 f5 a2 3c b5 f5 17 3d
       -0.021308146 -0.02106783 0.01989252 0.03709956
000300 1a be a1 3d 87 e9 de 3b 03 93 bb 3d 7c b8 03 bd
       0.07897587 0.006802741 0.091589 -0.03215836
000310 32 c8 73 bd d9 59 59 bd 9c 19 b6 3d e6 f7 04 bd
       -0.059517093 -0.0530642 0.08891603 -0.032462977
000320 4f 61 7f bc 9a e6 a2 3d aa 45 65 3d 42 e3 66 3d
       -0.015587165 0.0795414 0.05597464 0.056369074
000330 00 5a af 3d 1f f2 81 3b 4c 92 8a 3d ea c9 b8 3d
       0.08562088 0.0039656307 0.06766185 0.09022887
000340 53 e6 92 bc b7 90 f2 3d 6f 2d 72 3c ab a9 b5 b9
       -0.017932093 0.118440084 0.01478134 -0.00034649423
000350 38 91 05 bb b7 96 c4 3d 81 e3 b6 3d 5c 06 43 3c
       -0.0020380747 0.09599059 0.08930112 0.011903372
000360 d6 28 d2 38 c4 67 6b 3c 26 57 92 bd 9a d7 19 bd
       0.000100211866 0.014368001 -0.071455285 -0.03755913
000370 02 23 35 3d fe c8 fd 3c a0 f2 a3 bb b5 05 07 3d
       0.04422284 0.03097963 -0.0050032884 0.032964427
000380 8d 1b 34 bd a4 57 77 3c b3 70 87 bd 86 bc 80 3c
       -0.043971587 0.015096579 -0.066132925 0.015714895
000390 d3 3e 05 bc d8 3d 4d 3d 55 51 88 bd cc 7f dc 3c
       -0.008132654 0.050107807 -0.06656138 0.026916407
0003a0 99 7c 29 3d 17 38 c1 3d a3 9c 2f 3d d2 08 a5 3d
       0.04137859 0.094345264 0.04287399 0.08058323
0003b0 2b 8b b7 bc 10 7d c4 3d b2 cc d6 bc 8b eb 1a 3a
       -0.022405228 0.09594166 -0.026220653 0.00059097324
0003c0 1f f5 33 3d 42 96 57 3d e5 46 6c bd c5 39 26 3d
       0.043934938 0.05263353 -0.057684798 0.040582437
0003d0 b3 91 31 3c cd 55 3d bd 84 c3 46 bd e9 a9 04 3d
       0.01083796 -0.046224404 -0.048526302 0.0323886
0003e0 a9 13 92 3d 11 50 a9 bd 77 c6 ac bb 93 52 a9 3c
       0.07132656 -0.082672246 -0.0052726823 0.020669257
0003f0 b8 bf ee 3d 93 e3 e9 bc 5e 0f 99 3c 6d 9a 68 bd
       0.11657661 -0.028550899 0.018684085 -0.056787897
