Data/PredictionsData/AB27.pth (torch, 828430 bytes, 10 tensors)

lstm.weight_ih_l0 f4 [512, 13]
00000000: a442 b6bc 164d 6abd 60a1 423d e637 a2bd
00000010: eb2d bdbd fb02 8b3d 091e 09be 2726 b1bc
00000020: 7a3c 433d 27e9 e73c bccd 05be f2a9 bbbd
00000030: 51cf 8d3c c34d 893d 205d 61bd f3f3 b13c
00000040: 1211 27bd 3ebf ffbc 63a6 f9bd 2427 76bd
00000050: b0d1 943d 6168 9fbc 0446 89bd b62c ab3d
00000060: 45de 90bd 410c 443d a292 443c 63f7 14bc
00000070: 6372 f63c 7961 1b3c 9694 6cbd 4738 34bd
00000080: c723 aabc 4faf 00bd 8825 cc3d 2331 6ebd
00000090: 6e4d 193d a4e7 b3bd 3b1e d4bc 3478 b33c
000000a0: 74cd 6abd 5aca e5bd f27d 803d 92d4 0e3d
000000b0: 4d28 a4bd 3dde 65bd 5438 b4bd 1da9 e83d
000000c0: e8e0 863c 7478 623d 6fc8 dbbd 87f8 e03c
000000d0: c16c 9bbd 5cdf 4cbc f016 653c 0d6a 84bc
000000e0: 1307 8e3d e264 d0bd 1202 7bbd 9ce8 93bc
000000f0: d31b c6bd 503d 983d cacd 6ebd f514 aebc
00000100: 33a6 ed3b 1373 2d3e 0e2c 8ebb 9f6c 533c
00000110: 8b8a 283d 00d0 9d3d 46b4 023c d86c d6bb
00000120: 151e 8fbb 799d ae3d af36 143d 8cef 6f3c
00000130: 4881 903b bf12 68bd 6e80 ff3c c25e ee3d
00000140: c6d6 bbba 6805 913d 9782 85bd 134e 353d
00000150: 6d7c 333d e9ce 053c 966d fc3d daaa 20bc
00000160: 4526 99bd a422 843d 5927 e93b 7181 313d
00000170: d820 b73d af9c 943d 2c7f 7abd 7ff5 993c
00000180: 94bb 3d3d d425 103e 5cc4 c6ba 3ef4 883d
00000190: 8359 603d c570 d13d b384 97bd 3729 0a3d
000001a0: 5bec 153d 052b 713d 4aef 093d ac72 223d
000001b0: 113f c4bd 6de6 1cbe d194 073c 9d4e b8bc
000001c0: 3fe5 923d 94bd f73c 3064 d03d 2df2 28bd
000001d0: bb03 54bd df2c a63d b781 92bb 71c0 3a3d
000001e0: 0e4e 26bd 6bd2 313d dda9 2e3b 067b 04bd
000001f0: 9231 ac3c 3d7a bbbc ce2c 153d 9390 d7bd
00000200: 3bd2 7bbd 843a fcbd fc24 a93b 4113 58bd
00000210: 6052 bebd 5f10 fd3c f13c f73d 92b4 4c3c
00000220: 391d 81bd a3cc a23d fe52 4b3d 311d a4bd
00000230: 47c6 243d cc5c 95bd f6f3 803d 9f05 a5bc
00000240: 9154 7c3b 9ff6 6ebd cb7c 0dbb 0d64 5abd
00000250: e993 bbba 6cd3 343e 2301 6dbd 6327 c0bd
00000260: 630d 0bbd 3e8b 3a3b 11a8 843c 332d 75bd
00000270: dcde ba3d 60ba 393d 3bb5 dd3b 3933 8c3d
00000280: 21cc 8bbd d467 cb3d 86b5 6cbd f7cf c2bd
00000290: a53e 0cbd a057 ea3d 7323 31bc 81b1 e13d
000002a0: 15f8 233d 576e 383d 374f c83c 6a49 da3c
000002b0: 3b95 06bd 2373 18bd 7f35 763d 285d cc3c
000002c0: 2d0e 293d d446 b0bc dab4 303b 715c fdbd
000002d0: 2af1 db3d 8f89 0ebd f5f7 153c 9055 a63d
000002e0: 21c1 2a3d 68be 8a3c f4a5 983d 867d dbbb
000002f0: b1ca fbbc 6d4d 40bd 17cf cf3b 016a 463d
00000300: 0f08 33bd 1600 45bd 651b 283d 75a9 913a
00000310: db36 b23d 4715 853d e5b1 183d 32aa 843d
00000320: 035d c33b 756e 8e3d cc6f b83d 5e1d bcbd
00000330: c85b 6b3a c6d6 bfbc 7474 e63c 40c4 cbbc
00000340: ad2a b7bc f889 c7bc 014f 54bd c26a ac3d
00000350: 0d1c 43bc 3d67 0e3d 63eb 253d e75a ecbc
00000360: 2e9d ec3d 722b f4bb 3f7c d73d 27a8 59bd
00000370: ab21 d93d b1f8 a1bc b6d5 30bd a2f5 823d
00000380: 6e10 923d df56 2c3c 0225 ad3c a7c3 26bc
00000390: c24e cf3c 1957 343c 1146 0d3d b658 79bd
000003a0: 2d11 5c3d 879e e4bc 4443 a03d f9ff 6c3d
000003b0: 3723 74bd bb1b 3cbd 6a72 713d cda4 093e
000003c0: 827e cc3b 12db 7cbd c202 053d 143e 173b
000003d0: 7737 c2bd 7ef1 a83d e219 2cbd 05ca d1bd
000003e0: 228f babb 3d5a 69bd 0f9e 07be 4872 31bd
000003f0: 54a2 863d a29a ab3d 431a d33c 9b9a ed3d
-0.022248574 -0.05720242 0.04751718 -0.07920818 -0.09237274 0.06787678 -0.13390364 -0.021624638
0.047665097 0.028309418 -0.13066763 -0.09163274 0.01731077 0.06704285 -0.05502045 0.02172277
-0.040787764 -0.031219121 -0.12189939 -0.06009592 0.07266557 -0.019458951 -0.067028075 0.08358137
-0.070736445 0.04786325 0.011997851 -0.009092185 0.03008384 0.0094836885 -0.05775889 -0.043998983
-0.020769013 -0.031417187 0.09968096 -0.05815233 0.03742736 -0.08784416 -0.025893321 0.021907903
-0.05732484 -0.11220236 0.06274022 0.03487069 -0.08015499 -0.056120146 -0.08799806 0.11360381
0.016464666 0.055290654 -0.10731589 0.027462257 -0.075891025 -0.012504425 0.0139825195 -0.01616385
0.06934943 -0.10175492 -0.06128127 -0.018055253 -0.09673276 0.074335694 -0.058301724 -0.021250227
0.0072524785 0.16938429 -0.004338748 0.012904315 0.04114775 0.077056885 0.007977551 -0.006543737
-0.0043675997 0.08526129 0.036184963 0.014644515 0.004409943 -0.056658503 0.03118917 0.11639167
-0.0014330975 0.07081109 -0.06519049 0.04426391 0.043819834 0.008167007 0.12325589 -0.009806359
-0.074780025 0.0645192 0.0071152863 0.043336336 0.08941811 0.072564475 -0.061156437 0.01879382
0.046321467 0.1407693 -0.0015164721 0.066872105 0.054772865 0.10226587 -0.07398357 0.03373071
0.03660236 0.058878917 0.03367547 0.03966014 -0.095823415 -0.15322275 0.008275227 -0.022498423
0.071726315 0.030241765 0.10175359 -0.04124658 -0.05176137 0.08114027 -0.0044710296 0.045593683
-0.040601783 0.04341356 0.002665154 -0.032343887 0.02101973 -0.022885436 0.036419682 -0.10525622
-0.06147979 -0.123158485 0.0051618796 -0.052752737 -0.092930555 0.030891595 0.120721705 0.012494223
-0.06304402 0.079491876 0.049639694 -0.0801338 0.040228155 -0.0729309 0.06296532 -0.020144282
0.0038502554 -0.058340665 -0.0021589275 -0.053318072 -0.0014311048 0.17658776 -0.057862412 -0.093825124
-0.033948313 0.0028464342 0.016193422 -0.05985756 0.09124538 0.045343757 0.006765989 0.068457074
-0.06826044 0.09931913 -0.0577903 -0.095123224 -0.03423943 0.114424944 -0.010811674 0.11020184
0.04003151 0.045027103 0.024451835 0.026646335 -0.03285716 -0.037219178 0.06010961 0.024946764
0.041273285 -0.021518148 0.0026963265 -0.123711474 0.10739358 -0.034799155 0.009153356 0.081217885
0.04168809 0.016936496 0.07453528 -0.006698313 -0.0307363 -0.04694884 0.0063418257 0.048440937
-0.043708857 -0.048095785 0.04104175 0.0011113124 0.08701869 0.06498199 0.03727903 0.06477775
0.0059620156 0.06954662 0.090056986 -0.09185289 0.0008978215 -0.023417842 0.028131701 -0.024873853
-0.022359217 -0.02435778 -0.051833156 0.084188 -0.011908543 0.034766424 0.040507685 -0.02885194
0.11553417 -0.007451468 0.10521745 -0.05313888 0.10602125 -0.019771906 -0.04317256 0.06394507
0.0713204 0.010518759 0.02113581 -0.010178483 0.02530611 0.011007094 0.03449065 -0.060875617
0.053727318 -0.027907623 0.0782533 0.057861302 -0.059603896 -0.045924883 0.058947004 0.13441773
0.006240667 -0.06173236 0.032473333 0.0023077773 -0.09483235 0.08249186 -0.04201687 -0.1024361
-0.0056933323 -0.056970824 -0.13243888 -0.043321878 0.065739304 0.08379103 0.025769359 0.11601754

lstm.weight_hh_l0 f4 [512, 128]
00000000: 81f8 a43b 4f9a c6bd a982 babb 7561 1b3e
00000010: 8c7c d83c ee15 723b bd34 dbbd f4ed a73c
00000020: 1bf3 9f3d bbee d63d 5b4d be3c 43fa 53bd
00000030: f665 a7bd ea1e 91bd 7caa 063d 3b7f bfbc
00000040: cfbc 523c 2d96 98bd 02da 813d e59b edbd
00000050: 5f41 833d f536 8a3d b5f4 8ebd 7c5e 203e
00000060: af7e a7b9 2dbc 983d 2a33 d43b 9f26 a73d
00000070: 7580 26bb 633c a2bd 2b26 71bd ca7c 133c
00000080: 0b8f 8bbc 9485 e1bd e7a6 3cbd 82e6 8dbd
00000090: d6ae 813d 2382 fcbd 56bd 953d 3393 b7bc
000000a0: 6292 203d 9dea 56bd b9ee bf3d 5daf 14be
000000b0: f519 d1bc 6d23 ec3d b2a6 25bc b645 0c3d
000000c0: 3941 213d 1f50 e73c 493f 803d d2c5 9fbd
000000d0: 6016 6ebd 5dc1 b2bd cc56 2f3c 929c 113c
000000e0: d924 a3bd 5af3 203d 40f0 873c e024 de3c
000000f0: 57f7 2cbe 2cff 83bd ffdc 913d 0187 b83d
00000100: 745f acbd a7e4 b5bc 31c7 c03c 0504 a43d
00000110: fd8c 89bd 1de7 c23c 04ba e4bc e9b8 e63d
00000120: 8c50 813c 65b6 9f3d ef3d ff3b f53f b93d
00000130: e06d 1f3c b73d 2e3d c100 a83d e67c 453d
00000140: 840e f8bb 4daf 023e ef42 adbd 13df 64bd
00000150: e1df 993d efb0 56bd ac8b 2dbd a2f6 7f3d
00000160: 99ae 15bd 422d 8f3c 3e22 b7bd 29e4 db3c
00000170: 2c69 823d 1bea eebc fd7e 28bd c114 843d
00000180: e863 a1bd dfa8 fdbd 395f 6d3d 0dcd fb3c
00000190: 5019 a8bd e095 563d 56a6 12bd 60b9 073c
000001a0: b081 d5bc 7dec 833d ef92 ba3d 7d33 82bc
000001b0: 227a 5c3d a162 eabb 8c59 0739 868a 293d
000001c0: 378f 843d f8dc 453d e4c1 56bc 5475 703d
000001d0: ca81 d33c 6aef a33d d5c4 053c cc29 223d
000001e0: 1164 62bd dc0f acbd 2e40 94bd 4e31 473d
000001f0: 0484 9abd dd37 07bd fe4e bd3d 5e16 dabb
00000200: b082 c03d edf1 cf3d feaa 6bbd ece2 673d
00000210: 92ea bb3d 122c a1bd a02d fc3c 5038 ebbc
00000220: 9b2b c33d 2bc6 443b 1bf6 263d dd0f 943c
00000230: 003c 0b3d 79a9 4cbd cfee ed3d 7a64 bd3d
00000240: 58e6 3ebd 14ce 97bd cfb1 a8bd 4ce7 0c3d
00000250: 8c03 9cbc b5fc 2fb8 f88e 95bd e118 78bd
00000260: 64da babd 9fb5 cebd ad73 f43d fd59 633d
00000270: d1ba 553d 919b e3bd 64ab b03c 77e9 eebc
00000280: 3f35 8e3d 944c 63bd b949 6d3d 67df a3bd
00000290: 07ea 9f3d 2789 57bd bb2b 20bd 83a6 ca3d
000002a0: 2896 4ebd 3bd6 d23c 0aff b9bd c440 82bd
000002b0: fce9 553d 0ad3 2fbd 69a8 a9bd d553 c33c
000002c0: ae38 863d 96c9 a73d a626 ae3c c6f3 9c3d
000002d0: c3b2 c1bd 5659 113d ec17 c3bb 41fe c13d
000002e0: ca91 83bb f87f 9a3c fb18 47bd d1c4 2e3b
000002f0: 0b40 ea3b 9fed 603c a70d b6bc 5484 9ebd
00000300: 19ba 833c d79d 173e 732f 3dbc a057 0cbd
00000310: 7628 bebc 9162 89bd 1bb9 ad3d f87b 963d
00000320: a249 9638 4ac0 8c3c 39f0 6c3d 50bc d6bd
00000330: 3d09 8e3d 2fd9 6dbd 7039 e9bd ebc9 17bc
00000340: c8bd d1bc 958c af3d a4e3 0fbc c0b1 a23d
00000350: aa93 83bd 69e1 ec3d 0c9f ba3d a3c7 c93c
00000360: 2bfb dabd 4461 573c 9114 163d 4f14 cebd
00000370: 0dd2 63bd 5805 01be 1fd8 7f3d eccf 113d
00000380: e403 bf3d 6793 43bd 3818 d03b b59e 42bd
00000390: 1e66 36bd 3aff 233d c57a dc3d 9b60 583c
000003a0: ac50 963d fd2b 67bd 1a52 a13c 5a1a 48bd
000003b0: 4e5e 48bd d65c 183d 22a5 f7bc 5e8c 3cbd
000003c0: a5b0 c0bd 52c7 1ebd 4126 0abd f421 3f3d
000003d0: 2bf3 7fbd b238 9c3d a720 aebc 238e af3d
000003e0: 1642 babb f009 9bbd e5fd 083d 0078 6f3d
000003f0: 5789 8fbc ba83 afbd 0c50 6f3d ff40 253d
0.005034507 -0.09697401 -0.0056918454 0.15173896 0.026426576 0.003693934 -0.107034184 0.020499207
0.078100406 0.10494753 0.023230245 -0.05175234 -0.081737444 -0.070859745 0.03287743 -0.023376098
0.012862398 -0.07450519 0.0634041 -0.11602 0.06408953 0.067487635 -0.06980268 0.15661043
-0.0003194711 0.07457767 0.006475826 0.08161663 -0.0025406156 -0.07921674 -0.05887429 0.00900192
-0.017035982 -0.11011806 -0.046057608 -0.069287315 0.063321754 -0.12329509 0.073115036 -0.022409057
0.0392021 -0.05246984 0.093717046 -0.14520021 -0.025525073 0.115301944 -0.010110544 0.03424617
0.03936884 0.028236447 0.06262071 -0.07801403 -0.058126807 -0.08728287 0.010701846 0.008887427
-0.079660125 0.039294578 0.016594052 0.027117193 -0.16891228 -0.064451545 0.0712223 0.09010125
-0.08416644 -0.022203756 0.023532482 0.08008579 -0.067163445 0.023791844 -0.02792073 0.112657376
0.015785478 0.07798461 0.0077893655 0.09045402 0.009730786 0.042539325 0.08203269 0.048214816
-0.00757009 0.12762184 -0.08460032 -0.055876803 0.07513405 -0.05241483 -0.04236953 0.062491067
-0.036543462 0.017477635 -0.08942078 0.026842194 0.06367716 -0.029164365 -0.04113673 0.06449271
-0.07880384 -0.12385725 0.05795214 0.030737424 -0.08207953 0.052389026 -0.03580316 0.008283943
-0.026062816 0.06441591 0.091100566 -0.015893692 0.053827412 -0.0071528708 0.00012907962 0.041391872
0.064726286 0.048306435 -0.013107751 0.058705643 0.025818724 0.08004649 0.008164604 0.03959064
-0.055271212 -0.084014624 -0.07238804 0.048631005 -0.07544711 -0.03301226 0.09243582 -0.0066554984
0.09399927 0.101535656 -0.057536118 0.056612894 0.091756 -0.07869734 0.030783474 -0.028713375
0.095298015 0.0030025344 0.04076205 0.01807397 0.033992767 -0.04996631 0.11617815 0.0924768
-0.04660639 -0.07412353 -0.08237039 0.03440027 -0.01904466 -4.1958603e-05 -0.0730266 -0.0605706
-0.09123686 -0.10093235 0.11936126 0.05550574 0.052180115 -0.11113656 0.0215661 -0.02916406
0.0694375 -0.055492952 0.057931636 -0.08001595 0.07808309 -0.052621033 -0.039104205 0.09895041
-0.05043617 0.025736919 -0.09081848 -0.06360009 0.052225098 -0.042925872 -0.08284075 0.023843685
0.065537795 0.08192746 0.021258663 0.076636836 -0.09457924 0.035485588 -0.0059537794 0.09472323
-0.004015182 0.018859848 -0.048607808 0.0026667605 0.007148748 0.013728528 -0.022223307 -0.07740083
0.01607995 0.14806305 -0.011546957 -0.034263253 -0.023212653 -0.06708253 0.08482572 0.07347864
7.1662726e-05 0.017181534 0.05784628 -0.104851365 0.06935356 -0.05806845 -0.113879085 -0.00926445
-0.02560319 0.08571736 -0.008782301 0.07944059 -0.06424649 0.11566431 0.09112367 0.024631327
-0.10692438 0.0131457485 0.036640707 -0.10062467 -0.055620242 -0.12599695 0.06246197 0.03559868
0.09326914 -0.047747996 0.0063505433 -0.047514636 -0.04453098 0.040038325 0.10765604 0.013206626
0.07339606 -0.056438435 0.01969247 -0.048853256 -0.04891806 0.03719791 -0.030230109 -0.046032302
-0.09408692 -0.038764305 -0.033727888 0.04666324 -0.062487762 0.07628001 -0.021255804 0.08572032
-0.0056841476 -0.07570255 0.033445258 0.05846405 -0.017521543 -0.08570047 0.058425948 0.04034519

lstm.bias_ih_l0 f4 [512]
00000000: 28ce 8e3d 1ac1 56bc 038f 693c 4c84 503d
00000010: 9a50 09bd 7a78 863d bfa3 f03d 3759 9abd
00000020: 988e de3d b5ab 513d af96 08bd c967 bf3d
00000030: ef4e 063d 73d6 e83d fa93 683d 44be 9b3d
00000040: 6fba 9a3d dcea 26bd b1e7 cf3d e4c9 023e
00000050: b1c0 fd3d 9527 10bd 78a1 403c 0ca6 d2bc
00000060: 1dae 63bc af51 c93d 6341 34bb be67 56bd
00000070: 2c2d 57bc 3c6b 043e 0aec 6fbd bcdb 093d
00000080: 7426 d23d 7add 2ebd 4b33 3d3d 517f db3d
00000090: 3a36 fdbb 16da af3d 47e7 83bd 2cfe 8e3d
000000a0: a9ae 003d fca1 753d 369c 463d e4fe 55ba
000000b0: 6961 bc3d b8d8 023e 6bc4 c9bc e84b 073d
000000c0: 0413 e73d 53da ad3d 7be6 bebb 04d8 563d
000000d0: 4010 7bbc 1d9f a13d 61c9 f23d 7d57 8cbb
000000e0: 0aab 0abc 61ce d2bc 3a50 b13c 248d 8dbd
000000f0: 8085 163d 4037 dc3d 25e1 bf3c 4e8a 6c3d
00000100: 6a83 b2bb 4182 f93d 1d38 c73d 688d b4bc
00000110: a7be 073d e342 63bd f356 97bc 5673 e53d
00000120: c2e9 dc3d 0b91 973d fde7 45bd 64a6 45bd
00000130: 5c63 133d 710b de3d 74ce 8dbc 9211 df3d
00000140: c821 893c 1005 e33d c814 933d 95fd 1cbc
00000150: ec84 7d3d 2aa2 e1bc 2967 e23b e60e af3d
00000160: d7e2 283d 497a 513c 5543 d43c d4f6 b23d
00000170: 7a01 bd3b 5769 4a3c 1ba1 183d ba7c 803d
00000180: 88f1 50bc 0a37 46bc ef19 98bc f4bb 9d3d
00000190: 2e45 9bbb 78df b83d 9046 003d 70ef 6d3d
000001a0: a5e4 aabb 191d 3dbd b17f 7cbd 33c4 8b3d
000001b0: 34bf babc 94ac aa3a 54ff 9a3d ce7d 14bd
000001c0: d944 023d 1ce5 c13d 72ef 9b3d 5ab2 49bc
000001d0: c6e9 923d 320d b03d 012b 91bc b873 2b3d
000001e0: d16b 773b 4265 7cbb cde4 3b3d 9d11 943d
000001f0: 051f 9dbc 2ea8 cdbc 08af 583d 2a73 973d
00000200: 3358 853d 3ebf 5e3d 0c2e 6f3d 83ad 103e
00000210: 3f0c e93c b8a6 a13c 1641 89bc 774f 083d
00000220: 903e 36bc 8a6d a93c dff1 723b 9f5e 123e
00000230: e5fe 8f3d d4f4 63bc 36e8 973d 4e75 a43c
00000240: 8afd 863d d590 903c 80be 253d 6d73 79bc
00000250: 043a 08bd 359a 19bb 5d33 d13c fa47 623d
00000260: 66f8 443d 63aa 683d 0dec 303d b215 7eb9
00000270: ab8e ddbc 06ef d53d 1fb5 31bd d100 d0bc
00000280: 330c a2bc 2996 c43d fae9 04bd 21c9 8b3d
00000290: cc1c 9e3d cca6 1f3d bd76 3e3c 319d b9bc
000002a0: 4443 d53d 6dbf 10bc 5874 cc3d b26c f63d
000002b0: 2605 12bd dd79 2a3b 2c29 f73d 3659 af3c
000002c0: b8d6 2c3d 00cf 033d 242c a5bc a506 bfbc
000002d0: 0339 693d 0b26 b4bc fc99 893a 90ef 813d
000002e0: 3ea2 97bc f3ca 853c 3943 13bc f0a2 2bbc
000002f0: 0b9c 59bd d3c3 d03d 34f3 c13d 0b4c 813d
00000300: 54eb 0d3c a9b9 e8bc 4613 5bbd 86d7 5ebb
00000310: fbd5 21bc d65a 933d d899 853d cfc6 af3b
00000320: a81f 973d 09b4 5e3c 649c a33b 2580 a43d
00000330: 9534 3f3d f675 da3d 8f02 bb3c 73fd a3bc
00000340: 02d7 25bb 1769 84bd c91e b13d d89e e53d
00000350: c25b b93d efc2 993d 49d8 5e3d a518 903d
00000360: 0273 34bd f606 56bd 9303 c63d 1ab8 1c3b
00000370: 6dcb eb3d c6ec 78bd 5a34 84bd fecd 1d3e
00000380: eba7 483d bbfe 16bd eb46 84bc 0660 ef3c
00000390: f305 af3d 47c7 2c3d 8337 e0bc 6d4e bebc
000003a0: 489d bb3d 455f 283c f931 b4bb c9c9 a13d
000003b0: 49d7 31bc 5dfe 6b3c a807 993d 46f3 66bd
000003c0: 8db9 d83d f484 93bc e3e6 97bc 6996 393d
000003d0: 43fb cd3d d120 3bbd ec62 47bc ad87 1abd
000003e0: 11b8 a03d 3e09 833d b5d6 563d 96b9 9ebc
000003f0: 6900 8a3d 908b 53bd 04f3 e4bc 1f84 22bd
0.06972915 -0.013107562 0.014255288 0.050907418 -0.033524133 0.06565948 0.11749982 -0.07536548
0.10867041 0.051189143 -0.033346828 0.09345967 0.03279012 0.11369028 0.056781746 0.0760465
0.07555091 -0.040751323 0.101516135 0.12772328 0.123902686 -0.035194 0.011757247 -0.025713943
-0.013896492 0.09830033 -0.0027504794 -0.05234503 -0.013133328 0.12931532 -0.058574714 0.03365682
0.102612406 -0.042691685 0.046191495 0.10717643 -0.0077274116 0.085865185 -0.06440597 0.06982073
0.03141657 0.059968933 0.048488818 -0.0008163287 0.09198267 0.12777984 -0.024629792 0.033031374
0.11282924 0.08488908 -0.0058258153 0.052452102 -0.0153236985 0.078916766 0.11854816 -0.0042828904
-0.00846363 -0.025733175 0.0216447 -0.06911686 0.03674841 0.107527256 0.023422787 0.057749085
-0.0054477947 0.12183047 0.097275 -0.022040084 0.033140805 -0.05548371 -0.018474078 0.11203639
0.10786773 0.074007116 -0.048316944 -0.048254386 0.03598343 0.10842026 -0.017310359 0.10892023
0.016739741 0.1108495 0.07181698 -0.009581943 0.061894342 -0.027543146 0.0069092703 0.085477635
0.041231956 0.012785503 0.025911013 0.08738485 0.0057679983 0.012354217 0.037263017 0.0627379
-0.012752898 -0.012098083 -0.018567054 0.07701865 -0.0047384715 0.09026998 0.031317294 0.058089674
-0.005215245 -0.046170328 -0.061645214 0.068245314 -0.02279625 0.0013021403 0.07568231 -0.03625279
0.03180394 0.09467527 0.0761403 -0.012310589 0.07173495 0.08596267 -0.017720701 0.041858405
0.0037753473 -0.0038512503 0.0458725 0.07229922 -0.01917983 -0.025104608 0.052901298 0.07395013
0.06510963 0.0543816 0.058393523 0.1412869 0.028448222 0.019732818 -0.016754668 0.03327891
-0.0111233145 0.020682115 0.0037070436 0.14293908 0.07031039 -0.013913352 0.074173376 0.020075466
0.065913275 0.017647186 0.040464878 -0.015225274 -0.033258453 -0.0023437862 0.025537187 0.055244423
0.048088454 0.05680312 0.043193866 -0.0002423141 -0.027045568 0.10445981 -0.04338562 -0.025391014
-0.019781208 0.09598953 -0.0324497 0.06825472 0.07720336 0.03897743 0.011624989 -0.022657963
0.104132205 -0.008834702 0.09983128 0.12032451 -0.03564944 0.0026012578 0.120684 0.021404844
0.04219696 0.032179832 -0.02016265 -0.023318598 0.056939136 -0.021990797 0.0010498161 0.06344521
-0.01850998 0.016332125 -0.008988195 -0.010475859 -0.05312733 0.101936005 0.094702154 0.06313332
0.008662064 -0.028408842 -0.053485177 -0.0034002974 -0.009877677 0.0719506 0.06523484 0.005364276
0.07379085 0.013592728 0.0049930084 0.08032254 0.046681006 0.106670305 0.022828368 -0.020018315
-0.0025305157 -0.06465357 0.0864845 0.11211938 0.090507045 0.07507884 0.054405484 0.070359506
-0.044054992 -0.052252732 0.096686505 0.0023913444 0.1151341 -0.06077268 -0.06455298 0.15410611
0.048988264 -0.036864024 -0.016147098 0.029220592 0.085460566 0.042182233 -0.02737022 -0.023230756
0.091608584 0.01027662 -0.0054991213 0.078998156 -0.010854551 0.014403907 0.074721634 -0.056384347
0.10582266 -0.018007733 -0.018542713 0.045309458 0.1005769 -0.045685593 -0.012169581 -0.037727047
0.07847608 0.06398247 0.052450854 -0.019375604 0.067383595 -0.05164677 -0.02794791 -0.03967678

lstm.bias_hh_l0 f4 [512]
00000000: 7d53 db3b 228e ce3d d7d2 d53d fcde 733d
00000010: 839e 96bc f906 3dbd 0811 243d a4c7 5b3d
00000020: 25f0 20bd 0d76 c1bc 1de3 683d c183 c63d
00000030: a1f7 773d 469b cf3b 772e 523d c54b e9ba
00000040: 469b bb3d beea d03d 107b ae3d a0fb f63d
00000050: 95fc c0bb 96f0 463d 3807 4dbd 4757 913d
00000060: 5f13 f43d f39c 8dbd 4573 e23d ea60 b23d
00000070: e04e 883d 3411 173d b175 1dbd 27d9 b53c
00000080: b077 e63d 7d8b 03bd 3ade 6fbd 0b67 ba3d
00000090: 4d64 ca3d af46 013e 732e 68bd 6d43 c63c
000000a0: 46da d1bc 2426 ce3d e6a9 47bd 212a a23b
000000b0: 1465 8fbb c0a6 ee3a 733b f83c a5dd 7f3d
000000c0: 3c16 ef3d 63b5 8d3c 7aed 2ebd 1d9e 1f3d
000000d0: e5b8 103e daa3 b23d 4671 e9bc 93de cc3d
000000e0: b2be 20bd 3f2d 1cbd 1944 623c c89f 713c
000000f0: 1410 b53b 49d2 fbbc bf01 363d 1758 163d
00000100: 54db 593d 7b5e 0d3d 2cfc 383d 6aeb 19bd
00000110: c1a9 b2bc 0c1d 8e3d 3e7f 9f3d 49a7 11bd
00000120: 7045 7b3d 72af 483d a174 963d 8bde 4dbc
00000130: 940c 583d 08e0 d73d a902 903c b63c 273d
00000140: 6404 7a3d 0119 303d 79ff 483d f173 253d
00000150: e314 5a3d 322c 903c d8c6 89bc 43c5 9d3c
00000160: ee7b bb3d 4847 733a bde2 493d 277f aa3d
00000170: ee6d 9f3d 2702 813c ea39 a5bc 8c89 093e
00000180: 1a8c 353d 7ae0 3d3d 944f 653a 4422 053d
00000190: f3aa aabc 0395 063d e599 06bd 5ac7 853d
000001a0: 969b 5c3c 905f 58bd 28a5 39bc cc99 efbc
000001b0: b8dc 973d a45d c63d f6ef 2cbd db59 373d
000001c0: 99c0 1c3d 8aa7 943c b3c3 bb3d 373e 803d
000001d0: 7cea 663c 3df8 08bc dbd6 c93d a584 24bd
000001e0: 0359 08bd fa3c 183d 7921 02bd 9847 e13d
000001f0: 1e9a 6ebd a395 ac3d fc42 c53d 99ac 4ebd
00000200: a595 753d a36e 103d 2181 983d 3f1c be3d
00000210: c5fe d93d e689 743d 43ef 463d 924d 79bc
00000220: 54db e7ba 79d2 00bd 5d79 863d 4024 853c
00000230: 911e 12bd c569 a93d c211 e4bc afea ac3b
00000240: 6dca c63c bdff f4bc ab0a b23d a6dc a73d
00000250: 843d b93d 98f5 953d 1da2 c13d cbf0 e33d
00000260: 73ca b13d a24d c03d 0752 c03d 5da3 05bd
00000270: dd80 6a3d e3a4 8b3b b6ba 40bc eadc 1cbd
00000280: c94b a13d 06f9 7b3d 083f 513d 022b 943d
00000290: 4417 a73c f68b 51bc 7af4 213d 644a 593d
000002a0: 211d 0a3e 0c09 933d c69f b63c e91b 783d
000002b0: 7704 7b3d 6c6d b53d 704c 34bc 9a94 943d
000002c0: c0cb 4fbd e186 ab3d 1062 513d cef7 723d
000002d0: 85ef 073e faa4 0f3d eb9c b9bc 78a6 92bc
000002e0: 0292 8a3d 4131 4a3d 4ade 0d3d 0466 a4bc
000002f0: 9aa3 d93d 48dc 153d de26 1dbc 905f 963a
00000300: edcb 9a3d 2c0b ed3d 38ef 983d fa8c e7bc
00000310: 4c5f ad3c ced8 113c b7fa 85bc 0dc0 c43d
00000320: 0810 6d3d 42ee 933c 7599 f0bc 2c83 5c3c
00000330: 2ba3 243c 93dd b23c 937c 45bd b623 d93c
00000340: f91f c2bc 6189 c73d 5a6c 5bbc 136f e73c
00000350: f630 723d c46e 003d 7cb6 19bc 0103 533a
00000360: 3ff7 a43d 9c7f d63d 071c 76bd 2e31 e8bc
00000370: 87a8 ca3d 35a0 5fbd 6e1a 15bc 46e9 283d
00000380: 8217 ad3d 2924 9c3d ce12 2cbd 424b a4bc
00000390: c705 ac3d 9da2 bb3d a217 753d 8e0b 96bd
000003a0: 10ea 483d b4a6 01bd 957f d43c d3e2 703d
000003b0: 32b4 613d 2a8b 503d ed2b 8fbc 3f84 7d3d
000003c0: 2905 ff3c f5b2 ea3d cb55 1fbd b74e 1e3d
000003d0: 1c82 e3bc 57c5 f43d 001a 193d d9d6 323d
000003e0: 7318 273d 1852 8d3d a1fa 1d3d 4c36 193e
000003f0: 6cb9 083d 3341 da3c 5603 853d b387 3fbd
0.006693302 0.100857034 0.10440605 0.059538826 -0.018386131 -0.046149228 0.040055305 0.05365719
-0.03929152 -0.023615861 0.056857217 0.09693099 0.06053889 0.0063356487 0.051313844 -0.001779907
0.091604754 0.102010235 0.08519566 0.120597124 -0.005889485 0.048569284 -0.050055712 0.07096725
0.11917757 -0.06914701 0.11057142 0.08709891 0.06655669 0.03688164 -0.038442317 0.022198273
0.11253297 -0.03211545 -0.05856154 0.09101685 0.09882412 0.1262462 -0.056684922 0.024202073
-0.025616776 0.100658685 -0.048746012 0.00494887 -0.004376063 0.0018207654 0.030301785 0.062467236
0.11674163 0.017298406 -0.042706944 0.038969148 0.14133032 0.087226585 -0.028496396 0.1000339
-0.03924436 -0.038129088 0.013810181 0.0147475675 0.0055255983 -0.03073992 0.04443526 0.036705103
0.053187683 0.03451393 0.045162365 -0.037578024 -0.02180946 0.06939134 0.077879414 -0.035559926
0.061345518 0.048995443 0.07346464 -0.012565265 0.05274637 0.105407774 0.017579393 0.040829383
0.061039343 0.042992596 0.049071763 0.040393773 0.053242575 0.017599199 -0.016818449 0.0192591
0.09154497 0.0009280336 0.0492885 0.08325034 0.07784639 0.015748097 -0.020169217 0.13431376
0.044323064 0.046356656 0.0008747515 0.03250338 -0.020833468 0.032856952 -0.03286161 0.06532164
0.013464829 -0.05282551 -0.01133088 -0.02924814 0.07415146 0.09685829 -0.042221032 0.044763427
0.038269613 0.018146295 0.09168186 0.062618665 0.014093991 -0.008359966 0.098554336 -0.040165562
-0.033288013 0.037167527 -0.031770203 0.109999835 -0.058252446 0.084269784 0.09631917 -0.05045757
0.059957165 0.03526176 0.074465044 0.09282731 0.106442966 0.059701823 0.04856802 -0.015216248
-0.0017689266 -0.031450722 0.06566117 0.016252637 -0.03567368 0.08272127 -0.027840499 0.005277
0.024266446 -0.029907102 0.08693441 0.08196382 0.09044936 0.07322234 0.09454749 0.11129912
0.08681192 0.09389807 0.093906455 -0.0326265 0.0572518 0.0042615994 -0.011763265 -0.038296618
0.07875783 0.061516784 0.051085502 0.072347656 0.020396836 -0.012789717 0.03953979 0.05304946
0.13487674 0.0717946 0.022292983 0.060573492 0.061283555 0.08858761 -0.011004552 0.07254906
-0.05073142 0.083753355 0.05111891 0.059318356 0.13274963 0.035069443 -0.022657832 -0.017901644
0.0676613 0.04936338 0.03463582 -0.020068176 0.10626908 0.03658703 -0.009591786 0.0011472572
0.07558427 0.115743965 0.07467502 -0.028265465 0.021163605 0.008901788 -0.016354902 0.09606943
0.057876617 0.018057946 -0.029370049 0.013459008 0.010048668 0.02183417 -0.048214506 0.026506286
-0.023696886 0.09743 -0.013392532 0.028251207 0.059128724 0.031355634 -0.009381887 0.0008049459
0.08054971 0.10473558 -0.060085323 -0.028343763 0.09895425 -0.054596145 -0.00910054 0.041238092
0.084517494 0.076240845 -0.04201012 -0.020055417 0.083995394 0.091618754 0.05983699 -0.07326423
0.049051344 -0.03165312 0.025939742 0.058810066 0.05510349 0.050913967 -0.017477 0.061893698
0.03113039 0.114599146 -0.038900178 0.038649287 -0.027772002 0.11951702 0.03737831 0.043661926
0.0407948 0.06900424 0.038569096 0.14962119 0.033379957 0.026642418 0.06494777 -0.046760272

lstm.weight_ih_l1 f4 [512, 128]
00000000: 5869 97bd ca46 9fbd 0a54 3dbc e317 c73d
00000010: 06c4 c2bd 3c6e 14bc dfa1 8abc 6b2e 483c
00000020: 7993 81bd a93c a43c 7127 ae3d 67d2 93bd
00000030: 7bf1 a93c f367 c6bc 7a98 f43c 1acb c9bc
00000040: abe6 9f3d 538d abbd 59e1 983d d37f 4f3d
00000050: a6b5 b53d 527d bc3b 6bab 053c 5727 a83c
00000060: 7c1a d43c f467 8fbd 1c0d 46ba bb35 0c3d
00000070: 0462 923d 1a4c 3ebd 6b68 393d 8249 a9bd
00000080: 452d 013c ba00 833d b71b 803d d921 5cbd
00000090: 8524 a7bc 0f08 51bd 30c3 7bbd 65bf c3bc
000000a0: 53ae e2bc 6dc0 a2bb 16c7 9cbc d18c f43c
000000b0: 5318 bc3c d358 8a3c 4d09 b1bc e9aa 1ebd
000000c0: fe90 b7bd d5c7 023d 3984 8d3c 7543 26bc
000000d0: 77d2 9b3d 1d2b 963d 1b71 e93c d66f c03c
000000e0: 8588 543b 9a6f 093d 0f7f 8ebd a880 f33c
000000f0: 2468 4bbd 40c2 b9ba a83e 193d bb7c 9dbd
00000100: 60bc b93d 073e d7bc 9b10 8c3d 9151 a73d
00000110: 8f2f 25be 041a a03d 959d 8fbd be48 f2bc
00000120: d804 f1bd 74a1 5ebc 7b19 a73c 3d1c 8bbd
00000130: 88a9 5ebd 2b23 8d3d e140 ac3c 97ba a63d
00000140: 2548 1bbd 6ad6 87bc 210c c53d f09d dfbc
00000150: fe1c 9abd dc01 c5bd 71e1 8b3d 4c3a e13a
00000160: e576 c53d 3da9 97bd 0513 853d bc78 ae3d
00000170: a4ee d93c 39a9 9dbc fb59 0cbd 2d20 70bc
00000180: 8134 be3d dbfc fbbb 68e1 973d 8b00 6bbd
00000190: 5018 863d 2fe8 ad3c 3e67 6c3c 973e 483c
000001a0: feea efba 160d 00bd 04f7 f63c 4134 10bd
000001b0: de0b 4f3d 80a4 463d bb84 373b 67ba a7bd
000001c0: f0db 663d 6473 da3c 4085 febc 3d3c 53bd
000001d0: 3c9d 3bbd e5bf 83bd 1603 523d f9c7 81bc
000001e0: ff57 6f3c 546e 7c3d eaf8 95bd 70bc adbd
000001f0: 07c7 80bd 64bc 58bd dba8 8c3d 8db8 83bd
00000200: 17cb 933d 9486 84bd bb7c 403d 0597 29bd
00000210: aacf 453d a415 68bd d012 42bd 880b 5d3d
00000220: c68e 61bd b624 1fbd ee03 a63d ffab 843c
00000230: 0dae ca3d e07f 413d 8ded 5cbd e38a 2dbe
00000240: bb97 373c 5b6a e8bc c1ac 2d3d 475a 47bd
00000250: 0189 a6bd 0294 ce3c 15c9 b2bc bc53 043e
00000260: f99c babd a82a ff3d c8c8 f6bd 37f1 b03d
00000270: 9503 053a d210 1fbb eb5a 303d 47a4 5abd
00000280: 3434 96bc d101 eabd 3481 893c 5cf1 3fbd
00000290: 38cf 96bd 5d64 35ba c91a 40bd ffca f2bd
000002a0: f055 9cbd 13e9 f2bd 7c9a c43d 805d 7fbd
000002b0: 0f2a 9c3d 1fd8 48bd 32b6 1a3d d917 4e3c
000002c0: 2491 aebd aae7 923d 8e6b 373d 8cd3 cebd
000002d0: 19c3 be3d 3c18 03be 3d1d bdbd dd02 dc3d
000002e0: 8d54 863d 65ba a7bd 8e89 db3c 220f 4e3d
000002f0: f47e 8cbd 8c40 8c3d 403c 453d 6ec0 b5bd
00000300: c2d1 18be ac10 25bc da68 163c 4f59 2cbd
00000310: 68f5 35be a328 533d 5823 bdbd a272 c3bd
00000320: 2928 aa3d 1883 73bd 926b 01bd b399 cb3c
00000330: f566 0fbd 92a6 093c 0fed 1d3d e9d7 96bd
00000340: df36 97bc e069 aebd daa7 82bd 7944 b5bd
00000350: 9634 f3bc 55cd b8bc 0bef e43b 0047 cdbd
00000360: a554 363c f8a6 3ebc 5660 03be 09f6 4d3d
00000370: 77b3 683d bc41 a73d 9919 4dbd 969e a2bd
00000380: d82a 8ebb 5ec6 6d3d 2c1a 36bd 0dc0 18bd
00000390: fcac dfbc ff7b 62bd 79f4 b5bb 9262 21be
000003a0: e63b d5bd 1d36 d33c bb22 d73d 8cd9 51bc
000003b0: c8d9 963c cb76 d8bd 73f0 583c 24f0 46bc
000003c0: 1959 923d 13cb 963b 6f58 263d ad9f e3bd
000003d0: 3115 5f3b b7a3 83bc aa83 e33d 7759 cc3c
000003e0: b476 6d3c 82f9 613d 667c de3c 1a0e a7bd
000003f0: e3aa 90bd 31bb bdbc 19cb cb3d 52ef b33d
-0.073931396 -0.07777174 -0.011555681 0.09721353 -0.09510045 -0.009059485 -0.01692289 0.012218098
-0.06326956 0.020048456 0.085036166 -0.072178654 0.02074503 -0.024219489 0.029857863 -0.02463298
0.07807668 -0.08376565 0.07464857 0.050659012 0.08872537 0.005752244 0.008158545 0.020526571
0.025891535 -0.07002249 -0.0007555054 0.03423093 0.07147601 -0.046459295 0.045265596 -0.08265974
0.007884328 0.06396623 0.06255286 -0.053743217 -0.020403156 -0.051033076 -0.061465442 -0.023894975
-0.027671015 -0.0049667866 -0.0191379 0.029852303 0.022960817 0.016888058 -0.02161088 -0.03873721
-0.08963202 0.031928856 0.017274963 -0.010147919 0.07608502 0.07332442 0.028496316 0.023490828
0.0032430005 0.033553697 -0.06957828 0.029724434 -0.049659863 -0.0014172271 0.03741327 -0.07689806
0.09069133 -0.026274694 0.06839105 0.081698544 -0.16131423 0.07817462 -0.07012478 -0.029575702
-0.11768502 -0.013588298 0.020397892 -0.067924954 -0.054360896 0.068914734 0.02102703 0.08141058
-0.0379106 -0.016581733 0.09621454 -0.02729699 -0.07525061 -0.09619495 0.06830109 0.0017183512
0.09641818 -0.074053265 0.06497768 0.08519122 0.02660305 -0.01924573 -0.0342655 -0.014656109
0.09287358 -0.007690055 0.0741604 -0.057373565 0.06547606 0.021228878 0.014428912 0.012221954
-0.0018304286 -0.03126248 0.030147083 -0.035206083 0.050548427 0.048496723 0.0028002698 -0.0818985
0.056362092 0.02666635 -0.031069398 -0.05157112 -0.045804247 -0.06433085 0.051272474 -0.015842425
0.014608382 0.061628655 -0.07322867 -0.08483207 -0.062879615 -0.05291404 0.06868144 -0.06431685
0.07216471 -0.06470981 0.046993952 -0.04140379 0.048293747 -0.056661263 -0.047381222 0.053966075
-0.0550678 -0.03885337 0.08106218 0.016195295 0.09896479 0.04724109 -0.053937484 -0.16947512
0.011205609 -0.028371027 0.04240108 -0.04867008 -0.081316 0.02521706 -0.021824399 0.12922567
-0.091119714 0.12459308 -0.12050015 0.08639758 0.0005074081 -0.00242715 0.043055456 -0.053379323
-0.01833544 -0.11426128 0.016785242 -0.046861038 -0.073637426 -0.00069195573 -0.046900544 -0.11855125
-0.07633579 -0.11860862 0.09599778 -0.062345028 0.076252095 -0.049034234 0.03777141 0.012578928
-0.08523777 0.07173093 0.044780307 -0.10098943 0.09314556 -0.12802213 -0.092340924 0.10742734
0.065590955 -0.08189849 0.02679899 0.0503074 -0.06860152 0.06848249 0.048153162 -0.08874594
-0.14923766 -0.010074776 0.009180272 -0.04207736 -0.17769396 0.051552426 -0.09235257 -0.09543349
0.08308441 -0.059451193 -0.031596728 0.024853563 -0.035010297 0.00840153 0.038556155 -0.073654
-0.018458782 -0.08516288 -0.063796714 -0.08850951 -0.02968816 -0.022558847 0.006986504 -0.10023308
0.011128579 -0.011636488 -0.12829718 0.050283466 0.056811776 0.08166835 -0.05007324 -0.07940404
-0.0043386035 0.058050506 -0.044458553 -0.03729253 -0.027304165 -0.055294033 -0.005552825 -0.15760258
-0.10411815 0.02578264 0.10504671 -0.012808215 0.018414393 -0.10569533 0.013240921 -0.012142215
0.071459 0.004601845 0.04061168 -0.1111444 0.003403973 -0.016069276 0.11109097 0.024945004
0.014493633 0.05516959 0.027158927 -0.081569865 -0.07063844 -0.023160549 0.09950847 0.08785881

lstm.weight_hh_l1 f4 [512, 128]
00000000: cfbb 1d3d 19d2 da3d 3f58 713d 0445 e63c
00000010: af36 f6bb b3b6 2bbb f946 92bd 7acc 60bd
00000020: df6a b03b 6ebf 743d 6b68 3a3b 0fa6 b23c
00000030: 176f 893d 3c69 38bd 2f1e 60bd b20c 093d
00000040: d415 433d 76c8 8abd f733 8cbd e179 6cbd
00000050: bed1 6a3d d87c 2f3d e5d6 a1bd 13c7 453d
00000060: c64b 47bc a95b 10bc 3977 873d 0949 913d
00000070: 6060 c73c f440 83bc cf2c 87bd 82af 6ebd
00000080: e096 1ebd 826f a9bd b1f6 34bd 33d3 8fbd
00000090: 8fd8 d6bd 954f 663c d09b c0bc 60f2 aabd
000000a0: cce0 ac3d 5eda aebd 98fe fb3b 7977 2cbc
000000b0: 8c22 71bd 10db 213c 8812 6cbd 607a 063d
000000c0: 022c 32bd 0720 b0bb 8a0a b43d 1c5e 0d3e
000000d0: 0d02 e5ba ff4a 07bd 9ab7 25b9 73b8 5d3c
000000e0: b64d a9bd d5ec cd3d 6a2b 36bd 6709 5a3a
000000f0: 015f 95bd c8be 2cbd cbfb 673d 3a89 6fbd
00000100: a70c 153d 59b8 593d 1f09 0b3d 3432 6ebc
00000110: c9e9 d8bc ba3c 073d 78b5 6e3d b3dc 7bbc
00000120: 7e7c 7f3d 7eb3 873d c226 5a3d f096 61bd
00000130: f6b5 613d f69e e1bc ce01 f3bc b4a3 f93c
00000140: 3770 89bd bec4 57bc 8d69 62bd ed54 b8bb
00000150: b3ea f03a 947e 50bd 10f0 58bd 5e8c 733d
00000160: 4e6a 06bd fdc2 463d 066a 813d 1f38 173d
00000170: 96ae 6ebc cc1a 06bd 0532 e6bb 4363 4c3d
00000180: c197 00bd 557e 5a3d 0de4 303a 9d5b 973d
00000190: 3bda 0cbd bd0b 8ebd cc22 913d f7ac 80bd
000001a0: eecf 51bd a1cc 0a3d c391 a9bc 6b06 c5bd
000001b0: b181 303c c311 9d3c 20ae 25bd 414e 1dbd
000001c0: acec aa3c 846d babc 4525 20bc 496f 513c
000001d0: c122 89bc f46c 80bd f37e 6ebd 0e72 5f3c
000001e0: a3d7 9cbd 59bf d33d 409c d73c 0608 bc3d
000001f0: 104d ad3c 5298 a73b 1fd0 903a 7aa1 63bd
00000200: 7461 5e3d accf 11bd 4cc7 ca3b 9751 4c3d
00000210: 431d 97bd 1c37 b03d 5488 98bd 777f 87bc
00000220: 541b bfbd af96 8fbc c390 a13d c72a ae3c
00000230: 75a7 4a3c a4c3 40bd 56bf ae3c 5144 ddbd
00000240: 97bb eb3d a4fe 79bd 963f d73d 1016 813c
00000250: eb60 33bd 8b28 0ebd 3dc1 143d b257 2abc
00000260: d2ed 87bd c594 a63a a910 4abc 35db 113e
00000270: dab8 de3b bd59 4fbd 051a af3d 8ea6 c13d
00000280: e130 e3bc 1cf6 a73d 5b79 e43d d68f 163b
00000290: ae39 e83d a9a5 44bd fe6f 9a3b 916e 7f3d
000002a0: 8407 80bd b66c 073e 2100 f8bd 4ade ebbc
000002b0: bb31 9b3b f349 dcbd bdc1 0c3d 4f8b 7dbd
000002c0: 193a 823d 3716 29bd 52b7 9d3c 83c1 343d
000002d0: 0a08 c6bd 2854 24bd ec5b c63d 85aa 1abd
000002e0: 3345 a63d 31a2 bebd 1c56 fe3b 878e c0bb
000002f0: f1b9 36bd 6aa0 ff3d 9018 c4bd e59e 343d
00000300: 6f3d 973c 6f83 53bd d404 d2bd 2076 8bbd
00000310: 592a a23d 9001 343c a369 973c c662 bc3d
00000320: 9160 dfbd 248e a7bd f27c 2dbd b81b 22bc
00000330: 311c 29bd d66b 0e3e d1d4 04be 1104 bc3c
00000340: 6ab8 51bd 567f ccbc 7833 1bbd a9d5 0fbd
00000350: e07e ff3c 226a b53d 5238 26bd 9880 c0bc
00000360: dd30 d33d dc99 563d 544c 6e3d 2ba9 8dbc
00000370: 3f03 0fbd 5d3c d9bd b1d4 d9bd fc9f 513d
00000380: 08ad 1cbd 73dc b63d 540c 04be 956d a23b
00000390: cca5 7fbc ee08 863d 83ee c93d 5597 bbbd
000003a0: 518e 6e3d 0590 9bbc 56ac 903d 639e c33c
000003b0: 4c3d 0e3a 4272 86bc 3b88 6fbc 3766 cebb
000003c0: 6ba3 933d 5692 4fbd 4a1e 57bd 607f e53d
000003d0: a9de d7bc 0f83 a7bd a604 62bd 0f2c 37bd
000003e0: 31e8 943d f232 62bd 7632 f63d cb2f 303c
000003f0: facc 9a3c 7e10 0fbc 0c90 aa3c 225e 04bc
0.038509186 0.10684604 0.05892205 0.028109081 -0.007513843 -0.0026201427 -0.07142443 -0.054882504
0.005383834 0.059752874 0.0028443586 0.021807699 0.06710642 -0.045022234 -0.054716285 0.033459373
0.04762824 -0.06776516 -0.06845849 -0.05773342 0.057328932 0.04284367 -0.07902316 0.048285555
-0.012164062 -0.008810916 0.06614537 0.070940085 0.024337947 -0.016022183 -0.066003434 -0.058272846
-0.038718104 -0.082732216 -0.044180576 -0.07022705 -0.10490524 0.01405706 -0.023511797 -0.083470106
0.08441314 -0.08537744 0.007690262 -0.010526531 -0.058870837 0.009878889 -0.05763486 0.03283155
-0.043499 -0.0053749117 0.08791073 0.13805431 -0.0017471925 -0.033030506 -0.00015804023 0.013532746
-0.08266775 0.10054938 -0.044474997 0.0008317441 -0.07293511 -0.04217413 0.056636613 -0.05848048
0.03638902 0.053154323 0.033944245 -0.014538337 -0.026478665 0.033016898 0.05827853 -0.015372443
0.062374584 0.06626032 0.05325962 -0.055075586 0.055105172 -0.027541619 -0.029663946 0.030473568
-0.067108564 -0.013169466 -0.055276442 -0.0056253583 0.0018380493 -0.050901964 -0.052963316 0.059460036
-0.032816224 0.0485258 0.063190505 0.036918756 -0.014567992 -0.0327404 -0.0070250058 0.04989935
-0.031394724 0.053343136 0.00067478494 0.07390521 -0.03438781 -0.06935833 0.07086715 -0.062829904
-0.051223688 0.033886556 -0.020699387 -0.09620365 0.010773108 0.019173509 -0.04044926 -0.038404707
0.020864807 -0.0227573 -0.009774511 0.01278288 -0.016740205 -0.06270781 -0.058226537 0.013638033
-0.07658317 0.10339231 0.026319623 0.09181218 0.02115491 0.0051145935 0.0011048353 -0.055573918
0.054292157 -0.035598442 0.006188309 0.049882498 -0.07378628 0.08604261 -0.074478775 -0.016540272
-0.09331384 -0.017527906 0.07888939 0.021260632 0.012369026 -0.047061577 0.02133147 -0.10804046
0.11510389 -0.06103386 0.10510175 0.01575759 -0.0437936 -0.034706634 0.0363171 -0.010396885
-0.066371575 0.0012709132 -0.012333074 0.14243777 0.0067969384 -0.05062269 0.08549885 0.09455596
-0.027733268 0.082012385 0.11155959 0.0022973916 0.113391265 -0.04800955 0.0047130575 0.062361304
-0.062514335 0.13225064 -0.121093996 -0.02879252 0.004736153 -0.10756292 0.03436445 -0.061900433
0.063587375 -0.04128095 0.019252453 0.04412986 -0.09669502 -0.04011932 0.096855015 -0.037760276
0.081186675 -0.09308279 0.00776173 -0.0058763656 -0.04461092 0.124817684 -0.095749974 0.044096846
0.018461911 -0.051639017 -0.10254827 -0.0680964 0.079182334 0.010986701 0.018482989 0.09198527
-0.109070905 -0.08181408 -0.042355485 -0.009894304 -0.04128665 0.13908324 -0.12971808 0.022951158
-0.05120126 -0.024963062 -0.03789088 -0.03511587 0.031188428 0.08858134 -0.040581055 -0.023498818
0.10312054 0.052392825 0.05817826 -0.01729258 -0.034915205 -0.106072165 -0.10636271 0.051177964
-0.038250953 0.08928766 -0.12895328 0.004956911 -0.015603494 0.06544672 0.098599456 -0.09159724
0.058241192 -0.018989572 0.070641205 0.023879236 0.0005426004 -0.016411904 -0.014619882 -0.006298806
0.07208904 -0.050676666 -0.05251912 0.112059355 -0.02635129 -0.08179294 -0.055180214 -0.044719752
0.072708495 -0.055224366 0.120213434 0.010753582 0.018896569 -0.008731959 0.02082064 -0.008079084

lstm.bias_ih_l1 f4 [512]
00000000: 68cf bc3d 3978 843d c5cc 893d 67b1 973d
00000010: c066 b8bc ad5a 76bd 1710 0c3d d3ec 67bd
00000020: 17d7 96bb 3536 7b3d 2982 8e3d 8880 6c3d
00000030: 1562 f63b 152e 96bc e864 913d aa86 a73d
00000040: 54fd b4bc 8645 8f3d ae1a 963a a487 e83c
00000050: 3789 943d f47b c53d 0b12 b33d 4fbc 993d
00000060: a6d1 2a3b 9a6e 993d f424 7e3d dc93 58bc
00000070: 5989 713d dfc8 2b3d a06d 423c 933f 37bd
00000080: 3f55 513b d484 b63d f609 693d 842e c43d
00000090: 9579 3dbd 5a50 803d 3989 103d 1bea 0b3d
000000a0: fb65 2f3d e88d 113d 12fd 133d 8f9a 8ebd
000000b0: 4f9b 98bd 4c07 ac3b 1a2d a93d b7f2 f63c
000000c0: 2a6b 07bd a8b4 043d c8bc bcbb e331 b63c
000000d0: 4d84 5dbd 4d37 32bc dc76 09bd 3501 823d
000000e0: e9a4 8e3d 41db 5c3d c60f 833d 9b35 9c3c
000000f0: 2880 813d 5b42 5d3d b71b 7d3d 6136 2d3d
00000100: 9f9b 373c fb65 50bd e42e 0a3d fe91 8cbd
00000110: 486d 24bd 0c65 94bc 8da7 8bbd 6da4 53bd
00000120: 63f1 24bd 630c 19bb 2f06 dd3c 999e 9d3d
00000130: c04d ee3b 787a 16bc 3145 1fbc 7c9a 1cbb
00000140: 2d6c ecbc edd9 1b3d bd9b d43d 0c63 ab3d
00000150: d0c3 cbbc 3a59 093d 66c5 a43c 8f30 7d3a
00000160: 85ff 853d 70ef 7fbd e560 82bd 4477 53bd
00000170: 470d 8fbd 3de6 083e 5062 8fbd dd3d bcbc
00000180: 2c79 85bb b765 b63c 25a7 423d 7ad3 a1bb
00000190: da4e a03d b52d 27bd f33e 683d d5fa 91bd
000001a0: d344 25bd 8f5a 023b c1d4 d43c 5b64 15bd
000001b0: 68b0 cb3c e765 86bd af85 a43d 2e18 2cbd
000001c0: 86c4 283d 5dbf 433d fb73 debb f1f7 953d
000001d0: c861 833d 277f 843d a845 92bd 6b42 f03b
000001e0: f8d2 793d 5083 9e3d 0665 94bd e26b 953d
000001f0: 8c81 4dbc 2954 6bbd a3ca 29bd e02c 303d
00000200: 948c ac3d 8ade 6fbd 4414 953d f21a b63d
00000210: 8697 ea3d ca6a 4c3d 2d58 9b3d 6d15 78bd
00000220: c927 c03d 5d9d 9c3d f45a e63c f51c d23d
00000230: ae2d 163d e0d1 b7bc e347 d33d daec 82bd
00000240: 6d00 ddbc 9584 42bd 3cc2 413d 8d07 b9bd
00000250: c784 a03d a5a2 89bd d1b1 8b3d 08c6 bd3c
00000260: 6b4a c0bd 111a fe3d 7c98 27bc 43c9 2fbb
00000270: 4a8c 92bd 456f 8b3c 66d3 5e3d 4025 f8bc
00000280: 0fe7 5b3c aa7f e23d c6fd 0dbd bab2 42bc
00000290: 3c9e 4abc 3b5b 573d e163 453d 3453 79ba
000002a0: a25d b13b 63d2 bbbc 351f 56bd acc0 efbc
000002b0: c5b8 b23d f016 ad3c 2d5e 973d 4a40 49ba
000002c0: ac2a c93d ac81 03bd 43ab 993c 0799 bbbb
000002d0: 0ec0 95bd 0078 813d 1935 a83c 6620 623d
000002e0: 48f6 283c 1ada febc 021f 59bd cd5d a2bc
000002f0: 776e cc3c f867 41bd e9e3 c0bc 9b0b 933d
00000300: 667c eaba 64bd 2fbd 59d6 2dbd 9cb7 a43c
00000310: fa6d 883d 251a 4cbd 3ecf cbbc 07aa a7bc
00000320: b30a 7a3d efde e9bc fae7 a63d ef67 b53c
00000330: f7b6 e83d 44d4 513d e412 743c 0501 ae3d
00000340: a617 a83c b7df 113d 76ec 33bd 0054 c53d
00000350: fb37 ba3d 472b 85bc a9ac c73d 0e0f c43d
00000360: c3bb 04bd dace be3d bc4f 9dbc c225 043b
00000370: 011d 13bd 507f 4e3c 4694 41bd b6b8 77bd
00000380: 10e2 fc3b d4e2 623d a9c3 ffbc c1e5 9dbd
00000390: 8043 723a aad6 63bd 18df 9f3d c72c 9cbd
000003a0: 983d a0bd 1301 883d 8b98 a53c d840 a93b
000003b0: a78a b33d 436d c53c f6cd 4d3c 4f31 ad3b
000003c0: 92eb 383b 3f9d fbbc a0e8 b13d dde3 89bd
000003d0: c05f cc3d 75f7 5fbc e864 bcbc f78e d33c
000003e0: 3cd6 f63c 283e a73c 27e4 3c3d 8dff 9e3c
000003f0: f22d 353c 12d6 8cbd c1da 2e3d 6b2a c0ba
0.09219247 0.06468243 0.0672851 0.07406884 -0.022509933 -0.06014507 0.034195032 -0.056622338
-0.0046032774 0.061330993 0.0695842 0.057739764 0.0075190165 -0.01833252 0.070993245 0.08179982
-0.022093453 0.069956824 0.0011452043 0.028384991 0.07252734 0.09642783 0.08743676 0.0750662
0.0026064902 0.07491799 0.06204696 -0.013218846 0.058968876 0.041939612 0.011866957 -0.044738363
0.003194168 0.08912054 0.056894265 0.09579185 -0.046258528 0.06265326 0.035287116 0.034158807
0.042821866 0.035535723 0.03613002 -0.069630735 -0.07451498 0.0052498933 0.082605556 0.030145032
-0.033061184 0.03239885 -0.005759809 0.022240585 -0.05408125 -0.010877443 -0.03356062 0.063478865
0.06965048 0.053920034 0.06399493 0.01906853 0.06323272 0.05401836 0.06179401 0.042288188
0.011206537 -0.050878506 0.033736125 -0.06863783 -0.04014328 -0.01811459 -0.06819067 -0.05167048
-0.040269267 -0.002335333 0.026980488 0.07696266 0.007272452 -0.009184472 -0.009721086 -0.002389579
-0.028860176 0.038049627 0.10381267 0.08368501 -0.024873644 0.03353236 0.020113658 0.000965842
0.06542877 -0.062484205 -0.063661374 -0.051627412 -0.06984954 0.13369079 -0.070011735 -0.022978717
-0.0040732827 0.022265298 0.047522683 -0.00493854 0.0782754 -0.040815074 0.056700658 -0.071279205
-0.04034884 0.0019890403 0.025980355 -0.03647266 0.02486439 -0.06562405 0.080333106 -0.042015247
0.041203044 0.04778992 -0.0067887283 0.07322682 0.06415135 0.06469565 -0.07142192 0.0073321364
0.06099221 0.077398896 -0.07245831 0.07295968 -0.012543093 -0.05745331 -0.041453015 0.043011546
0.08425251 -0.05856184 0.07279256 0.08891858 0.11454682 0.04990653 0.075851776 -0.06056731
0.093825884 0.07647202 0.028119542 0.10259429 0.036664657 -0.022438943 0.10316446 -0.06392832
-0.026977742 -0.04748972 0.047304377 -0.09034643 0.07837825 -0.06720475 0.06821025 0.023165718
-0.09389194 0.124073155 -0.010229226 -0.0026822842 -0.07155664 0.01702083 0.054400824 -0.0302912
0.013421788 0.11059506 -0.034665845 -0.011883432 -0.012366828 0.05257724 0.048190955 -0.00095109944
0.005412773 -0.022927469 -0.052275855 -0.029266678 0.08726648 0.021129102 0.073910095 -0.00076771213
0.09822592 -0.032106087 0.018758422 -0.0057250294 -0.07312022 0.06321716 0.020533131 0.05520668
0.010312624 -0.031109858 -0.053008087 -0.019820118 0.024955017 -0.047218293 -0.023546176 0.07179948
-0.0017889857 -0.042905226 -0.042440746 0.020107083 0.06661601 -0.04982962 -0.024879094 -0.020466818
0.06104536 -0.028548686 0.08149715 0.022144286 0.11363023 0.051227823 0.014897082 0.08496288
0.020519089 0.03561374 -0.04392668 0.09635162 0.09092709 -0.016255988 0.09749729 0.09573184
-0.032405626 0.093167976 -0.01920306 0.0020164107 -0.035916332 0.012603596 -0.047260545 -0.06047889
0.0077173784 0.0553921 -0.031221228 -0.07709838 0.00092416257 -0.05562464 0.07806224 -0.07625728
-0.07824248 0.0664083 0.02021434 0.0051652007 0.0876668 0.024099952 0.012561312 0.005285419
0.0028216583 -0.03071463 0.08686948 -0.067329146 0.099792 -0.013669838 -0.022997335 0.025825007
0.030131452 0.02041538 0.04611602 0.019408965 0.0110583175 -0.06876768 0.04268909 -0.0014661079
