Data/PredictionsData/AB28.pth (torch, 828430 bytes, 10 tensors)

lstm.weight_ih_l0 f4 [512, 13]
-0.07021702 -0.034405332 0.05082968 -0.046849847 -0.0994292 -0.06994861 0.21984148 -0.041643266
0.060936302 -0.012828097 0.01684247 0.04700062 -0.050184157 0.055909753 0.014804923 -0.011555032
0.08892698 0.10696518 -0.11929569 0.07528736 -0.016802074 0.040682014 -0.047016405 -0.05132756
-0.073164746 0.08125795 0.08553582 0.054044887 -0.06945759 0.03762704 -0.08311559 -0.045748785
-0.13175291 -0.0527933 0.1605358 -0.07848265 -0.04772291 0.016080867 0.005992212 -0.08018627
-0.04060549 0.061754752 -0.012808856 0.059380516 0.07055146 0.043690264 0.020967746 0.032122504
0.018706124 0.063055195 -0.04947931 -0.0026518104 -0.02206994 0.06275756 0.05227681 -0.043597482
-0.054879665 -0.027487539 0.026927197 0.014600437 -0.044488635 0.07018754 -0.0024995066 0.03013844
0.041593272 0.1006875 -0.060451783 0.11344753 -0.0506361 -0.104626715 -0.0019359769 0.059809405
-0.041568305 0.018654285 -0.03714315 0.021728395 0.035722997 -0.056719527 -0.0099661155 -0.039963346
-0.048018847 -0.031500097 -0.076298565 -0.04024895 -0.08487566 0.08276452 0.011627199 0.037686586
0.11038919 -0.014668669 0.07871194 0.0885851 0.034135487 0.02797626 -0.09442214 0.0282801
-0.014865379 0.10806057 -0.123053685 0.011127012 0.055375364 0.039657883 -0.0020173655 0.027975464
-0.012926718 0.02384249 0.06078017 0.05990342 -0.058477357 0.07258575 -0.075232685 -0.04399584
-0.05876921 -0.03368452 -0.019541716 0.008494927 -0.06854968 0.10756032 0.10995859 -0.03642985
0.0026449093 0.054004606 -0.0584845 0.04753835 -0.051571034 0.0408801 -0.05784665 0.052345246
0.012486345 0.076732434 -0.025248135 -0.039309137 -0.05535302 0.015947925 -0.075694874 -0.07037363
-0.10045972 -0.019837841 -0.05441609 -0.04934045 0.070437945 0.09635487 0.11447745 0.016187288
0.06638331 0.02069324 0.04321794 0.078415364 -0.15819314 0.059940066 -0.011922901 0.043365676
-0.028719313 0.023265919 -0.07943555 0.033478048 -0.056572344 0.047481745 -0.0059396513 0.11376958
0.07287184 -0.08640799 -0.098542064 -0.04586779 0.05451332 -0.051539447 0.06805848 -0.012385952
0.13039155 0.14577378 0.10879271 -0.047450148 0.101876855 -0.042862657 0.0102466 -0.034595292
-0.044764165 0.07167854 0.122224025 -0.0511912 0.048632875 0.10937177 0.024653139 -0.025451466
0.07422274 -0.0133687435 0.03466327 0.13273053 -0.011133334 0.010659498 -0.122136876 0.02438774
0.0077893483 0.03188686 0.021381155 -0.041524507 -0.021460736 -0.023708407 0.0864122 0.06286733
-0.012044635 -0.0100712925 -0.007829821 0.08782232 -0.00853131 -0.044252418 -0.0016868759 -0.06499822
-0.06141875 -0.033666015 -0.06642899 0.03184254 -0.06349878 0.0034879055 0.09386967 0.09940451
-0.0011459711 -0.031585813 0.04738679 0.081186146 -0.022586728 -0.067404754 -0.049544774 -0.08277308
0.003218499 0.012607756 0.07568523 -0.14783685 0.04055635 0.060655262 0.11872707 -0.07210963
0.03961483 -0.050224595 0.09050174 0.03240338 0.00496764 0.03789669 -0.009657965 -0.017280664
-0.106598064 0.019242808 -0.02578319 -0.07041311 0.03453594 0.040095337 0.030108228 -0.09173387
0.030248858 0.088405184 -0.12769777 -0.17343351 -0.041404996 0.014829588 0.079469554 -0.10710107
00000000: f1cd 8fbd 9bec 0cbd c832 503d a0e5 3fbd
00000010: 89a1 cbbd 3841 8fbd 201e 613e 2192 2abd
00000020: 5898 793d f02c 52bc 38f9 893c b983 403d
00000030: e78d 4dbd a001 653d 5990 723c 5151 3dbc
00000040: 591f b63d 8f10 db3d 4c51 f4bd 4230 9a3d
00000050: 81a4 89bc 2fa2 263d 4694 40bd d93c 52bd
00000060: 66d7 95bd 916a a63d 672d af3d 2c5e 5d3d
00000070: c83f 8ebd d01e 1a3d 8238 aabd 1463 3bbd
00000080: 3cea 06be ca3d 58bd 7f63 243e 83bb a0bd
00000090: 1979 43bd 06bc 833c 515a c43b b338 a4bd
000000a0: f151 26bd 8df2 7c3d 3cdc 51bc fc38 733d
000000b0: 497d 903d 90f4 323d 8dc4 ab3c e392 033d
000000c0: 963d 993c 1523 813d d1aa 4abd ffc9 2dbb
000000d0: 05cc b4bc 0987 803d 3520 563d 4693 32bd
000000e0: 80c9 60bd 8c2d e1bc 6d96 dc3c ac36 6f3c
000000f0: b739 36bd 7cbe 8f3d c3ce 23bb e4e4 f63c
00000100: b55d 2a3d 3f35 ce3d 4a9c 77bd 2e57 e83d
00000110: cd67 4fbd 8846 d6bd 9bc0 fdba b5fa 743d
00000120: 8743 2abd dfd0 983c 6a23 18bd bfff b13c
00000130: 4752 123d bc52 68bd eb48 23bc 9bb0 23bd
00000140: 69af 44bd 3f06 01bd 6c42 9cbd 15dc 24bd
00000150: 4ad3 adbd 7280 a93d 0280 3e3c 405d 1a3d
00000160: ba13 e23d db54 70bc ba33 a13d 1b6c b53d
00000170: a7d1 0b3d 782e e53c 6560 c1bd abab e73c
00000180: eb8d 73bc dc4e dd3d 9203 fcbd 124e 363c
00000190: 47d1 623d 4e70 223d c735 04bb cd2c e53c
000001a0: 96ca 53bc 5351 c33c a1f4 783d 4a5d 753d
000001b0: f485 6fbd d6a7 943d 9813 9abd fb34 34bd
000001c0: fcb7 70bd c7f8 09bd f315 a0bc 4e2e 0b3c
000001d0: c663 8cbd 9648 dc3d f831 e13d 7737 15bd
000001e0: 3756 2d3b ef33 5d3d 718d 6fbd 93b7 423d
000001f0: 263c 53bd e471 273d 9cf0 6cbd f867 563d
00000200: 8793 4c3c e525 9d3d 2dd5 cebc 9e02 21bd
00000210: d9b9 62bd 39a5 823c ea05 9bbd 0d20 90bd
00000220: d3bd cdbd f882 a2bc 68e3 5ebd 3619 4abd
00000230: c541 903d b455 c53d 2773 ea3d 349b 843c
00000240: f9f3 873d df84 a93c 4b05 313d 3c98 a03d
00000250: 62fd 21be b783 753d 4558 43bc 35a0 313d
00000260: c444 ebbc 2b98 be3c 1baf a2bd 4720 093d
00000270: 67b8 67bd 387c 423d 68a1 c2bb 0700 e93d
00000280: d53d 953d acf6 b0bd 6cd0 c9bd dddf 3bbd
00000290: 5c49 5f3d 071b 53bd 3f62 8b3d 73ee 4abc
000002a0: 5d85 053e b945 153e b6ce de3d 165b 42bd
000002b0: d0a4 d03d c190 2fbd 5be1 273c cbb3 0dbd
000002c0: a15a 37bd 33cc 923d 9750 fa3d ddad 51bd
000002d0: 4433 473d 4efe df3d 61f5 c93c 987f d0bc
000002e0: 1802 983d 9308 5bbc 13fb 0d3d 83ea 073e
000002f0: 9668 36bc 2da5 2e3c e622 fabd ccc8 c73c
00000300: ca3d ff3b cc9b 023d 8827 af3c 9a15 2abd
00000310: 6dce afbc 2238 c2bc e1f8 b03d 96c0 803d
00000320: dc56 45bc 1002 25bc a648 00bc 30dc b33d
00000330: e8c6 0bbc 0642 35bd 2a1a ddba c91d 85bd
00000340: 3a92 7bbd 60e5 09bd ec0b 88bd 536d 023d
00000350: a60b 82bd 5895 643b be3e c03d 9794 cb3d
00000360: 6934 96ba 2060 01bd a718 423d ec44 a63d
00000370: cd07 b9bc 810b 8abd 76ef 4abd ef84 a9bd
00000380: 74ed 523b c390 4e3c dc00 9b3d 8b62 17be
00000390: 6a1e 263d a771 783d 2e27 f33d 37ae 93bd
000003a0: 2943 223d 4eb8 4dbd fa58 b93d 68b9 043d
000003b0: 96c7 a23b 8f39 1b3d 713c 1ebc 2e90 8dbc
000003c0: 1650 dabd 18a3 9d3c 4537 d3bc c034 90bd
000003d0: 8f75 0d3d 023b 243d 88a5 f63c f8de bbbd
000003e0: 74cc f73c c70d b53d 34c3 02be 8e98 31be
000003f0: 4998 29bd cdf7 723c efc0 a23d ce57 dbbd

lstm.weight_hh_l0 f4 [512, 128]
-0.07141502 0.025065433 0.038626455 0.09432296 0.06570207 -0.055976395 0.006082792 -0.064109705
-0.07184834 0.107457474 0.015134402 -0.045117017 -0.051699497 -0.0013150402 0.07388776 -0.094812505
-0.043371353 0.054022387 0.017097473 -0.028483223 0.043819018 -0.055690184 -0.052173447 0.044394117
-0.0037222356 -0.05301266 -0.12027329 -0.035135597 -0.06103936 0.025480991 0.003992678 -0.07119226
-0.09681531 -0.007851085 -0.072432525 -0.06843801 0.0011642752 0.03409492 0.06964461 -0.0427857
0.03226721 0.02585044 -0.097027816 0.097966745 0.0065440387 -0.069560334 0.017243424 -0.045110043
0.1438566 -0.05221506 0.09897483 -0.040214706 -0.06772389 0.046523083 -0.04706845 -0.06940771
-0.012272268 -0.020775655 0.040670067 0.036442928 -0.027463658 -0.008800668 -0.03472765 0.07072541
-0.085577026 0.059235472 0.0015044316 -0.014162169 -0.0017178841 0.08930619 0.04630337 0.040673167
-0.0015133633 -0.016074972 -0.056568034 0.044072587 -0.05752987 -0.07726558 -0.010888344 0.05797949
-0.05296944 0.016330514 -0.08393029 -0.039854184 0.01777986 0.016909713 -0.0054826797 0.042464636
0.054339416 -0.0021247198 0.080182225 0.08352185 0.107249685 0.019918405 0.045805108 0.015478649
-0.04111834 0.09461451 0.092810765 -0.078453936 0.05388812 0.075454816 -0.057819672 0.1261516
-0.0041773254 -0.09674584 0.01739497 -0.0028534792 -0.07560131 0.032707218 -0.020292575 -0.03801792
0.0840871 -0.11612397 0.03604421 -0.091526516 -0.052550994 0.045960955 -0.029725028 -0.04146865
0.11360711 -0.053159613 -0.080406934 -0.08048382 0.08988514 0.099614754 -0.0043519256 -0.03143516
0.03579558 0.032381754 0.044908926 -0.04235954 -0.08363967 -0.09549641 0.04481895 0.027063029
-0.0019333328 0.03447806 -0.07474077 -0.07672829 0.037462365 0.014413525 -0.034435865 0.0563593
0.028471278 0.0076905787 0.021835119 0.06868204 -0.003222533 0.117030814 -0.040766124 0.06998117
-0.0036145514 -0.062165637 -0.03462025 -0.118057474 0.10040772 0.067327574 0.04043416 -0.059894115
-0.045765813 0.06581792 -0.08808728 0.055925366 0.08242698 0.03747295 0.060688738 0.0032790308
-0.06374247 0.07668445 0.06650124 0.083032295 0.045322694 -0.043080382 -0.028594045 -0.07044779
-0.0048206886 0.036165025 -0.083738625 -0.11467643 0.07405165 -0.07446164 -0.10389974 -0.043958873
0.0028185442 -0.1259016 0.07510564 0.04839402 0.025901927 0.14928946 0.10657722 0.07957802
-0.0045408374 -0.07780416 -0.10747266 -0.014357551 0.0688102 0.025057042 0.039811365 0.009372896
-0.054368924 0.087050945 0.008587434 0.020136291 -0.08793569 -0.0028044505 -0.10482035 -0.022335883
0.045830354 -0.10367655 -0.078468904 0.012986711 0.037249144 0.032675996 -0.115638696 -0.008861223
0.042210568 0.0047055692 -0.028883552 0.027618682 0.1676563 -0.07562617 0.080618225 0.0068437154
0.09884974 0.09218872 -0.052207388 0.055204682 0.105282605 -0.015381413 -0.012462699 0.11115872
0.029229132 -0.11564201 0.0015623262 0.019263264 0.018618215 -0.12901062 -0.07135988 0.019720484
-0.017192863 0.093105055 0.0011647531 -0.090261586 0.084064424 0.072439305 0.00054797705 0.0406353
0.10507521 -0.00320125 -0.019959766 0.027437428 0.059705783 0.09247094 -0.04635302 -0.11385019
00000000: 0a42 92bd 0656 cd3c c636 1e3d 652c c13d
00000010: cf8e 863d 8147 65bd 2852 c73b f34b 83bd
00000020: 3925 93bd aa12 dc3d 48f6 773c 9fcc 38bd
00000030: dac2 53bd 6d5d acba 7752 973d 0f2d c2bd
00000040: 29a6 31bd 9446 5d3d 0010 8c3c a655 e9bc
00000050: 927b 333d 641b 64bd d3b3 55bd 9bd6 353d
00000060: c0f0 73bb ce23 59bd d851 f6bd 58ea 0fbd
00000070: 6804 7abd 83bd d03c 03d5 823b 3fcd 91bd
00000080: 1b47 c6bd d6a1 00bc 8157 94bd 3a29 8cbd
00000090: 989a 983a 1da7 0b3d d5a1 8e3d 0f40 2fbd
000000a0: 9f2a 043d 4dc4 d33c 85b6 c6bd caa2 c83d
000000b0: 606f d63b a675 8ebd 1542 8d3c 4fc5 38bd
000000c0: 254f 133e 75df 55bd 51b3 ca3d 2db8 24bd
000000d0: d3b2 8abd fd8e 3e3d d9ca 40bd a125 8ebd
000000e0: 9f11 49bc b531 aabc a895 263d 2e45 153d
000000f0: 77fb e0bc ad30 10bc 953e 0ebd 7cd8 903d
00000100: 0243 afbd e5a0 723d 5930 c53a 7108 68bc
00000110: a02a e1ba 2ae6 b63d 9aa8 3d3d e898 263d
00000120: 0c5c c6ba a9af 83bc e2b3 67bd 7585 343d
00000130: 71a4 6bbd 6b3d 9ebd 0665 32bc e77b 6d3d
00000140: 7cf6 58bd 92c7 853c a5e3 abbd 243e 23bd
00000150: 12a7 913c 3d86 8a3c 0da8 b3bb 66ef 2d3d
00000160: 0293 5e3d e23e 0bbb 9436 a43d 810d ab3d
00000170: b9a5 db3d ec2b a33c 239e 3b3d 299a 7d3c
00000180: b46b 28bd 41c5 c13d 9213 be3d 75ac a0bd
00000190: cab9 5c3d 0e88 9a3d 52d4 6cbd e32d 013e
000001a0: f2e1 88bb af22 c6bd e57f 8e3c 7001 3bbb
000001b0: dcd4 9abd 01f8 053d 9d3c a6bc aeb8 1bbd
000001c0: dc35 ac3d 67d2 edbd 18a3 133d 4172 bbbd
000001d0: b63f 57bd 8e41 3c3d e781 f3bc 08db 29bd
000001e0: d8aa e83d e5bd 59bd 64ac a4bd b3d4 a4bd
000001f0: b315 b83d d202 cc3d 999a 8ebb 28c2 00bd
00000200: 639e 123d bba2 043d 6cf2 373d 3281 2dbd
00000210: 464b abbd 9f93 c3bd 1394 373d 49b3 dd3c
00000220: e267 fdba de38 0d3d b011 99bd b923 9dbd
00000230: 2372 193d b526 6c3c 9f0c 0dbd 02d9 663d
00000240: 993c e93c 4001 fc3b 90df b23c 2ba9 8c3d
00000250: 2231 53bb daad ef3d 61fa 26bd 4a52 8f3d
00000260: 1ce2 6cbb 65a1 7ebd f7cd 0dbd 1ec8 f1bd
00000270: 90a2 cd3d 0ae3 893d 4a9e 253d 8853 75bd
00000280: ef74 3bbd 8ccb 863d 1b67 b4bd ff11 653d
00000290: 7acf a83d 3c7d 193d c194 783d 02e5 563b
000002a0: 6a8b 82bd bd0c 9d3d cd31 883d d60c aa3d
000002b0: 4aa4 393d 0e75 30bd 0f3e eabc ee46 90bd
000002c0: def6 9dbb c721 143d 287f abbd 7adb eabd
000002d0: 64a8 973d 587f 98bd 63c9 d4bd 380e 34bd
000002e0: 53b7 383b 59ec 00be fcd0 993d cf38 463d
000002f0: 4730 d43c 56df 183e 2845 da3d cdf9 a23d
00000300: 4ecb 94bb ca57 9fbd a01a dcbd ef3b 6bbc
00000310: 5dec 8c3d 6d44 cd3c 3e11 233d c690 193c
00000320: f3b1 5ebd c447 b23d 4fb2 0c3c ddf4 a43c
00000330: a117 b4bd dfca 37bb 0dac d6bd bef9 b6bc
00000340: 9cb8 3b3d 5f54 d4bd 4eb4 a0bd 37c6 543c
00000350: 8f92 183d 44d7 053d fbd3 ecbd aa2e 11bc
00000360: fde4 2c3d 2d31 9a3b 339d ecbc 9340 e23c
00000370: 18ae 2b3e e5e1 9abd 2b1b a53d 3f41 e03b
00000380: bc71 ca3d 71cd bc3d 6ad7 55bd 4e1e 623d
00000390: 689e d73d 5202 7cbc 5930 4cbc 2fa7 e33d
000003a0: ef71 ef3c b8d5 ecbd f8c6 cc3a fecd 9d3c
000003b0: 3a85 983c 5c1b 04be 2125 92bd da8c a13c
000003c0: 0cd8 8cbc ddad be3d a1aa 983a 11db b8bd
000003d0: f829 ac3d 0f5b 943d 1ea6 0f3a 3371 263d
000003e0: ac31 d73d 10cc 51bb aa82 a3bc 75c4 e03c
000003f0: 0d8e 743d 6761 bd3d aadc 3dbd 4a2a e9bd

lstm.bias_ih_l0 f4 [512]
0.10968344 -0.033694092 0.08895751 0.0714127 0.12358116 -0.068173245 0.024668196 -0.060075607
0.0784352 0.027910478 0.01327063 -0.006749978 0.004753216 -0.031232264 0.03465281 -0.012732792
-0.04203237 0.009801573 0.13892053 -0.048422147 0.019134976 -0.004257861 -0.002347566 0.06562401
-0.021328038 -0.056564853 -5.8115183e-06 0.03788395 -0.025141886 0.0147412075 -0.042765968 0.055108108
-0.03247848 0.015794946 0.09784484 0.03584713 0.042183604 -0.011848742 0.016194953 -0.06740107
0.036838125 0.08056553 0.054346867 -0.03452788 0.11454366 0.09558764 -0.017811358 0.054379784
0.054691836 -0.026003527 -0.050368305 -0.0258161 -0.04898945 0.0672793 0.04476062 -0.0061159353
0.06366259 0.1240206 0.064101756 0.025290959 0.102542914 -0.0336115 0.09138763 0.09918393
0.09761197 -0.023772717 0.10805592 0.00020539654 0.06937955 0.090019085 0.034895845 0.0070707914
0.08864981 0.029791463 -0.01318748 -0.0067869057 -0.06078119 -0.0053666253 0.104550265 0.10360921
0.025140177 0.06519526 -0.055948593 0.07924971 0.047902495 0.055449285 -0.0035638672 0.0766861
0.080914654 -0.041874666 0.08564516 0.055379592 -0.025365865 -0.044338517 0.0020911521 0.028765215
0.0522138 0.009713798 0.07209047 -0.0010353153 0.03303442 0.03372403 -0.013295575 0.08803754
0.09361248 0.06726184 0.12186043 0.06198638 0.092827275 0.062425002 0.040936153 -0.036592524
-0.04777973 0.03160221 0.07070909 0.08418861 0.013393853 3.34368e-05 -0.03587792 0.015339236
0.020233486 0.03355246 0.112059005 0.12508978 0.105105765 0.056857865 0.08916139 0.06186664
-0.032912333 0.10339892 0.03777345 0.07098474 0.009959132 -0.010451028 -0.009907994 0.04736485
0.035068512 0.056621905 -0.03299984 -0.036474705 -0.026404815 0.04075057 0.0035751099 0.050815657
0.08237726 -0.06366091 0.07722108 0.036743395 0.031096844 0.009020864 0.03661005 -0.031292416
0.05392008 -0.0076441625 0.0017167808 -0.014508373 0.09192545 -0.06066123 0.12721352 0.033784457
0.019568827 -0.057771184 -0.0648535 0.04126826 0.1322983 0.07085053 0.03679318 0.08552835
0.112792924 0.009281242 0.054750245 -0.021109935 0.011092862 0.12100953 0.069468334 0.07607759
-0.0049863486 0.0072286665 0.0545513 0.019796245 0.05986569 -0.014781713 0.1059765 0.061578695
0.006168537 -0.016892891 0.06978822 -0.03745912 0.083971515 0.019285731 -0.038769703 0.08440778
0.06676307 0.05097523 0.09605882 -0.0053820163 0.072031856 0.085130624 0.029098852 -0.025785344
-0.0077384734 0.07414319 0.040105876 -0.026538888 0.0057068695 0.03940053 0.09190104 -0.047931224
0.05281359 0.0179327 0.01774973 -0.032033626 0.041728456 0.004981511 -0.037296757 0.105346225
-0.018911887 0.105433956 -0.0053198184 0.11379601 0.09914689 -0.06913323 -0.057156116 -0.054950282
0.15463743 0.09403709 -0.0014460394 0.08480978 0.10683062 0.117089696 0.02082506 0.051367965
0.02081733 -0.02900127 -0.024119958 -0.024677793 0.04946604 0.059320107 0.118454255 0.059236158
-0.026674325 0.005112543 0.06290223 0.06984256 -0.05263731 0.10147325 0.030777268 0.1020208
0.057654932 -0.032146893 0.015447693 -0.030093217 0.05844973 -0.03322263 0.100119546 0.11266047
00000000: b6a1 e03d d102 0abd 5b2f b63d d240 923d
00000010: 1f18 fd3d 6a9e 8bbd f514 ca3c d711 76bd
00000020: a2a2 a03d 84a4 e43c 0e6d 593c eb2e ddbb
00000030: dec0 9b3b ceda ffbc 1bf0 0d3d 339d 50bc
00000040: 222a 2cbd c796 203c 2f41 0e3e 4d56 46bd
00000050: f4c0 9c3c 8785 8bbb 9fd9 19bb e265 863d
00000060: 23b8 aebc 8cb0 67bd 9000 c3b6 332c 1b3d
00000070: 5bf6 cdbc 1b85 713c 5e2b 2fbd 0ab9 613d
00000080: 2808 05bd 6764 813c e062 c83d 71d4 123d
00000090: b7c8 2c3d 3a21 42bc 47ab 843c 9209 8abd
000000a0: 93e3 163d 8aff a43d d29a 5e3d 1b6d 0dbd
000000b0: de95 ea3d 74c3 c33d 20e9 91bc 56bd 5e3d
000000c0: 8c04 603d 5905 d5bc ff4e 4ebd 497c d3bc
000000d0: 29a9 48bd bbc9 893d e956 373d 2f68 c8bb
000000e0: 8861 823d 83fe fd3d c847 833d fc2e cf3c
000000f0: 0502 d23d 36ac 09bd 7029 bb3d f220 cb3d
00000100: c9e8 c73d 00bf c2bc 6c4c dd3d b75f 5739
00000110: de16 8e3d ed5b b83d f2ee 0e3d 19b2 e73b
00000120: 088e b53d 3a0d f43c 4d10 58bc b164 debb
00000130: b2f5 78bd 84da afbb 731e d63d 1131 d43d
00000140: c6f2 cd3c 1885 853d 5a2a 65bd ac4d a23d
00000150: 6835 443d ca1e 633d c58f 69bb 9a0d 9d3d
00000160: 95b6 a53d c584 2bbd bb66 af3d b6d5 623d
00000170: 13cc cfbc 4e9c 35bd b60b 093b 07a5 eb3c
00000180: 23de 553d 9f26 1f3c 2ba4 933d 6bb3 87ba
00000190: 1a4f 073d 3522 0a3d afd5 59bc 074d b43d
000001a0: e6b7 bf3d 93c0 893d f691 f93d 6ee5 7d3d
000001b0: 3a1c be3d 5cb1 7f3d abac 273d 0be2 15bd
000001c0: aeb4 43bd 5271 013d edcf 903d 146b ac3d
000001d0: e471 5b3c 7e3e 0c38 baf4 12bd 6b51 7b3c
000001e0: b2c0 a53c 4e6e 093d 317f e53d 8917 003e
000001f0: b141 d73d cbe3 683d 3f9a b63d e067 7d3d
00000200: 15cf 06bd d0c2 d33d 55b8 1a3d 7360 913d
00000210: a12b 233c ca3a 2bbc 2455 22bc a501 423d
00000220: 00a4 0f3d 5fec 673d d72a 07bd 8066 15bd
00000230: e94e d8bc 12ea 263d 644c 6a3b 1424 503d
00000240: 69b5 a83d a760 82bd 1626 9e3d 3e80 163d
00000250: cfbe fe3c 3fcc 133c 6bf4 153d 7a2c 00bd
00000260: 4ddb 5c3d e27b fabb 9b05 e13a 87b4 6dbc
00000270: 6943 bc3d e977 78bd 4344 023e 9261 0a3d
00000280: ce4e a03c 7aa1 6cbd e9d1 84bd e808 293d
00000290: 3579 073e 151a 913d 72b4 163d 7d29 af3d
000002a0: faff e63d 5a10 183c cb41 603d beee acbc
000002b0: d6be 353c d8d3 f73d 6a45 8e3d 91ce 9b3d
000002c0: 8664 a3bb 73de ec3b 2f71 5f3d bc2b a23c
000002d0: ba35 753d ff2e 72bc 350a d93d f139 7c3d
000002e0: 7021 ca3b f662 8abc 20ed 8e3d bc6e 19bd
000002f0: 42f9 ab3d 1cfd 9d3c fbcc 1ebd fcdd ac3d
00000300: 14bb 883d 67cb 503d 7dba c43d a05b b0bb
00000310: 7085 933d f758 ae3d b760 ee3c c93b d3bc
00000320: 0593 fdbb 63d8 973d 0f46 243d 1568 d9bc
00000330: b100 bb3b 7362 213d 9d36 bc3d 8853 44bd
00000340: 1053 583d 99e7 923c e267 913c b135 03bd
00000350: 75eb 2a3d f13b a33b 7cc4 18bd c3bf d73d
00000360: 1aed 9abc c2ed d73d df51 aebb e20d e93d
00000370: 860d cb3d b995 8dbd 881c 6abd 8c13 61bd
00000380: 4659 1e3e 8596 c03d 0889 bdba c0b0 ad3d
00000390: 03ca da3d b9cc ef3d 5199 aa3c 3767 523d
000003a0: 1b89 aa3c 1294 edbc 3897 c5bc 1529 cabc
000003b0: e79c 4a3d a4f9 723d 2598 f23d 9da1 723d
000003c0: 1d84 dabc 1e87 a73b e2d2 803d 9e09 8f3d
000003d0: 389a 57bd 35d1 cf3d 9c20 fc3c 48f0 d03d
000003e0: 9427 6c3d 76ac 03bd 5218 7d3c 0d86 f6bc
000003f0: fc68 6f3d 7414 08bd 7a0b cd3d 88ba e63d

lstm.bias_hh_l0 f4 [512]
0.0041984734 0.08914282 0.0484004 -0.0036748322 0.07863187 -0.058206014 0.07691808 0.027285557
0.07477659 0.02286333 0.08109247 0.08612543 0.056084376 0.062009417 0.05110586 0.03555354
0.030882265 0.035518013 0.040647425 0.014269788 -0.025610289 -0.0022540756 -0.037179556 0.12133101
0.025141066 0.004388334 0.089344434 0.09525944 0.07260227 0.0894196 0.06243132 0.06643835
0.038311686 0.026848003 0.003987623 0.03568086 0.00920045 0.054191258 0.0863812 -0.07654572
-0.047000382 0.11714996 0.008841359 0.12877554 0.059801288 0.041410267 0.0547697 -0.0009542117
0.061872922 -0.05856541 0.075085886 0.098640986 0.017293716 0.012203881 -0.06375492 -0.06320457
0.10561271 0.0021957771 -0.051083833 -0.023571488 -0.04520784 -0.03484898 0.068951055 0.040277936
0.07277183 0.08380527 0.014481603 0.022801032 0.03065392 0.10325038 0.021994166 -0.027678534
-0.032296892 0.11127065 -0.0381634 0.053354584 -0.024864245 -0.027039252 -0.05779705 0.1119845
0.041259345 -0.06168093 -0.05965498 -0.034018222 0.05694972 -0.03301337 -0.04676835 0.11269498
-0.02749348 -0.021173527 0.008477831 -0.036130026 -0.016744709 0.0838756 -0.019237047 -0.033655412
0.08316059 -0.026370736 0.03797975 -0.057394717 0.033779144 0.121661164 0.045788787 -0.007989283
0.096785456 0.0911811 0.11497102 -0.009006192 0.082866244 0.08710368 -0.003055484 -0.049957145
-0.02836966 0.004297085 0.024116889 0.08048657 0.01976177 -0.019956091 0.028151711 -0.052252244
0.011009188 0.08743839 -0.03872117 0.009879874 0.018206421 0.06727352 -0.021999288 0.052083056
0.018061064 0.060906246 -0.03207694 0.09386141 0.08080341 0.08580579 -0.003577805 0.018116383
0.038512956 0.055846367 0.093652114 0.021749198 -0.018469816 -0.02996375 -0.0094747925 0.030281616
0.08473474 0.07572975 -0.04208293 -0.011133245 0.09008978 0.0046570646 -0.047235556 0.086649574
0.02926686 -0.015680473 0.11742646 0.09148935 0.09780613 0.020040836 -0.016175656 -0.020140462
-0.039992053 -0.018022561 -0.029485347 -0.037402242 -0.005283047 0.085972205 0.013638664 0.05408074
0.059173137 -0.012043155 -0.028999504 0.0049466393 -0.0065212892 0.026610637 0.11132393 0.08246901
0.0066182315 0.07936189 0.02156376 0.020708352 0.103125796 -0.016739061 0.005774462 -0.033886325
0.009394973 0.10796899 -0.017509816 0.036671143 0.0808184 0.11177557 -0.013616492 0.03384672
-0.018555753 -0.03205439 0.10084577 -0.010139059 -0.057782236 0.08374126 -0.025333885 -0.057157356
0.05895447 -0.019557483 0.061182316 0.09618567 -0.0577354 0.042401806 -0.024676621 0.023956692
0.0848048 -0.033812832 0.10266619 0.06343648 -0.030535478 -0.025613187 -0.025638824 0.0020218566
-0.044309963 0.024205418 0.11075344 0.07607758 0.008941666 -0.048169132 -0.045510236 0.0114870975
0.15744819 0.07685777 0.086546265 -0.0022335427 0.057821173 0.10845065 0.11311986 0.08599477
0.10398605 0.027076185 -0.015345051 0.057969425 0.040187627 0.044845894 -0.04243049 0.039246894
0.054768614 -0.05401552 0.092760436 0.13965368 -0.028318133 -0.042625003 0.08114738 -0.00012706005
-0.017405136 0.0382468 0.13687965 0.033405773 -0.010836991 0.07890238 0.07660178 0.13591103
00000000: 5993 893b 8390 b63d 7f3f 463d 74d5 70bb
00000010: bf09 a13d 6e69 6ebd 3a87 9d3d f685 df3c
00000020: 7824 993d e14b bb3c cf13 a63d 8862 b03d
00000030: bbb8 653d 96fd 7d3d 6154 513d 97a0 113d
00000040: cefc fc3c 567b 113d ea7d 263d d4cb 693c
00000050: abcc d1bc 1db9 13bb 9749 18bd 647c f83d
00000060: a3f4 cd3c 04cc 8f3b 37fa b63d 6217 c33d
00000070: 80b0 943d a021 b73d fcb7 7f3d d410 883d
00000080: b7ec 1c3d 58f0 db3c 9baa 823b 1826 123d
00000090: 7cbd 163c a7f7 5d3d a0e8 b03d 01c4 9cbd
000000a0: 7983 40bd 51ec ef3d 59db 103c bcdd 033e
000000b0: 32f2 743d d09d 293d 3156 603d 1024 7aba
000000c0: 766e 7d3d 49e2 6fbd a1c6 993d 4904 ca3d
000000d0: 8dab 8d3c c9f2 473c f191 82bd 6671 81bd
000000e0: 7a4b d83d 07e7 0f3b 483d 51bd fe18 c1bc
000000f0: db2b 39bd cebd 0ebd 3636 8d3d 7afa 243d
00000100: 6609 953d 19a2 ab3d 3f44 6d3c 3bc9 ba3c
00000110: ee1d fb3c ef74 d33d 1c2d b43c 18be e2bc
00000120: bf49 04bd dee1 e33d 3a51 1cbd 568a 5a3d
00000130: 1ab0 cbbc 6c81 ddbc 99bc 6cbd 2158 e53d
00000140: 8fff 283d 25a5 7cbd c858 74bd b156 0bbd
00000150: 1c44 693d 0739 07bd 2b90 3fbd a0cc e63d
00000160: 023a e1bc 1b74 adbc 9ae6 0a3c 14fd 13bd
00000170: 332c 89bc f8c6 ab3d 0397 9dbc 42da 09bd
00000180: 1950 aa3d 7107 d8bc a890 1b3d b916 6bbd
00000190: 005c 0a3d 7d29 f93d 068d 3b3d 7be5 02bc
000001a0: 7437 c63d 28bd ba3d ed75 eb3d b58e 13bc
000001b0: c7b5 a93d 6a63 b23d 843e 48bb dd9f 4cbd
000001c0: 7d67 e8bc 90ce 8c3b c890 c53c 25d6 a43d
000001d0: 6fe3 a13c f57a a3bc 6b9e e63c 7306 56bd
000001e0: e25f 343c e612 b33d 179a 1ebd 32df 213c
000001f0: a225 953c b3c6 893d da37 b4bc 0b55 553d
00000200: ccf4 933c d478 793d 1c63 03bd 693a c03d
00000210: 427c a53d f2ba af3d 9b79 6abb cf68 943c
00000220: c3bf 1d3d 29bf 643d aecc bf3d 602b b23c
00000230: 034e 97bc 8a76 f5bc 293c 1bbc 2711 f83c
00000240: 6889 ad3d 3318 9b3d 275f 2cbd 3768 36bc
00000250: fe80 b83d 4a9a 983b 127a 41bd 5575 b13d
00000260: 0ec1 ef3c 5674 80bc 497d f03d c55e bb3d
00000270: 954e c83d ae2c a43c cf82 84bc 9cfd a4bc
00000280: b5ce 23bd 0da4 93bc 418b f1bc 1833 19bd
00000290: 691d adbb 3212 b03d b474 5f3c c483 5d3d
000002a0: 885f 723d a750 45bc 5e90 edbc 6b17 a23b
000002b0: 8ab0 d5bb 8dfe d93c cdfd e33d 83e5 a83d
000002c0: c0dd d83b 7d88 a23d 7ba6 b03c 90a4 a93c
000002d0: 9e33 d33d 5b20 89bc b337 bd3b 63cc 0abd
000002e0: 5fed 193c d91e dd3d bf70 8fbc 7b34 163d
000002f0: 1e84 a53d 97ea e43d b517 5fbc dca2 0a3d
00000300: 3c02 98bc 774b 03bd 3a88 ce3d 4c1e 26bc
00000310: 11ad 6cbd 8a80 ab3d 0289 cfbc d51d 6abd
00000320: 3e7a 713d 0437 a0bc 4f9a 7a3d fefc c43d
00000330: f47b 6cbd 84ad 2d3d a026 cabc d340 c43c
00000340: 24ae ad3d 537f 0abd a742 d23d fcea 813d
00000350: 8a25 fabc bfd2 d1bc 8308 d2bc 2081 043b
00000360: 5d7e 35bd 714a c63c b3d2 e23d 90ce 9b3d
00000370: 1180 123c ff4c 45bd f168 3abd 6134 3c3c
00000380: 193a 213e 9b67 9d3d 2b3f b13d a160 12bb
00000390: e5d5 6c3d 601b de3d 63ab e73d 071e b03d
000003a0: a3f6 d43d e0ce dd3c cf69 7bbc 5971 6d3d
000003b0: c89b 243d 54b0 373d 98cb 2dbd 5ac1 203d
000003c0: 0e55 603d 613f 5dbd 2ff9 bd3d 6001 0f3e
000003d0: 6efb e7bc 8e97 2ebd 9930 a63d 6c3b 05b9
000003e0: 3795 8ebc ada8 1c3d 2e2a 0c3e 7ed4 083d
000003f0: a28d 31bc 9297 a13d 65e1 9c3d 432c 0b3e

lstm.weight_ih_l1 f4 [512, 128]
-0.042377092 -0.021580258 0.037603624 0.01431441 -0.029094562 0.04994169 0.0821928 0.12549259
0.05304476 -0.07994467 -0.051507164 -0.0057962034 -0.0483975 -0.049768202 0.023646193 0.01746488
0.05518264 0.050558798 0.0026210067 -0.1073208 -0.041620817 -0.015966749 0.008512578 -0.004160164
0.045858275 0.04325432 0.03650287 -0.080255784 -0.01453479 0.008290929 0.04087224 -0.11421409
0.12510264 -0.03126491 0.006574977 0.025641091 -0.040105075 0.024231361 0.07090758 0.0060270415
-0.056897875 -0.07082279 -0.008347967 -0.030243555 -0.033772312 0.0327165 0.083735034 0.08497386
0.062294133 -0.027450452 0.082034424 -0.023535946 0.04610143 0.016004682 -0.08843862 0.05292902
0.051508654 0.10631923 -0.035262126 0.022899605 -0.059967108 0.0047929445 -0.06690116 -0.038347527
0.0054657916 0.023205018 0.009724301 0.005849091 -0.093939595 0.06900545 0.03014141 0.039391365
-0.10378281 0.028830992 -0.011088215 -0.026967313 -0.04847782 -0.018674359 0.015856775 -0.08535429
-0.038891863 0.105826385 0.00549762 0.034148086 0.07287851 -0.022138417 0.07949899 -0.009731583
0.06926521 0.040947165 -0.055044238 -0.0004850828 0.05746712 0.05450148 0.053816978 -0.047619313
0.09532745 0.10900623 0.07687037 0.06317562 0.062489852 0.098544635 0.031223547 0.09694682
-0.18520565 -0.09351243 -0.008813658 -0.03808215 -0.019858055 -0.046735745 0.037710752 -0.07489357
-0.02676158 -0.00043585146 -0.11102743 0.012139078 0.08496581 -0.034890633 0.008614468 -0.081770025
-0.029618239 -0.048383597 -0.07847346 0.035552118 0.07146387 0.050000887 0.07392491 -0.08679677
-0.093078285 0.061341297 0.019250691 -4.7505782e-05 0.0021534362 -0.02319028 0.09651561 0.04072283
-0.063036196 -0.03183696 -0.026352681 0.08035613 -0.09533414 0.036880683 0.07938148 0.034456294
-0.021501973 -0.07407066 -0.023562552 -0.0291918 0.03311648 0.00073212857 0.074564844 -0.07163518
0.015196308 -0.06357677 0.10054092 -0.08174094 0.06205946 -0.022344632 0.021925407 0.06266836
-0.0024793898 -0.055784106 0.048282523 0.05812902 0.11329038 -0.020666657 0.08951917 -0.085494176
-0.041901615 0.022288157 0.08754521 0.05003025 0.07165698 -0.060336873 -0.047698367 0.13293102
0.07656013 -0.050141145 0.02842854 -0.07424815 0.07947267 -0.06560514 -0.058303654 -0.019632049
0.013362529 0.03796233 0.109351374 -0.015614721 0.043688323 -0.10491533 0.073452435 -0.02025049
0.07111199 -0.06536195 -0.02536857 -0.03771012 0.049820177 -0.030689947 0.059317686 -0.0029878013
0.06665002 0.07713822 -0.0014652372 0.02057667 0.003287446 0.03806002 0.064831145 0.0661395
-0.016679633 0.029594315 0.019741235 0.015322094 0.05614589 -0.053730965 -0.0066330954 0.05675194
-0.039571974 0.042268198 -0.093811534 -0.01479027 0.009546215 0.045766495 0.065326266 -0.0282402
0.030984905 0.004870367 0.060129195 -0.014822542 -0.0810224 -0.023034709 -0.013792339 -0.015604114
-0.059764102 -0.0125905005 -0.07495073 0.02868035 -0.015756655 0.078043 -0.009998422 -0.042120993
-0.027750632 -0.047728255 0.0015848927 -0.045342673 0.013510646 0.01207484 -0.018446341 -0.0032853652
0.0023864845 -0.036180936 -0.045345936 -0.01647536 0.094098575 0.06930611 -0.039393075 -0.011501983
00000000: 9a93 2dbd 15c9 b0bc 4206 1a3d fd86 6a3c
00000010: b857 eebc a88f 4c3d b354 a83d 2181 003e
00000020: 7645 593d 08ba a3bd 2df9 52bd 14ee bdbb
00000030: 753c 46bd bed9 4bbd a9b5 c13c 8212 8f3c
00000040: 3107 623d be16 4f3d 32c5 2b3b 02cb dbbd
00000050: 977a 2abd b3cc 82bc 5778 0b3c fc51 88bb
00000060: e3d5 3b3d 712b 313d 0984 153d 255d a4bd
00000070: 5423 6ebc add6 073c a669 273d 14e9 e9bd
00000080: e81a 003e a20f 00bd e872 d73b 440d d23c
00000090: 3845 24bd d980 c63c fe37 913d 7d7e c53b
000000a0: bf0d 69bd 8a0b 91bd e9c5 08bc 55c1 f7bc
000000b0: d654 0abd bd01 063d 467d ab3d c606 ae3d
000000c0: 2228 7f3d c5df e0bc aa01 a83d 75ce c0bc
000000d0: dad4 3c3d 401c 833c 4f1f b5bd 1acc 583d
000000e0: bdfa 523d e5bd d93d 056f 10bd f497 bb3c
000000f0: 12a0 75bd 220e 9d3b 7a03 89bd 4c12 1dbd
00000100: 621a b33b 7318 be3c ad52 1f3c bba9 bf3b
00000110: 6763 c0bd bb52 8d3d 1eeb f63c d758 213d
00000120: 158c d4bd f92e ec3c 58ab 35bc 8eea dcbc
00000130: ae90 46bd f8fa 98bc 11e6 813c 3bce aebd
00000140: 134d 1fbd 81bb d83d 6125 b43b ddde 0b3d
00000150: 5441 953d a05b b5bc 5ed0 a23d 3871 1fbc
00000160: ebda 8d3d 37b8 273d 1176 61bd b652 feb9
00000170: a562 6b3d f23c 5f3d 316f 5c3d 780c 43bd
00000180: 0a3b c33d a93e df3d 366e 9d3d 3862 813d
00000190: 5cf5 7f3d c5d1 c93d 86c8 ff3c 0e8c c63d
000001a0: 8da6 3dbe 7283 bfbd 2967 10bc 07fc 1bbd
000001b0: 5cad a2bc fb6d 3fbd 9776 1a3d cd61 99bd
000001c0: 1a3b dbbc fe82 e4b9 5962 e3bd fce2 463c
000001d0: 8e02 ae3d 7be9 0ebd b323 0d3c 0b77 a7bd
000001e0: f3a1 f2bc e12d 46bd b2b6 a0bd 199f 113d
000001f0: a65b 923d bbcd 4c3d f165 973d 81c2 b1bd
00000200: d49f bebd 0341 7b3d a0b3 9d3c f240 47b8
00000210: aa20 0d3b 8bf9 bdbc faa9 c53d fbcc 263d
00000220: 1f19 81bd 7967 02bd 94e1 d7bc c191 a43d
00000230: 8c3e c3bd 3310 173d c292 a23d 0b22 0d3d
00000240: e824 b0bc 5cb2 97bd 4106 c1bc a423 efbc
00000250: 25a5 073d 51ec 3f3a 74b5 983d 77b5 92bd
00000260: eff9 783c 8a34 82bd 66e8 cd3d cb67 a7bd
00000270: 0f32 7e3d 170c b7bc e99c b33c 4558 803d
00000280: 427d 22bb e07d 64bd e5c3 453d b218 6e3d
00000290: c904 e83d 1f4d a9bc d455 b73d 9217 afbd
000002a0: 07a1 2bbd a795 b63c e74a b33d 85ec 4c3d
000002b0: e5c0 923d cc23 77bd 5d5f 43bd 121f 083e
000002c0: 8fcb 9c3d cd60 4dbd f8e2 e83c 6a0f 98bd
000002d0: 91c2 a23d fd5b 86bd d0cf 6ebd 64d3 a0bc
000002e0: 82ee 5a3c 637e 1b3d 9df3 df3d e3d4 7fbc
000002f0: 87f2 323d d9dd d6bd 3b6e 963d 5be4 a5bc
00000300: 2aa3 913d 7cdc 85bd bfd1 cfbc ed75 1abd
00000310: 3e10 4c3d 7c69 fbbc 1af7 723d fdce 43bb
00000320: ce7f 883d a5fa 9d3d 340d c0ba 6890 a83c
00000330: 3172 573b d3e4 1b3d 31c6 843d 2574 873d
00000340: baa3 88bc c76f f23c 5fb8 a13c 8509 7b3c
00000350: 3cf9 653d 0015 5cbd 705a d9bb b974 683d
00000360: 3916 22bd 6b21 2d3d 4320 c0bd e352 72bc
00000370: ba67 1c3c a675 3b3d c7c9 853d fe57 e7bc
00000380: 0ed4 fd3c 9997 9f3b 084a 763d 3fda 72bc
00000390: 12ef a5bd 49b3 bcbc 43f9 61bc 66a8 7fbc
000003a0: 34cb 74bd 6348 4ebc c57f 99bd 0ef3 ea3c
000003b0: 1a14 81bc 02d5 9f3d 6cd0 23bc 1087 2cbd
000003c0: 4b55 e3bc b47e 43bd 2dbc cf3a 3db9 39bd
000003d0: c25b 5d3c 8dd5 453c c81c 97bc 484f 57bb
000003e0: 9166 1c3b 7632 14bd a9bc 39bd 56f7 86bc
000003f0: c1b6 c03d 5df0 8d3d a25a 21bd d072 3cbc

lstm.weight_hh_l1 f4 [512, 128]
-0.02540935 -0.039723475 0.08052911 0.095671594 0.11774487 0.05407251 0.053721886 0.026644105
0.062390286 -0.031191025 -0.0852742 0.008970576 0.07126876 -0.043019947 0.018800106 -0.008938803
0.03667635 -0.0641604 0.0036155782 0.07523478 0.077290356 -0.09550613 0.021803994 0.019878754
0.06500029 0.06628089 0.01889752 0.092429 0.009781512 -0.018700523 -0.07872715 0.020164799
0.050687153 -0.032649964 0.02810306 -0.091210015 0.03890363 -0.097603954 -0.010327516 -0.081770875
0.07496321 0.07747724 -0.0014627884 -0.07253636 0.030465377 0.080166556 -0.004991143 0.06300333
0.03512167 0.038811315 0.05982061 -0.099723086 -0.009562985 0.06153719 0.012506294 0.123521335
-0.06618989 0.019881167 -0.13868321 0.046753917 -0.032670427 -0.029643193 0.042456605 0.022950735
-0.08490843 -0.055382036 -0.051666547 -0.039212972 0.096441366 -0.058518063 0.047655832 -0.032730285
0.029816575 -0.0143807465 0.06967838 -0.066918634 -0.040858448 -0.05182298 0.09012582 -0.04043824
-0.08843211 -0.05461005 0.030240353 -0.031097153 -0.023123128 -0.015177951 0.026514893 0.07457359
0.051869478 0.0015410958 0.056383368 -0.01525871 0.087843336 -0.01889668 0.07073014 0.047536828
-0.057983935 0.04731281 0.016892152 -0.05643586 -0.02236685 0.06287338 -0.06516062 -0.04749102
0.019303178 -0.027952906 0.0021327643 0.09473726 -0.0038266426 0.054197475 0.0004760708 -0.11085995
0.105547704 0.046433944 -0.07236214 -0.08861769 0.056397654 0.073040836 0.07077442 0.017108323
0.029731682 0.020690974 0.08912105 0.03873003 0.019808775 0.049309958 -0.04415161 0.13181478
0.006231093 0.075626366 -0.02137795 -0.035127465 0.13343096 -0.010697096 -0.03005271 0.03231582
-0.06338024 0.06332371 -0.04134879 0.09864917 -0.07621325 -0.02867896 0.009956882 0.064222865
-0.02642743 0.05728135 -0.047265857 -0.05946049 -0.06740258 -0.0043514296 -0.057465777 0.045446713
-0.017849566 0.02045885 -0.074924126 -0.05401654 0.060093857 -0.08164582 0.03132575 -0.044852577
-0.06458204 0.013706935 -0.03936158 -0.008869865 0.042020664 -0.10651281 -0.07604339 0.047365226
0.0024650258 0.06803214 0.040619273 0.010265268 0.053075634 0.03779253 0.010458911 0.079758644
0.06480287 0.06579415 0.0312027 -0.031824376 -0.022482615 -0.022932159 -0.05587087 0.00010348983
-0.0034819446 -0.012167394 0.052399594 -0.050713975 -0.008808407 -0.081418954 0.052713584 0.062473282
-0.008652889 -0.059589524 -0.08171923 -0.024225302 -0.010214756 0.04996149 0.06546894 0.08343846
-0.022506623 0.08008022 0.032142773 -0.0715261 -0.052648116 -0.092194684 -0.04890904 -0.04117785
0.005541728 0.07758509 0.019507876 0.0011858481 -0.08725236 -0.058534928 0.08448969 0.07061607
-0.06736119 0.07357059 0.0050193197 0.091685444 -0.09359389 -0.03328068 0.037356753 -0.046809744
-0.022290902 -0.032132432 -0.055613644 0.022191368 -0.03458372 -0.023987453 -0.003970468 -0.055034515
0.02431954 -0.068046406 0.043373164 0.012455506 0.028560385 -0.005513058 -0.050440982 0.056064423
-0.055478632 0.07086195 0.0111665195 -0.014414602 0.050593246 0.06718146 -0.05160092 0.015890587
-0.06338925 0.04303351 0.012427125 0.07777505 -0.07585808 -0.041410547 0.088043824 0.104028754
00000000: 4527 d0bc 15b5 22bd 72ec a43d 78ef c33d
00000010: 3924 f13d 237b 5d3d 7b0b 5c3d bd44 da3c
00000020: f58c 7f3d 5284 ffbc 3da4 aebd 53f9 123c
00000030: 5bf5 913d af35 30bd ae02 9a3c 0f74 12bc
00000040: f139 163d 8766 83bd 56f3 6c3b b114 9a3d
00000050: 684a 9e3d b898 c3bd 4a9e b23c c5d8 a23c
00000060: df1e 853d 46be 873d f9ce 9a3c 6a4b bd3d
00000070: a342 203c d731 99bc b33b a1bd a630 a53c
00000080: 559d 4f3d f8bb 05bd 6338 e63c 51cc babd
00000090: 6a59 1f3d 95e4 c7bd be34 29bc 7d77 a7bd
000000a0: 5086 993d 63ac 9e3d 09bb bfba f18d 94bd
000000b0: 8792 f93c 5d2e a43d be8c a3bb e407 813d
000000c0: bedb 0f3d 9df8 1e3d 7506 753d 9e3b ccbd
000000d0: 11ae 1cbc 6c0e 7c3d 33e7 4c3c c1f8 fc3d
000000e0: 918e 87bd d4dd a23c f902 0ebe 0981 3f3d
000000f0: 6dd1 05bd 48d6 f2bc fae6 2d3d 2e03 bc3c
00000100: 79e4 adbd 46d8 62bd 4da0 53bd c89d 20bd
00000110: 0d83 c53d a3b0 6fbd c332 433d 3110 06bd
00000120: e441 f43c 399d 6bbc 8ab3 8e3d a30c 89bd
00000130: 305b 27bd 5544 54bd e393 b83d 91a2 25bd
00000140: e51b b5bd caae 5fbd 9eba f73c 75bf febc
00000150: b76c bdbc f1ac 78bc c335 d93c 0aba 983d
00000160: 1775 543d 98fe c93a 3ff2 663d abff 79bc
00000170: 35e7 b33d 36cd 9abc f7da 903d fab5 423d
00000180: 9080 6dbd 14cb 413d 6961 8a3c 4a29 67bd
00000190: af3a b7bc c2c3 803d ee72 85bd f285 42bd
000001a0: b321 9e3c 7efd e4bc d9c5 0b3b 9c05 c23d
000001b0: 69c8 7abb 2cfe 5d3d 2499 f939 8b0a e3bd
000001c0: 6529 d83d 8531 3e3d 9a32 94bd 317d b5bd
000001d0: 3a01 673d 6f96 953d 2ef2 903d c126 8c3c
000001e0: db8f f33c 1e80 a93c 1985 b63d 61a3 1e3d
000001f0: 0346 a23c 3df9 493d 52d8 34bd 74fa 063e
00000200: 322e cc3b ffe1 9a3d d020 afbc d1e1 0fbd
00000210: 20a2 083e df42 2fbc 1a31 f6bc 985d 043d
00000220: 80cd 81bd dcaf 813d 595d 29bd 9308 ca3d
00000230: b115 9cbd 23f0 eabc 3122 233c 4787 833d
00000240: 567e d8bc d99f 6a3d d899 41bd d88c 73bd
00000250: 5d0a 8abd 7096 8ebb 3c61 6bbd 5526 3a3d
00000260: 4139 92bc 5199 a73c d271 99bd 7340 5dbd
00000270: fa24 763d ec35 a7bd 6e4f 003d 56b7 37bd
00000280: 9743 84bd 0d93 603c 9c39 21bd e952 11bc
00000290: dc1d 2c3d 6323 dabd a3bc 9bbd 0a02 423d
000002a0: 458c 213b 6f54 8b3d 6560 263d a82f 283c
000002b0: d665 593d 57cc 1a3d da5b 2b3c 8058 a33d
000002c0: 5eb7 843d 15bf 863d ce9c ff3c 475a 02bd
000002d0: 762d b8bc 39dc bbbc dad8 64bd ae08 d938
000002e0: 5631 64bb c059 47bc f5a0 563d 75b9 4fbd
000002f0: 2351 10bc fbbe a6bd 33ea 573d fce3 7f3d
00000300: d9c4 0dbc 2514 74bd 695c a7bd 2474 c6bc
00000310: cb5b 27bc 6ba4 4c3d 9414 863d c9e1 aa3d
00000320: cf5f b8bc 1901 a43d 24a8 033d 477c 92bd
00000330: 8da5 57bd 91d0 bcbd d854 48bd 1baa 28bd
00000340: 6297 b53b efe4 9e3d fbce 9f3c 766e 9b3a
00000350: 5eb1 b2bd 52c2 6fbd ee08 ad3d 289f 903d
00000360: aaf4 89bd 2dac 963d 1b79 a43b 94c5 bb3d
00000370: 27ae bfbd 5351 08bd 6503 193d 93bb 3fbd
00000380: 699b b6bc 4c9d 03bd 22cb 63bd acca b53c
00000390: a9a7 0dbd 5681 c4bc b31a 82bb df6b 61bd
000003a0: c639 c73c ea5b 8bbd 0fa8 313d 2e12 4c3c
000003b0: 78f7 e93c e2a6 b4bb 349b 4ebd cfa3 653d
000003c0: 903d 63bd 1220 913d c7f3 363c 392b 6cbc
000003d0: dd3a 4f3d 6f96 893d 7c5b 53bd fa2c 823c
000003e0: 39d2 81bd e843 303d 249b 4b3c 8748 9f3d
000003f0: 7b5b 9bbd 1b9e 29bd 5250 b43d 070d d53d

lstm.bias_ih_l1 f4 [512]
-0.053953316 0.00071840716 -0.042005755 -0.012660646 -0.056469306 -0.02003875 0.0014565019 0.07445012
0.052257378 0.069980495 -0.050233964 -0.06547289 0.017926954 -0.036172237 0.014901332 0.02134646
-0.058630712 0.07892648 0.010630126 -0.048705056 -0.021823235 -0.027522376 0.046909504 0.062679164
0.06844752 0.08824106 0.055036362 0.047783405 0.020047158 -0.034157466 -0.06326649 -0.04367485
-0.027727064 5.0007926e-05 0.06549101 -0.04452246 -0.062338974 -0.0026504076 0.049182247 -0.08090946
-0.020801129 -0.069176406 0.010065793 0.031238275 -0.029911602 0.05038608 -0.007355032 0.04920551
-0.0025441456 -0.036546063 -0.005085228 -0.02571561 0.011615755 0.007907197 0.0978306 -0.0026760355
-0.07881585 0.039340068 -0.0051064915 -0.04057447 0.031867504 0.051576845 0.03722516 -0.050923526
0.003095328 0.06639755 -0.041081507 -0.07695938 0.05637329 -0.06995701 -0.029588953 0.09106223
0.04456735 0.0658585 -0.0390805 0.009810441 0.011973446 0.002522918 0.01777962 -0.033820122
0.06898867 -0.024251869 -0.0125952875 -0.08032865 0.06049061 0.07233973 -0.036864433 -0.025335565
-0.0120160645 -0.02185627 -0.078866065 -0.037732102 -0.02611442 -0.08522802 0.06645425 -0.06834114
0.058158647 0.04037366 0.0015477232 0.08880769 0.072201855 0.030383635 0.0577085 -0.012472501
-0.06401828 -0.060315058 0.088611774 -0.009290453 0.032367803 0.026298849 -0.0053659584 -0.07535136
0.023906594 0.0674724 -0.012671112 -0.015493023 -0.0050542727 -0.046403863 -0.004846682 0.03763592
0.06442035 0.033667218 0.056842662 0.026275838 -0.050683208 0.07569564 0.037581496 0.0063455515
0.122570194 -0.054945607 0.09643852 -0.06947253 0.08655978 -0.015670942 0.09255099 -0.06092878
0.07095429 -0.050866477 0.09555058 -0.055737667 0.02327583 0.06286102 -0.017148511 0.054372087
-0.03940839 -0.019482639 0.08365079 0.04675629 0.0021926735 0.010370991 -0.07021729 0.017419687
-0.043755915 -0.056204412 0.012975668 0.007895214 0.02499604 0.07872274 -0.041257456 0.041553363
-0.013815593 0.03507302 -0.03625618 -0.02008308 -0.0239205 -0.04482983 -0.06533368 0.002407669
0.044682823 0.0010406509 -0.023696892 -0.027916174 -0.033309918 -0.043410923 0.06939169 0.03829276
-0.003340559 -0.032394867 0.025479812 0.061532743 -0.035500478 0.011613312 -0.06552535 0.03612845
-0.052484196 0.11225825 -0.09044427 0.041317996 -0.067821436 0.058379713 0.10918229 0.051933367
0.007542708 0.037854124 0.07273376 -0.074789956 0.116647914 0.06743926 -0.0146011785 -0.019774593
-0.019918952 0.082446374 0.071582936 0.040114816 0.07890801 0.07991627 0.0038403547 0.060735263
-0.023944141 -0.0023482067 0.008446807 -0.025147209 -0.058135875 -0.023257408 -0.08368459 -0.02959165
-0.05240979 0.025032137 0.08219654 0.00420946 0.06874093 0.05630746 -0.029159574 -0.045055475
-0.052702006 0.008652794 0.0647042 0.09573651 -0.02626096 -0.03339158 0.081341214 -0.031740867
0.022418253 -0.001574703 -0.055065736 -0.0112820845 -0.015290203 0.025744451 -0.07550715 -0.05114275
0.089846216 -0.015130419 0.09771066 0.017424742 0.03302385 0.010792613 -0.06051813 -0.020516071
0.0003400856 0.10643514 0.038069118 0.0175764 -0.050654154 0.08673762 0.03520881 0.010135352
00000000: 27fe 5cbd 7d53 3c3a 3a0e 2cbd 996e 4fbc
00000010: 5c4c 67bd 4e28 a4bc 18e8 be3a 4e79 983d
00000020: d50b 563d ef51 8f3d 21c2 4dbd a716 86bd
00000030: 8cdb 923c 5729 14bd b724 743c c5de ae3c
00000040: c226 70bd 35a4 a13d fb29 2e3c f47e 47bd
00000050: a4c6 b2bc 9b76 e1bc 2e24 403d ef5d 803d
00000060: 372e 8c3d bbb7 b43d cf6d 613d 88b8 433d
00000070: f039 a43c b3e8 0bbd dd91 81bd 66e4 32bd
00000080: de23 e3bc 9abf 5138 2720 863d 2f5d 36bd
00000090: 2757 7fbd 76b2 2dbb 5373 493d dcb3 a5bd
000000a0: 2167 aabc 5cac 8dbd ffea 243c 69e7 ff3c
000000b0: 2d09 f5bc a261 4e3d 7b02 f1bb b88b 493d
000000c0: aebb 26bb 53b1 15bd fca1 a6bb 8ba9 d2bc
000000d0: 0250 3e3c 308d 013c 695b c83d 6d60 2fbb
000000e0: 346a a1bd 0d23 213d 5b54 a7bb 6a31 26bd
000000f0: 8087 023d 3e42 533d 6979 183d 3095 50bd
00000100: fdda 4a3b 70fb 873d 1545 28bd e19c 9dbd
00000110: aee7 663d 9f45 8fbd 8864 f2bc d67e ba3d
00000120: 418c 363d d2e0 863d e012 20bd f9bb 203c
00000130: 462c 443c 8a57 253b 91a6 913c f886 0abd
00000140: ef49 8d3d dbab c6bc 775c 4ebc 5983 a4bd
00000150: 00c5 773d da26 943d 29ff 16bd 888c cfbc
00000160: 07df 44bc ec0b b3bc 8884 a1bd fa8c 1abd
00000170: e8ed d5bc 078c aebd 2a19 883d 71f6 8bbd
00000180: c337 6e3d da5e 253d f9dc ca3a cee0 b53d
00000190: 91de 933d 1ae7 f83c c05f 6c3d 7659 4cbc
000001a0: 041c 83bd ec0c 77bd 177a b53d fc36 18bc
000001b0: 1a94 043d af70 d73c ecd4 afbb d051 9abd
000001c0: c3d7 c33c f82e 8a3d 7f9a 4fbc 73d6 7dbc
000001d0: 509e a5bb fa11 3ebd ead0 9ebb 1f28 1a3d
000001e0: d1ee 833d a3e6 093d dad3 683d 6d40 d73c
000001f0: 3299 4fbd 5106 9b3d 0eef 193d 58ee cf3b
00000200: 1506 fb3d a50e 61bd 8f81 c53d 9d47 8ebd
00000210: 4146 b13d 5960 80bc 608b bd3d 7590 79bd
00000220: 7c50 913d 5e59 50bd 06b0 c33d 2e4d 64bd
00000230: f4ac be3c 47bd 803d 097b 8cbc 44b5 5e3d
00000240: b16a 21bd 0e9a 9fbc 1b51 ab3d 8683 3f3d
00000250: f5b2 0f3b 17eb 293c 15ce 8fbd bbb3 8e3c
00000260: 6739 33bd 9936 66bd e597 543c ed5a 013c
00000270: 7fc4 cc3c 6339 a13d 94fd 28bd dc33 2a3d
00000280: cc5a 62bc baa8 0f3d 5c81 14bd 4585 a4bc
00000290: edf4 c3bc 7c9f 37bd aacd 85bd fcc9 1d3b
000002a0: 5605 373d 7366 883a fc1f c2bc 76b0 e4bc
000002b0: fb6f 08bd a7cf 31bd 3b1d 8e3d ded8 1c3d
000002c0: 48ed 5abb 7bb0 04bd 0abb d03c c209 7c3d
000002d0: f368 11bd c345 3e3c 2832 86bd 6dfb 133d
000002e0: abf9 56bd a7e7 e53d d83a b9bd 0f3d 293d
000002f0: f7e5 8abd 911f 6f3d f79a df3d 15b8 543d
00000300: d228 f73b ed0c 1b3d 70f5 943d 7a2b 99bd
00000310: 1ae5 ee3d 981d 8a3d c839 6fbc 54fe a1bc
00000320: 122d a3bc a5d9 a83d 139a 923d 6f4f 243d
00000330: 869a a13d 24ab a33d 76ae 7b3b 8ac5 783d
00000340: 8126 c4bc 5fe4 19bb 7a64 0a3c 8501 cebc
00000350: e21f 6ebd 5286 bebc d462 abbd 306a f2bc
00000360: a6ab 56bd 3210 cd3c a956 a83d 83ef 893b
00000370: 0bc8 8c3d a7a2 663d 0fe0 eebc 178c 38bd
00000380: 0fde 57bd 73c4 0d3c a383 843d 8111 c43d
00000390: 3a21 d7bc 9cc5 08bd 3996 a63d b602 02bd
000003a0: 7ca6 b73c 4466 ceba 9c8c 61bd 7ed8 38bc
000003b0: c283 7abc 07e6 d23c 7ea3 9abd 0f7b 51bd
000003c0: 4b01 b83d 94e5 77bc 871c c83d 55be 8e3c
000003d0: 0444 073d 80d3 303c dce1 77bd 5211 a8bc
000003e0: 844d b239 abfa d93d 5dee 1b3d 62fc 8f3c
000003f0: bb7a 4fbd 7ea3 b13d 1d37 103d bf0e 263c
