Data/PredictionsData/AB30.pth (torch, 828430 bytes, 10 tensors)

lstm.weight_ih_l0 f4 [512, 13]
00000000: 1a2b 893c 62c2 0fbd 7a10 6a3d 0a60 e23c
00000010: 2295 85bd db8c 743d 8fd8 273e 61df cabd
00000020: 8184 a0bd a8ce 9d3d 7757 8ebd 7904 da3c
00000030: 78bf d33c 828d c13d 5288 013d 9c77 d4bd
00000040: a529 f7bc 9353 f1bc caaa d6bd 7d70 7d3d
00000050: 5335 873d 2968 9d3d 2807 93bd 2844 b73d
00000060: c730 8fbd 26cb 123d 2c4c 843d 2f3b 233a
00000070: 51c1 bf3d 855a 6f3c bdd5 30bd fa39 a03d
00000080: 0c34 acbc 6b30 c3bc ea6b 86bd 7644 5cbd
00000090: 0cae 42bd a9e1 933d 055d b83d ad84 fe3c
000000a0: 1c47 8cbd 51d4 eabc 08a3 ed3d aba5 943d
000000b0: 477f cb3d e379 0fbe 4918 a1bd 6800 983c
000000c0: 670e c1bd a649 5dbe f132 5e3c e0ca 113d
000000d0: 7433 083c 83cc 763d a5d5 dabc 9028 763c
000000e0: ceac 9d3d 7058 163d 611a 0d3e 7249 53bd
000000f0: d522 783d f59b 423d 98b0 e23c 4033 773d
00000100: fada d33c ffd6 bc3d e58b 003d 4a27 4fbd
00000110: 03de 3c3a a504 d1bb 5585 373d d02f c7bd
00000120: 1869 0dbc f3dd 77bd 69c8 26bd 7d49 d6bc
00000130: 02e8 90bd 35ed 1abd 8956 293c c5a3 20bd
00000140: 712d 483d 4188 013c 0eb3 a63d 87a9 32bc
00000150: 1224 14be cf20 c2bc 3c16 ea3d e6e9 9839
00000160: 521d c93c f09b 163d dbff 28bd 9c14 12ba
00000170: 1463 59bd 4515 96bd 8591 edbc b2d3 9fbc
00000180: a016 b93d 66e5 efbc 2db9 b73c 957c d4ba
00000190: fc44 4f3d 34fa c7bc 5dc1 7a3c eab6 103c
000001a0: 465f 4cbd a65a 4b3a c473 d5bc 2a9f 85bd
000001b0: 5e65 8dbd 8234 203c 0bd7 223d af26 ba3c
000001c0: 2be3 813d 93c5 833b 09a3 0b3d a525 243d
000001d0: dd61 213d cae2 b23d 8b00 5a3d f3be 963b
000001e0: 979e 173d 923f db3c 1d2c 83bd 3082 90bd
000001f0: 9696 81bd e9af c33d 2de8 f83c 501c 973d
00000200: 2d9b 623d 33a4 36bd 4a30 803d 8538 f7bd
00000210: 7f42 0bbd 5dfd 68bc 4d1b 863d f1cb 6dbd
00000220: 21c2 a0bc 8df2 143d 58c2 b13d dba6 93bd
00000230: 9f54 ff3d aa5d 13bd 6fda 3dbd e0d2 f9bd
00000240: c4ec aabc 4c0f 09bd 028a a13d e4ce 46bc
00000250: bc52 f4bb 1468 71bd a306 8ebd fa9c 7c3d
00000260: 2a89 8bbb 06b1 bdbc b519 c6bc 338f f1bc
00000270: a288 583d 6ff6 d6bd 77d8 09be 50a1 053d
00000280: f1ce 213d 4f1a 92bd e12c 06be fc67 333c
00000290: 37f7 3c3e 5766 84bb 2bf9 b2bd 1964 253d
000002a0: ca13 593c 5909 acbd 1406 6ebd 5970 71bd
000002b0: a5dd fd3c 25d3 9d3c 8b49 d0bd 2cf1 d1bd
000002c0: c8fe f8bd 12ac 553d de1f bf3c 3731 1a3d
000002d0: d61e 47bd e4a4 903d 583a 1a3e 4a1c cc3d
000002e0: ecf3 8a3d 9154 fa3d 37e1 aa3d 33fc df3d
000002f0: 5286 a5bc 05a6 24be 0315 bdbd 4ead e1bb
00000300: 1263 b73d 0aeb 9c3c 08b4 edbb f375 01be
00000310: f03a 64bd df59 183d 4398 ddbd 9e74 9b3d
00000320: 4f04 cfbc 3d49 e63b 7a4d 9dbd 314a 7b3d
00000330: c20b d8bb 10d9 46bd 0d75 ed3d a092 413d
00000340: 55a4 77bd 313d fabc 7220 e23c 535c 053d
00000350: 7851 d1bd a7c5 22bd 80a9 25be 8fa3 64bd
00000360: 0b70 36bc 61d5 6ebd 1735 a73d 2ebf 893c
00000370: ccfc c43d 86da 15bd 94e8 a1bd 46f7 95bd
00000380: 31ed babd c434 e5bc 6719 42bd 9c3b b3bc
00000390: 5a53 56bd d071 a73d 2cd3 833c c6e6 c5bd
000003a0: 04cd 06bd 5568 4abd 18c1 3e3d 5fac 90bd
000003b0: 0cc1 a53d 2048 693d 48bc 703c 8509 42bd
000003c0: 4300 423c 8997 aebd b5fa ce3d eb01 8bbc
000003d0: 1fd8 13bc 80b8 b33c fe9b 96bd 050c 9a3d
000003e0: 6558 f8bb 386d b73d 3489 e03c d467 c8bc
000003f0: 0540 9e3d aec1 ae3d 4a8d 06bc 4cd6 143c
0.016744185 -0.035097487 0.05714462 0.027633686 -0.065225855 0.059704643 0.16391204 -0.099058874
-0.07837773 0.07705432 -0.06950276 0.02661346 0.025848135 0.094508186 0.031624146 -0.10374376
-0.030171225 -0.029458797 -0.10481794 0.061874855 0.06601968 0.076858826 -0.07179099 0.08948547
-0.069917254 0.03583827 0.06459841 0.00062267756 0.09363044 0.014608984 -0.043172587 0.07823558
-0.021020912 -0.023826798 -0.06563552 -0.053776227 -0.047529265 0.07220776 0.09002117 0.031069124
-0.068495005 -0.028665693 0.11603361 0.07258161 0.099363856 -0.1401134 -0.0786596 0.018554881
-0.09426575 -0.21610126 0.01356195 0.035593867 0.008313049 0.06025363 -0.026713202 0.015024319
0.076989755 0.036705434 0.13779594 -0.051583715 0.060580093 0.047512013 0.027672097 0.06035161
0.025861252 0.09220695 0.031383414 -0.05057458 0.0007204713 -0.0063787275 0.04480489 -0.097259164
-0.008631013 -0.0605144 -0.04071847 -0.026158089 -0.07075502 -0.037823875 0.010335573 -0.039218683
0.04887146 0.007906021 0.08139621 -0.010904676 -0.14466885 -0.023697285 0.11430022 0.00029165967
0.024550114 0.036769807 -0.041259628 -0.0005572529 -0.053073004 -0.073282756 -0.029000053 -0.019510124
0.090375185 -0.02928419 0.022427166 -0.0016211445 0.050602898 -0.024411298 0.01530489 0.008832673
-0.049895547 0.0007757343 -0.026056178 -0.06524499 -0.069041 0.009778144 0.039755862 0.022723524
0.06342157 0.0040213554 0.03409103 0.040074963 0.03939997 0.08734663 0.053223174 0.0046003996
0.037016477 0.026763711 -0.06404898 -0.07056081 -0.0632755 0.095550366 0.030384148 0.07378447
0.05532377 -0.044590186 0.062592104 -0.12071327 -0.033998962 -0.014220563 0.06548176 -0.05805582
-0.019623818 0.036364127 0.08679646 -0.072095595 0.12467312 -0.035977997 -0.046350893 -0.12198424
-0.020864852 -0.033461854 0.07887651 -0.0121342875 -0.007456152 -0.058937147 -0.069348596 0.061673142
-0.0042582946 -0.0231557 -0.02418218 -0.029487228 0.05286468 -0.10496222 -0.13461481 0.032624543
0.039503995 -0.07133924 -0.13103057 0.010950085 0.1845368 -0.00404052 -0.08738931 0.040378664
0.013249347 -0.084002204 -0.058111265 -0.058945034 0.030989477 0.01926572 -0.10170277 -0.10251078
-0.12157971 0.052166052 0.023330625 0.03764459 -0.04861339 0.070627004 0.15061319 0.09966333
0.06784806 0.12223161 0.083437376 0.10936775 -0.02020565 -0.16078956 -0.09232523 -0.0068871146
0.08954443 0.019155044 -0.0072541274 -0.1264265 -0.05572027 0.037195083 -0.10820057 0.07590602
-0.02527061 0.0070277737 -0.07680793 0.06135005 -0.0065931985 -0.04854685 0.11594591 0.047258973
-0.060459454 -0.030546756 0.027603362 0.03255875 -0.10220617 -0.039739277 -0.1617794 -0.055820044
-0.011135112 -0.058308963 0.08164423 0.016814794 0.0961853 -0.036585353 -0.07905689 -0.07322554
-0.09127272 -0.027979262 -0.047387507 -0.02187901 -0.052325584 0.08176005 0.016091906 -0.09663157
-0.032910362 -0.049415905 0.046570867 -0.07064127 0.080934614 0.05695355 0.014693327 -0.04737236
0.011840883 -0.08524997 0.10106412 -0.016968688 -0.009023695 0.021938562 -0.07353972 0.07521824
-0.007578897 0.08956379 0.027409174 -0.024463572 0.077270545 0.08533035 -0.008212397 0.0090842955

lstm.weight_hh_l0 f4 [512, 128]
00000000: fc2b 98bd 03f8 0cbb 089d b8bd 7bf8 85bd
00000010: e995 96bd 1af8 263d b28f bc3d a0a8 4fbc
00000020: a81b 89bc f1d7 00be 9faa 823d 3ddb 1e3d
00000030: 42bc b7bd 0a30 ab3d 07ce c43c 4e6e c43d
00000040: 6abc 993d 1405 0ebd 50ca 3e3c 42f7 80bc
00000050: 941a b7bd d04e 8fbd 9ca0 93bd e0a1 a83d
00000060: bd04 8dbd 2be8 94bd 59b6 b9bd fe96 d9bd
00000070: f5fa 01bd 597b 803d 20df 83bd 7a47 503d
00000080: d80b 59bd a1eb 0dbd e327 ac3d 309d d3bc
00000090: 2715 c6bd 0f82 aabd 4431 21bd c4fd c13b
000000a0: 24c7 2cbd 9b28 043d b2f2 02bd e460 e73d
000000b0: 884d 513d 8150 653c 30f5 d43c e36c b53d
000000c0: 62ac 233c 40e1 863d b124 36bd 3e68 eabd
000000d0: 024f c13c 88e7 403c 57c2 2ebd 4a9f a33d
000000e0: 6d8b ccbd 6129 eebc ed6f cabd bb43 c53d
000000f0: 2677 95bd d40b f3bb 86f2 aaba ccc5 933b
00000100: 70dc e93b 46a3 8b3c b9c5 bdbc 0214 49bd
00000110: b12c a8bc 0eba 45bc c659 b13d b82c 1d3d
00000120: 8d1f e93b 8b63 633c 4a11 013c c6b7 993c
00000130: 97f9 d0bb 146b 14bd 46dd 0fbd 7cfa c9bc
00000140: e48c ad3c 66bd ed3c c322 783d 05b8 3d3d
00000150: 55c7 693b 0a86 313d f4fb 14bd 51c2 bf3b
00000160: 83c9 46bd de62 613d ff34 453d 0434 043d
00000170: 4d2c ed3d 574b b03d 677f 1fbd 032f 9abc
00000180: 267f 30bc 63b4 89bd 6887 de3d 9846 76bc
00000190: 98ae 123d 9d22 68bb d5a0 02bd 78ab 473d
000001a0: 5fd6 16bd 7b96 ac3c aeee bbbd f86e 1bbd
000001b0: 9a9b 36bd 60b1 b0bc c789 b7bc 928f b4bd
000001c0: 34de 613c 44c3 783d 9296 483c 2bb9 a9bc
000001d0: b39c 883d d78e 20bd 9bae 443d 0191 953c
000001e0: f14e 123c cf77 c93c 7f0a b93d a75f 5f3d
000001f0: 2c8e 833c eebd 753d c66d e4bc 41fb 013d
00000200: 82f1 14bd 0d19 7e3d 2cc7 dc3b f3c5 07be
00000210: d8e8 ff3c 6d42 6abc b47a 8cbc c7cf 7e3c
00000220: 5cc9 bc3d 4b39 bcbd 843f 90bc fed4 9cbd
00000230: 3431 363d d445 9dbd 1e6f cabc 934c df3c
00000240: bb30 433d 8de6 32bd 3b81 b0bb 98a1 3abd
00000250: 8bc8 853c 96f8 333c c732 82bc f85d a13c
00000260: 7ff9 bebb 5896 2ebd d722 80bd 9d5e bfbd
00000270: d54e 0f3d e621 6e3d 7e53 743d 1ba2 40bd
00000280: abd2 173c 5916 20bd 99e4 96bd cddf f2ba
00000290: c429 be3d cf98 853d d9c7 893d 6977 a6ba
000002a0: d02d 793c edfc 063d a0a2 eabd fc96 95bb
000002b0: d36e 3fbc 8101 fe3c 2289 0bbd 6424 a63d
000002c0: a765 b6bc 2de3 843d de41 323c 7214 ca3c
000002d0: 72fb ffbc 10bd 4b36 e4a5 d5bd 1584 2fbc
000002e0: 704b 453c 6f69 90bc 6740 30bc e30b e83b
000002f0: 4333 d93c b578 e83c af98 973d ac46 c8bd
00000300: 33d5 b73d a54c 9d3d cb5a a33c 012f 923d
00000310: add4 6d3d a820 893c 8d6d 7c3c 3a1f 61bd
00000320: bc28 96bd 13fc 423c 8f94 843d 5fb1 163d
00000330: 9862 af3a 51e3 c53d 8294 abbd a83f 8a3d
00000340: c77a 18bc f6c5 6b3d 8640 8dbd 2438 b8bc
00000350: b763 06bd a565 a8bd 7053 58bc c9fe 353b
00000360: c667 bb3c c877 63bd 9387 a73d 6cc1 be3c
00000370: 963f 8ebd cfc4 a6bc 5efc 863d b326 8e3c
00000380: d613 b53c 5e4f 773d f033 51ba f8af e43d
00000390: f7cf 99bd be28 a8bd 6cb2 24bd 9630 b9bc
000003a0: 4446 be39 fb99 c8bd 54ac 4bbd 4a63 c3bd
000003b0: b417 ae3d f47a f43d 1daa 85bd 9f4e 52bd
000003c0: f998 413d 9ae1 9cbd 1b61 76bd d797 20bd
000003d0: d5a5 a53d 4284 023d ebde 9e3c b0ce bbbb
000003e0: 61b2 a83d f360 0ebc 51e1 e83d 498c 84bc
000003f0: c603 a9bd cf49 fe3d a9d1 4cbc adb1 4f3d
-0.07430264 -0.0021510131 -0.09014326 -0.065415345 -0.07352812 0.04076395 0.09207095 -0.012674481
-0.01673682 -0.12582375 0.063802 0.0387833 -0.08971454 0.08358772 0.024024023 0.095913514
0.0750664 -0.03467281 0.011644915 -0.015742902 -0.08940616 -0.06997454 -0.07208368 0.08234
-0.068856694 -0.07270845 -0.09067983 -0.106245026 -0.031733472 0.06273527 -0.06439042 0.050849415
-0.05298981 -0.03464854 0.08406045 -0.025831789 -0.09672003 -0.08325588 -0.039353624 0.005920144
-0.042182103 0.032265287 -0.031969734 0.11297777 0.05109933 0.013996244 0.02599582 0.08858659
0.00998983 0.06585932 -0.044468585 -0.11445664 0.023597244 0.011773951 -0.042665806 0.07989366
-0.09987531 -0.029072465 -0.098846294 0.09632059 -0.072981164 -0.0074171815 -0.0013042248 0.004509663
0.007136874 0.017045628 -0.02316557 -0.049091347 -0.020529123 -0.012068285 0.08659701 0.038372725
0.007114357 0.013878713 0.007877657 0.018764388 -0.0063774097 -0.03623493 -0.035123132 -0.024655573
0.021185346 0.029020976 0.060580026 0.046318073 0.003567179 0.04334072 -0.036373094 0.0058520217
-0.04853202 0.055025928 0.048146244 0.03227617 0.11580715 0.0860812 -0.03893986 -0.018821245
-0.010772502 -0.06723859 0.108656704 -0.015031479 0.035811037 -0.0035421022 -0.031891663 0.04874751
-0.036825534 0.021067848 -0.09176384 -0.037947625 -0.044581987 -0.021568954 -0.022404565 -0.08816446
0.0137858875 0.060733095 0.01224293 -0.020718178 0.06670513 -0.039198723 0.04801808 0.01825762
0.008929954 0.024593262 0.09035205 0.05453458 0.016059004 0.059995584 -0.027884375 0.031733755
-0.036363132 0.06203561 0.0067376103 -0.13259105 0.031238958 -0.014298064 -0.017148353 0.015552468
0.09218094 -0.09190615 -0.017608412 -0.076578125 0.044480518 -0.07679334 -0.024711188 0.027258193
0.047653895 -0.0436769 -0.005386499 -0.045564264 0.016330978 0.0109845605 -0.015893353 0.019698128
-0.005828082 -0.042623848 -0.06256645 -0.09344218 0.03498729 0.058137797 0.059649937 -0.047029596
0.009266536 -0.039083812 -0.0736782 -0.0018529833 0.0928531 0.065232866 0.06727571 -0.0012700382
0.015208676 0.032956053 -0.114567995 -0.004565118 -0.011684137 0.031006576 -0.034066327 0.0811241
-0.022265268 0.06488643 0.010879962 0.024667952 -0.031247828 3.0359406e-06 -0.10432032 -0.010712643
0.0120419115 -0.0176284 -0.010757542 0.007081495 0.026513701 0.02837787 0.07402169 -0.097791046
0.089762114 0.076806344 0.019940754 0.071378715 0.05806415 0.016739205 0.015406978 -0.05496142
-0.07331988 0.0119009195 0.06473648 0.036790248 0.0013380824 0.09662498 -0.08377935 0.06750423
-0.009306616 0.057561837 -0.068970725 -0.022487707 -0.03280994 -0.08222512 -0.013203487 0.0027770272
0.022876631 -0.055534154 0.081801556 0.02328559 -0.06945722 -0.020357518 0.06591104 0.017352438
0.022104185 0.060378425 -0.00079804566 0.11166376 -0.07510369 -0.08210896 -0.04020922 -0.022606175
0.00036291976 -0.097949944 -0.04972489 -0.09540422 0.08500615 0.11937514 -0.06526587 -0.05134451
0.047265027 -0.076602176 -0.0601512 -0.039207306 0.080882706 0.031864412 0.019393405 -0.005731426
0.08237148 -0.008690107 0.11371101 -0.016180174 -0.08252673 0.124164216 -0.012501159 0.050706554

lstm.bias_ih_l0 f4 [512]
00000000: a053 b13d 2d4f 8e3d a6ba d1bc e413 893d
00000010: f525 d03d ad9c 61bc cf3a a33d dc6e 2b3c
00000020: a8d3 5e3d 3bec 52bd ca4e 933d 731a 4bbc
00000030: 50bb d53d 3d0a cb3c 0cbe 0cbd 57a5 a7bc
00000040: eb31 803d 2a26 c13d 3670 823d aac0 eb3c
00000050: 312d ac3d 576a 783d 82a1 d93d 6a95 493d
00000060: 4ad2 e53c 1837 4b3d 9d5e 4fbd e840 503d
00000070: 8a74 df3d 3e61 023e b36d 17bd 8c3a a93d
00000080: 55ae 01bc 0ea7 023d 7514 b93d 95e7 f93c
00000090: ab29 a53d 9dd3 3ebd 11cc 023e f14a babc
000000a0: 485c 553d d837 c73c 2530 793d 0742 323b
000000b0: 4856 cf3d 75ad 963d 6f3c 1d3a f78b 72bc
000000c0: dd4e a73d 0005 c93d ab31 6ebc a72d 4f3c
000000d0: 15d8 c4bc 6e0c 3b3c 305f 0239 328d 093d
000000e0: 3ef5 72bd 672f 39bd b76f 903d 02ef f23d
000000f0: ebb5 db3d 726a 96bb c9f2 08bd a6a6 9f3b
00000100: fd8d 763d 8228 86bb b7d2 c83d 5af8 f13d
00000110: d26e f13d 0437 02bd a745 7d3d 8f91 ec3d
00000120: f8c7 bc3d 077e 0abc 8296 803d 6dc6 353d
00000130: fd0d 9f3d 198a 48bd c010 ac3d d976 74bd
00000140: f73c a03d 6dca fa3d c45f e2bc 3148 e43c
00000150: 8d79 9f3d 368d 0f3d 068a f13c 2981 fa3c
00000160: 464f 62bd 7d5a d03d d22a e63d 93cc ab3c
00000170: 513d 933d 3011 82bd fa2a 26bd dd2d 23bc
00000180: 5534 613d 9718 a53d 3c20 88bd 816e 56bb
00000190: 8692 503c 4b08 1f3c 6f99 e73c b830 063e
000001a0: 1a29 063d 419b a83d f2be c13c e943 d13d
000001b0: 820c a93d be67 b73d 73fd b0bb b199 973c
000001c0: 7ffb 91bc 173d 1cbb bdcc b93c 4b4d 1b3e
000001d0: b153 87bc df4b ed3d 3ac8 e53d 337a c03d
000001e0: 86a3 953c c90e e9bc fbb1 c33c 9499 963b
000001f0: 2855 813d 2bcd 21bd ad83 eb3d 5d5f 053e
00000200: 68da 683c a28d c03d 5dad 88bc 2969 4e3c
00000210: 6efe 803c 7d76 0d3d 5b6a b9bc cb3c 203d
00000220: 5bbf c73d ed33 be3d 9d13 e7bc fedf 1a3c
00000230: 81e0 7ebc de5e 273c 551b 193c b8c6 9dbb
00000240: 2711 aabc 8cac b13d 4acb 1c3d 12b2 693d
00000250: f6cc a4bc 6130 3a3d c506 dd3d 8fed 9c3d
00000260: 9f0b 7f3c 4929 19bd 7443 a03d f2ee 6fbd
00000270: 588d 963d cba2 4fbc e4ec 45bd 084d d43d
00000280: ae62 a13d de0a 58bb dd1c 473c 020c 383d
00000290: 9d58 293d f6a2 96bc 0393 3a3d 6101 9bbc
000002a0: 36fd 163d 48e1 fbbb 624f c73d ac07 953d
000002b0: 9bf0 593d 7fba a93d f6f0 783d 9d11 5cbd
000002c0: 1ee9 0c3c a46e 9f3c b688 9a3d cf84 993d
000002d0: 20f8 e1bc 31f5 26bd 7cfe 5f3d 3809 923d
000002e0: e9a3 7f3c a745 b03d 92da dfbc 2a38 e43c
000002f0: 0ed8 eb3d 96af 643d 7863 35ba 4feb 903d
00000300: 32f4 cf3d 38b3 db3d a977 0b3d cc62 d73c
00000310: 035c a63a 078e a33d 5868 1abd e3be 4b3c
00000320: 8f45 753d a8fe dabb 1f96 f0ba 5e72 2b3c
00000330: c334 a13d 3207 03bd 4f37 1c3d 548a b13d
00000340: 436c 2f3d 7018 093e 6c22 643c 7ab0 ad3d
00000350: 1767 813d 00ec 033d 9c1c 983b 3d30 b03d
00000360: 6ab8 e6bc 0821 403d 483f 5e3d 4744 1dba
00000370: 8097 2a3c 0c1d abbc 43ad 46bc 77e5 603d
00000380: eebc d13d 91fc 64bd 4ef5 25bd 660c 0e3d
00000390: 8543 05bd cfeb e43c d716 b9bc 94a0 efbc
000003a0: 6780 013e 731b d23d 2616 5e3d e29d ecbc
000003b0: b2d8 bd3c ff05 91bc daac eb3c 8d37 193c
000003c0: 1e7a 473d c966 fbbc 55d9 113d c5c6 883d
000003d0: 7481 3f3d a45e e73c e413 183e d709 d73d
000003e0: d1aa c0bb c9da ae3c e8c4 4fbb a886 bb3d
000003f0: 910a f13c aeaa c5bc 1650 b83a 8cce a93d
0.08658528 0.06948695 -0.025601696 0.06693247 0.1016349 -0.013770265 0.07970201 0.010463443
0.05440107 -0.05149482 0.07192762 -0.012396443 0.10436118 0.024785155 -0.03436093 -0.020464582
0.06259521 0.09431107 0.06369059 0.028778393 0.08407057 0.06064829 0.10626508 0.049214758
0.028054375 0.04961309 -0.05062734 0.05084315 0.109109 0.12732407 -0.03696985 0.0826312
-0.007915099 0.031897597 0.09037105 0.030505935 0.08064588 -0.04658853 0.12773158 -0.022740813
0.05208996 0.02431862 0.06083693 0.00272 0.10123879 0.07357303 0.000599808 -0.014803878
0.08169339 0.09815407 -0.014538209 0.012645162 -0.024028817 0.011416538 0.00012433226 0.03358192
-0.059315912 -0.045211222 0.07052558 0.11861993 0.107280575 -0.004590326 -0.033434663 0.004872161
0.060194004 -0.0040941844 0.09805816 0.118149474 0.117887154 -0.03179075 0.061834004 0.115512006
0.092178285 -0.008452899 0.06278707 0.044378687 0.0776634 -0.048959825 0.08401632 -0.059683654
0.07824128 0.12245641 -0.027633555 0.027866455 0.07786856 0.03504678 0.02948476 0.030579166
-0.055251382 0.10173509 0.11238636 0.020971572 0.071894296 -0.063509345 -0.04056833 -0.009959665
0.05498155 0.08061331 -0.06646773 -0.0032719674 0.012730246 0.009706567 0.028271405 0.13104522
0.03275404 0.08232737 0.02365062 0.10218031 0.08254339 0.08955334 -0.0054013073 0.018505903
-0.017820118 -0.0023840123 0.022680635 0.15166204 -0.0165194 0.11586737 0.11219831 0.09398308
0.01826645 -0.028449433 0.023888579 0.0045959447 0.063150704 -0.039502304 0.114997245 0.1302466
0.014212228 0.09402014 -0.016684229 0.012598314 0.015746322 0.034536827 -0.022633722 0.039120477
0.09753295 0.09287248 -0.028207595 0.009452818 -0.015556456 0.010215489 0.009344895 -0.004814949
-0.020760132 0.08675489 0.03827981 0.057054587 -0.020117264 0.045456294 0.10792307 0.07662498
0.0155667355 -0.03739289 0.07825366 -0.058577485 0.07351178 -0.01267309 -0.04832162 0.10366255
0.0788015 -0.0032965462 0.012152878 0.044933327 0.041344274 -0.018388253 0.045550358 -0.018921556
0.036862575 -0.0076867677 0.09731938 0.07276854 0.053207975 0.082875244 0.060776673 -0.053727735
0.008600501 0.019461937 0.07545607 0.07496034 -0.027584136 -0.040761176 0.054686055 0.071306646
0.015603044 0.08607035 -0.027325902 0.027858812 0.115158185 0.055831514 -0.0006919424 0.070761316
0.101539984 0.10727543 0.034049664 0.026292227 0.0012692217 0.07986074 -0.037697166 0.012435648
0.05988079 -0.0066831894 -0.0018355286 0.010464279 0.078713916 -0.031989284 0.038138684 0.08668962
0.042827856 0.13388228 0.013924222 0.08480926 0.06318491 0.03220749 0.0046420824 0.08602951
-0.028164107 0.0469065 0.05425957 -0.0005999249 0.010412097 -0.020887874 -0.01212627 0.054906335
0.102411136 -0.05590493 -0.040517144 0.034679793 -0.032535095 0.027944474 -0.022593899 -0.029251374
0.12646638 0.10259142 0.05422034 -0.028883878 0.023174617 -0.017703054 0.028768945 0.009351623
0.048700444 -0.03068866 0.035607655 0.06678537 0.046754315 0.02824337 0.14851338 0.10499924
-0.005879738 0.02134456 -0.0031703059 0.09156543 0.029423984 -0.024129238 0.0014061953 0.08291349

lstm.bias_hh_l0 f4 [512]
00000000: 0263 4bbb 348f 003e 80ae 3a3a ad1c a13d
00000010: 572d 103e 46d8 dfbc cb91 293d 92c4 8bbc
00000020: 3e36 b53d 4679 883d 68eb 8dbd 417a 2c3d
00000030: 7612 a53d c104 cc3c 80d5 b53d 6d26 103d
00000040: c2c3 c0bc 6138 03bd c7c4 cd3d bfaf d33d
00000050: 6d43 47bd 5544 d83d db83 41bd 3c78 ac3d
00000060: f511 ee3b a223 cf3d c5ed 46bd 2f17 ce3d
00000070: b35b 7a3d d0e9 3d3d e7e5 28bd 9e7d 7a3a
00000080: 44dc 1dbd ec17 813d d4f1 1cbd 4e58 40bd
00000090: 1fe7 41bd 2f4a 983d a45c d3bc ba0b 72bd
000000a0: 86d1 1b3b dbdd 8a3d fbf3 0b3d 66da 99bc
000000b0: dfb6 ae3c bc5f 4e3d 87ac 7d39 4a5e c4bc
000000c0: 6247 88bb 2173 363d f4ea 3c3d b2e9 e13c
000000d0: 43d1 b53d c8b5 203c 977b bf3d 4860 b3bc
000000e0: ba76 b53d 8348 403d 6bd1 e53c d21b 873d
000000f0: 81e9 0a3d f65d 3ebd 4692 e83d ce21 b13d
00000100: 47b1 893d a4d0 6a3c aac0 18bd 54cb ce3d
00000110: b035 6a3d e28b c93d 5e32 d53d f84b d33d
00000120: c0a8 8d3d a631 e3bc a11d bc3d f189 a23c
00000130: d067 92bc 0dcf 2d3c 5dcd 31bc 02cc 8e3c
00000140: f067 953d b087 23bc 2b23 c33d a07a 483d
00000150: 779e 283d ba38 4abc 0f64 963d 1c0e f6bb
00000160: 80d8 04bd 7182 1a3d 447f c73d 4b58 ed3b
00000170: 2be1 b73b 0887 e6bc e8d1 913d 5780 ad3c
00000180: 970a f23d 46c0 603d e06c d53d f3a0 a23c
00000190: 1c48 ac3d 8f47 c73d e8cb 8f3d d4c3 723d
000001a0: 3d70 493c 3b9d 4cbc 4bd9 8d3d dfd5 823d
000001b0: ebbc ab3d b755 9f3b 244f 3bbc 1630 3e3d
000001c0: 1462 643d 4b75 c23d a75b c23d f031 3e3d
000001d0: 2646 0abc b4c5 ec3b 370b 9f3d 7599 9ebc
000001e0: 358a 1cbd 7988 22bd 95f4 1e3c e4ae 2bbc
000001f0: d7b2 1c3d b461 de3d 92a7 cc3d eaf0 203c
00000200: 3e2b 21bd a66f 3c3d 76d9 9e3d 9a8f 22bd
00000210: 4945 123d a9b4 1abd 1129 29bb d3c7 a93d
00000220: aa3d 2f3d 8b71 033d cb4e c9bb 3d1e 9a3d
00000230: 4925 8d3d 5e58 033d 652e ec3d 70b1 853c
00000240: 9a51 2fbd d473 8d3d 57d8 51bd 70f6 903d
00000250: f8a8 61bd d15e 24bc c0ac 74bc 52c5 cd3d
00000260: a8b9 ab3d ec5c 7e3d dcae 993d e699 d33d
00000270: fe86 5e3d 39ba ef3d 7771 9fbc 7678 d13d
00000280: 9a46 eb3d ff6a c6bc 3a3c 75bd 004b d13d
00000290: 8555 da3c 1e40 2a3d c256 cd3d 1645 cf3d
000002a0: 692b 693d f485 033d 67b7 0b3d 401c 0dbd
000002b0: 5b8e 093d b433 63bd f1cf 0ebd 9227 0abd
000002c0: 71b2 d13d 0f0e b33d 8bc1 6cbd a44b 20bd
000002d0: 98c2 973c 15c8 753d a0e8 1f3d 9adc 1bbd
000002e0: 2108 283d 6d66 0cbd 21d1 f5b9 a78f bdbc
000002f0: 0b89 853d 2b19 cabc 76b9 ab3c d164 22bc
00000300: 76fc e53d 87a7 343d 8441 dc3c 8e44 d33d
00000310: c07b 8bbc 448f 32bd b28a 5f3c a742 4dbc
00000320: 9664 33bd 28a7 74bd 378b 1bbc e3ea aa3d
00000330: 48f8 c73c 5fa4 623d a8d7 bbbb f07e 63bd
00000340: f421 103d 1cea c63c 2231 d1bb 6747 a3bc
00000350: 4a55 85bc e269 f03d 3a52 cd3d 0d6b 143c
00000360: 7090 a6bc bf4c 313d 30a6 1ebc 669d 45bd
00000370: 7e78 ffbc f483 08bd a8a6 fb3d a081 70bc
00000380: 299e 94bc b72e 5b3b 4531 1e3c f0bd 023e
00000390: d1a5 81bb bf85 003e b114 fb3c 90bf 8fbc
000003a0: 1ac3 923c 630f 05bd 29f5 093d 344a e53d
000003b0: 101e fc3c a5ae be3c 1f6e 7f3d b5a9 4bbd
000003c0: c6da c0bc ae21 9e3d bb97 cd3d 91f0 31bd
000003d0: a644 003d ff46 11bd cd02 153d d6c6 f03d
000003e0: 0a52 913d 3a53 5abc 1cfa 21bd eddc f93d
000003f0: 8d78 4b3d 512a 953d a218 15bd 4f51 973c
-0.0031034355 0.12554628 0.00071213394 0.078667976 0.14079796 -0.027324807 0.041398805 -0.017061505
0.088482365 0.06663756 -0.06929666 0.042108778 0.08060162 0.02490461 0.088786125 0.035192896
-0.023530845 -0.03203619 0.10047298 0.10336255 -0.048648287 0.10559908 -0.047244888 0.084213704
0.0072653242 0.10114218 -0.0485666 0.10063016 0.061122607 0.04636556 -0.041234877 0.00095554616
-0.03854014 0.06303391 -0.038316563 -0.046959214 -0.047339555 0.074360244 -0.02580101 -0.059093215
0.0023776009 0.06780597 0.034168225 -0.018780898 0.021327434 0.05038427 0.00024192232 -0.023970742
-0.0041589 0.04454339 0.046122506 0.027577255 0.08877804 0.009808965 0.09349745 -0.021896496
0.08860536 0.046944153 0.02805396 0.06597103 0.033914093 -0.046476327 0.113560244 0.08649026
0.06723266 0.01433197 -0.037293114 0.100973755 0.057180107 0.09841134 0.104099974 0.10317224
0.06916952 -0.027733635 0.09185339 0.019841166 -0.017871767 0.010608447 -0.010852185 0.017431263
0.07295215 -0.009981081 0.09528192 0.04894507 0.04116675 -0.012342626 0.073433034 -0.007509006
-0.032433033 0.037722055 0.09741071 0.0072431914 0.005611559 -0.02814056 0.071201146 0.021179361
0.11818426 0.054870866 0.10421157 0.019852137 0.08412191 0.097304456 0.07021314 0.059268788
0.012294826 -0.012488659 0.06926211 0.06388449 0.083856426 0.004862513 -0.011432443 0.046432577
0.055757597 0.09495028 0.094901375 0.046434343 -0.008439576 0.0072257165 0.07765811 -0.019360283
-0.038217742 -0.03968093 0.009701868 -0.010478709 0.038256492 0.10858479 0.09992899 0.009823063
-0.03934788 0.046004914 0.07756321 -0.03968773 0.035710607 -0.037769947 -0.002581183 0.082900666
0.042783417 0.032090705 -0.006143426 0.07525299 0.06891877 0.032066695 0.115322866 0.01631996
-0.04280243 0.06906858 -0.05123171 0.07078254 -0.05509278 -0.010032372 -0.014933765 0.100474015
0.083850205 0.062100336 0.07504055 0.10332088 0.054327957 0.11705441 -0.019463284 0.10228054
0.114880756 -0.024220942 -0.05987189 0.10219383 0.026652107 0.041565053 0.10026313 0.10120599
0.056926165 0.03211017 0.034110453 -0.03445077 0.033583026 -0.05546923 -0.034866277 -0.033729143
0.10239113 0.08742916 -0.057801764 -0.039134637 0.018525407 0.060005266 0.039040208 -0.03805218
0.041023377 -0.03427737 -0.00046885855 -0.023139788 0.065202795 -0.024670204 0.020962458 -0.009911732
0.11229794 0.04410508 0.026886709 0.1031581 -0.017026782 -0.04359366 0.013643907 -0.012528098
-0.043797098 -0.059729725 -0.009493641 0.08345582 0.024410382 0.055332538 -0.0057324953 -0.05554098
0.03518863 0.024281554 -0.006384031 -0.019931508 -0.01627602 0.117389455 0.10025449 0.009058726
-0.020332545 0.04328608 -0.009683177 -0.04824581 -0.031185385 -0.033328965 0.122876465 -0.0146793425
-0.018141823 0.0033444592 0.009655301 0.12767768 -0.0039565344 0.1255102 0.030649515 -0.017547399
0.017915297 -0.032485377 0.03368107 0.11195794 0.030776054 0.023276636 0.06236088 -0.049722392
-0.02354182 0.07721268 0.10038706 -0.043442313 0.03131547 -0.035468098 0.036379624 0.11756675
0.07095726 -0.013325507 -0.039545164 0.122003414 0.049675513 0.07283462 -0.036400445 0.018471388

lstm.weight_ih_l1 f4 [512, 128]
00000000: 0722 28bd e180 bcbc 568a b8bd a6e9 2d3d
00000010: 7685 36bd 0d44 ab3d 26b7 8f3d 0cfd 2fb9
00000020: f847 90bb aff9 5cbd e763 acbd 9f4b 06be
00000030: 2019 9a3c 9a12 19bd 544d 383c e8d7 2c3d
00000040: 0ea6 6b3c a7a7 463d 74c0 a2bd e591 883d
00000050: 073f 3f3d 8e19 623c f788 d1bd b3c0 8e3d
00000060: a242 68bd 9d43 f23c edb5 633d 3d0b 33bc
00000070: 4bbb 123d 5744 0e3d 47ce c23d f846 43bd
00000080: 9d1c 35bd 5c25 3f3d e1a3 10bd ee2d bebd
00000090: 20c9 88bd 09ff 89bd 3883 643d 60fe f5bc
000000a0: 1307 9cbd 5ffe 413c 9eb3 6ebb 93f0 163d
000000b0: a763 c33d 7ed4 033d 6d8b 233d 6b84 973d
000000c0: 7e59 5abd 733d 6dbc eea1 593c 7b37 773d
000000d0: d955 873d d033 7bbc 885e 39bd 9cdf 8cbd
000000e0: 1365 01bd e012 77bd 0b5f 383d 3433 e13d
000000f0: 9982 74bd cea9 553c bce8 b7bd 503d 0fbd
00000100: be53 1abb 6ada 7d3d 5615 853c 6ec1 93bd
00000110: 7b98 30bc b985 dcbc 312f 0e3d 2998 f8bc
00000120: 588f 0fbc 41d9 b3bd 4130 c03b eb7e aabd
00000130: b225 6e3d 66f7 a6bd 39a0 95bd 13f5 563d
00000140: 6cf2 6cbc 6cd9 babd b38c 963d 6388 a5bd
00000150: 68ac 09bd 732b 99bd 22fb a4bd caba 913a
00000160: ad81 8abc a9a1 a7bd b538 b8bd 1c6a 89bd
00000170: accf 473d 6862 d8bc acd9 c8bc 3fb1 90bd
00000180: c30b 5bbd fc83 553c 71d7 f8bc c5cf af3d
00000190: dcfc 843c 3676 4a3d 8567 ff3a 341b 88bc
000001a0: 2a78 f3bc 7725 62bc 9c29 243d bc54 31bd
000001b0: 01df 143c b68d 3f3c c4df d9bd a3f6 283d
000001c0: 64b6 e33c 4aaf 54bc d926 e1bb cfb7 223d
000001d0: bebc 8ebd fe26 babd ad5f 2bbd f144 863d
000001e0: 74e9 5b3b 6fa4 7bbb 1b5f 23bd a27a ccbc
000001f0: 174e 9b3d 3c74 80bd 2fa5 2c3d 351f 053d
00000200: d734 f7bc 70fc d13d 52ee 99bd fbc4 0a3d
00000210: dc20 8a3d bebb 8b3b bab8 0b3d a6da b23d
00000220: 6d76 66bd c4dd c7bb 2090 153b 3f34 2dbd
00000230: c3f8 b93c 5dd5 ad3c 5d46 2f3d 8a5f 603d
00000240: a9da d83a 68f6 9ebd ff62 acbd 26c4 6abb
00000250: 877d 18bc 9c4b 1f3c 4fe4 63ba 67c4 d1bc
00000260: 7060 1bbc a019 5bbd 0d9e 92bc 8d6b 283d
00000270: a2ef 8f3d 04a8 883d 02c0 903d fcc2 babd
00000280: a6fd 113d 8d7c 39bd 97c0 1cbd ef22 e1bb
00000290: a63c a9bd 6d84 90bd eed7 893d 859f c6bd
000002a0: 6d4a 9c3d e312 a7bd 290f bcbc 48f6 aebb
000002b0: b322 2bbd c1b8 113d 4787 8e3d 6ae7 2cbd
000002c0: 3edf 5c3b e520 95bd 8309 273d 7cf8 903d
000002d0: 9d0b 573d 8e7c 6e3d 2796 d6bd cfba 813c
000002e0: fe83 ecbd cde4 aebc 5914 35bd 897c 8cbc
000002f0: a9c5 77bd d82a 0bbd 94ef 5cbd 17aa 143d
00000300: bc8c b33d a136 203d fd45 91bd 66f5 643d
00000310: 7f95 99bc c91f d83d be55 793b ee76 42bd
00000320: 45cf 5d3c 2a4b 7fbd da7c 203c 2d7c 753d
00000330: ac38 89bd 34bc 8f3d b7d4 513c 146b 953b
00000340: c339 403d 12c4 8fbc 629c 5cbd 28bf 103d
00000350: 0e57 81bd 6307 67bd b64f 0ebd 6e28 d53c
00000360: f44d 1cbd a029 df3c 7155 e6bb 1c07 4c3c
00000370: f6de e63b e90c a63d f16b 9ebc 92b9 423d
00000380: d49a 803c 22ee aa3c 977f 013e 2600 763d
00000390: ae17 57ba 7f55 053d b462 823d abf4 7fbc
000003a0: 774c 383d a11f 333c 4149 6b3c 7cae e23b
000003b0: ec37 89bb 7351 e1bd b1a8 4b3d 917a be3c
000003c0: b404 a33d b71b d63c 038c 273c 472b ae3d
000003d0: ebe7 c23c 6373 96bd 8d88 9c3c fb55 c2bd
000003e0: 9fb7 ed3c 03cb a23d d908 63bc b643 793d
000003f0: 0452 91bd a80c 20bd 51b8 ae3d 066e 6f3d
-0.041048076 -0.023010673 -0.090107605 0.042459153 -0.044560872 0.08362589 0.07017355 -0.00016783568
-0.0044031106 -0.053949054 -0.08417492 -0.13114785 0.018810809 -0.037371255 0.011248905 0.04219809
0.014382852 0.04849973 -0.07946864 0.06668452 0.046690967 0.013800038 -0.10231202 0.06970348
-0.05670417 0.029573256 0.05559342 -0.010927972 0.035823148 0.034733143 0.095120005 -0.047675103
-0.04421674 0.046666488 -0.035312537 -0.09286104 -0.066789865 -0.06738097 0.055789202 -0.030028522
-0.07618537 0.011840432 -0.0036422978 0.036850523 0.095404916 0.03218507 0.03992789 0.073983036
-0.053308003 -0.014479983 0.013283236 0.060355645 0.06608171 -0.015332177 -0.045256168 -0.068785876
-0.031590533 -0.060320735 0.045012515 0.10996094 -0.05969486 0.013040973 -0.089799374 -0.03497058
-0.002354845 0.061975874 0.016245525 -0.07214628 -0.010778542 -0.026919233 0.034712974 -0.030345993
-0.008762203 -0.08781672 0.0058651273 -0.08324989 0.058141418 -0.08152656 -0.07305951 0.052479815
-0.014462095 -0.09123501 0.07351055 -0.08082654 -0.033611685 -0.074789904 -0.08055712 0.001111829
-0.016907537 -0.08185131 -0.08995191 -0.06709692 0.048782036 -0.026414111 -0.024517857 -0.07065057
-0.053478014 0.013031956 -0.030376168 0.08584551 0.016233854 0.04942914 0.0019485807 -0.016614534
-0.029720385 -0.013802878 0.040078744 -0.0432937 0.009086371 0.011691501 -0.10638383 0.041250836
0.027796932 -0.012981245 -0.006871086 0.039726075 -0.069695935 -0.090894684 -0.04183929 0.06556118
0.0033555897 -0.003839757 -0.03988562 -0.02496082 0.07583254 -0.0627217 0.04214972 0.032500464
-0.030176563 0.10253227 -0.07516159 0.03387926 0.06744549 0.004264324 0.034111716 0.0873311
-0.056265283 -0.0060994346 0.00228215 -0.042286154 0.022701627 0.021219904 0.042791713 0.054778613
0.0016544658 -0.07761842 -0.084173195 -0.003582248 -0.009307272 0.0097226165 -0.00086933834 -0.025606347
-0.009483442 -0.053491235 -0.01789763 0.041118193 0.07028128 0.066726714 0.070678726 -0.091192216
0.03564229 -0.045284797 -0.038269605 -0.0068706195 -0.08263521 -0.07056508 0.067306384 -0.09698395
0.07631383 -0.08157899 -0.022956448 -0.0053394176 -0.04178114 0.035576586 0.06959396 -0.04221288
0.0033702399 -0.07281665 0.040780555 0.07078645 0.05250131 0.058224253 -0.10477858 0.015836148
-0.11548613 -0.021349335 -0.04420886 -0.017149227 -0.060491238 -0.033976406 -0.053939417 0.036295023
0.08767077 0.0391146 -0.07093427 0.055898093 -0.018748043 0.105529375 0.003804549 -0.0474767
0.013538186 -0.06232754 0.009795392 0.059932876 -0.067002624 0.07018319 0.012807063 0.004559884
0.046930086 -0.017549548 -0.053860076 0.03533855 -0.063154325 -0.05640353 -0.034743987 0.026020255
-0.03816028 0.027241528 -0.0070292284 0.012452867 0.007045622 0.08107931 -0.01933858 0.047540255
0.015698828 0.020865504 0.12646328 0.060058735 -0.00082051277 0.03255224 0.063664824 -0.015622298
0.044994798 0.010932834 0.014360727 0.006917773 -0.0041875746 -0.11001863 0.049721424 0.023251804
0.079598814 0.026136262 0.0102262525 0.08504348 0.023792228 -0.07346227 0.019108081 -0.09489056
0.029018221 0.07948878 -0.01385709 0.06085559 -0.07095721 -0.03907457 0.08531249 0.058454536

lstm.weight_hh_l1 f4 [512, 128]
00000000: cb29 993d 4be9 443d 9f60 ac3d 73b9 b2bd
00000010: 9e82 73bd 3ae4 10bd 4d59 99bd 7ea4 0e3d
00000020: d759 7c3d e2b5 d4bc ee75 9dbc e4af e73c
00000030: 448a a0bd 7f73 6cbd 9c5a b13d 8df2 17bd
00000040: a19a bfbd fb05 ab3c b923 f0bc 9065 c63d
00000050: 57e8 693c 22c3 1ebb 6266 76bd 5f9c 11bc
00000060: 4353 4cbd 38da 4fbd bfe0 15bc 7504 32bd
00000070: 83cd 613d 5844 6abd 1140 853b a5f6 92bd
00000080: 53ea 9a3d 7110 093b ce31 8ebd 34af 853d
00000090: ee96 ac3c 22f1 123d c549 3fbd 6b03 b3bd
000000a0: de15 6abc 76f5 353d 15d0 bb3c c782 59bd
000000b0: f3e3 0dba 98a4 b6bc fca9 823d 826a 313c
000000c0: 7fca 953d 607e 083c afb7 c2bc 2a84 623d
000000d0: e10d 8fbd d194 513d e6b3 4d3d a2fe e13c
000000e0: 7c56 a6bc bb0e 3dbc ce4d 41bd 0763 803d
000000f0: f54b 89bb f05e 59bd 868a fa3c 6879 8cbc
00000100: a67e be3d 0067 c8bd b44e a83d 6acb 5dbd
00000110: 7889 4d3d 966b 96bd d90f 39bd 084d 02bd
00000120: 8ec0 8b3b 2371 7fbd cb11 b23d 005d 953d
00000130: 8a69 1dbc 0613 2c3b 90ec 18bb ed14 fa3c
00000140: 9928 85bb 5110 15bd 66e6 6b39 255a 4e3d
00000150: fbe6 babb 5b7d 943d ab6b 60bd 9888 8a3d
00000160: 4043 f43c 0bdd 2bbd 4989 80bd c078 853c
00000170: d234 343b 82e4 b2bc 0ffb 6aba fe6b 293d
00000180: 913f 86bd acb1 673d cf5a 6f3c c8e2 713b
00000190: 382a 3c3d 0abc 10bc 15a4 8d3d 25bc 063d
000001a0: cdd3 b1bd 3a95 3cbd 32ca 19bc be09 683c
000001b0: 127d f43c edf3 0c3a f5b0 aa3d 3756 823c
000001c0: 3b7b 0f3d 585e 1c3c ba43 8fbd e64e 01bd
000001d0: 60a1 78bd 7a7f 64bd bd6a 21bd f72f 65bd
000001e0: 9c20 dfbc 8006 803d 2aee 343d 71ec bfbd
000001f0: e02a cebb 7960 973d f044 743c 3407 70bd
00000200: bc0c 0b3d 03d0 563d 04c7 903d 0635 253d
00000210: 58d3 663d e246 9d3d 476b e7bb 2d00 783d
00000220: 75d0 eb3d 9704 bbba 396f 87bd 59b6 39bd
00000230: 5258 813d cb3f 863d e4bc 15bd 6360 213d
00000240: a502 1a3d 34ac 903d c228 8dbd 365f 9a3d
00000250: 8444 3b3d 1393 083c c390 bc3d f11b 47ba
00000260: e3c6 05bc 6fd0 c03a c036 20bc d3f3 1fbd
00000270: 865a 71bb fb91 a7bd 60db 323d 39b9 94bc
00000280: ee4c 4bbc 5d43 c6bd 1629 f2bc 061b c63c
00000290: a2ab 803d 7e84 a5bc 321f 2ebc 5b8f 6fbd
000002a0: e24f 8a3c 952d 9dbb 9c53 8bbd 768d 95bb
000002b0: bc31 31bb eb66 fdbc d653 07bc bd80 9ebd
000002c0: 3ed8 a7ba 973c c23d 6605 9c3c 4365 86bd
000002d0: 2366 34bc 455e e13b b38e ae3c 2578 91bc
000002e0: 5a7d 793d 672d 9e3c 16e1 d0bc 3e92 023c
000002f0: 136b 5a3d 44d2 b23d 02f9 56bd f3ab 00bd
00000300: 665d aabc d8f3 7d3c 4a9c 9abd 5e17 15bd
00000310: 04e8 8d3d d54d 9c3c 4639 fabd 3336 fcbc
00000320: 674b 403d 7533 a73d 8cdd 53bd 375c bdbd
00000330: 6b6c 433d bf12 093d c255 b23d 438c 843d
00000340: f096 a93c 1f1f 3bbd 7ada 1c3d 9471 43bc
00000350: 97c0 1a3d ad08 a03a 95cb 853b 87a3 483c
00000360: e8c0 a23c 9c39 1e3c 8891 2e3d 1e44 713c
00000370: 5a76 5dbd e48f b03d e5aa 083b ee60 74bd
00000380: a18e 64bd 3887 69bd cec1 db3c fb17 c2bc
00000390: fa1a bc3c 274c 98bd cbb5 f83b a578 8bbd
000003a0: 74d7 233b 637b 3abd fee8 643d b61e 1c3d
000003b0: 3d03 58bd 3250 28bd be28 683d 7958 e037
000003c0: 2350 933d fd38 673d 44d1 a7bd ba04 283d
000003d0: a322 6fbd 68b9 a6bd 944e 763d 8909 31bd
000003e0: b3bb 363d d786 173c 7cd0 073d f886 cb3c
000003f0: 7f21 5a3b bcfc 8a3d 0561 57bb 621b 8ebd
0.074786745 0.048074048 0.084168665 -0.08726778 -0.059450738 -0.035373904 -0.07487736 0.03482484
0.061609115 -0.025965635 -0.019221272 0.028282113 -0.07838872 -0.057727333 0.086598605 -0.03709655
-0.09355665 0.020876875 -0.029313909 0.0968734 0.014276586 -0.0024225195 -0.060156234 -0.008887379
-0.049884092 -0.05074522 -0.009147822 -0.04346128 0.055127632 -0.057194084 0.004066475 -0.0717595
0.07564225 0.002091434 -0.06943093 0.06527558 0.021068063 0.035874493 -0.04670121 -0.08740886
-0.01428744 0.044423543 0.02292637 -0.053103235 -0.000541269 -0.022295281 0.06380078 0.010828616
0.07314014 0.008330911 -0.023769228 0.055301823 -0.06985069 0.051167313 0.050220393 0.027587239
-0.02030491 -0.011539157 -0.04719334 0.06268888 -0.004189963 -0.053069055 0.030583631 -0.017147735
0.093015 -0.09785271 0.082181364 -0.05414907 0.05017993 -0.07344739 -0.04518113 -0.031811744
0.0042648977 -0.062363755 0.086948 0.07293129 -0.009607682 0.0026256456 -0.0023334362 0.030527556
-0.0040636775 -0.036392514 0.00022497177 0.050378937 -0.0057038045 0.07250472 -0.05479018 0.067643344
0.029817224 -0.04195885 -0.06276185 0.01629293 0.0027497304 -0.021837477 -0.0008963802 0.041362755
-0.06555093 0.056565925 0.014609053 0.0036908854 0.0459387 -0.0088338945 0.06916062 0.032894272
-0.08682976 -0.04604075 -0.009386586 0.014162479 0.029844794 0.0005376924 0.08334533 0.015910251
0.03502963 0.009543978 -0.0699534 -0.031569384 -0.060700774 -0.055785634 -0.039408434 -0.055953946
-0.027237229 0.0625124 0.044172443 -0.093712695 -0.006291732 0.073914476 0.014909014 -0.05860062
0.03394769 0.05244447 0.07069209 0.04033377 0.056353897 0.076795354 -0.007062349 0.060547043
0.115143694 -0.0014268336 -0.06613011 -0.045339916 0.06315674 0.06555136 -0.036557093 0.039398562
0.03760018 0.07064095 -0.068925396 0.07537691 0.04571964 0.0083358465 0.092072986 -0.0007595411
-0.008165094 0.0014710556 -0.009778678 -0.03905089 -0.0036827638 -0.081821404 0.043666244 -0.018154727
-0.012408478 -0.09680817 -0.029560607 0.024182808 0.06282736 -0.020204779 -0.010627555 -0.058486324
0.016883794 -0.0047966936 -0.068030566 -0.0045639826 -0.00270377 -0.030932864 -0.008259734 -0.07739399
-0.0012805534 0.09484213 0.019045543 -0.06562283 -0.011010679 0.006877693 0.021308279 -0.017757485
0.06091056 0.019308759 -0.025497954 0.007969437 0.05332477 0.08731511 -0.052483566 -0.031413984
-0.020796489 0.015500031 -0.07549341 -0.036399238 0.06929019 0.019080082 -0.12217955 -0.030787563
0.04694691 0.081641115 -0.051724955 -0.09246104 0.047710817 0.033465143 0.08707763 0.06472065
0.020701855 -0.045683976 0.038294293 -0.011928935 0.037781324 0.0012209617 0.0040831068 0.012246019
0.019867375 0.00965729 0.04261926 0.014725713 -0.054067947 0.08621195 0.0020853814 -0.05966275
-0.055800084 -0.05701372 0.026825812 -0.023693075 0.022962082 -0.074364 0.007590031 -0.068101205
0.0025000246 -0.045527827 0.05588626 0.038115226 -0.052737463 -0.041092105 0.05667948 2.674408e-05
0.07193019 0.056450833 -0.08194211 0.041020133 -0.05838264 -0.08140832 0.06013353 -0.043221984
0.044612598 0.009248457 0.03315781 0.024844632 0.0033284125 0.067864865 -0.0032864225 -0.069388166

lstm.bias_ih_l1 f4 [512]
00000000: e21f b73d 378c 483d 7cf6 ddbc 8cb5 f93c
00000010: 825f 813d c644 52bc a86f 62ba 11b8 9e3d
00000020: 26a8 f83d a742 5dbd 7931 bf3d 3cf7 2abd
00000030: a423 98bd a50c ed3d 22d9 e23c 1ccc b93d
00000040: 5f39 adbc 584b e93c afbb 94bd c137 42bd
00000050: fe71 8ebd 7050 9fbc 2281 9b3c a703 ec3c
00000060: 7add 8abc f948 0dbd ee90 ac3d 3f08 9d3c
00000070: 8d40 a8bc fcca a53b 2745 33bd 5361 ba3d
00000080: fef5 55bd f784 8cbd 4920 84bd c16c 483d
00000090: cb28 6f3d d922 f83c fe8d 853d a619 b33d
000000a0: 94d8 b23d 3e7d 9d3d 3f26 d23c 90d2 053c
000000b0: 0530 ebbc 120e 9d3d f37b d0bb 3d18 6abd
000000c0: 1f10 373c 851e 6cbd c87a 5ebd 4c18 6ebd
000000d0: b421 7ebd 7434 ae3a f7d3 b83b f047 c53c
000000e0: 1ec7 be3c 0bee 95bb 1b87 3b3b bd6d a53d
000000f0: 44d5 b9bd ed0c 033d cd9e a5bc 6b46 84bd
00000100: c9a4 dd3b 48bd 5b3d cf6f 9fbd af12 0ebd
00000110: 9398 063d c58f bf3d a289 cb3d 9c1a 4c3c
00000120: d768 a93c 83db 9cbc 5cd7 c83d dead 213d
00000130: a82a a03d b8c2 b5bc 008c 83bd 6251 643c
00000140: a46a 09bd 4288 223c fb7f f53c 649b ca3d
00000150: 166b 2bbd 3160 5dbb 2cf7 893c 2e3f a8bd
00000160: 07d4 b23d 6118 18bd d8b5 203d c56d 06bd
00000170: 65ef dc3d 418f 1cbd 7554 9d3d beff ab3d
00000180: 6fed 2f3d c4a9 90bd d01a 9b3d 1b47 84bc
00000190: 8581 3a3d aa1a f23c bd61 1abd b521 91bc
000001a0: 63ee 8f3d 2299 b43d 5bf7 5cbd 307d 2cbd
000001b0: 9e69 02bd 54bc c43d f1be 04bd 9e0c 6dbd
000001c0: 216e 403d 6874 b4bc 0e53 033d b93c a83d
000001d0: 9551 eebc 651f 743c 5032 803c 76fd 8e3d
000001e0: d22f 863d 81b4 853d 5946 35bd 638f 60bd
000001f0: e08b 50bd 52dc ac3b 0950 833d df3b 8b3d
00000200: 26e7 7dbd 0809 09bc 333b 5e3d a02b 533d
00000210: 8597 a9bc ce86 043d 5164 173d 8cb9 33bd
00000220: c8b8 93bc d1ab 81bd 5037 01bd ff1f 9ebc
00000230: 1bf9 2a3d 7ee2 793c 09ee 963c 1409 82bd
00000240: dd2e 3a3d 143f a93d ca69 843d 4fcd 60bd
00000250: db0a 99bc 0d0e c93d c329 d43c 3813 223a
00000260: 13d4 efbc 689a a73d 49fe 90bd e195 0ebd
00000270: 4a69 513d bca3 8a3d 8fee b5bc ee9e 25bc
00000280: 7ea5 933d 1e3d 673d d50c 83bc ee54 ae3d
00000290: 000f 51bd 2363 403d 7282 813d 82c8 32bd
000002a0: 0b92 753d e412 873d 63a0 38bc 0221 97bd
000002b0: 39f7 77bd d71d bc3d e84a e13d d926 5f3b
000002c0: 58df 4abd 6633 2d3c 2095 95bd 78a0 153d
000002d0: 4e12 c1bc 6291 8a3d 0ff9 cbbb e418 90bc
000002e0: f49c b93d c708 963d 76ee 5c3d 2a8d 373d
000002f0: a8ae d7bc 124e 83bc b526 c23d 098f bd3d
00000300: 68d3 41bd f906 a23c 92d8 07bc d088 a33d
00000310: f913 163d fefa b53c acd7 5bbc 1376 763c
00000320: f413 fcbb d9d0 ccbb d296 1c3d 93a8 8b3b
00000330: d877 bcbc 00c5 7e3d 1747 acbb 60b1 f4bc
00000340: 7333 303d 5c00 233d a779 333d 5d7d 65bb
00000350: fb66 4bbd 1a0b 47bd f75d 06bb 002f 3a3d
00000360: 938a 28bd 4f57 843d ca61 cf3c 389f 3dbc
00000370: 31a6 4fbd 3744 6c3d bb0f 56bd c94e e3bc
00000380: a3d8 07bd f784 683d 0f3c 27bb cfe4 143d
00000390: 8672 1dbc 84b5 8bbc f56c 643d 801d 203d
000003a0: 1e8b 66bd 4f20 88bd 4873 fd3c 8b87 90bd
000003b0: 5cca 9e3d 9608 08bd 6d93 d53c 3534 46bd
000003c0: dd54 513d 15a8 b73c 85d4 8cbd f30c 45bc
000003d0: a3bf bf3d 63b3 4b3d 78ef 373d 1951 a33d
000003e0: 5eaf 4ebd 805e b73d 41ad 45bd 9aab 93bc
000003f0: bb12 73bc 9d50 6b3d 4dc1 24bd 5582 393d
0.08941628 0.048961844 -0.027095072 0.030482076 0.06317045 -0.01283378 -0.0008637854 0.07749952
0.12141447 -0.054018643 0.09335608 -0.041739687 -0.07428673 0.115746774 0.027691428 0.09072134
-0.02114552 0.02847831 -0.0726236 -0.047416452 -0.06955336 -0.019447535 0.018982474 0.028810335
-0.016951311 -0.03449342 0.08426081 0.019168971 -0.020538593 0.005059598 -0.04376712 0.09100594
-0.05223655 -0.068612985 -0.064514704 0.04893184 0.058388513 0.030290054 0.065212235 0.087451264
0.08732715 0.07689904 0.025653003 0.008167878 -0.028709421 0.07668699 -0.006362432 -0.05715202
0.011173277 -0.057646293 -0.054316312 -0.05812864 -0.06204386 0.0013290779 0.0056405026 0.024082154
0.023288306 -0.004575496 0.0028614465 0.080775715 -0.0907388 0.03199475 -0.020217324 -0.06458744
0.0067640287 0.05364731 -0.07784998 -0.034685787 0.03286035 0.09353594 0.09938361 0.012457516
0.020679874 -0.01914764 0.098067015 0.039472453 0.07820636 -0.022187576 -0.06423187 0.013935419
-0.033548966 0.009920182 0.029968252 0.0989292 -0.041850172 -0.0033779258 0.016841494 -0.082151756
0.08731847 -0.037132625 0.03923592 -0.032819528 0.107878484 -0.038222555 0.076821245 0.08398388
0.042951044 -0.0706363 0.075734735 -0.016147187 0.045533676 0.02955373 -0.037690867 -0.017716268
0.070278905 0.0881827 -0.053946834 -0.042111576 -0.031839006 0.09606233 -0.03240866 -0.05787336
0.046980027 -0.022028163 0.03206163 0.08214707 -0.029091636 0.014900063 0.01564899 0.069819376
0.0655209 0.06528569 -0.044256542 -0.054824244 -0.050914645 0.0052752877 0.0641175 0.06798529
-0.06198802 -0.00836397 0.054255676 0.051555276 -0.020702133 0.032355122 0.036960904 -0.043878123
-0.018032447 -0.063315995 -0.03154689 -0.019302366 0.04174147 0.015251754 0.01842405 -0.06349388
0.04545485 0.08263984 0.0646549 -0.054883298 -0.018681934 0.09817133 0.02589882 0.00061826734
-0.02927593 0.081837475 -0.07079751 -0.034810904 0.051125802 0.06769511 -0.02220848 -0.010108693
0.072092995 0.05645477 -0.01599733 0.08512293 -0.051039696 0.046969544 0.063237086 -0.04364825
0.05995373 0.065954 -0.011268708 -0.073793426 -0.060538504 0.09185379 0.11000615 0.0034050255
-0.049529403 0.010571336 -0.07303834 0.036529988 -0.023568299 0.06766011 -0.0062247585 -0.017589994
0.090631396 0.07325893 0.05393835 0.04481236 -0.0263284 -0.016028438 0.09480039 0.092557974
-0.047320753 0.019778715 -0.0082913805 0.07985079 0.03664014 0.022214409 -0.013418119 0.0150427995
-0.0076928083 -0.0062504825 0.03822977 0.004262039 -0.023006365 0.062199593 -0.005257498 -0.029869735
0.043017816 0.039795265 0.04381719 -0.003501735 -0.049658757 -0.04859457 -0.0020502785 0.04545498
-0.04114778 0.06461965 0.025315184 -0.011573605 -0.0506956 0.057682242 -0.052261095 -0.027747529
-0.033165585 0.05676743 -0.0025517975 0.03635102 -0.009609824 -0.017054327 0.055767972 0.039090633
-0.056285016 -0.066467874 0.03093876 -0.07057103 0.07753441 -0.033211313 0.026071275 -0.048389632
0.051106323 0.022419015 -0.068764724 -0.012027013 0.09362724 0.049731623 0.04490611 0.079744525
-0.050460212 0.08953571 -0.04826093 -0.018026162 -0.014836009 0.057449926 -0.04022341 0.04529031
