Prediction Scripts/Benjy/Saved models/best_model.pth (torch, 185446 bytes, 6 tensors)

lstm.weight_ih_l0 f4 [400, 9]
00000000: a510 253e f9fc 1ebe 6e53 803d de58 73be
00000010: f856 243d f1a2 2ebd 6205 ddbe 94b0 003f
00000020: e3c7 d63d 8cca 113e 5efc 813d 58f3 003e
00000030: a1f7 1dbe c8f0 233d 36b4 5a3c 4fa1 b5bd
00000040: 6139 913e 3c36 553c 428d 46be 9907 663e
00000050: 910b 463e 8f5f 84bd 463c 86be 1272 903e
00000060: d51b ff3d 4120 c2bc fafd 22bd 9e0a 97bd
00000070: e82c 20bb a25c 803c 0f76 36be 2946 45be
00000080: 3b08 d0bd ac87 d33d aa23 323d 7956 46be
00000090: 5c7c 893d 8594 7bbe d8d9 0c3e 0845 6b3e
000000a0: 7610 883d f654 053d 937c 933b 7510 463e
000000b0: c561 4bbd 09e9 38bd a81f 733d ad0f 47be
000000c0: a238 d3be c02d 08bc 3297 21bd 06bb 05be
000000d0: 01d3 3fbe 980d 8c3d 5bcf 863e a856 bebd
000000e0: 0d92 ffbb b2a7 20be b543 43be b601 513e
000000f0: 7d04 4d3d 5697 00be f3ac aaba 4c88 e3bd
00000100: d2a9 d1bd 304d a03d 0df7 b43d 8abd 12bc
00000110: 6c94 993e 9b05 2a3d 1c25 ffbd 7e21 9e3d
00000120: 93c1 223e 5dee 78be 9f6e fabd 83fc 88be
00000130: 9aae a5bc ef8b 333e 4163 b13d bd4a 24be
00000140: f0ca 72be aedf 6b3d 9027 07bf bdfc ccbd
00000150: 3c24 8cbd ba21 a5be b361 5b3e e0bc 493e
00000160: e894 a1bc 2c26 f73d 0248 dfbd 797c 8b3e
00000170: 3efa 7dba 6143 553d e7ba dfbd 2faf 7f3c
00000180: cd90 d6bc 3394 bdbd 946f e4bc 00ce a43e
00000190: db27 883e cd0e 22bd eae2 aa3c f290 afbc
000001a0: 4e19 2e3e e611 a7bd 7610 17bd 1e01 b23d
000001b0: ee9a dbbd 8839 07be b061 883e 9113 17bd
000001c0: 4c8a d03e 2f6d 52bb a8d1 0ebd bbc3 473d
000001d0: b998 683d 7b25 4dbe bc4e df39 6524 423e
000001e0: 189c ad3d d410 7a3d 6a49 363d 2b02 273d
000001f0: 5e15 a1bd 610c c93c 6117 663e 1087 19bd
00000200: ac4f 55be c72b 013e 87fa bfbd 20fb 05bc
00000210: 82c4 5abd 63ff 013c a697 ad3d 95fb 5abe
00000220: 4c3a 193c 85bc c8be e3a4 05be 8b81 c8bd
00000230: f8cf 42bd 4bd4 b5bc b554 8a3e 3285 5c3e
00000240: 208b 943e f1a5 cd3d b0aa 8abd 71b8 0f3e
00000250: 4790 2fbe 61b1 603e 3a26 4bbd 480b 103d
00000260: ab98 a03e 16d2 bc3d 79e6 56be 23f3 1abe
00000270: 2a19 883c 3fb6 eb3d 21d7 623d fea8 2abe
00000280: 1ea9 7abd 5806 67be 8d72 b03d 5b3c 6ebd
00000290: cd15 4abc 507d e83d 9a30 58bd f3b6 06bf
000002a0: 4780 3b3e c51b 28bd c5d4 8c3d 04f6 463e
000002b0: 75e4 0dbe fcac ef3d 2061 4f3c c8b7 a6be
000002c0: 86ad f13d 1748 a6be defb 4abe 4282 e2bd
000002d0: d545 9cbd a473 acbe ef84 823e cbf9 493d
000002e0: fae6 4cbe 47e6 11be 095b a3bd 40df b53c
000002f0: 3924 043e 1bb8 c63d 343a 95bd 340c 863d
00000300: cfdb 9b3e 598c a23d 21e8 a6bb 57d6 b23d
00000310: dccf 8abd 45ec 3a3d 7202 7cbb 2265 453d
00000320: fe07 82be 917a f9bd e31e 193e a628 373e
00000330: 75c3 bfbd 48e5 213d 9fa2 9fbc 57ca 0fbd
00000340: cf3f ddbd 9fe5 d63c 51d4 883d 4adb 133e
00000350: 991f 293e 8c65 62bd 94f2 5ebe b041 bdbd
00000360: a115 bfbc 4cde 863d 813c 5c3d 076b 7c3c
00000370: 02b3 60be dc8e 4a3c d41e 123e fce5 c2bd
00000380: 8446 9a3b 0259 513e 3b10 19be bdd3 a53d
00000390: 4262 d63d f2a2 a63e fc86 12be af3c db3e
000003a0: cbb9 1cbe f2d3 3a3e ef44 2bbd 6736 1abd
000003b0: b15f eebd aa1c 0f3e 184d 6bbe 117f 033d
000003c0: 911a b8bd dd55 5c3d b03b 59bd 2146 32be
000003d0: 08d3 2bbe f5dd 933e 5eeb 4fbd 2c6f 7d3b
000003e0: 1812 82be da01 453c 06a3 65be 7fdf 853d
000003f0: 98ed c53c 3999 7f3e a1e6 18be 3b33 fa3d
0.1611963 -0.15526189 0.06265913 -0.23764369 0.040122002 -0.04263586 -0.4316817 0.50269437
0.10487344 0.14237422 0.06346963 0.12592828 -0.15426494 0.04002455 0.01334863 -0.08868658
0.2836409 0.013013419 -0.19389823 0.22463836 0.1934035 -0.06463539 -0.2621786 0.2821203
0.124564804 -0.02369702 -0.039792992 -0.07375072 -0.0024440829 0.01566917 -0.17818473 -0.19265045
-0.1015782 0.10328612 0.043491043 -0.19368924 0.06713173 -0.24568374 0.13754976 0.22975552
0.06643765 0.03255173 0.0045009344 0.19342215 -0.049653787 -0.045144115 0.05935636 -0.19439574
-0.41254145 -0.008311689 -0.03945083 -0.13059625 -0.18732835 0.0683853 0.26330075 -0.09293872
-0.007799393 -0.1568897 -0.19068797 0.20410809 0.05005311 -0.1255773 -0.0013021514 -0.11109981
-0.10237469 0.07827222 0.08836184 -0.008956322 0.2999605 0.041509252 -0.1245825 0.07721232
0.15894155 -0.24309678 -0.122281305 -0.2675515 -0.020224858 0.17533849 0.08661509 -0.16044135
-0.23710227 0.057586364 -0.5279474 -0.100091435 -0.06842849 -0.32252294 0.21423988 0.19700956
-0.019724324 0.120678276 -0.10902406 0.27243403 -0.0009688473 0.05206621 -0.10924321 0.015605732
-0.026192093 -0.092567824 -0.027885236 0.32188416 0.26592907 -0.039564896 0.020860154 -0.02143142
0.1700184 -0.08157711 -0.036880933 0.08691619 -0.1072291 -0.1320554 0.2663703 -0.036883894
0.40730512 -0.0032108536 -0.034867913 0.048770647 0.056786273 -0.20033829 0.00042592536 0.18959196
0.08477038 0.061051205 0.044503607 0.040773552 -0.078654036 0.024542036 0.22469856 -0.03748232
-0.20831174 0.12614356 -0.09373956 -0.008177549 -0.05341006 0.007934424 0.0847619 -0.21385033
0.009352278 -0.3920633 -0.1305118 -0.09790333 -0.047561616 -0.022195956 0.2701775 0.21535185
0.29012394 0.100414164 -0.06770837 0.14035203 -0.17144881 0.21942665 -0.049597003 0.03516701
0.31366476 0.09219758 -0.20986356 -0.15131812 0.016613562 0.1150937 0.055380944 -0.16666028
-0.06119644 -0.22561014 0.08615599 -0.05816303 -0.012334299 0.113520265 -0.052780725 -0.5262291
0.18310653 -0.041042108 0.0687652 0.19429785 -0.1385668 0.11702916 0.012657434 -0.3256209
0.11800675 -0.32476875 -0.19822642 -0.11060001 -0.07630507 -0.33681977 0.25492045 0.049310487
-0.20009986 -0.14248 -0.07976348 0.02220118 0.12904443 0.09703084 -0.07286492 0.06545296
0.30441138 0.079369254 -0.00509359 0.08732288 -0.06777927 0.04563548 -0.0038453606 0.04819215
-0.25396723 -0.12181581 0.14953189 0.178866 -0.09363452 0.0395253 -0.019486723 -0.035105076
-0.10803186 0.026232539 0.06681121 0.14439121 0.1651596 -0.055272624 -0.21772224 -0.092410445
-0.023325743 0.065853685 0.05376864 0.015406377 -0.21943286 0.012363162 0.14269572 -0.09516522
0.004708113 0.2044411 -0.14947598 0.080970265 0.1046796 0.32546192 -0.14309305 0.42819735
-0.1530525 0.18244913 -0.041813787 -0.03764954 -0.116393454 0.13975778 -0.22978628 0.0321036
-0.08989442 0.053792823 -0.053035438 -0.17409565 -0.16779721 0.28880277 -0.050761573 0.0038671
-0.2540443 0.012024367 -0.2242547 0.06536769 0.024161145 0.24960794 -0.14931728 0.12216803

lstm.weight_hh_l0 f4 [400, 100]
00000000: 0ce1 90bd d334 1fbd f7c5 0c3c 006e a83c
00000010: 0e34 0dbd 22bc b3ba 4b0c d43d ff7f b43e
00000020: 6962 b7bd 6ae9 4e3e 83ad be3d 45f6 363e
00000030: 46f4 49be 6c43 26be 133a 0cbe f651 83be
00000040: fe88 293e ae8b e33d 07be 523e 91ee 50be
00000050: fa8c cd3a 34f0 01be ecd7 d2bd e695 eb3c
00000060: 3521 803e d744 203e f301 8b3d 702d 5ebe
00000070: bc87 2c3e d824 cebc 2f5b 80be 3720 f2bd
00000080: ee6d 53be 2636 133e 8339 b13d 6bdb 1cbe
00000090: 46ee 5abc f107 5d3e 156b 07bd 2b7d 503e
000000a0: b6fc 3e3d 7f66 20be c0ae 4abe 943d af3c
000000b0: 410f 093d 083f 57be 42a9 08bd 321c bd3c
000000c0: 0920 e7bd ad7a 26bc f270 12be 5dd0 863b
000000d0: 775c 17be 6e86 663d abd4 89be add6 c7bc
000000e0: b9c2 263e a9c2 69bd 5506 2e3e 5907 ae3a
000000f0: 0750 8e3e 5627 6c3e 654e 323e 09c8 25bd
00000100: 5762 3fbe ae10 4dbd a70d 9d3e 3587 f7bd
00000110: 4a74 493d 376a 0d3e 20b4 493d 4c45 55be
00000120: 9345 843e 9b4a 3e3d 06f7 43bd 93ef 71bd
00000130: 1138 c7bd 2ce4 723e 5d92 ff3d 4584 823e
00000140: bf03 653c 56b0 683e 2b45 a23d f332 20be
00000150: 1ab4 793e 8632 513e 8517 12be 9146 cdbe
00000160: 938e aebd 2699 0d3e 399d 8bbc deab debd
00000170: 1a58 f53d 65c0 a93e aa33 6fbc bac4 af3d
00000180: 6cd8 633e 3737 8ebe a2e9 88bd 9d5c 2c3e
00000190: af7f 7cbd d37d 2a3d d8dc 603d 7796 11be
000001a0: 9ae6 38be 3df0 4c3e 367b e3bc 0da7 153e
000001b0: c1a8 aebd 721d 0a3d 25c0 0ebe 562c a0be
000001c0: 5137 8fbc 396a 8c3d 0b02 0dbe 2a94 8b3d
000001d0: f51d 9d3e a99b a93e fb9e 3cbd 6b1a 28be
000001e0: 9a2d e03d a09c b23d 54ef 2c3e 16a8 1dbe
000001f0: 6ca8 5a3e 11ad d2bd 88a4 213e 9912 793e
00000200: 9510 403e 7cb1 10bd 5ae8 b7be ae87 81be
00000210: 276d 69be 50bf b0bd abe6 7dbe 50cd 4bbe
00000220: 2dd0 10bd 1b3d 1bbd 8665 43be 1a0e 1fbc
00000230: 97bf 913e b532 6dbe 8982 2d3e 6d8b a33d
00000240: 9905 333e f467 0e3e deb2 cc3c 017b 1ebe
00000250: 76bf 0cbe ab4b 43bc c8db 1dbd 1364 b0bb
00000260: a375 9bbd e250 ef3d 7c59 fa3d 8398 bebd
00000270: 2d9b 893e b960 11be 1053 e23a 1026 85be
00000280: 3fd9 473e 6172 3cbe 18b6 62bd fcc9 30bd
00000290: 95de 88bd f9c0 0b3e e83d 973e c292 eb3c
000002a0: e49e 86bc 82af b53d 6863 17be 1186 0ebd
000002b0: a345 d2bd 9340 73bd 9049 0fbe 9390 b03d
000002c0: 2cfb 7c3e 219e 883b c3b9 eb3d 87dc d83e
000002d0: fadd 90bc bbd6 dfbd 9025 e83d 9cd5 c8be
000002e0: 76d6 ad3d 914c a23d 0269 d6bd 72ba 333e
000002f0: 3f61 2c3d 230b 403e 6dc7 463e 3e1a b1bd
00000300: c1dd 4bbe 14d7 553e 32c2 02be 2c51 ba3e
00000310: d72b 8fbd 1466 a03d d9b1 4bbd 485b a6bd
00000320: dd75 323e 8e23 123a 1149 523c 8d05 8cbd
00000330: 303e bf3d f0d3 0abd 52e0 48be b88a 323e
00000340: 867e 89bd dc56 38bd 0a7a 213e 9b4e 873d
00000350: 4627 53be cd15 1dbe c72f ebbe 576e ed3d
00000360: 17f0 113e e419 1a3d 9308 563a 1cd3 373e
00000370: a810 e03d 8642 73be 51a9 bebe f36f 7f3e
00000380: 98ea 9b3d 3825 d0be 9bfd 9b3e 046a 07be
00000390: c549 a43e 36b1 aabc e599 20be 60b5 d1bd
000003a0: f95a 8e3e 939b ed3d 5658 febb d2b2 79bd
000003b0: b534 91be f9e0 6e3d 24f9 d33b 14bf 8a3c
000003c0: 1c89 373d ee13 343e a924 00bd e59f 5ebe
000003d0: 2864 c5be 6a8b c73d 24de 02be ede8 0dbd
000003e0: ee3c b4bd f2ff a7bc d3f9 2bbd cfb4 babd
000003f0: 65d1 fd3d 5a14 36be cdc1 05bc cd7c 143e
-0.07074174 -0.038868736 0.00859212 0.020560265 -0.03447347 -0.0013712684 0.10353907 0.35253903
-0.08954317 0.20206228 0.093104385 0.17867382 -0.19722089 -0.16236657 -0.13694029 -0.2564847
0.16556165 0.11110626 0.20580302 -0.20403506 0.0015682273 -0.12689286 -0.1029509 0.028758
0.25025335 0.1565126 0.06787481 -0.2169702 0.16848654 -0.025164053 -0.25069568 -0.11822551
-0.20647404 0.14376125 0.086535476 -0.15318076 -0.013362473 0.2158506 -0.033061106 0.20360248
0.046627723 -0.15664099 -0.19793224 0.021391667 0.033461813 -0.21020138 -0.03336454 0.023084734
-0.11285407 -0.010161084 -0.14300898 0.0041141943 -0.14781366 0.056280546 -0.26920065 -0.024394358
0.16285218 -0.057070408 0.16994603 0.0013277336 0.2779543 0.2306188 0.17412718 -0.04047397
-0.18689857 -0.050064735 0.30674478 -0.120863356 0.049183168 0.13810049 0.049244046 -0.20827216
0.2583433 0.046457868 -0.047843 -0.059066366 -0.09727491 0.23719853 0.124790885 0.2549154
0.013977944 0.22723517 0.07923349 -0.15644436 0.2438511 0.2042943 -0.14266784 -0.400929
-0.085232876 0.13827953 -0.017042743 -0.10872625 0.11979695 0.33154598 -0.01459972 0.085824445
0.22250527 -0.277765 -0.06685187 0.16832204 -0.061645206 0.0416239 0.054898113 -0.14217554
-0.18056718 0.20013519 -0.027768712 0.14614506 -0.08528281 0.033719487 -0.13940485 -0.31283826
-0.017482432 0.06856198 -0.1377031 0.068153694 0.30686918 0.33126572 -0.046050053 -0.16416328
0.10946198 0.0872128 0.16888171 -0.15396151 0.2135331 -0.10286916 0.1578542 0.243235
0.18756326 -0.035325512 -0.35919458 -0.25298828 -0.22795545 -0.0863024 -0.24795024 -0.19902539
-0.035354782 -0.03790007 -0.19081697 -0.009707952 0.28466484 -0.23163874 0.16944326 0.07985578
0.17482604 0.13906842 0.024987634 -0.1547661 -0.13744912 -0.011919896 -0.038539678 -0.0053830235
-0.07590797 0.11685349 0.12224099 -0.09306433 0.26876202 -0.14197053 0.0017267186 -0.26005602
0.19516467 -0.18403007 -0.05534944 -0.043161377 -0.06683079 0.13647832 0.29539418 0.028756503
-0.016433187 0.08871366 -0.14784014 -0.034795824 -0.102671884 -0.059387755 -0.13992906 0.08621325
0.2470519 0.004169241 0.115100406 0.4235575 -0.017683972 -0.109296285 0.113352895 -0.3922547
0.08488171 0.0792476 -0.104692474 0.17551592 0.04208493 0.18754248 0.19412012 -0.086475834
-0.19908811 0.20882827 -0.12769392 0.36390054 -0.06990784 0.0783197 -0.049730156 -0.08122879
0.17427774 0.0005574756 0.012834803 -0.06836996 0.09338033 -0.033893526 -0.19616821 0.1743573
-0.067135856 -0.04500471 0.1576921 0.0660679 -0.2062045 -0.15340348 -0.4593489 0.11593311
0.14251743 0.037622347 0.000816473 0.17951626 0.10940677 -0.23755845 -0.37238553 0.24945049
0.076131046 -0.40653396 0.30466923 -0.13224036 0.32087532 -0.020836454 -0.15683706 -0.10239673
0.27803782 0.11601939 -0.0077619953 -0.060961552 -0.28360525 0.05832002 0.006468909 0.016936816
0.044808492 0.17585728 -0.03128496 -0.21740682 -0.38552976 0.09743388 -0.12780052 -0.034645963
-0.08800684 -0.020507786 -0.041986298 -0.09116518 0.123934545 -0.17781201 -0.0081638815 0.14500733

lstm.bias_ih_l0 f4 [400]
00000000: 2755 683e 2e96 0a3e 4104 413e c5a5 913d
00000010: 3455 be3c a614 2b3e 9a0f 0d3e dc30 793e
00000020: 0349 173e 8af6 b9bc fc6d 133e 926c 1f3e
00000030: c2df 5d3d c554 3c3d 6d6a a43d adf6 333e
00000040: 9cc7 633e 7208 6b3e 5308 623d 0ea0 8d3e
00000050: 25b6 5ebc 7c23 c03d 67ac 8f3e 393a 31bd
00000060: e466 983d 18d3 3a3e 95bc 263d 3cb3 de3c
00000070: 43f5 223e b59a ff3d a7d5 943d a542 133e
00000080: 823e a33d adbc 1c3d 9308 dd3d 87d5 743e
00000090: eea9 4c3e ed0e 0b3e 2454 a53c 00da a13e
000000a0: 1441 203e 3914 c43d 6cca c23d f4aa 0e3d
000000b0: ac5d 743d 7c72 d13d a043 393c c427 1c3d
000000c0: 0adb f03d 7ed2 273e e081 183e ca61 043b
000000d0: 6c63 0e3e 474e 83bd 8723 6c3c 88ae 293d
000000e0: d660 a73c da4f e63d 9774 da3d da57 a13e
000000f0: fefc 9d3d 78ac 0d3e a4d7 b73d 6d90 383e
00000100: 39c1 693e 3623 f33d c861 8d3e 50a8 883d
00000110: b077 583e d2a1 ffbd 225b e73d 01e1 433e
00000120: 3b2b 9f3d af82 ec3d 047c 4b3d 655b cc3d
00000130: 1489 8f3d 43eb 333d ee51 3cbd 49a0 e0bc
00000140: d67c 90bd 3a5d f7bc 02b7 a3bd a568 973e
00000150: 0b8c 083e 7656 ffbd 3689 1d3e 5fe5 593e
00000160: 7948 b33d 11d2 5f3d 0c27 003e 3215 b93d
00000170: 1183 dfbd 6b42 b83e 2594 303e 6195 f53b
00000180: 7890 943e 7671 493d 775b da3d 6216 f53d
00000190: 3861 eb3d b251 583d b003 88bc ddfb 473e
000001a0: 8b70 68bd c6c0 eb3d 0595 443e b367 013e
000001b0: 3d51 ad3d efd3 683d ca05 183e 9342 383e
000001c0: 16b7 b43c a672 c73d ef53 093e 1359 043d
000001d0: 3efc ef3d fecd 243e 5a16 f13c e830 433e
000001e0: 55fa f83b e59e 153e 0fa0 0f3e a7f1 9e3d
000001f0: 74e7 243e d7e4 603e c982 d73d e16e fc3d
00000200: 1fa7 543e 0d05 653d 033e 963d 2192 91bd
00000210: 1f13 bd3d 4917 1c3c 1c68 443e 4f12 8f3d
00000220: 3944 37bb c843 963d d4f4 c33d 2908 173e
00000230: d725 1b3e de82 a33d 5eab ea3d 11f1 823d
00000240: 2ec3 dd3d 2222 f23d b9a4 913b bc4a 5e3d
00000250: 6bea 4dba 9de9 363e 2dfd 543d c729 8d3d
00000260: 2367 c73d be72 4a3c b543 c83d a8de 993d
00000270: 2142 c0bb bee7 56bd a358 653e da67 ed3d
00000280: 7fb2 333e 8233 273e dfd0 a73d 2722 043e
00000290: 5de1 473e b439 793d 5864 893d 0a89 053e
000002a0: 8a55 2c3e fb9e 6cbd 4c33 c13d 1110 8e3a
000002b0: 2cdc c43d f73c 573e 8cc0 05be c1db 453e
000002c0: df48 a7bb eb09 fa3c c5b0 af3d 5fe1 c53d
000002d0: 6d8b 1c39 a355 46be 88fd e0bc f028 ac3d
000002e0: 8376 c43b 4dc4 43be b114 153e 1a7a 503e
000002f0: 9940 ea3d a1ce 333d 0c59 793e 9f37 e43d
00000300: 6d31 ab3d 2b56 203e 2e24 ca3d 220d 603c
00000310: 46fd 083e 37d4 3d3e 152a 133e 84f0 a43e
00000320: 4eab 8f3d d1fe 8bbd 6795 193d 791d 4e3d
00000330: e22b fbbd bb7c 783c b23e 873c c658 103d
00000340: d6a5 29bd 0767 9bbd d489 9c3c a9d7 09bd
00000350: a15f 70bd 8b7a d3bd 6890 0bbd 8c24 fb3a
00000360: ae9e 813d bba8 64bd 5088 3f3d ffcd f23c
00000370: 6690 95bd d2e5 963d 9db7 21bd cf42 53bd
00000380: e33f 4dbd 207e 95bb 24c8 be3d 0c37 44bd
00000390: 48a9 783d 163a 18bd e98d 2dbd 58be 59bd
000003a0: 0919 cb3d 50fe cd3c 814c a1bd 7447 903d
000003b0: 51f4 b93c dd3b 153c 1e75 6ebb a60f f63c
000003c0: 1c1c 67bd 1c8b a03c c324 91bd d971 cdbc
000003d0: b023 833b 5c1e c03c 04b9 7cbc ef51 f03c
000003e0: 9704 41bd f987 a3bd 375f 593d 6f9a 133e
000003f0: cadb 8bbd d902 80bd 6d6e 9abd de65 613c
0.22688733 0.13533852 0.18849279 0.07111696 0.023233987 0.16707096 0.13775483 0.24335045
0.14773946 -0.022700567 0.14397424 0.1556876 0.05416847 0.04597928 0.080281116 0.17574568
0.22244114 0.2295244 0.05518372 0.27661175 -0.013593231 0.09381768 0.2806122 -0.043268416
0.074415 0.18244588 0.04070719 0.027185075 0.15913872 0.1248068 0.072673135 0.14380892
0.07970907 0.038265873 0.10792651 0.23909579 0.19986698 0.13579912 0.020181723 0.31611633
0.15649825 0.0957417 0.09511265 0.034831002 0.059659645 0.10226914 0.011307627 0.03812386
0.117605284 0.1638889 0.14893293 0.0020199888 0.13905114 -0.064114146 0.014412767 0.04142621
0.020431917 0.11245699 0.10666769 0.31512338 0.0771427 0.13835323 0.08976677 0.18023844
0.22827615 0.1187195 0.27613664 0.06672728 0.21139407 -0.12482037 0.11296679 0.19128801
0.077719174 0.115483634 0.049678817 0.099783696 0.070085675 0.043925535 -0.04597657 -0.02742018
-0.070550606 -0.030195821 -0.0799389 0.29572025 0.13334672 -0.12467663 0.15384373 0.21278904
0.087540574 0.054643694 0.12514895 0.09037246 -0.10913671 0.35988173 0.17244013 0.007494614
0.2901647 0.04918047 0.10661977 0.1196716 0.114931524 0.052812286 -0.01660332 0.19529672
-0.056747954 0.11511378 0.19197471 0.12637214 0.084627606 0.05684274 0.14845958 0.17994146
0.022059958 0.09738664 0.13410924 0.03231151 0.11718033 0.16094205 0.029429603 0.19061625
0.0075982013 0.14611395 0.14025901 0.07760935 0.16103917 0.21962295 0.10522992 0.12325836
0.20766877 0.05591302 0.073360465 -0.0710795 0.09232163 0.009527036 0.1918034 0.06985914
-0.0027964248 0.07337147 0.09568182 0.14749207 0.15151154 0.07983945 0.11458467 0.06393636
0.10828243 0.118229166 0.0044446853 0.05427049 -0.00078550604 0.17862554 0.05199926 0.06892734
0.09736469 0.012356458 0.09778539 0.075131714 -0.005867258 -0.0524671 0.22397093 0.11592074
0.1754856 0.16328242 0.08194136 0.12903653 0.19519563 0.060846046 0.06708592 0.13040558
0.16829506 -0.057768803 0.09433612 0.0010838528 0.09612307 0.2101935 -0.13061732 0.1932211
-0.0051051225 0.030522307 0.08578638 0.09662127 0.0001492926 -0.19368605 -0.027464643 0.08406246
0.005995573 -0.19117852 0.14558674 0.20359078 0.11438102 0.04389823 0.24350375 0.111434214
0.083590366 0.1565787 0.09870182 0.013675006 0.13377866 0.18537985 0.14371522 0.3221475
0.07015096 -0.06835712 0.037495997 0.050321076 -0.12264229 0.015166457 0.016509388 0.03524091
-0.04141792 -0.0758801 0.01910869 -0.033652935 -0.05868495 -0.103261076 -0.034073263 0.0019160672
0.06329094 -0.055824976 0.046760857 0.029639242 -0.073029324 0.073680535 -0.039481748 -0.051577386
-0.050109755 -0.0045621544 0.093155175 -0.04790406 0.060708314 -0.03716477 -0.042371664 -0.05316004
0.099168845 0.02514568 -0.0787592 0.070448786 0.022699507 0.009108511 -0.0036385725 0.030036759
-0.05642329 0.019597583 -0.0708709 -0.0250787 0.004002057 0.023451976 -0.015424971 0.029335944
-0.047123518 -0.07984919 0.05306932 0.1441438 -0.06829031 -0.06250543 -0.07540593 0.013757197

lstm.bias_hh_l0 f4 [400]
00000000: 5979 6e3e e017 aa3d fd88 8f3d 1321 853d
00000010: 8e3e 883c c04d 243e 1d86 1b3e aea2 0d3e
00000020: 2a1e 233d 780b 9f3d 8b2b 483e e278 3f3e
00000030: b020 883d 9160 4f3d 8fa9 b53d 528a e73d
00000040: 0ec4 ea3d 6944 163e ad4c 043e 188d 5e3e
00000050: 03fa 88bd 98d7 063e c2a4 9c3e 8f8b d2bd
00000060: 0662 b53d 8983 5f3e dc12 e93d 7ebb 803d
00000070: 4d2e 113e a57e 0b3e a273 183e 6860 093e
00000080: def9 fe3d ee15 1fbc 38d7 0b3e ed21 0b3e
00000090: 6428 3c3e e212 f83d c055 f23d aea2 d03e
000000a0: b0ff 3d3e 5d56 413e 0826 0e3e a471 d13d
000000b0: bfcd 5fbd 0f7c 1c3e 5b5a 873d 1df1 153c
000000c0: 482e 723d ff26 253e 178d 133e e2c9 a73d
000000d0: c037 483e 49c7 b7bd 032f 79bc d231 de3d
000000e0: 591d 893b a6c7 ea3d 9f7d 2a3e f9ab 8d3e
000000f0: ee7e cb3d 0986 ba3d bdba 293e c9fa 9d3d
00000100: bd89 8e3e 2eb9 2e3e 601b 763e 93ef fc3c
00000110: 981e 033e 39ad 08be d42d e13d e05a 123e
00000120: 56da 813d 9a25 f23d 2c99 e03d 7c04 3f3e
00000130: 95c8 b13d 2d79 debc 0026 003d fbce 32bd
00000140: c370 9abb 26be 81bb f134 eb3b 41fb 863e
00000150: 17c3 a63d 50a3 9fbd 9956 253e a801 103e
00000160: 7b8b 453e 6a7f 183e a6c2 f83d 93b3 123e
00000170: 7cb6 08be f115 c73e ab6e 1c3e 2ae6 81bb
00000180: 8c54 803e fa59 1b3e ea01 ed3d 1b4a 0f3e
00000190: c07c a43c 73b9 b03d f1d7 c7ba 6eaf 463e
000001a0: bd2f eabd cfa8 c63d a10a 323e ab4c 633e
000001b0: a74c 3e3e 4661 1e3e 33dc ad3d d386 e03d
000001c0: e5df ac3d f65a 7c3d 7a18 c43d 227e 663d
000001d0: 8a28 023e 0163 6d3e 2396 8fbd 93d0 c03d
000001e0: 6ef9 a13c df9b aa3d 554c 603e 3b78 613d
000001f0: 3f00 2f3e e609 763e 897c c93d 16d6 113e
00000200: 2582 603e a186 ed3d beae e53d 79e0 27bd
00000210: 292b 273e 1974 1c3d 9708 7b3e f8bf f63c
00000220: 7615 ba3d 7816 dd3d a46b 753d bdd5 5f3e
00000230: 481c 193d 4b92 053e d048 8d3d 97e8 613d
00000240: 8f24 6f3d 4e7f 233e 24e9 97bd 2f8f ae3d
00000250: 36f4 163c dcde cd3d e87a d83d 99f8 ba3d
00000260: f2b9 c33d 69dc e0bc c7a2 df3a cef1 bc3d
00000270: 0ee1 19bd 832e 94bd 51c3 0f3e d079 2c3d
00000280: 9908 a23d 43ad 443e 5121 ca3d def8 713e
00000290: a019 943d 9e7e 173e 9cf3 1c3e d281 8c3d
000002a0: e876 733e c4e9 c9bc a7dd d83d 28da bb3d
000002b0: 7b69 153e 9d33 243e d7e2 23bd 40db 093e
000002c0: 6976 0cbd cba2 b53d 7e4c 0d3e 521f 893d
000002d0: 7f68 2f3c e99b fabd 4373 283d 466b 253e
000002e0: 9cca 8abc 5c53 4abe 0650 ae3d aa5e 353e
000002f0: 967e e33d 165d 053d 5206 093e 2b71 9d3d
00000300: 1eb0 953d 5dbd 0f3e 400c ae3d 05e3 c3bc
00000310: ccbe 1a3e 0249 213e 3b15 ca3d c190 aa3e
00000320: d634 00bd 3b07 cfbd ee6f 603c 7d65 89bd
00000330: db72 80bd d1ba 233d 1fa4 493d 2cbe 113d
00000340: 1b44 02bd 8b66 f5bd 0752 08bd fb5b 9ebd
00000350: dd7e f8bd 6b44 49bd 8bfa 8b3b 4422 a13d
00000360: ad4b a3bc 2b9f 6abd 4a7c c43c 38bd 263d
00000370: b7f5 c1bd 2dd5 4a3b 8a6a 58bc 728b 993c
00000380: 78da 8ebd 9661 343d fb4e 923c a614 dcbd
00000390: ad22 18bd f8f4 5d3c 4da8 543d 5e77 913c
000003a0: a8bb 8f3d 6352 393d 7ca2 b8bc 4b74 4f3d
000003b0: 4a5c 9ebc b4d8 4e3d 17cd 4fbb b994 dabc
000003c0: b789 583c 4e10 9c3c d019 403d 05bb 343c
000003d0: 34bc 81bd 16a0 1b3d c392 bd3d fd28 f83d
000003e0: 0939 b43c 1f1b 75bd 5b7a 72bd f1b1 723d
000003f0: 3ccb 93bd c688 1ebd a40f e6bd 3dff a93c
0.23288478 0.08305335 0.0700855 0.06500449 0.01663139 0.16045284 0.15187879 0.13831589
0.03982369 0.07765859 0.1954786 0.18698457 0.0664686 0.050629202 0.08870231 0.113056794
0.11463176 0.14674534 0.12919874 0.2173351 -0.06688311 0.1316818 0.3059445 -0.10280525
0.08856587 0.2182752 0.1138055 0.06285761 0.14177819 0.1362253 0.1488786 0.13415682
0.12450002 -0.009709818 0.13656318 0.1358716 0.18374783 0.121129766 0.11832762 0.40749115
0.18554568 0.18880601 0.13881695 0.10226753 -0.054639574 0.152817 0.06609031 0.009151724
0.05912617 0.16128157 0.1440929 0.08192803 0.19552517 -0.089735575 -0.015208962 0.10849346
0.0041844067 0.11463861 0.16649483 0.27670267 0.09936319 0.091075964 0.16575141 0.07713849
0.2783946 0.17062828 0.2403388 0.030875957 0.1280464 -0.13347329 0.10995069 0.14292479
0.063404724 0.11823578 0.10966715 0.18654054 0.08680836 -0.02715739 0.03128624 -0.043654423
-0.0047131493 -0.003959435 0.007177942 0.26363567 0.08142679 -0.07794821 0.16146316 0.14063132
0.19291489 0.14892355 0.12146501 0.14326315 -0.13350862 0.38883927 0.15276591 -0.0039642053
0.25064504 0.15171042 0.11572631 0.13993113 0.020079017 0.08629122 -0.0015246851 0.19402859
-0.114348866 0.097001664 0.17386867 0.22197215 0.18583928 0.15466794 0.08489265 0.10963216
0.08441142 0.061610185 0.09574981 0.056272633 0.12710777 0.23182298 -0.07011058 0.094147824
0.019772258 0.08330511 0.21904118 0.0550463 0.17089938 0.24027213 0.09838206 0.14241824
0.21924646 0.11597944 0.1121497 -0.04098556 0.16325058 0.038196657 0.24514996 0.030120835
0.090861246 0.10795301 0.059917107 0.21858878 0.037380487 0.13044088 0.068986535 0.055153456
0.058384474 0.15966532 -0.07417515 0.08523404 0.009213498 0.10052273 0.105703175 0.091294475
0.09556951 -0.02744885 0.0017062061 0.09225808 -0.037568145 -0.07235434 0.14039351 0.042108357
0.07911796 0.19206719 0.09869636 0.23630092 0.0723145 0.14794394 0.15327305 0.06860699
0.23775828 -0.024647601 0.10589152 0.091724694 0.14591019 0.16035314 -0.040011253 0.13462543
-0.034292612 0.08868941 0.1379871 0.06695427 0.010706066 -0.12236769 0.041125547 0.16154203
-0.016942315 -0.19758362 0.08511357 0.17711893 0.11108129 0.032559477 0.13381317 0.07687601
0.07308982 0.1403708 0.0849843 -0.023911962 0.15111846 0.15750507 0.09867331 0.33313563
-0.03130039 -0.10108801 0.013698561 -0.067088105 -0.06271907 0.039973084 0.049228784 0.035581753
-0.03180323 -0.11982449 -0.033281352 -0.07732388 -0.12133572 -0.049137514 0.0042718104 0.07867864
-0.019933546 -0.0572807 0.023985047 0.040707797 -0.094706945 0.0030949817 -0.013208995 0.01874325
-0.06975263 0.044038378 0.017859926 -0.10746126 -0.037142444 0.013547175 0.051918317 0.017757114
0.070182145 0.045244586 -0.022538416 0.050648015 -0.019331116 0.050499633 -0.0031707936 -0.026682245
0.0132164275 0.019050743 0.046899617 0.011030917 -0.06334725 0.037994467 0.09256508 0.12117193
0.021999853 -0.059840318 -0.05919872 0.05925173 -0.07216498 -0.038704656 -0.11233452 0.02075159

fc.weight f4 [13, 100]
00000000: bc9f 4d3d 812a 86bd 1679 12bd bab6 a1bd
00000010: 9453 7fbc bf49 863d 3e2c 13bd 92d0 bd3b
00000020: b0bf 98bc d750 ef3c 384f d9bc 6580 02bd
00000030: 0252 0c3d a6b6 bebc 5a84 023e 4c87 e43d
00000040: 1025 253c be16 863c 2516 b33d 5034 9fbc
00000050: 97b6 0bbd 094b 54bd 8533 fcbc 23a3 4cba
00000060: e609 92bd 0b5a a2bc 7e25 923d 2927 143d
00000070: d672 073d 1ef1 1a3d 1b8e 843d c991 ff3c
00000080: ea21 cf3c 563d 4bbd 5fcb c1bd c00c 4d3e
00000090: 8fa6 073d 4b2a 973d 9479 04be e781 40bc
000000a0: e97f 943d effa 98bd 2d05 6abc 2bcb 0c3e
000000b0: 9f6f 423c 0947 9c3d a859 893c fca3 7ebc
000000c0: 2338 f83d 1e05 8dbd bbfd dfbd 5eac 69bb
000000d0: 331d 553d 8aa9 143d 9d06 f1bb b5c9 04b9
000000e0: f8a1 8abc 031e 603d 402b f03c 4093 44bd
000000f0: 9071 0a3d 1418 bfbc 08f0 1dbd 1dd7 9b3d
00000100: 1cd1 4f3c f294 e03c 77b6 723d ab64 97bc
00000110: d183 e4bc 3c60 a8bd bced e9bd fc13 3fbd
00000120: 9822 17bd 3182 74bd 33d0 d23c fbbb 883d
00000130: 4aab 843d 6314 723d 0c32 a1bd 9e48 a53d
00000140: bd38 d73c c455 953e c66a 5c3e bc8e 143d
00000150: fecd 613d 39ae 803d 9e7a 9abd a5c2 a73d
00000160: bf06 b03d 7b02 5d3d 99d7 75bd ee46 c4bb
00000170: d98d 9ebc cc06 8eba 36fa 8ebc bfe9 a33d
00000180: aab8 30bd 2947 d63d 9ce1 51bd a560 77bd
00000190: c4bf 693d 9254 60bd cb90 c6bc 779f 87bd
000001a0: 07ec f83b c4a7 a23d 9bcb 01bd 3a26 803c
000001b0: 43ff 9cbc 45b4 243c b7e8 dcbc 17bc 24bd
000001c0: ba38 983d 916a 72bc ece9 da3d 8f7e d23d
000001d0: 4b6c 903c 18de ed3c cf53 c33d e8cd a8bc
000001e0: 5f47 e4bc 6be0 69bd 66d8 25bd eabb d2bc
000001f0: 7bc0 84bd 1c7c 60bc 181a b53d 6e6f 273d
00000200: 8760 f33c 1aad 0a3d 9fe3 883c eb0f 9b3c
00000210: 3cb3 af3c 0e1c 75bd aadc 9dbd 12b8 143e
00000220: 7158 1b3d ed9b 883d 6ccd e3bd d9c3 73bc
00000230: 3713 873d ddaa 89bd f148 aa3c f8d5 f43d
00000240: 36be 783c 120d 933d 432a 953d 2a15 95bc
00000250: 7507 ee3d 71e3 8bbd 4259 adbd 446d 00bd
00000260: 75e5 d23c 85e8 1e3d 2b50 24bd 5968 893d
00000270: a86b 2fbc 5e06 1d3d fa03 b23c 660b 39bd
00000280: f49b 163d 1963 93bc 04bf aabc abbf 553d
00000290: 3adb f83c c592 0f3d f65e 473d 33b2 b5bc
000002a0: bac8 2dbd fbe5 25bd 25a0 dcbd 1cf4 91bc
000002b0: 933e 14bd 3c1f 64bd 2990 173d c1d4 9d3d
000002c0: 9ef3 843d 422f 2c3d a984 ccbd dbd4 bc3d
000002d0: 988a a63c 4121 973e 41ff 373e bf60 ff3c
000002e0: 0c45 2e3d 7a15 233d 6af8 a2bd 87e9 963d
000002f0: 89c6 8e3d 594e 103d b434 6fbd 0332 41bb
00000300: 7da4 cbbc a491 b13b ef79 97bc e1b5 933d
00000310: 6996 1bbd 2292 c33d 90dc a0bc d1dd 3abd
00000320: d028 763d bee3 3ebd bb51 8abc 20e3 66bd
00000330: 219e 1a3d 37fc b33d fe57 e8bc cc24 be3c
00000340: 9c24 a2bc 25b0 09bc dc29 e8bc af17 46bd
00000350: 5e46 cd3d 2879 b6bb 5715 b93d 526e b13d
00000360: 7b49 c73c c942 263d 0e68 d83d 8fc2 b4bc
00000370: c15c 963b 8cce 7fbd f246 3fbd 23f3 34bd
00000380: 1b8f 73bd ec2f 17bc eb5a c93d e019 313d
00000390: 0750 d63c 7821 023d 09e8 e7bc b9f6 b73a
000003a0: ecd6 973c 5b2a 8cbd 38fa 83bd 324d a93d
000003b0: 8719 1b3d 3a4d 763d b11e bfbd 1f4f b2bc
000003c0: 81ae 703d 098c 73bd 2b80 613d b30c c73d
000003d0: 9988 913c 063f 8c3d fbab e73d 2449 93bc
000003e0: 502d e33d 6ffe 88bd f6da 81bd f5d1 41bd
000003f0: dc7a e23a ff4d 293d 3da0 50bd 9fee f33d
0.050201163 -0.06551076 -0.035760008 -0.078961805 -0.015583891 0.06557035 -0.035930865 0.005792686
-0.018646091 0.029213352 -0.026527032 -0.031860728 0.034257896 -0.023280453 0.127458 0.11158618
0.010079637 0.016368266 0.08744458 -0.019434124 -0.034109678 -0.05182937 -0.030786285 -0.00078062917
-0.07130794 -0.019818326 0.07136057 0.03617016 0.0330685 0.037827604 0.06472417 0.031197445
0.025284726 -0.04961904 -0.09462618 0.20024395 0.033117827 0.073811136 -0.12937003 -0.011749721
0.072509594 -0.07469737 -0.014283461 0.13749377 0.011867433 0.076307364 0.016766384 -0.015542027
0.12120082 -0.06885742 -0.10937067 -0.0035655717 0.0520298 0.036294498 -0.0073555247 -0.00012663643
-0.016922936 0.05471612 0.029317498 -0.04799199 0.033799708 -0.023326911 -0.03855899 0.07609389
0.012684133 0.027414773 0.059256043 -0.01848062 -0.027894886 -0.0822148 -0.11422297 -0.046649918
-0.036898226 -0.059694473 0.025734043 0.066764794 0.06477983 0.059101474 -0.07870874 0.08070491
0.026272172 0.29166996 0.21525106 0.036268935 0.05512809 0.0628323 -0.075429186 0.081914224
0.08595037 0.053957444 -0.060020063 -0.005989901 -0.019354748 -0.0010835766 -0.017453294 0.08003568
-0.04314486 0.104627915 -0.05124055 -0.0603949 0.057067648 -0.054768153 -0.024238965 -0.066222124
0.007596496 0.07942155 -0.031688314 0.015643228 -0.019164687 0.010052745 -0.026966436 -0.04021844
0.07432695 -0.014795915 0.10689148 0.102780454 0.017629763 0.029036567 0.095374696 -0.020605996
-0.027866064 -0.057098787 -0.040489577 -0.02572437 -0.06482025 -0.013701465 0.088428676 0.040877752
0.029709114 0.03385649 0.0167101 0.018928489 0.02144777 -0.05984121 -0.07708104 0.14523342
0.03792614 0.066703655 -0.111231655 -0.014878237 0.06595462 -0.06722043 0.020786734 0.11954874
0.015182069 0.07180227 0.072834514 -0.018198568 0.11622516 -0.068304904 -0.0846429 -0.031354204
0.02574418 0.038795967 -0.040115517 0.06709356 -0.01070682 0.03833615 0.021730412 -0.045176886
0.036769822 -0.01799159 -0.020843036 0.052184742 0.030377973 0.03505208 0.048674546 -0.022179699
-0.042427756 -0.04050253 -0.10772733 -0.017816596 -0.036192488 -0.05569385 0.037002716 0.07706595
0.06491779 0.042037256 -0.099862404 0.092202865 0.020329759 0.29517558 0.17968465 0.031174062
0.042546317 0.039815404 -0.079575375 0.073687606 0.06971461 0.03523097 -0.05839987 -0.0029479272
-0.024858708 0.005418973 -0.01849076 0.07212425 -0.03798524 0.09549357 -0.019636422 -0.045621697
0.060097516 -0.04660391 -0.016884675 -0.056368947 0.03774846 0.087883405 -0.02836227 0.023210905
-0.019792847 -0.008403813 -0.028340273 -0.04836243 0.10023187 -0.005568642 0.090372734 0.0866362
0.02432703 0.040591035 0.10566722 -0.022065429 0.004588694 -0.062452838 -0.046698518 -0.044177186
-0.059462648 -0.009227734 0.09831794 0.043237567 0.026161207 0.0317702 -0.028308885 0.0014035321
0.0185351 -0.06844016 -0.0644421 0.08266677 0.03786614 0.060132243 -0.09332026 -0.021766244
0.05876017 -0.05945972 0.05505387 0.09719219 0.01776533 0.06847958 0.113120995 -0.017979212
0.11092627 -0.06689154 -0.063405916 -0.04731937 0.0017279047 0.04133415 -0.050934065 0.11910748

fc.bias f4 [13]
00000000: c286 d73c 58c4 e13c 5de2 e93c d86b f93c
00000010: 1774 083d ef09 193d 5857 283d 41c3 303d
00000020: 2033 2c3d 567e 1b3d b32f fd3c 21d7 ab3c
00000030: 9bf8 033c
0.026309375 0.027559444 0.028550321 0.030446932 0.033313837 0.03736299 0.041098922 0.04315496
0.042040944 0.03796228 0.030906534 0.020976605 0.008054878
