Prediction Scripts/Benjy/Saved models/Pytorch Model, pretty good, MSE 4.95.pth (torch, 185446 bytes, 6 tensors)

lstm.weight_ih_l0 f4 [400, 9]
000000 2a 40 3e 3d 14 d3 09 be f7 33 53 be 08 2e 8b bd
       0.04644791 -0.13459426 -0.20625292 -0.06795889
000010 80 bc a0 be 2f 01 e1 bd e8 85 2e be 8a 5c 5f 3d
       -0.31393814 -0.10986554 -0.17043269 0.05453161
000020 c9 11 ff bd 2d c0 0f be 50 4d 99 bd 52 8e c1 3d
       -0.12454564 -0.14038153 -0.07485449 0.094509736
000030 dc c9 1f be 41 35 a1 3d 35 99 6f 3d 74 6b ec bd
       -0.15604347 0.078714855 0.05849572 -0.115439326
000040 a5 e4 f3 bb 3d 26 83 bd 8f 27 fe bd bf 7c 3d 3e
       -0.007443028 -0.06403778 -0.12409889 0.18504618
000050 0b 51 81 bd ae c6 17 be af f5 57 be 2b 0d ec 3d
       -0.06314286 -0.14821884 -0.21089815 0.11525949
000060 fc 94 6e bd a4 cd b0 be b3 fd a8 bd 27 54 d7 3c
       -0.05824755 -0.3453189 -0.08251514 0.026285244
000070 b1 95 f4 bd ad f8 25 bc cf 46 d6 bd ef a1 96 bd
       -0.11942614 -0.01013009 -0.104627244 -0.07355105
000080 1f c9 5a be 82 e9 2e be ef bc a0 be 23 11 89 be
       -0.21365784 -0.17081264 -0.31394145 -0.26770887
000090 03 73 5e bd cc 5e 2f bc ca bb ff bd 50 b9 2f 3e
       -0.054308902 -0.010703754 -0.1248699 0.17160535
0000a0 5c d4 10 3e 23 b1 84 3e a1 79 ff 3d ef 1b 8c bd
       0.14143509 0.25916395 0.12474371 -0.068412654
0000b0 a0 6b a8 3c cf 38 d9 3d fe 6a e4 3d 4b a7 ee bc
       0.020559132 0.106065385 0.1115322 -0.029132506
0000c0 bc fa 84 3e b2 d8 40 bd fe 4e 8d 3d ec b6 ae 3d
       0.25972545 -0.047081657 0.06899832 0.08530983
0000d0 b1 ea 6c be 40 a2 eb bd 5f d6 2f bd 50 b8 c5 bd
       -0.23136403 -0.11505556 -0.04292905 -0.096542954
0000e0 2f f9 a9 be 2c 88 85 3d bb cc 8c bd 56 f2 b9 3b
       -0.33197924 0.06520113 -0.06874987 0.0056746406
0000f0 40 b9 1a bd 97 95 f0 bc 1f 51 0b bd 36 d7 ba 3c
       -0.037774324 -0.029368205 -0.03401291 0.022807699
000100 b4 ee e2 3d 0c ab 98 be a6 86 a6 3d 5a 48 10 be
       0.11080685 -0.29817998 0.08131151 -0.140901
000110 1d f4 dd 3d 63 07 e3 3c 0e 5c 57 bd 3d 2e 48 3d
       0.108375765 0.027713483 -0.052578025 0.04887222
000120 79 26 7f bc 28 94 04 bc 2a 5e 6f bd 53 a7 31 3e
       -0.015573137 -0.008091964 -0.05843941 0.17348985
000130 16 4e 8b bc e4 8b 5c be c0 20 5c 3d 9a 09 ec 3d
       -0.017005008 -0.21537739 0.05374217 0.11525269
000140 6d 22 2a 3e e0 e8 89 be 7b b4 54 be c1 f9 eb 3d
       0.16614695 -0.26935482 -0.20771973 0.11522246
000150 89 42 dc 3d b3 ef 1d 3e 0e d1 b5 bd ad 2e bd 3d
       0.10754878 0.15423469 -0.08877765 0.09237418
000160 11 37 62 3e 37 18 12 bd 71 6c 36 be 7f 98 a3 bd
       0.22091319 -0.035667624 -0.17814805 -0.07988071
000170 20 fe 84 bd 49 7f 57 3d b8 7a 5f 3e 5c fe 84 3d
       -0.06493783 0.052611623 0.21824157 0.06493828
000180 8c 6b 1e bd 9a ff 42 be f9 b8 72 bc a4 b3 37 3d
       -0.038676783 -0.19042817 -0.014814609 0.044849053
000190 ef 08 f2 bd ca 71 d4 bd bd 10 13 be 93 da ca bd
       -0.1181811 -0.10373266 -0.14361854 -0.09904971
0001a0 d6 e2 28 bd 46 04 80 3c e7 40 1c 3e c8 81 91 3d
       -0.041231953 0.015627038 0.15259133 0.07104832
0001b0 a0 5a 9e be 9e ce 81 bd 5e fa 15 3d 80 e1 12 3e
       -0.30928516 -0.06338237 0.036615722 0.14343834
0001c0 87 84 aa bc ea 1d 43 3e 42 ea 9b bd 18 fe 6d 3d
       -0.020815147 0.1905438 -0.076130405 0.05810365
0001d0 96 50 2c 3d c6 18 0a 3c 72 2c a2 bd f2 7d ea bd
       0.04206904 0.008428758 -0.079186335 -0.114498034
0001e0 ea 64 8a bc a9 d6 40 3c 56 ce 30 3e 5e 4c 70 3e
       -0.016893823 0.011769929 0.17266211 0.23466632
0001f0 70 ed 39 be bd b7 e0 3d ef fe 58 3d 63 1f cf 3c
       -0.18156981 0.10972545 0.0529775 0.025283521
000200 b2 a2 71 3e 98 1d 43 be bf 85 3b 3c b4 f0 0c bd
       0.2359722 -0.19054258 0.011445462 -0.03440924
000210 b6 40 76 3d d1 3d 08 3e bc de f8 bd 0e d8 26 3e
       0.060120307 0.13304831 -0.12151858 0.16293356
000220 c0 91 cd 3d bd bb db 3c 1a ff cb bd 1e b2 39 3b
       0.10037565 0.026822919 -0.09960766 0.0028334926
000230 4e 54 0e be 63 0b 01 3e 3d bc cd bc f2 d4 39 3d
       -0.13899347 0.12602 -0.025114173 0.045369096
000240 68 b4 e4 bd c3 b3 ee bb 1f 5f 0c be 33 af 5b bd
       -0.11167222 -0.007284613 -0.13708161 -0.05363388
000250 ec b8 7f bd 99 53 68 3d 4d 85 fa 3c 6d c6 c6 3c
       -0.062432215 0.05672035 0.03058114 0.024264539
000260 b3 c3 27 3e 22 b1 c9 3d d6 72 a1 bc 4a 34 21 3e
       0.16383247 0.098482385 -0.019708078 0.15742603
000270 df 71 94 3d 6a 03 3e be a7 63 d2 3e 9c 68 c8 bd
       0.07248282 -0.1855599 0.41091654 -0.09785578
000280 6a 77 03 bd 81 a4 c7 bd b3 1b 2c bd 34 04 91 3d
       -0.032096304 -0.097481735 -0.042018604 0.0708088
000290 5e de e1 bd ca c3 d7 bd 99 0c 7a bd 7e eb 49 be
       -0.11028741 -0.10535391 -0.06104717 -0.1971874
0002a0 57 00 88 3d 72 c3 e5 3d e0 ad 81 bd 80 1f 98 3c
       0.0664069 0.11218919 -0.06331992 0.018569708
0002b0 99 b4 74 be 6b fd 49 3c c7 2d 0d bc 43 d1 5d bd
       -0.23897018 0.012328486 -0.008616871 -0.054154646
0002c0 1b 68 78 be b4 1f e3 3d c9 b8 6f bd ab 39 86 3d
       -0.24258463 0.11090031 -0.058525834 0.06553968
0002d0 d5 6a 86 bc 27 53 ac be a1 b6 b6 3e 62 ad 14 be
       -0.016408363 -0.3365719 0.3568621 -0.14519265
0002e0 9a 75 3a bb b8 e4 73 3e d7 e4 e2 bc e2 dd 47 bd
       -0.0028451444 0.23817718 -0.02769701 -0.04879559
0002f0 3b 1a 5b be 0c d7 f6 3c 8d c0 23 be ad 20 0b 3e
       -0.21396725 0.03013184 -0.15991421 0.13586684
000300 5a 94 be bc a4 8d 32 bd e9 de bd bd e1 a9 1c be
       -0.023264099 -0.04359211 -0.09271032 -0.15299179
000310 92 f6 e4 bc 40 cf 82 bd 8b 8c 07 be 9c b4 13 3c
       -0.027949605 -0.06387186 -0.13237207 0.009015229
000320 ab f5 90 bd 4a e4 25 3e 64 01 c9 bc fa b3 9b 3e
       -0.070781074 0.16200367 -0.024536796 0.3041075
000330 69 ab f1 bc 86 8e 3d 3e 89 0d c9 3d 5a 6c fc bc
       -0.02950068 0.185114 0.09817035 -0.030813385
000340 06 e1 f5 3c de a0 ff 3d c1 67 7c 3e 7e 0d 2e 3d
       0.030014526 0.12481855 0.24648954 0.042493336
000350 ec 7e c5 be bf 23 0d be dd 57 22 bd 69 e1 0c be
       -0.38573396 -0.13783167 -0.039634574 -0.13757862
000360 71 ab c9 be 9e 55 96 bd e9 32 14 bd 63 7f ff 3c
       -0.39388612 -0.07340549 -0.036181364 0.031188672
000370 e3 3f 16 be ec 75 92 3e 0b 16 89 bd 49 1d 9d bd
       -0.14672808 0.28605592 -0.066936575 -0.07671601
000380 a8 ed b3 bd d6 32 56 be e7 59 c8 3d 5c ac 3c bd
       -0.08785564 -0.2091783 0.097827725 -0.046062812
000390 c7 13 9c bd 46 96 8d 3d 5a 1f 1e 3e e5 97 73 3d
       -0.0762096 0.06913428 0.15441647 0.05947103
0003a0 08 a5 84 3e 76 12 73 3d 57 23 d1 3d 1a f1 2d be
       0.2590716 0.059343778 0.10211819 -0.16986504
0003b0 2c a4 21 bc 8c a7 31 be cf 8e 2b be b5 c3 b3 3d
       -0.009865802 -0.1734907 -0.16753696 0.087775625
0003c0 3c 42 59 bd f4 ea d1 3e ac 54 01 3e 8e ee 54 be
       -0.05304168 0.40999568 0.12629956 -0.20794126
0003d0 3d e1 ba bc f3 d6 f7 3d 22 dc b1 3c af 19 45 3d
       -0.02281248 0.12101545 0.021711413 0.048120197
0003e0 3c 8d a3 bd 8e b4 7f 3e 27 12 86 3e bd c2 d9 3d
       -0.07985923 0.2497122 0.26185724 0.106328465
0003f0 07 40 23 be 3e 31 03 3c d3 b5 f4 3b 62 32 68 be
       -0.15942393 0.008007346 0.007467964 -0.2267547

lstm.weight_hh_l0 f4 [400, 100]
000000 de 32 a6 bd d3 e2 25 be 97 f4 8e 3d 3f 6b 51 3e
       -0.08115171 -0.16199808 0.069802456 0.20451067
000010 05 e8 b0 be 33 c1 c0 3d e4 65 2c be 8b 91 17 be
       -0.34552017 0.0941185 -0.16835743 -0.14801614
000020 6f cf ab be 53 da bf bd 3d 05 70 3e de 1d 34 3d
       -0.33556697 -0.09367814 0.23439498 0.043973796
000030 16 6a bf bd 54 02 86 3e 41 ca 0c be 7a 8c 28 be
       -0.09346406 0.2617365 -0.13749029 -0.16459838
000040 24 d1 e9 be 57 ba 81 bd 26 f1 9f 3e 81 e5 24 3d
       -0.45667374 -0.0633437 0.3123867 0.040257934
000050 94 17 d6 3e 28 5d 7f 3d 91 a5 9c 3d ba 82 d7 bd
       0.41814864 0.0623447 0.07648767 -0.10522981
000060 ce 41 19 be a8 3a 1e bd bd f2 e4 be 3b 7b 84 3d
       -0.14966509 -0.038630158 -0.44716445 0.06468817
000070 d6 d1 f2 bd 5b 21 33 3f 67 9a ac be 1c c1 f5 be
       -0.11856429 0.6997277 -0.3371155 -0.47998893
000080 f9 f8 97 be 49 0c 0e 3e 84 c9 05 bd 36 78 f6 3c
       -0.2968214 0.13871874 -0.032662883 0.030086618
000090 d6 d2 1d bd 77 af 70 bd 56 ea a8 3e 61 da 88 bd
       -0.038531147 -0.058761086 0.32991284 -0.066822775
0000a0 96 09 83 be 48 e8 05 3f 1f b8 91 3c ff 94 71 be
       -0.2559325 0.5230756 0.017787991 -0.23591994
0000b0 93 af 1b bf 3c f1 b2 3b 2e 73 ae bd a2 10 3c be
       -0.6081478 0.0054608863 -0.085180625 -0.1836572
0000c0 6f 67 8c 3c 79 c7 8c 3e 7d d9 c9 bd 41 e9 84 bd
       0.017139165 0.27495936 -0.09855936 -0.06489802
0000d0 54 c2 71 3e 4f ca 01 3f 33 f0 7e be fa 54 85 3e
       0.23609287 0.50699323 -0.24896316 0.26041394
0000e0 d6 9d 64 3e 36 0e 9a 3d 47 d7 0a 3d d4 73 ce be
       0.22325835 0.07522242 0.03389671 -0.40322745
0000f0 26 b8 05 be 40 90 b4 bd 25 3a b6 be 5a ab 85 bd
       -0.13058528 -0.08816576 -0.35591236 -0.06526823
000100 7b 72 49 be 72 f5 2c 3e b5 eb 08 be b3 f7 f4 bd
       -0.19672577 0.16890505 -0.13371165 -0.119613074
000110 f1 5a 3f 3f bc 5f 66 3e 1c ae a0 be bd ec c5 3e
       0.7474814 0.22497457 -0.31382835 0.3865718
000120 81 f6 21 bf 44 a0 7e 3e 9d f4 10 bd 51 5a ea bc
       -0.6326676 0.24865824 -0.03538953 -0.02860752
000130 94 ef fd 3a d5 c1 39 be 39 06 59 bd fd 2e 74 bd
       0.0019373768 -0.18140347 -0.05298445 -0.059615124
000140 da aa 84 3d 66 f4 72 be 13 7f 5c be 02 71 35 3e
       0.064779 -0.23726043 -0.2153285 0.1771889
000150 a8 d3 c8 be b8 60 3f be 0e 73 6d be 6f 6e 23 3e
       -0.3922398 -0.18689239 -0.23188421 0.15960096
000160 47 7c bb be 42 f3 e8 3b 79 75 e9 3d ae ea 06 be
       -0.36618254 0.0071090767 0.11399359 -0.1317546
000170 0b ae 79 be 06 9c 16 be 44 1b b9 3d c3 ca c1 bc
       -0.24382798 -0.14707956 0.09038404 -0.023656255
000180 9e 72 37 3e f3 8a 90 3b 23 78 10 bd 8c 62 42 3b
       0.17914817 0.0044110953 -0.03527082 0.002966079
000190 3e ab d6 3c db 03 c4 bd 72 61 a4 3d 50 b7 71 3d
       0.026204702 -0.09571048 0.08026399 0.05901271
0001a0 d8 6f 14 3d 65 1a f3 bd 47 48 52 be b5 a9 1f 3e
       0.036239475 -0.11870269 -0.20535384 0.15592082
0001b0 1f 91 3b be 52 49 18 3e f1 7f 81 3d 81 d0 d2 3c
       -0.18317078 0.1487172 0.06323231 0.025734188
0001c0 75 4f 51 3e a5 f1 50 bd 79 4a eb 3c 99 0f 2d 3e
       0.20440467 -0.0510117 0.028722035 0.16900481
0001d0 12 8e f7 bd 90 22 11 be 3e aa 11 3b a4 64 d1 bd
       -0.12087645 -0.14173341 0.0022226716 -0.10224274
0001e0 ca be 25 be c1 20 60 3c 99 5d 94 3d 60 3c 2a 3d
       -0.16186062 0.013679684 0.07244415 0.041561484
0001f0 43 17 93 3d bf c8 b5 3e e2 d6 d1 bc 01 ee 38 bd
       0.07182171 0.3550472 -0.02561516 -0.045148853
000200 ae a6 17 be ab 48 7b bd e4 5e da bd c5 21 16 3e
       -0.14809677 -0.0613486 -0.1066263 0.1466132
000210 ac 4b 9f 3d 78 9f e3 3d 90 53 19 bd d4 90 6f be
       0.07778105 0.111144006 -0.037433207 -0.23395091
000220 e6 0d 0f be 54 13 2b bd b3 7c 1b 3e a2 c9 1e 3d
       -0.13970146 -0.04176648 0.15184288 0.03876651
000230 3b 38 49 bc 76 9c 11 38 5c fe 9b bd 81 96 68 bd
       -0.012281473 3.471641e-05 -0.076168746 -0.056784157
000240 47 4c 37 be d4 b4 c9 3d 88 e3 e1 b9 8c ed 29 be
       -0.17900191 0.09848943 -0.00043084868 -0.16594523
000250 3a 28 23 be 9d a1 32 be e1 f2 49 be 3b d0 26 be
       -0.15933314 -0.17444463 -0.19721557 -0.16290371
000260 44 d2 80 be c1 28 00 3e 07 44 79 3e 39 36 72 3e
       -0.2516042 0.12515546 0.24342357 0.23653497
000270 03 4b 03 3e 03 9f ae ba 66 14 fd bc 75 3d c3 3d
       0.12821583 -0.0013322536 -0.030893516 0.095332064
000280 eb 6e c1 bd 68 aa 14 be 11 90 82 3d 01 bb dc bd
       -0.09444984 -0.1451813 0.06375135 -0.10777856
000290 d7 a5 89 3d dd 82 83 bc 3d 56 39 bc f4 0d 18 be
       0.067210846 -0.016053611 -0.011312065 -0.14849073
0002a0 1c 26 25 3d 46 6d 15 be 59 83 3a 3d 8a 65 fb 3c
       0.040319547 -0.14592466 0.04553542 0.030688066
0002b0 88 fa 22 3e b2 df 1b 3e be cc 06 be 64 b3 5c be
       0.15915883 0.15222052 -0.1316404 -0.21552807
0002c0 b6 4a ac bd 71 5a 3e bd 2d 19 32 bc 53 65 1f 3e
       -0.084126875 -0.04647297 -0.01087026 0.15565996
0002d0 a0 54 79 bc 43 59 eb 3d 27 19 78 3d ee 38 00 be
       -0.01521793 0.11491635 0.060570862 -0.12521717
0002e0 ab 8f 18 bd 23 da ed bd 8d 19 dc 3d 1f 22 d3 3b
       -0.037246387 -0.11613872 0.10747061 0.0064432765
0002f0 55 b3 99 3d 2e 29 e6 bc 9c 4c ab bc 8e 24 97 3d
       0.07504908 -0.028095808 -0.020910554 0.07380019
000300 4d 75 0d be 92 6f 85 3e 5c b3 5a be af 6c 33 be
       -0.13814278 0.26061684 -0.21357483 -0.17521928
000310 ad 8f e5 bd 8e b1 f2 3c 5f 06 05 bc bf cc 86 be
       -0.112090446 0.02962568 -0.008119195 -0.26328084
000320 9a 20 77 3e dc 2e 52 bd ea 56 91 3c 51 b0 f5 3d
       0.2413353 -0.05131422 0.01774164 0.1199652
000330 36 e9 2a be a7 96 cb bc 83 cf 44 3c f0 47 6c 3e
       -0.16690525 -0.02485211 0.012012365 0.23074317
000340 b4 8e 69 3c 29 22 bf bd 31 03 84 bc 99 36 d5 bd
       0.0142552145 -0.093326874 -0.016114803 -0.10410804
000350 43 4d 7c 3e c2 1c 8e bd ca 45 7e be 7b fd b3 3c
       0.24638848 -0.06939079 -0.2483131 0.021971455
000360 c4 5a dc bd 25 02 82 bc a6 ce 9f be ca df 81 bd
       -0.107595 -0.015870163 -0.31212348 -0.063415125
000370 82 a5 c9 bd cf 5e c3 bd 94 42 d4 bd f0 49 a3 3d
       -0.09846021 -0.09539568 -0.10364261 0.07973087
000380 4b 71 15 be 8b ba 08 be 72 39 02 3d 41 5c cc bc
       -0.14593999 -0.1335241 0.031793065 -0.024946334
000390 25 78 ee 3d 54 a0 32 3d 88 84 4a be c5 d6 65 3d
       0.116440095 0.043609932 -0.19777119 0.056113023
0003a0 67 d6 0a 3e 7e 76 eb bc f8 6d ec bc 12 4b 19 be
       0.1355835 -0.028743025 -0.028861031 -0.14970043
0003b0 15 ba 91 3d cc 9e 6a 3a 2d 6d 06 3e 0a 5b f0 3c
       0.071155705 0.0008950054 0.13127585 0.029340286
0003c0 aa 2d 87 bd f1 d4 2b 3e 63 b6 99 bd f1 06 59 be
       -0.066005066 0.1678045 -0.07505491 -0.21194054
0003d0 0a 34 2f bc 24 25 01 3d de a2 55 bc 17 34 e2 3d
       -0.010693559 0.03152956 -0.013039319 0.110450916
0003e0 20 52 f2 bb 43 ad 72 be 79 13 40 bc a8 13 21 3d
       -0.007395044 -0.23698907 -0.011723393 0.039325386
0003f0 1e 6f f6 3b 98 e7 a5 3e bf 8b 30 3d 1b 3e c4 3d
       0.0075205704 0.32403255 0.043102022 0.09582158

lstm.bias_ih_l0 f4 [400]
000000 2c f4 0c 3d 2e 90 67 3e 44 18 d5 3d bd a7 e2 3d
       0.034412548 0.22613594 0.10405019 0.1106715
000010 0f f9 a7 3d f9 80 e7 b9 5f cf 99 bd 87 c1 3c 3e
       0.08201801 -0.00044155846 -0.07510256 0.184332
000020 7b 68 3f 3e 90 dd a9 3b c9 0e c7 bc b7 ff 27 3c
       0.186922 0.005183883 -0.024299042 0.010253838
000030 f8 6b 56 bd a4 5c 75 bd 2d 85 1f 3e 5f fa fb 3d
       -0.05234906 -0.059902802 0.15578146 0.12303614
000040 c3 da 5f 3c 6f ad 4a 3e 6f 8b 14 3e b0 ee 3f 3e
       0.013662997 0.19792722 0.14506315 0.18743396
000050 c7 5f d2 3d 79 69 90 3e 3c d7 d7 3d 3b 88 57 3e
       0.10272174 0.2820547 0.105390996 0.21048062
000060 b9 62 45 3e f9 8e 69 3e a7 ae 0c 3d 40 c2 59 3e
       0.19275941 0.22808446 0.03434625 0.21265507
000070 9b 7d 37 3d b6 9a 83 3e f4 0e be 3c 14 69 60 3d
       0.04479752 0.25703973 0.02320049 0.05478771
000080 75 cc ae 3d de 4e 7c 3e 48 b1 20 3e a0 f1 3d 3d
       0.08535091 0.2463946 0.15692627 0.04637301
000090 36 ca 8b 3d f0 8d 56 3e 08 fd ac 3b b8 f4 59 3e
       0.06825678 0.20952582 0.005279187 0.21284759
0000a0 d3 fd 0d bd bc c8 3f bd cc be 03 3e 3d c5 35 3e
       -0.034665894 -0.046822295 0.12865752 0.17751022
0000b0 1e b0 fa 3d 46 b6 1f 3e d2 67 58 3e f5 89 8e 3d
       0.12240623 0.15596876 0.21133354 0.06959907
0000c0 8d 9b ca 3d d7 08 49 3e a4 bd 00 3e db 37 1e 3e
       0.0989295 0.19632278 0.12572342 0.15450995
0000d0 c1 8b 56 3e 6e 9b 20 3e ab ca 83 3e df 26 8a 3e
       0.2095175 0.15684292 0.2574056 0.2698278
0000e0 fa 92 b4 3d 28 a0 fc 3d ce af 3a 3d 5a 8a 0b 3c
       0.08817096 0.12335235 0.045577817 0.008516872
0000f0 92 36 dd 3c 39 ad 3e 3e e1 ac 02 3e d3 ef 6d 3e
       0.02700356 0.18620767 0.1276126 0.23236017
000100 5f 93 96 3b 1c 13 12 3d 3e d4 85 bd 1e d4 87 3e
       0.0045952047 0.035662755 -0.065346226 0.2652902
000110 3d e8 03 3e 77 5c 59 3d 10 e1 4f 3e 9a 80 43 3e
       0.1288156 0.053066697 0.20300698 0.19092026
000120 02 b6 b8 3d ac 90 64 3d 2c 64 99 3e fd e1 6a 3d
       0.0901909 0.055802032 0.29959238 0.057344425
000130 cb 77 81 3d 7f ae 60 3e b8 13 08 3e 29 a6 69 3d
       0.06321677 0.21941565 0.13288772 0.05704323
000140 7a ad 61 3d f0 21 6f 3e 5c c6 d2 bc 07 84 b6 3d
       0.05509708 0.2335279 -0.02572935 0.08911901
000150 12 46 fd bb 38 e4 64 3d a4 87 1c 3e 51 6b 8c 3d
       -0.0077293003 0.05588171 0.15286118 0.068564065
000160 61 e3 78 3d 10 ed c7 3d a4 db e7 3d 92 1b c6 3d
       0.06076372 0.09762013 0.1132119 0.09673227
000170 44 91 d9 3d 53 9f 1b 3d fb 4d d5 3c 66 59 bb 3d
       0.1062341 0.03799374 0.02603816 0.09147911
000180 d6 64 11 3e 58 e3 38 3e 08 21 e0 3d 78 eb 01 bd
       0.14198622 0.18055475 0.109438 -0.0317187
000190 d7 c7 d8 3d 46 2b 4d 3d 21 1c ea 3d d9 73 dc 3d
       0.105849914 0.050090097 0.114311464 0.10764284
0001a0 57 1d 65 bd 96 31 17 3e bf 9e 89 3c 41 a8 55 3e
       -0.055936184 0.1476501 0.016799329 0.20864965
0001b0 82 97 bd 3d a9 c7 54 3c da 7f ca 3d 09 e7 ab 3d
       0.092574134 0.012987056 0.09887667 0.08393676
0001c0 d9 ab f8 3b ed 2e c2 bd 45 d1 89 3d c6 1e 81 3d
       0.007588845 -0.09481607 0.06729368 0.06304698
0001d0 98 b3 01 3e 3e 45 8d 3d f1 90 79 3e b2 b5 2a 3e
       0.12666166 0.068979725 0.24371697 0.16670874
0001e0 ce a7 11 3d 0d 97 72 3e 99 ca a7 3d 9d a0 1a 3e
       0.03556042 0.23690434 0.08192939 0.15100332
0001f0 bc fe e4 3d 07 73 b2 3d f6 a6 11 3e 4e 10 29 3e
       0.11181399 0.08713346 0.14223847 0.16510126
000200 58 64 3c 3e 99 65 0f 3e 55 20 ae bd 27 b3 d8 3d
       0.18397653 0.140036 -0.085022606 0.105810456
000210 f0 73 ab 3d f8 b7 e8 3d c6 91 9a 3d 00 8b 2e 3d
       0.08371723 0.11363214 0.07547335 0.04261303
000220 36 86 1a 3e 89 07 7e 3c e2 15 24 3d 50 b6 39 bd
       0.1509026 0.015504726 0.04005993 -0.045339882
000230 34 b7 8d 3b 4c f1 ea bc 12 c1 f6 3d 5a a7 23 3e
       0.004324818 -0.028679512 0.12048544 0.15981808
000240 1d e2 0c 3e 35 92 b7 3d b3 8d 20 3d 5b ec 03 bc
       0.1375813 0.08963434 0.039197635 -0.008051957
000250 0b 45 21 be 84 80 86 3d d0 56 ef 3c 4b ec f5 3c
       -0.15748994 0.06567481 0.0292162 0.0300199
000260 bd f7 0f 3e 45 23 24 3e a9 58 03 3e a1 07 54 3e
       0.14059348 0.1602908 0.1282679 0.20706035
000270 83 dc 19 3e 0a 0f 34 3c fa 15 08 bd e6 f6 f5 3c
       0.15025525 0.010989914 -0.033224083 0.030024957
000280 62 70 b7 3d 2a 6e e4 bc c1 8d 12 3e 7f 66 11 3e
       0.08956982 -0.027884562 0.14311887 0.14199255
000290 42 d8 f7 bd 16 73 74 3e 3c 92 9b 3d 2c e7 54 3e
       -0.12101795 0.23872027 0.07596251 0.2079131
0002a0 d5 54 b1 3d fc cd 36 3e 6d ac 7d 3e a1 c3 00 3e
       0.086587586 0.17852014 0.24772806 0.12574627
0002b0 82 7e 0a bc cc b5 34 3d ff e0 d1 3d e2 f7 2c 3e
       -0.008453013 0.044118688 0.10247993 0.16891435
0002c0 62 82 3b 3e 53 be 41 3e 68 a4 15 bb 33 15 19 bd
       0.18311456 0.18920259 -0.002283359 -0.037373733
0002d0 9b cc c9 3d c2 20 59 3d 88 d6 1b 3c 26 2b 02 3d
       0.098534785 0.053009756 0.009511597 0.03177943
0002e0 dd c9 1f 3e 26 ae 1d 3e c1 0b 3e 3e dd 6c 0e 3e
       0.15604348 0.15398464 0.18559171 0.13908716
0002f0 82 1a 25 3d 05 17 06 3e ce 50 da 3d 63 88 e2 3b
       0.040308483 0.13094719 0.106599435 0.006913231
000300 99 27 84 3c c3 ff 11 3e a8 f2 a6 3d fb f4 b6 3d
       0.016132163 0.14257722 0.08151752 0.08933445
000310 70 c4 06 3e 03 e1 35 3e 64 64 88 3d ea 7d 42 bc
       0.13160872 0.17761616 0.06659773 -0.011870841
000320 cb a4 9e 3d 72 c5 a6 bd b4 54 15 3d 96 e2 8a 3c
       0.077462755 -0.081431285 0.036457732 0.016953748
000330 10 fb 98 bd 3d 16 56 bc 5c 86 96 3d bd 1b 69 bc
       -0.07469761 -0.013066825 0.07349846 -0.014227805
000340 bc f6 3c bd ab d4 f6 3b 06 f7 65 bd e8 60 64 bd
       -0.04613374 0.007532676 -0.056143783 -0.05575648
000350 c4 96 b4 3d c8 f2 95 3c 2d 53 4c 3d a6 b1 9b bc
       0.08817819 0.018304244 0.04988401 -0.019005608
000360 af 87 c4 bd dc cb 98 bc 55 d7 6d bd d2 8b 8c bd
       -0.09596192 -0.018651895 -0.058066685 -0.06862606
000370 ba a9 e9 3d ed 8b 99 bd 4f b0 f7 bb 66 b0 80 3d
       0.11409326 -0.07497392 -0.0075588594 0.06283645
000380 80 0e 19 3c 6d bc 50 bd c2 ec cc bc 89 b1 39 3d
       0.009341836 -0.050960947 -0.025015239 0.045335326
000390 87 b2 22 bd 89 35 e5 bd 13 77 c4 3c 9c 25 06 3d
       -0.03972104 -0.11191852 0.02398256 0.03275071
0003a0 79 06 8a 3c 3b a5 91 3d 84 a7 c6 bb 48 9d cf bd
       0.01684879 0.07111593 -0.00606245 -0.10137421
0003b0 aa 59 66 3c 8f ca 1b 3c 6d ea a1 3b 59 d5 96 bd
       0.0140594635 0.009508743 0.004941276 -0.073649116
0003c0 7f 53 44 3d 83 c2 13 3c 01 93 86 bd 5f 2e 7a bc
       0.04793119 0.009018543 -0.065710075 -0.015269845
0003d0 c2 56 53 bd ae 86 98 3d 99 ce dd bd 03 b9 42 3d
       -0.05159641 0.07447563 -0.10830421 0.047539722
0003e0 88 95 0f 3d 37 38 dc bc 72 66 44 bd 02 8e f8 3d
       0.035054713 -0.026882274 -0.047949262 0.12136461
0003f0 ad fc 11 bc cb 98 ba 3d 88 4d 3f 3d 87 5d ae 3d
       -0.00891034 0.09111174 0.0467048 0.08513933

lstm.bias_hh_l0 f4 [400]
000000 a1 ee 24 3e 9c de 51 3e ee a7 34 3e ec e0 ad 3d
       0.16106655 0.20495075 0.17642185 0.08490166
000010 81 21 98 3c 88 e9 1c 3c 5b 4e e6 bd 6d 51 34 3e
       0.018570663 0.009577163 -0.11245414 0.17609186
000020 28 da 33 3e bc c1 02 3d 08 14 32 bd 8c 59 8b 3d
       0.17563689 0.03192304 -0.043476135 0.06804189
000030 52 2a 72 bd a9 8c 2b bd e6 29 39 3d 75 d4 44 3d
       -0.05912239 -0.04188219 0.045205973 0.048054177
000040 1f 2e ef 3d 3b a5 4f 3e c3 4c 0a 3e be 8a 0c 3e
       0.11678719 0.20277874 0.13505845 0.13724801
000050 c0 01 93 3d 88 ed 64 3e f6 3e dc 3d 85 4b 3d 3e
       0.07178068 0.22356236 0.10754196 0.1848584
000060 31 d3 3e 3e bb 68 41 3e aa 3a e8 3d 18 0b 59 3e
       0.1863525 0.18887608 0.11339314 0.21195638
000070 2e 86 14 3e 95 20 78 3e 9b f4 2e 3c d5 23 9f 3c
       0.1450431 0.24231179 0.010678436 0.019426266
000080 65 b9 ed 3d 82 e1 19 3e 05 21 55 3e 25 8b e2 3d
       0.11607627 0.1502743 0.20813377 0.11061696
000090 43 47 41 3e 88 27 e1 3d 58 e3 01 3d 0e f6 3d 3e
       0.1887484 0.10993868 0.031710953 0.18550894
0000a0 45 f8 b1 bd f1 5b 06 3d f0 87 0e 3e 88 50 66 3e
       -0.08689932 0.032802526 0.13919044 0.22491658
0000b0 da 76 fb 3d 55 42 fc 3d 8f 17 08 3e 94 f1 0d 3d
       0.122785285 0.12317339 0.13290237 0.034654215
0000c0 e9 53 19 bd a0 2f 0d 3e 1a 3f 86 3d 3b 0d 3a 3e
       -0.03743354 0.13787699 0.065550044 0.1816911
0000d0 58 e9 96 3e 2e 11 44 3e 12 50 81 3e fe b0 81 3e
       0.29474902 0.19147179 0.252564 0.25330347
0000e0 52 43 21 3e 9d 25 a0 3d 1b 07 30 3d c8 a1 69 3d
       0.15748337 0.07819674 0.042975526 0.057039052
0000f0 d2 de dd 3d b2 64 2b 3e e8 6f e6 3c 1c 62 84 3e
       0.10833515 0.16737631 0.028129533 0.25856102
000100 ed c5 da 3c 39 26 d2 3d 78 ba 95 bd 7f 20 b4 3e
       0.026705706 0.10261197 -0.07310957 0.35181043
000110 8c e1 13 3e 9d 64 ac 3d d9 26 5e 3e 68 e3 b7 3d
       0.14441508 0.08417628 0.21694507 0.08978921
000120 f6 8c a0 3d da c6 91 3d 15 35 99 3e 9b da d3 3d
       0.07839386 0.07118006 0.2992331 0.1034443
000130 c6 69 0a 3e 19 aa 92 3e c4 3c 24 3e bb 37 5e 3d
       0.13516912 0.286454 0.16038805 0.054252367
000140 60 3a 90 3d 80 6d 88 3e 6b 5e 6e 3c 72 74 22 3e
       0.07042384 0.26646042 0.014548878 0.15864733
000150 c6 74 43 3d 7c 41 d4 3d 0a d0 fc 3d 2d 69 81 3d
       0.047718786 0.10364053 0.12344368 0.06318889
000160 3d d7 c1 3b 73 80 8c 3d 25 05 22 3e cc f7 17 3e
       0.005915551 0.06860437 0.15822275 0.14840621
000170 8d ba 0b 3e 26 80 05 3b e7 d8 1d 3e 84 b7 64 3d
       0.13645382 0.0020370572 0.15414773 0.055839077
000180 5d cd 32 3e 36 3a 32 3e 2a 97 3a 3e 7d c3 e9 bb
       0.17461152 0.17405018 0.18221727 -0.0071338997
000190 b3 70 13 3c e8 4b bc 3c 73 19 fd 3c 00 b0 be 3d
       0.008999038 0.022985414 0.030895924 0.09310913
0001a0 fa 02 1d 3d c8 b6 d0 3d ff 8a aa bd 3f d6 cf 3d
       0.038332917 0.10191113 -0.08327293 0.10148286
0001b0 ec 8f 3c 3e 3e fa b9 bb 1c 17 26 3e e8 05 7a 3d
       0.18414277 -0.005675583 0.16219753 0.06104079
0001c0 f7 f8 d6 bd 41 ae ca bd fb 8d 05 3d d3 e9 e4 3d
       -0.10496705 -0.098965175 0.032606106 0.11177411
0001d0 2d 37 71 3e ab f2 0c 3e 01 1a 8d 3e 3c a0 13 3e
       0.23556204 0.13764445 0.27558902 0.14416593
0001e0 da 3c 59 3c 24 a3 00 3e 11 c3 fa 3d 29 c5 80 3e
       0.013259137 0.12562233 0.12244237 0.2515042
0001f0 82 07 ee bb f0 d2 49 3e 37 65 0c 3e 4a 22 11 3e
       -0.0072640786 0.19709373 0.13710485 0.14173236
000200 2e fd 31 3e a7 8a 93 3e 5d 82 98 bd 55 2e fd 3d
       0.17381737 0.2881672 -0.0744674 0.12362353
000210 3a 08 46 3e e6 53 19 3e 87 fe af 3d 64 a3 2f 3e
       0.19339076 0.14973411 0.08593469 0.17152172
000220 c0 4d 54 3e 3c 63 80 3c 14 51 01 3e 2d bc 23 3b
       0.20732784 0.015672319 0.12628585 0.0024983988
000230 a8 cc 9b bd 4e 81 b3 3d c5 58 64 3d 93 a0 ea 3d
       -0.076073945 0.08764897 0.05574872 0.11456408
000240 64 d7 0a 3e 2b 60 08 3e 21 96 42 3d 57 2d f4 bb
       0.13558728 0.13317935 0.047506455 -0.007451694
000250 90 7f d8 bd 1a 50 d4 3d 5e 68 0e 3e ec 34 cf 3c
       -0.105712056 0.10366841 0.13907 0.02529379
000260 88 34 3e 3e f2 0b bc 3d 29 c6 ed 3c 03 61 3a 3e
       0.18574727 0.09181966 0.029025154 0.1820107
000270 6c b6 26 3e 4d 72 f5 bc 0f 09 f4 bc 59 e8 9e bd
       0.16280526 -0.02996173 -0.029789476 -0.077591605
000280 52 29 2f 3e ed 69 73 3b 31 95 3f 3e d9 3c 61 3e
       0.17105606 0.0037141994 0.18709256 0.21995868
000290 be 6d 02 be 82 e9 97 3e be 42 b4 bc bb d7 c0 3d
       -0.12737176 0.2967034 -0.022004481 0.09416147
0002a0 39 b2 ba 3d 2e c4 6e 3e 29 d8 85 3e 3a 42 d4 3d
       0.091160245 0.23317024 0.2614148 0.10364194
0002b0 9b 35 a7 3d dc 88 a1 3d 96 52 f9 3d bb 76 50 3d
       0.08164521 0.07887432 0.12173955 0.05089448
0002c0 ff 2f d5 3d 03 ff 4c 3e 40 0e 27 3d 29 9d 75 bd
       0.10409545 0.20019154 0.040785074 -0.059964333
0002d0 18 62 18 3e 7b 12 c0 3d b8 c8 ef bc e9 19 0b 3d
       0.1488117 0.09378525 -0.029270515 0.033960257
0002e0 9d 2c 9f 3d a1 60 91 3d de 6c 5b 3e 28 09 3b 3e
       0.07772181 0.070985086 0.21428248 0.18265212
0002f0 2a 27 4e bd d4 3f 11 3d 60 b2 c5 3d c7 d2 9f 3d
       -0.05033032 0.035461262 0.09653163 0.078038745
000300 75 84 83 3d 65 4b 81 3c 21 d9 cd 3d 16 23 cd 3d
       0.064217485 0.015783021 0.1005118 0.10016458
000310 5b bb 84 3d 16 dd ca 3d 5e 7b c3 3d bb 70 ab bd
       0.06481048 0.0990545 0.09545015 -0.08371111
000320 02 e1 e5 bc e9 34 0f 3c d9 7c 5c 3d e7 a9 a2 bb
       -0.028061394 0.008740642 0.05383 -0.0049641016
000330 21 43 7f bd 83 e2 a3 3d 9c 4b 09 3d 2b e5 1a 3d
       -0.06231988 0.08002188 0.033519372 0.037816208
000340 f7 72 70 3c 1b b2 6d 3d cc 89 aa bd 1a f2 17 bd
       0.014675847 0.058031183 -0.08327064 -0.03709612
000350 ac f0 cc bb 71 f2 14 bb 1e 2d 1e bd c9 b2 f1 3b
       -0.0062542763 -0.0022727514 -0.038617246 0.007376049
000360 22 ee 0b bd fc f1 bb 3d 3e 5c 0e bd 7e 39 8a bd
       -0.034162648 0.09177014 -0.034755938 -0.06749247
000370 25 7b ec 3d 0f ce d8 bd eb 9b 84 bd b4 50 8b bc
       0.115469255 -0.105861776 -0.064750515 -0.017006256
000380 4c 56 86 3d 64 b4 60 3d 73 7c 06 bd b7 06 74 3c
       0.065594286 0.054859534 -0.032833528 0.014894179
000390 42 b4 5a bd 58 a7 dd bd 02 87 b0 bd 79 51 27 3c
       -0.053394563 -0.10822934 -0.08619501 0.010212296
0003a0 0c 6f 50 3d 2a 89 98 3c b4 cd 07 3d af 62 ee 3c
       0.050887153 0.018620092 0.03315516 0.02909979
0003b0 2a 3f bb 3c 86 a6 10 bd b3 9d a0 bb a5 62 7d 3d
       0.022857267 -0.03531506 -0.0049016117 0.061861653
0003c0 87 1c 98 3d 1d 32 88 3c 82 85 fb bd 7d 7a 00 bd
       0.07427316 0.016625458 -0.12281324 -0.031366814
0003d0 a7 b7 9a 3d ca ae 07 bd e0 47 b4 bd 49 ba 18 bd
       0.0755456 -0.033125676 -0.088027716 -0.03728703
0003e0 09 37 db bd dd 0c f4 bc 74 54 98 bd 63 16 f0 3d
       -0.107038565 -0.02979129 -0.07437983 0.1172302
0003f0 d5 75 e2 3c 46 10 d0 3c 02 04 ba 3c e3 61 95 3d
       0.027644077 0.025398385 0.02270699 0.07294061

fc.weight f4 [13, 100]
000000 70 de 1a 3d f3 99 e3 ba 5f 3c 09 3d 32 c9 a8 3c
       0.03780979 -0.0017364606 0.03350484 0.02060375
000010 1d 50 44 be 8d f1 c7 bd e0 05 13 be e7 25 b4 bc
       -0.19171186 -0.09762869 -0.1435771 -0.02199073
000020 29 d3 77 bc e9 63 1e bd ca 9d 9b 3d ed d3 1a 3d
       -0.015126028 -0.0386695 0.07598455 0.037799764
000030 db f9 2d 3e 11 d6 a6 bd a6 40 0e be 8f 46 63 3d
       0.16989844 -0.08146299 -0.13891849 0.05548721
000040 71 56 f3 bd 70 b4 ff bc bd 17 0d 3d e8 79 28 3a
       -0.11881722 -0.031213969 0.034446467 0.0006426857
000050 36 c9 ae 3c 39 07 cc 3c 25 c3 ae 3d 1f 43 55 3d
       0.02133618 0.024905788 0.085333146 0.052065965
000060 d5 f3 67 bd 74 37 aa 3d 9c cb 6c bd 34 2e 0a bc
       -0.05662902 0.08311358 -0.057811365 -0.008433867
000070 a9 6e 81 bd 31 86 1a 3d e9 9b fc bc 37 1e 2d bd
       -0.06319935 0.03772563 -0.030836063 -0.042265143
000080 29 97 82 3c f2 c3 f2 3c 2a 47 51 bd ad 4d ef bc
       0.01594122 0.02963445 -0.051093258 -0.029211843
000090 7c 2d c2 bc 8b 70 13 3c 04 5d 29 3e 56 8f 64 3d
       -0.02370333 0.008999 0.16539389 0.05580076
0000a0 84 5a e0 3d d5 1d 4b 3d 7f 81 23 be d4 6f d3 bd
       0.109547645 0.049588997 -0.15967368 -0.10324064
0000b0 02 8e d4 3c c4 51 0b 3d df a2 21 3c 3b dd 12 bd
       0.02594662 0.034013525 0.009865492 -0.035855513
0000c0 36 f5 31 3c 66 dd 83 bd a3 b0 fc bc a7 be 83 bd
       0.0108616855 -0.06438713 -0.030845946 -0.064328484
0000d0 d3 fe b3 bb 8d f4 b2 3d 09 f4 bf 3c 00 e3 ab 3c
       -0.005493024 0.087380506 0.023431795 0.020982265
0000e0 2c 3a a3 3d d2 b1 2c 3c 2e 58 26 bd 64 63 ce bd
       0.0797008 0.010540443 -0.04061144 -0.10077551
0000f0 bb d5 09 be 4e ba 8e bd 56 28 31 bd 02 6b 78 bd
       -0.13460438 -0.069691285 -0.043251358 -0.060648926
000100 93 56 5e 3d b0 55 7a bc af 76 91 3c 97 d7 23 3c
       0.054281782 -0.015279219 0.017756788 0.010000131
000110 0e 34 85 3d b9 d1 df bc ca e8 85 bd f4 90 18 3e
       0.06504069 -0.027321683 -0.065385416 0.14899045
000120 d1 38 86 bd 76 b0 8a 3d 09 56 90 3d d8 3a f9 bc
       -0.065538056 0.067719385 0.0704766 -0.030423567
000130 02 9f 3a bd 2d 3f bd 3c d3 7f 52 bc 4c 76 47 3d
       -0.045561798 0.023101414 -0.0128478585 0.0486968
000140 34 64 5a bd cd fa 19 bd f8 e7 2e 3c db fa cc 3d
       -0.053318217 -0.037592698 0.010675423 0.100087844
000150 2d c3 e4 bd ef 94 dc bd 65 66 4d bd a9 71 43 bd
       -0.11170039 -0.10770594 -0.05014648 -0.047715817
000160 07 41 b7 bc 44 fc 85 bc ed 13 bc 3d 17 b3 d2 3d
       -0.022369875 -0.016355641 0.09183488 0.10288065
000170 8a 5e 4f 3c 57 be 0d bd dc a9 0d bb 1b a2 dc bd
       0.012656817 -0.03460535 -0.0021616137 -0.10773107
000180 6e e9 64 3d 18 16 1a bd 24 77 2d bd da 5a 33 bb
       0.05588668 -0.037618726 -0.04234995 -0.0027367384
000190 2b 66 4d 3d 63 aa 1e 3b 57 b0 fc 3c aa 21 bb 3b
       0.050146263 0.0024210445 0.030845804 0.0057108
0001a0 99 3f 35 be 05 05 b0 bd 87 eb 37 be f3 36 b0 bc
       -0.17700042 -0.085947074 -0.1796094 -0.021510577
0001b0 e5 cf cb bc 88 95 01 bd de 81 a8 3d 43 bd 44 3d
       -0.024879405 -0.031636745 0.08227895 0.048032057
0001c0 83 e8 26 3e 3b f4 d2 bd e3 44 08 be a4 8e 67 3d
       0.16299634 -0.103004895 -0.13307528 0.056532517
0001d0 a0 2a c5 bd 58 75 0d bd fc 18 fe 3c 73 5d c7 3a
       -0.09627271 -0.034535736 0.031017773 0.0015210345
0001e0 e9 2e bb 3c 9a 4e 29 3d 5d 9c 6c 3d c6 ad 93 3d
       0.022849517 0.041334726 0.057766307 0.07210879
0001f0 b2 55 80 bd c5 2b 8b 3d 8d 35 7b bd d3 84 ad bc
       -0.06266345 0.06795458 -0.061330367 -0.0211815
000200 46 06 61 bd 7a ee 48 3d ae 69 d7 bc 63 b9 21 bd
       -0.054937623 0.049055554 -0.02629551 -0.03948344
000210 2a 11 05 3d 23 71 d4 3c f3 0b 39 bd ba cf bd bc
       0.032487072 0.025932854 -0.04517741 -0.02317034
000220 a9 33 9e bc f1 f7 b6 3c 1c 14 e2 3d cc cd 04 3d
       -0.019311743 0.022335025 0.11038992 0.032422826
000230 b4 9e 36 3d f8 e1 ad 3d e7 29 fb bd 4c 18 9b bd
       0.044584945 0.08490366 -0.122638516 -0.07572994
000240 03 99 eb 3c b1 4d 1d 3d c9 89 bf 3b 22 ea d6 bc
       0.028759485 0.03840417 0.0058452827 -0.02623469
000250 42 e2 8e bb d9 c9 3e bd 42 be 0d bd f6 e1 81 bd
       -0.004360468 -0.046579216 -0.034605272 -0.06341927
000260 c7 c4 01 bd 8c 10 b0 3d 4b cb fb 3c ba a1 e0 3c
       -0.031681802 0.08596906 0.030736586 0.027420867
000270 4c 51 8b 3d f9 81 39 3b b1 d4 5f bd 86 89 c1 bd
       0.068026155 0.002830623 -0.054646198 -0.09450059
000280 29 2a ea bd 64 d6 cc bd 55 7e 51 bd 78 25 73 bd
       -0.11433823 -0.10001829 -0.05114587 -0.059361905
000290 bb d3 16 3d ca 17 59 bc 5c 51 01 3c 82 51 aa 3b
       0.036823016 -0.013250301 0.007892933 0.005197705
0002a0 07 74 85 3d e5 99 25 bd 78 9c 6d bd f8 a5 01 3e
       0.06516271 -0.04042997 -0.05801055 0.12660968
0002b0 95 9c d1 bd cd 42 5f 3d 8c 26 60 3d af bb f4 bc
       -0.10234944 0.054507066 0.05472426 -0.02987465
0002c0 83 17 39 bd 93 8b c9 3c 78 54 a3 3c 7e a5 46 3d
       -0.04518844 0.024602687 0.019937739 0.04849767
0002d0 f0 14 41 bd 68 5a 5d bc 4b 79 31 3c b4 16 00 3e
       -0.04713911 -0.013510324 0.010832141 0.1250866
0002e0 9f aa a8 bd 18 1f b7 bd e3 01 6e bd 2c 0c 49 bd
       -0.082356684 -0.089414775 -0.058107268 -0.049083874
0002f0 6f 40 2c bd 18 3e 31 3c 37 c7 68 3d d5 1a 79 3d
       -0.042053636 0.010818027 0.05683061 0.060816605
000300 8f 7d d8 3b d3 6b f5 bc e9 32 58 3b d4 cf c6 bd
       0.0066067646 -0.029958641 0.003298933 -0.09707609
000310 ed 9b 72 3d a8 48 13 bd f2 0a 0c bd 07 02 8d bc
       0.059230734 -0.035957962 -0.034190126 -0.01721288
000320 40 c7 55 3d 40 6f 97 3b be 87 02 3d fa ec ff bb
       0.052191973 0.0046214163 0.031867735 -0.007810232
000330 6c ac 21 be d3 17 95 bd 56 f3 4f be 7a 2b ad bc
       -0.1578843 -0.07279935 -0.20307669 -0.021138895
000340 e5 82 13 bd 7f 2c 04 bd fb f3 ab 3d 80 80 65 3d
       -0.036013503 -0.032268997 0.08396145 0.05603075
000350 e5 08 16 3e 0b dc f8 bd 1b 0b fc bd 49 aa 6c 3d
       0.1465183 -0.12151345 -0.12306806 0.057779584
000360 34 8e 8a bd ca c8 18 bd 3f f4 eb 3c 2c b9 98 39
       -0.06765404 -0.037300862 0.028802989 0.00029129663
000370 e9 64 b7 3c 54 c8 6a 3d cf a1 22 3d 0e 2e a8 3d
       0.022386985 0.057319954 0.039705094 0.08211909
000380 ca 79 84 bd 78 42 65 3d d2 63 7d bd 9b f1 e3 bc
       -0.06468542 0.055971593 -0.061862774 -0.027825167
000390 5a f7 53 bd f2 1b 71 3d 07 a9 3b bd 3e 38 0f bd
       -0.051749565 0.05886454 -0.045815494 -0.034965746
0003a0 c9 93 36 3d 8b cb c9 3c b0 81 1f bd 90 fa a5 bc
       0.044574533 0.02463319 -0.03894204 -0.02026108
0003b0 7e 14 91 bc 67 47 11 3d 15 0e 7b 3d b8 43 b2 3b
       -0.017709967 0.035468485 0.061292727 0.0054402016
0003c0 e6 b7 18 bd fb 37 eb 3d 09 f8 9b bd da 04 60 bd
       -0.037284754 0.11485287 -0.07615668 -0.054692127
0003d0 2c 1e 01 3d d8 05 29 3d 7e e0 8d 3b 57 7f 76 bc
       0.031522915 0.04126534 0.00432974 -0.015045009
0003e0 ce 8e ae bc a3 8b 0b bd 28 57 1c bd 1e 7c 7c bd
       -0.021308329 -0.034068715 -0.038169056 -0.061641805
0003f0 05 ab 41 bd 63 33 9a 3d b1 0c 16 3d 75 2b f2 3c
       -0.047282238 0.075293325 0.036633197 0.029561738

fc.bias f4 [13]
000000 6d 70 43 3d 73 16 5a 3d 78 73 64 3d cf 77 60 3d
       0.04771464 0.053244065 0.055774182 0.05480176
000010 3b 86 59 3d a1 9c 4f 3d 7f 0c 47 3d 36 16 41 3d
       0.053106528 0.050686482 0.0485959 0.047140323
000020 86 a0 3b 3d d2 a8 35 3d 15 19 32 3d 73 f6 2b 3d
       0.045807384 0.044350453 0.04348095 0.04198308
000030 f4 71 20 3d
       0.039171174
